new-reward-system/models/a2c1_critic.pth (torch, 136607 bytes, 3 tensors)

0.weight f4 [512, 64]
-0.14271338 0.037584864 -0.022627909 -0.030922752 -0.09014979 0.09473941 -0.0030563357 -0.0493326
0.015739553 -0.0492562 -0.112052105 0.0821213 -0.033512514 0.12602748 0.009441745 0.094224304
0.08614671 -0.103170305 0.1182862 0.04726741 -0.11213792 0.0536096 0.08810741 -0.06345185
0.08775849 -0.07045669 0.028432153 0.100821294 -0.0997098 0.11432651 -0.08761322 0.07802872
0.07869077 0.02922072 -0.092022106 -0.10542114 -0.04854132 0.045246866 -0.062174868 -0.011882136
0.02530066 0.0016266989 -0.00974499 -0.064007446 0.003769821 0.0724401 0.05309019 -0.10242491
0.11709448 -0.10702894 -0.117838085 -0.11156735 0.100079596 -0.05290705 -0.09933957 -0.13808697
-0.019300427 0.0023344597 0.08189146 0.09684437 0.025199987 0.06574752 -0.01986753 -0.120112434
0.060814485 0.12806939 -0.009184061 0.0318979 0.14458443 0.11251297 -0.055189043 0.009171795
-0.14061485 -0.076336525 -0.068393305 -0.041479964 -0.14349549 0.10560592 -0.042838506 0.0493885
-0.11498864 -0.030996868 -0.014769855 0.08995682 0.07094776 0.043260142 0.11709595 -0.08980098
0.115407445 0.089149855 0.14536045 -0.10172424 0.047182214 0.12716241 -0.05676608 -0.050299563
0.0018908756 -0.017299322 0.014067016 0.09616501 0.054827753 0.011727127 0.08409619 -0.08595389
-0.012838282 0.096666105 -0.18017752 -0.17829736 -0.11444657 -0.05645432 -0.06481427 -0.13201311
0.009253798 0.02735243 0.01996216 -0.028474808 -0.1263721 -0.030300772 -0.11737768 -0.14027911
0.024998398 -0.11034748 0.027160853 -0.15379812 0.03471472 0.02294509 0.11025403 -0.08978018
0.05077791 -0.013227741 0.015105868 0.0043137167 -0.08407996 0.11603796 -0.0010372661 0.08314705
-0.0012165479 -0.11362101 -0.048984762 0.07063857 -0.09910516 -0.047007978 -0.039808378 0.0663896
0.041195415 0.0818908 -0.010309104 -0.08227488 -0.0061774016 0.08897127 0.0992756 -0.080576845
-0.03420609 0.051016312 -0.04983349 -0.0015316531 -0.1304255 0.026520526 0.07013526 0.026229812
0.015015423 0.010854615 0.01657074 0.007036968 -0.12488511 -0.04836394 0.10139991 0.124780096
-0.09789222 -0.13118213 -0.040532187 0.127362 0.070516266 -0.12794109 0.031876117 0.06470282
-0.003571329 -0.07547927 0.08685107 -0.04077591 0.10106959 0.09055692 0.15060344 0.12729579
0.014008665 0.108231 0.07427267 0.06592022 -0.115178496 -0.019388298 0.12068224 0.14358449
0.027700687 0.09117902 -0.08856828 -0.05426663 -0.08839066 -0.046533328 0.09757232 0.11509012
0.0940715 0.039790537 -0.03217834 0.120756224 0.08603005 0.0932864 -0.106180094 -0.116566226
0.028902717 0.08217772 0.05190057 0.10394887 -0.04886947 0.07398129 -0.036169004 -0.06827039
-0.09055351 -0.09101958 0.08838061 -0.046796627 0.09077716 -0.051118534 0.095383815 -0.13122804
0.09661999 0.00016016731 -0.086801685 0.052176714 0.08786831 -0.08759569 0.024094326 0.11364931
0.059051234 0.02951434 -0.043700956 0.107975915 -0.04330516 -0.048136164 0.06177114 -0.0051553785
0.058868833 0.10013816 0.00874483 0.06622539 0.069182724 0.026564315 -0.044988025 0.015998043
-0.078062676 -0.120161675 0.032397952 -0.09742314 0.03453626 -0.05986565 -0.04675495 0.061317187
00000000: 7523 12be 96f2 193d 2a5e b9bc b651 fdbc
00000010: 74a0 b8bd bc06 c23d ce4c 48bb fb10 4abd
00000020: 3cf0 803c dfc0 49bd 937b e5bd 362f a83d
00000030: 6b44 09bd 590d 013e 8cb1 1a3c acf8 c03d
00000040: b06d b03d f44a d3bd 0940 f23d 799b 413d
00000050: 91a8 e5bd bd95 5b3d a871 b43d 0bf3 81bd
00000060: b9ba b33d 994b 90bd 8cea e83c 657b ce3d
00000070: a734 ccbd 0424 ea3d 8f6e b3bd 86cd 9f3d
00000080: a028 a13d 4b60 ef3c 1676 bcbd 0ae7 d7bd
00000090: 43d3 46bd c754 393d 13ab 7ebd 4aad 42bc
000000a0: 5443 cf3c f536 d53a 73a9 1fbc 5616 83bd
000000b0: 1a0f 773b 7a5b 943d 1975 593d 27c4 d1bd
000000c0: 3bcf ef3d fd31 dbbd 1855 f1bd 6c7d e4bd
000000d0: 88f6 cc3d 10b5 58bd 8b72 cbbd ac66 0dbe
000000e0: ee1b 9ebc bcfd 183b b6b6 a73d 5756 c63d
000000f0: 3470 ce3c a3a6 863d 3bc1 a2bc 82fd f5bd
00000100: 9c18 793d 9f24 033e be78 16bc 5fa7 023d
00000110: f10d 143e 336d e63d e80d 62bd 4c45 163c
00000120: 57fd 0fbe 5356 9cbd ca11 8cbd e5e6 29bd
00000130: 7bf0 12be eb47 d83d 6e77 2fbd 994b 4a3d
00000140: 2a7f ebbd 25ed fdbc 43fd 71bc 483b b83d
00000150: 0f4d 913d 8c31 313d 00d0 ef3d 94e9 b7bd
00000160: bd5a ec3d 3394 b63d 5fd9 143e cc54 d0bd
00000170: 2342 413d dd36 023e 8d83 68bd ea06 4ebd
00000180: 42d7 f73a 4fb7 8dbc 5779 663c 29f2 c43d
00000190: 1193 603d 2323 403c a03a ac3d 9808 b0bd
000001a0: a857 52bc e1f8 c53d 7580 38be 9593 36be
000001b0: f762 eabd a53c 67bd 58bd 84bd 722e 07be
000001c0: 3e9d 173c 3412 e03c af87 a33c 0044 e9bc
000001d0: b067 01be 5339 f8bc b663 f0bd 54a5 0fbe
000001e0: 71c9 cc3c dcfd e1bd 7080 de3c 417d 1dbe
000001f0: 0631 0e3d 57f7 bb3c ddcc e13d acde b7bd
00000200: 7ffc 4f3d 2bb9 58bc 9a7e 773c 145a 8d3b
00000210: 1d32 acbd 4fa5 ed3d e0f4 87ba 0049 aa3d
00000220: 9374 9fba 22b2 e8bd 3fa4 48bd f4aa 903d
00000230: a5f7 cabd 708b 40bd 1c0e 23bd 45f7 873d
00000240: 86bc 283d 5db6 a73d 84e7 28bc bb7f a8bd
00000250: cd6b cabb 9236 b63d 0151 cb3d 7905 a5bd
00000260: af1b 0cbd 7bf6 503d 341e 4cbd c0c1 c8ba
00000270: 438e 05be 9341 d93c 13a3 8f3d e7df d63c
00000280: 4003 763c 8ed7 313c 5cbf 873c 5e96 e63b
00000290: c4c3 ffbd 4419 46bd c2aa cf3d b58c ff3d
000002a0: b77b c8bd 9c54 06be 1405 26bd 2f6b 023e
000002b0: d56a 903d fd02 03be 8890 023d e982 843d
000002c0: f50c 6abb e094 9abd f9de b13d a404 27bd
000002d0: 93fd ce3d e875 b93d ca37 1a3e d459 023e
000002e0: 9a84 653c 37a8 dd3d 451c 983d 2e01 873d
000002f0: b4e2 ebbd 35d4 9ebc 4028 f73d d007 133e
00000300: 8dec e23c 11bc ba3d 4963 b5bd b046 5ebd
00000310: 2a06 b5bd bb99 3ebd ffd3 c73d 5eb4 eb3d
00000320: 8fa8 c03d 67fb 223d 6fcd 03bd 0a4f f73d
00000330: 8630 b03d f10c bf3d f374 d9bd 46ba eebd
00000340: 64c5 ec3c cb4c a83d b195 543d 25e3 d43d
00000350: 5a2b 48bd 8183 973d f325 14bd 59d1 8bbd
00000360: 1e74 b9bd 7968 babd e500 b53d d2ad 3fbd
00000370: 60e9 b93d ab61 51bd 9758 c33d a560 06be
00000380: b4e0 c53d 96f2 2739 15c5 b1bd 40b7 553d
00000390: 4df4 b33d 5e65 b3bd 7761 c53c f8c0 e83d
000003a0: b5df 713d 0fc8 f13c c6ff 32bd 7a22 dd3d
000003b0: c060 31bd 6d2a 45bd bc03 7d3d 73ee a8bb
000003c0: 7220 713d 3c15 cd3d 7a46 0f3c 2da1 873d
000003d0: acaf 8d3d 689d d93c 5d45 38bd 540e 833c
000003e0: 53df 9fbd 5317 f6bd b7b3 043d c985 c7bd
000003f0: e575 0d3d af35 75bd 1e82 3fbd bb27 7b3d

0.bias f4 [512]
-0.093855135 -0.02384802 0.13163736 0.051053517 0.053331595 -0.012831769 0.06036451 0.14342856
-0.10499613 -0.13614658 -0.091115646 0.08630389 0.12631968 -0.13634492 0.11463682 -0.10688923
0.04022498 -0.06882734 -0.03517119 -0.09278238 0.071523376 0.12718172 0.07374165 0.06313852
-0.066611715 0.065658934 -0.075079 -0.03153841 0.0908843 0.05916352 -0.10102259 -0.039343085
-0.09777792 -0.018341653 0.06493331 -0.052530866 -0.059543118 0.019383905 0.08699014 -0.13145164
-0.16066983 -0.060817882 -0.062261205 -0.089569435 -0.10524348 0.0034469988 -0.10971248 0.11586686
-0.04541453 0.16238755 -0.17067969 0.007064251 -0.106811374 0.025080692 -0.048759203 -0.061396297
-0.0015331268 0.0012903059 -0.11674862 0.06210712 0.16416018 -0.015300001 0.12435802 0.024225121
0.07402 -0.0069447327 -0.028920494 -0.11700639 0.035462577 -0.061523113 0.0002013529 -0.13699608
0.023784777 -0.072415516 -0.0850505 -0.039527852 -0.035883833 0.1494677 -0.095342696 0.07808477
0.037696853 -0.054251824 0.033123128 0.031637665 -0.067466 0.056248095 -0.015983518 -0.067953266
-0.025149146 0.062055 -0.04646488 0.042913973 -0.062276874 0.055191115 0.012511933 0.065499805
0.09805311 -0.12434795 0.1150337 -0.011810631 -0.008256458 -0.032201696 -0.13110958 -0.1632617
-0.06167037 0.0428625 -0.009144289 -0.2080415 -0.14558505 0.02240065 0.15864153 0.059617653
0.014724548 0.013903177 -0.04782426 0.045807555 0.06529185 -0.108899556 -0.09366389 -0.0808537
-0.024575297 0.05517251 -0.018269813 -0.0042840554 -0.07128991 -0.054040965 -0.08738142 -0.103801064
0.010186379 0.15739954 0.12525941 -0.14247788 0.005156767 0.09581244 -0.124513745 0.05488826
0.03414087 -0.042607218 0.055047534 0.083177194 -0.16110803 -0.005766696 -0.01902814 0.04157221
0.028090939 -0.070681535 0.00088619435 0.042729113 0.020593662 0.021725643 0.15062062 -0.082574815
0.06500955 0.16671051 0.030217597 0.0026942054 0.003425726 0.094812736 0.0804301 0.03411585
-0.10494873 0.041431542 -0.022361757 0.07209813 -0.08125681 0.0833922 -0.028188242 0.17018138
0.04458731 -0.025745116 -0.050753362 0.05981504 -0.14992057 0.062776975 -0.061588943 -0.05289303
-0.09778026 -0.07460487 -0.19696334 -0.020057335 0.02775754 -0.011077569 0.14123859 -0.0021986582
0.081274055 -0.00065282057 0.07026886 -0.024301205 -0.08482061 0.08254724 -0.10610377 -0.039850492
0.109540336 0.11501028 -0.03572989 -0.03167679 0.011966693 0.08496311 -0.03436783 0.115570895
-0.107236676 0.03538531 -0.0639254 -0.115443036 0.024795413 0.09381515 -0.06661135 0.074283585
0.09149744 0.04209551 0.1439133 -0.10805467 0.07551801 -0.01844258 -0.06929754 0.08265989
-0.021686075 -0.059347887 -0.01813482 0.12589009 0.14348507 -0.06521597 -0.021783374 0.07686939
-0.11756169 -0.075354055 0.010012004 0.17378011 -0.047074065 -0.10048318 -0.023197113 -0.104608074
0.0857502 -0.07551529 -0.17983325 -0.046291318 -0.028186968 0.12906525 -0.09603109 -0.13091333
0.02231129 0.11852862 0.07123354 -0.02801063 0.015479421 -0.034160916 -0.05728895 0.10455362
0.14192821 -0.03660675 -0.016285202 0.067730874 -0.056864608 -0.021140607 -0.00015422085 -0.034516256
00000000: 1f37 c0bd ec5c c3bc f2cb 063e 7e1d 513d
00000010: 3b72 5a3d 573c 52bc c740 773d f0de 123e
00000020: 3608 d7bd 026a 0bbe d79a babd 18c0 b03d
00000030: f259 013e 019e 0bbe b6c6 ea3d bee8 dabd
00000040: f3c2 243d 59f5 8cbd aa0f 10bd b004 bebd
00000050: d97a 923d ed3b 023e dd05 973d c54e 813d
00000060: b96b 88bd 3178 863d 05c3 99bd 6b2e 01bd
00000070: 8c21 ba3d 7255 723d efe4 cebd 3726 21bd
00000080: ca3f c8bd 3c41 96bc c1fb 843d 9b2a 57bd
00000090: 7ce3 73bd ffca 9e3c e327 b23d 429b 06be
000000a0: a286 24be 2c1c 79bd 9b05 7fbd 2e70 b7bd
000000b0: e589 d7bd 0be7 613b f0b0 e0bd 9b4b ed3d
000000c0: 9604 3abd ec48 263e a8c6 2ebe 3c7b e73b
000000d0: ecbf dabd 0676 cd3c bbb7 47bd af7a 7bbd
000000e0: 33f3 c8ba 7b1f a93a e719 efbd 0964 7e3d
000000f0: 9b19 283e dbac 7abc 6baf fe3d c373 c63c
00000100: cc97 973d a490 e3bb acea ecbc 0ca1 efbd
00000110: 3541 113d a9ff 7bbd 4222 5339 b348 0cbe
00000120: 4bd8 c23c 964e 94bd f52e aebd f5e7 21bd
00000130: edfa 12bd 100e 193e 0843 c3bd e8ea 9f3d
00000140: 0468 1a3d 2937 5ebd 1eac 073d 7f96 013d
00000150: 9d2b 8abd 6764 663d deef 82bc 152b 8bbd
00000160: 9505 cebc 622d 7e3d f551 3ebd 90c6 2f3d
00000170: 0916 7fbd 1410 623d dafe 4c3c c324 863d
00000180: 12d0 c83d 23aa febd ca96 eb3d 6081 41bc
00000190: 1846 07bc ede5 03bd 9741 06be 132e 27be
000001a0: 129a 7cbd 9790 2f3d eed1 15bc d508 55be
000001b0: 3f14 15be 9181 b73c ed72 223e a431 743d
000001c0: 3b3f 713c 27ca 633c 5fe3 43bd b4a0 3b3d
000001d0: bcb7 853d bb06 dfbd dbd2 bfbd a096 a5bd
000001e0: 2252 c9bc 92fc 613d 93aa 95bc 4361 8cbb
000001f0: 7200 92bd 0f5a 5dbd 08f5 b2bd a795 d4bd
00000200: c5e4 263c 582d 213e 0144 003e b9e5 11be
00000210: 19fa a83b 5039 c43d 1001 ffbd 83d2 603d
00000220: 4cd7 0b3d e884 2ebd 8679 613d ce58 aa3d
00000230: 81f9 24be 8df6 bcbb e7e0 9bbc 9f47 2a3d
00000240: f81e e63c 7bc1 90bd 7f4f 683a b904 2f3d
00000250: 0ab4 a83c faf9 b13c 4b3c 1a3e fc1c a9bd
00000260: ba23 853d 29b6 2a3e e58a f73c 4491 303b
00000270: 2582 603b 2e2d c23d 89b8 a43d 10bd 0b3d
00000280: 5cef d6bd 1fb4 293d 0130 b7bc 2fa8 933d
00000290: f869 a6bd 88c9 aa3d 07eb e6bc 0744 2e3e
000002a0: 2fa1 363d 6ce7 d2bc c2e2 4fbd 9e00 753d
000002b0: c784 19be 3791 803d b044 7cbd 5da6 58bd
000002c0: 0441 c8bd 70ca 98bd c2b0 49be 484f a4bc
000002d0: c863 e33c b17e 35bc d9a0 103e 5d17 10bb
000002e0: 0373 a63d 0c22 2bba 1fe9 8f3d 5213 c7bc
000002f0: 6eb6 adbd 870e a93d ef4c d9bd 453a 23bd
00000300: af56 e03d 828a eb3d 8159 12bd 86bf 01bd
00000310: f30f 443c 2401 ae3d 48c5 0cbd 6fb0 ec3d
00000320: e79e dbbd 30f0 103d 52eb 82bd 666d ecbd
00000330: c01f cb3c 2822 c03d 886b 88bd fe21 983d
00000340: 0363 bb3d 576c 2c3d 025e 133e c44b ddbd
00000350: 30a9 9a3d e514 97bc deeb 8dbd 9749 a93d
00000360: ffa6 b1bc c516 73bd 798f 94bc 55e9 003e
00000370: c0ed 123e f38f 85bd 0c73 b2bc b36d 9d3d
00000380: 2fc4 f0bd 3a53 9abd 6309 243c 6af3 313e
00000390: bcd0 40bd 20ca cdbd df07 bebc c23c d6bd
000003a0: cd9d af3d c3a7 9abd 3526 38be f79b 3dbd
000003b0: 5be8 e6bc ae29 043e f3ab c4bd 250e 06be
000003c0: 2bc6 b63c 22bf f23d e4e2 913d 8c76 e5bc
000003d0: 669d 7d3c 51ec 0bbd d1a7 6abd 3520 d63d
000003e0: a155 113e f6f0 15bd 8b68 85bc 7cb6 8a3d
000003f0: ddea 68bd 112f adbc 58b6 21b9 eb60 0dbd

2.weight f4 [1, 512]
-0.03378075 0.14131874 -0.028219262 0.016252981 0.05284586 0.004679266 -0.15023652 -0.06620041
0.04140992 0.024866056 -0.04629358 -0.12236189 -0.15923837 0.07819509 -0.074803434 0.037962474
-0.047147065 -0.0804538 -0.049855363 0.05438827 -0.08468819 -0.030513238 -0.08975956 0.058167037
-0.07273025 0.02650385 -0.11709855 0.11738121 -0.09652831 0.06906497 -0.034987036 0.0071571283
0.03277469 -0.06069671 -0.027188007 0.0934109 0.085318066 0.026010962 0.0118156215 0.0434243
0.022930974 -0.048230007 0.005742493 0.07256931 0.035350714 -0.115559176 0.14153962 -0.114345446
0.060369443 -0.14070481 0.043197706 0.041475747 0.108101465 0.2189445 0.061074402 0.06418842
-0.11037516 0.0051185205 -0.10112435 -0.20632654 -0.03609306 0.05845442 -0.028874332 -0.039423816
0.013127578 -0.010302885 -0.034588426 0.04797015 -0.09667313 0.021271551 0.284476 0.057534695
0.0838609 0.04113466 0.028609142 -0.006911208 -0.027865449 -0.062038973 0.070487425 0.030637255
-0.07474854 -0.040137004 0.05935131 0.04592111 0.043416947 0.07542838 -0.08477043 0.054521356
-0.06513046 -0.10753098 0.0639801 -0.0865276 0.023866804 -0.08975919 -0.014913651 0.043163
-0.020977134 0.07415353 -0.009312839 -0.08395382 0.0042236964 0.03161385 0.02802394 0.03460645
0.08127454 0.009669694 -0.05037097 0.092460655 0.09405629 -0.011038857 -0.086401455 0.031903714
0.024462717 -0.12295592 -0.01233289 -0.15802868 0.06734221 0.021834644 0.01750121 -0.03663877
0.10256209 -0.04082641 -0.044933133 0.10774708 0.106706 -0.0015587886 -0.08034075 0.06312922
-0.101804785 -0.023700649 -0.053103 0.15695624 -0.059207052 -0.10926944 0.1240661 -0.09375471
-0.073996276 -0.080790564 0.00437465 0.01766012 0.040950984 0.12383216 -0.06650699 -0.14927067
-0.07493753 -0.0514812 0.018187532 0.0122941695 0.09040118 0.09119433 -0.093040116 -0.05688972
-0.13099165 -0.15479949 0.17199278 -0.024168365 0.043039016 -0.041131105 -0.008403634 0.059848145
0.034010623 0.09526791 -0.079100356 -0.051930834 0.12539636 -0.064148314 -0.08123243 -0.13357487
0.07374929 -0.07401389 0.060742572 0.008266786 0.08224713 0.0078708455 0.08579086 0.17009039
-0.10010213 0.16576251 0.071797065 -0.095533654 -0.10303318 0.02655544 -0.09284899 -0.07616252
0.05295319 0.026032543 -0.046792425 -0.04668588 0.058432274 -0.116352096 -0.022760374 0.016719112
-0.1259939 -0.07525816 -0.13489018 0.060611747 0.07254411 0.038834073 -0.100360475 -0.08038156
-0.052075725 0.043527834 -0.08268261 -0.052266236 0.017750803 -0.06929002 0.03450676 -0.055427954
0.062071174 -0.027653653 -0.039553598 -0.056489747 0.024716316 0.03409591 0.010449704 0.040248085
0.018441299 -0.116343364 -0.0431232 -0.045655396 -0.11939959 0.07929814 0.027093045 0.020178186
0.053722672 0.028216397 0.068561174 -0.015674945 -0.100148775 0.10868394 -0.114808194 0.122756205
-0.059894357 0.03653035 0.07083861 0.035835933 -0.08445605 -0.051214375 0.1124417 0.049369857
0.13928784 -0.10522217 -0.01568335 0.059034906 0.024834003 0.039970595 -0.12966454 -0.0789754
-0.016823312 -0.12767445 -0.049734626 0.069605045 0.20222606 0.07175104 0.034576338 0.045532167
00000000: af5d 0abd dcb5 103e 152c e7bc f924 853c
00000010: e774 583d 8754 993b 9ad7 19be 1594 87bd
00000020: 739d 293d e6b3 cb3c 569e 3dbd df98 fabd
00000030: 620f 23be bf24 a03d 8b32 99bd 8a7e 1b3d
00000040: 481d 41bd f6c4 a4bd 2335 4cbd 3cc6 5e3d
00000050: 0071 adbd e6f6 f9bc dcd3 b7bd 8f40 6e3d
00000060: 99f3 94bd 9a1e d93c 5dd1 efbd 8f65 f03d
00000070: a2b0 c5bd ef71 8d3d 914e 0fbd 5886 ea3b
00000080: c13e 063d 1d9d 78bd 62b9 debc 374e bf3d
00000090: 3dbb ae3d f114 d53c 4f96 413c aedd 313d
000000a0: bdd9 bb3c d48c 45bd 862b bc3b 389f 943d
000000b0: e9cb 103d 4aaa ecbd c3ef 103e f22d eabd
000000c0: f345 773d ec14 10be 14f0 303d 79e2 293d
000000d0: 4d64 dd3d fd32 603e 2729 7a3d 3875 833d
000000e0: 5f0c e2bd 43b9 a73b 491a cfbd 4447 53be
000000f0: 51d6 13bd e76d 6f3d dd89 ecbc de7a 21bd
00000100: 0e15 573c 6fcd 28bc 98ac 0dbd 597c 443d
00000110: 90fc c5bd ad41 ae3c d7a6 913e 80a9 6b3d
00000120: 43bf ab3d d17c 283d b85d ea3c 6a77 e2bb
00000130: 1546 e4bc 941c 7ebd b65b 903d fbfa fa3c
00000140: c315 99bd b366 24bd 5c1a 733d c617 3c3d
00000150: f8d5 313d 327a 9a3d 1f9c adbd c951 5f3d
00000160: 1e63 85bd 3439 dcbd 0008 833d 6235 b1bd
00000170: 5184 c33c abd3 b7bd 6358 74bc b0cb 303d
00000180: 3dd8 abbc cedd 973d e194 18bc fbef abbd
00000190: ef66 8a3b 867d 013d 7692 e53c 7ebf 0d3d
000001a0: 4473 a63d a36d 1e3c ca51 4ebd 035c bd3d
000001b0: 96a0 c03d 52dc 34bc 3ff3 b0bd 78ad 023d
000001c0: 0966 c83c 50d0 fbbd e40f 4abc 45d2 21be
000001d0: b6ea 893d 91de b23c b35e 8f3c 8912 16bd
000001e0: 130c d23d 9839 27bd ce0b 38bd 80aa dc3d
000001f0: ad88 da3d 4450 ccba b189 a4bd e449 813d
00000200: 077f d0bd dd27 c2bc 8882 59bd 23b9 203e
00000210: 1883 72bd a8c8 dfbd 5e16 fe3d 7802 c0bd
00000220: 5c8b 97bd 8675 a5bd 3959 8f3b f5ab 903c
00000230: 38bc 273d b79b fd3d d134 88bd 69da 18be
00000240: d978 99bd f3dd 52bd 05fe 943c 7c6d 493c
00000250: 4124 b93d 18c4 ba3d d18b bebd 3205 69bd
00000260: ad22 06be c283 1ebe e01e 303e bcfc c5bc
00000270: ae49 303d 1779 28bd 65af 09bc 5423 753d
00000280: b94e 0b3d d21b c33d 5eff a1bd 6db5 54bd
00000290: e767 003e 3160 83bd 305d a6bd dac7 08be
000002a0: de09 973d 9894 97bd 34cd 783d 6a71 073c
000002b0: 2f71 a83d b8f4 003c 1eb3 af3d 2d2c 2e3e
000002c0: 5802 cdbd a6bd 293e 570a 933d 26a7 c3bd
000002d0: 0f03 d3bd cb8a d93c 9c27 bebd 18fb 9bbd
000002e0: 72e5 583d 3342 d53c 6aa9 3fbd b139 3fbd
000002f0: ae56 6f3d 024a eebd f773 babc 85f6 883c
00000300: 8b04 01be f320 9abd a720 0abe 0644 783d
00000310: 0292 943d 7a10 1f3d cb89 cdbd 169f a4bd
00000320: 5b4d 55bd 3e4a 323d 8055 a9bd 1f15 56bd
00000330: 226a 913c ede7 8dbd f656 0d3d 6c08 63bd
00000340: 583e 7e3d ea89 e2bc f402 22bd cb61 67bd
00000350: df79 ca3c 27a8 0b3d 3c35 2b3c 2ddb 243d
00000360: 3512 973c 6e45 eebd f4a1 30bd 2701 3bbd
00000370: c687 f4bd 1067 a23d 3cf2 dd3c b94c a53c
00000380: 4e0c 5c3d 1326 e73c cd69 8c3d be68 80bc
00000390: cd1a cdbd af95 de3d 8f20 ebbd 9b67 fb3d
000003a0: c953 75bd d9a0 153d d513 913d b3c8 123d
000003b0: 4bf7 acbd 2ac6 51bd d647 e63d 0c38 4a3d
000003c0: 79a1 0e3e b97e d7bd 5e7a 80bc 96ce 713d
000003d0: ae70 cb3c 35b8 233d c8c6 04be dbbd a1bd
000003e0: 0bd1 89bc 17bd 02be 89b6 4bbd 178d 8e3d
000003f0: 5914 4f3e 36f2 923d eb9f 0d3d f07f 3a3d
