results/env01/ppo/512-512-nodecay-1500/model.pth (torch, 532879 bytes, 7 tensors)

actor.0.weight f4 [512, 127]
000000 cb 2f ed bb 8b ec 0e 3d ac 5a 91 bb 97 b9 d6 bb
       -0.0072383634 0.034893554 -0.0044358578 -0.0065528858
000010 48 eb 85 bd 96 78 9e bc cd 12 01 bd b5 86 c4 3d
       -0.06539017 -0.01934461 -0.03151207 0.09596006
000020 1c 0e 74 bd c3 53 9c bd 20 fc 9c 3c 78 b1 52 bd
       -0.05958377 -0.07633164 0.019163191 -0.05143878
000030 40 60 fe bc fd e2 9f 3d 93 d5 7a 3d 5e 0b 90 3c
       -0.031051755 0.078069665 0.061238836 0.017583545
000040 b9 f1 b8 3c 73 08 83 bc 00 bd a4 bd dd de b2 3c
       0.0225762 -0.01599524 -0.080438614 0.021834785
000050 9b 6e 03 bd b5 a9 68 bd 4f 48 9e bd 39 d8 9a 3d
       -0.032087903 -0.05680247 -0.077286355 0.075607724
000060 16 ac 9b 3d b2 fe 60 bd 41 97 3d bd 8b f7 c8 3c
       0.07601182 -0.054930396 -0.046286825 0.0245321
000070 1f 1b a6 bd 35 28 c5 3c 43 52 1b 3d f8 bd ec 3d
       -0.08110642 0.024067024 0.037920248 0.11559671
000080 7a 21 00 3c e7 6b 87 bd af d2 1e bd a1 7a be bc
       0.007820481 -0.066123776 -0.038775142 -0.023251833
000090 a0 ac 59 bd 8d 83 a9 3d 4e 58 b7 3d 5b da 0d bd
       -0.053143144 0.082770444 0.0895239 -0.034632068
0000a0 fd f5 66 3d 90 5d 90 bc cd 52 a1 bd f0 cb d8 bc
       0.056386936 -0.01762274 -0.07877121 -0.026464432
0000b0 cd 4b ac bc 1b c7 18 bd a3 a5 23 bb 3a c3 c3 3d
       -0.021032238 -0.037299257 -0.0024970553 0.09558721
0000c0 dd f0 9a bc 2b bf 92 bd 21 aa 2f bb 6d d3 4d 3c
       -0.01891368 -0.07165369 -0.0026804286 0.012562615
0000d0 46 dd 86 bc 10 ca fe bc a3 4c 48 bb b2 35 10 3d
       -0.016462933 -0.03110221 -0.0030563257 0.035207458
0000e0 62 dd 86 bc 9f fe ee 3c 71 db 6c bd 63 7a 17 3d
       -0.016462985 0.029174147 -0.057826463 0.03698195
0000f0 af 93 a9 3d 12 36 2f bd 50 ac 47 3c 63 e7 a4 3d
       0.082801215 -0.042776175 0.012187079 0.08051946
000100 7b 78 5d 3d 7a b5 c5 bc 4b e3 2c 3d 84 6e 0c 3d
       0.054069977 -0.024134386 0.04220895 0.034285083
000110 a1 a4 67 bd a8 5e 84 3d e9 12 8f bc d7 37 23 3c
       -0.056553487 0.06463367 -0.017465072 0.009962044
000120 d3 21 b7 3d 14 e5 4e bd 63 c0 68 bd e6 8d 27 3d
       0.08941998 -0.050511435 -0.0568241 0.04090681
000130 9c 4f a3 bc 8e 94 1a 3c 5d 3c f6 39 bc 87 e2 3d
       -0.019935422 0.009434832 0.0004696575 0.110610455
000140 70 97 94 bd 2f 52 6b bd b6 10 85 bd 0f 6d d8 bd
       -0.07255447 -0.057451423 -0.06497328 -0.10567676
000150 ac a5 8e 3d 39 fb 33 3d 76 d3 ae bc d3 0d 08 bd
       0.06965193 0.043940756 -0.021341067 -0.03321631
000160 86 76 cf 3d 81 c0 89 3d 19 b0 21 3d 8f c0 09 be
       0.101300284 0.0672617 0.03947458 -0.13452362
000170 c3 b4 83 bc 00 af d6 bc c5 ae 0e 3b 85 46 2f 3d
       -0.016077405 -0.026206493 0.0021771651 0.042791862
000180 9d 50 fd bc f4 13 d4 bb f7 ba e8 bc a9 c2 37 bd
       -0.030922228 -0.006472105 -0.028409464 -0.044863377
000190 d1 b1 84 3d 2a 0a 44 3d a4 13 d1 3c 0f 0d 79 3d
       0.06479228 0.047861256 0.02552206 0.06080347
0001a0 03 55 48 bd 95 3e 8e bd c2 4d 94 bd 65 13 17 3d
       -0.0489092 -0.0694553 -0.072413936 0.03688373
0001b0 9e 53 3c bd f3 19 9b 3b b4 fa 92 bd 3d 4c a0 bc
       -0.04597818 0.004733318 -0.07176724 -0.019567603
0001c0 a6 8f 74 3c f2 cc 09 3d 6a 35 a2 3c 18 5c 94 bd
       0.014926827 0.033642717 0.01980086 -0.07244128
0001d0 b5 95 87 3d 2b 93 49 3d b2 be c1 3c bb 1d a3 3d
       0.06620351 0.049212616 0.0236505 0.07964655
0001e0 5b 11 6e 3d eb 68 76 bd 15 b9 5c ba 4e 75 a3 bd
       0.05812202 -0.06015865 -0.00084199134 -0.079813585
0001f0 3c e0 06 bd 28 11 a5 bd b9 d6 89 bd e9 4c 89 3d
       -0.03292869 -0.08059913 -0.06730408 0.067041226
000200 c3 17 a7 bd a5 e5 16 3e 06 40 da 3c 4a 03 01 3e
       -0.08158829 0.1473604 0.026641857 0.12598911
000210 61 36 3d 3d 9a bb da 3c a1 c6 a1 bd 9b 50 83 3c
       0.046194438 0.026700784 -0.078992136 0.016029647
000220 82 9b 72 bc 09 2c 5f bc 46 f2 7c bd 24 e9 c1 3c
       -0.014807584 -0.013621339 -0.061754487 0.02367074
000230 67 26 86 3b b6 76 c4 bc 82 2c af 3d d9 66 41 bd
       0.0040939334 -0.023982387 0.08553411 -0.047217224
000240 9b b9 ec bc 08 d4 ce bc 43 60 12 3c 5e a1 5d bd
       -0.028897097 -0.025247589 0.008934083 -0.05410897
000250 ac ad 43 3d 71 73 35 3d a6 6d a7 3d 33 12 63 bc
       0.04777305 0.044299547 0.08175211 -0.0138593195
000260 53 d9 01 bd 0d 42 07 3c 40 59 b0 3d e6 36 70 bd
       -0.031701397 0.008255494 0.08610773 -0.058646105
000270 7e e1 aa 3d dc bd 8e 3d 26 c2 af 3d 08 da ae 3d
       0.083437905 0.069698066 0.08581953 0.0853768
000280 86 52 87 3c 34 88 20 3d a6 a4 a3 ba 3d 63 dc 3b
       0.016518842 0.039192393 -0.0012484982 0.0067256973
000290 56 8c c6 bd 93 ce 05 3b 6f 70 10 bd e2 f4 33 bd
       -0.09694736 0.0020417317 -0.035263475 -0.04393471
0002a0 68 26 51 bd cd b1 45 bd 30 d3 d5 3d 6e 71 6a bd
       -0.051062018 -0.048265267 0.104406714 -0.05723708
0002b0 fe 72 be 3a 2b fa ef 39 ba 53 d4 3d 79 ab 9a bd
       0.001453012 0.00045772022 0.10367532 -0.07552237
0002c0 59 ec a9 bc 2a 43 9b 3b 63 46 82 3c ef 5a d6 bd
       -0.020742582 0.004738231 0.015902704 -0.10466563
0002d0 e9 53 83 bc 11 57 5b bd af b2 b3 3d 03 c7 9b bd
       -0.016031222 -0.05354983 0.087743156 -0.07606318
0002e0 55 28 15 bc ac 07 98 bd 03 12 ca 3d 6c 9c 49 3c
       -0.009103854 -0.07423338 0.09866717 0.01230536
0002f0 fe 93 27 3d 08 90 fe bc 78 b3 ed 3d ef 63 30 bb
       0.04091262 -0.031074539 0.116064966 -0.0026915034
000300 bc a5 00 bc d3 d3 50 3d 2b 0c 2f bd ce e6 5d 3d
       -0.007852014 0.05098326 -0.042736214 0.05417519
000310 31 81 91 3c d8 18 ac 3d 1e 4c b4 bd 98 df a4 3c
       0.017761799 0.08403176 -0.08803581 0.020126149
000320 ef 3c db 3b 3d ff 12 bc 4a 5e b8 bd ea c1 ca 3d
       0.0066906135 -0.008971986 -0.09002359 0.099002674
000330 52 1d c4 bd 40 99 4b 3d f3 82 c8 bb a0 26 6f bc
       -0.09575905 0.049706697 -0.006119126 -0.014596611
000340 15 fe 6b 3b 00 a8 4d 3c 4c 83 27 be 05 d5 92 3d
       0.00360096 0.012552261 -0.1635868 0.071695365
000350 0a f6 69 3d 2a 68 1a bc 2e c5 94 bd 1c 68 9b 3d
       0.057119407 -0.009424249 -0.072641715 0.07588217
000360 eb 05 b8 bc 87 70 95 3d f1 2c 09 bd 7b f5 7b 3d
       -0.02246376 0.072968535 -0.033490125 0.061513405
000370 89 90 49 3d d7 22 03 bd 67 cf 6b bd c6 ef 89 3d
       0.049210105 -0.032015648 -0.05757084 0.06735186
000380 e7 5a 74 bd ea 4d c5 3c cf ed 06 bc 79 d3 e7 3b
       -0.059657004 0.024085004 -0.008235409 0.00707477
000390 8a 33 d4 bc 0a 54 a5 bc 66 50 6e 3d 24 5c d4 3d
       -0.025903482 -0.020181675 0.058182143 0.10369137
0003a0 1f 02 bd bd b1 96 a6 3d e6 f0 25 3d 37 45 ad 3d
       -0.0922892 0.08134211 0.04051294 0.08460467
0003b0 06 f2 87 3d 7e 76 81 3c 6c 89 27 bd 57 99 06 3e
       0.06637959 0.015803572 -0.04090254 0.13144432
0003c0 9e 14 ee bc 02 e6 d2 3c 4c 2f 3f 3d f9 ff 2b bc
       -0.029062565 0.025744442 0.046675965 -0.01049804
0003d0 d9 89 2f bd be 43 60 3d ee ce 0b 3d b7 2e b2 3c
       -0.04285607 0.054752104 0.03413289 0.021750791
0003e0 2e 92 4c bd c7 b1 3b bd 66 ff 42 3d 1a 41 3e bc
       -0.049944095 -0.04582384 0.04760685 -0.011612201
0003f0 ad d7 0c 3d 8c 5b 7c bc aa 36 92 bd 08 95 92 bc
       0.034385372 -0.015402686 -0.071393326 -0.01789333

actor.0.bias f4 [512]
000000 5e 2d 78 bd f4 ba 51 bd 46 be 3c bd 33 fb 0b bd
       -0.06059014 -0.051203683 -0.046079896 -0.03417511
000010 e7 f0 61 bd a6 4e 51 bd a3 5c 04 bd c7 bd 80 3c
       -0.055161383 -0.051100396 -0.032314908 0.015715493
000020 33 db 29 bc 26 01 26 3d cc 2c ca bb 0e 74 2e bd
       -0.010367203 0.04052844 -0.006169891 -0.042591147
000030 c7 8d d2 3d 0f 81 95 bd 5e 5b 8a bd 5d 24 a7 3c
       0.10280948 -0.073000066 -0.06755708 0.020403082
000040 f6 84 5e 3d da 3d 63 3b ab 20 20 3d c4 bd 5a 3d
       0.05432602 0.0034674318 0.039093655 0.05340363
000050 ea c6 ca 3c 4d 4d 83 3d c3 54 a7 3c d9 e1 65 3d
       0.024753053 0.06411228 0.02042616 0.05612359
000060 40 b0 5d bd 5a 7c 66 bc 6d c1 54 3d 82 04 45 3d
       -0.054123163 -0.014067734 0.051942278 0.048100002
000070 bc 86 33 bd 03 0c 0f bd 66 94 24 bd 4b 76 87 3d
       -0.043829665 -0.034923565 -0.040180586 0.066143595
000080 4f ca 8a bc 25 52 f1 3c 10 df b0 bd 49 e5 7b bc
       -0.016942171 0.029458115 -0.08636296 -0.01537449
000090 28 5b 23 bd 65 85 9c bc 1e 18 55 bd 2e 91 35 3c
       -0.039881855 -0.019106576 -0.052024953 0.011081977
0000a0 3b 11 f1 bc 19 d5 21 bc 60 74 51 bd c1 94 74 3d
       -0.029427161 -0.009877467 -0.051136374 0.059712175
0000b0 6d 2d d4 bc d1 1e 4f 3d 32 2f ad bc 40 03 25 bd
       -0.025900567 0.0505665 -0.021140669 -0.040286303
0000c0 97 ed c2 bd a8 9a c4 bc b7 2f 8a bd 9d e8 81 3d
       -0.09517973 -0.023999527 -0.06747382 0.063431956
0000d0 c2 54 77 3d b5 1e 30 3b 3f 41 3d 3c e7 5f 4b bd
       0.060383566 0.0026873772 0.0115512 -0.049652006
0000e0 80 90 44 3c 8a 73 b2 3d 59 8d 40 bd 91 16 10 bb
       0.011997342 0.087134436 -0.0470098 -0.0021986107
0000f0 bd 13 85 bd 98 2e 2b 3c 81 b3 73 bd 40 46 dd 3c
       -0.064979054 0.010448121 -0.05949736 0.027011037
000100 95 2e 74 3d cf 0c 3f bd 2d 5f a5 3d 46 0d 83 3d
       0.059614737 -0.046643075 0.08074794 0.06399016
000110 d4 de 50 3d 03 ff 8c bd 0b 15 08 bd 30 d5 72 3d
       0.050993755 -0.06884577 -0.033223193 0.059285343
000120 c9 3a 7c bb 74 fd 84 3d e3 7d 38 3d 4a ab b3 bb
       -0.0038487187 0.06493655 0.04504193 -0.0054830657
000130 79 41 fc 3c 6b 35 9b bd ff 49 01 bc ad 3d 2f 3d
       0.030792939 -0.07578548 -0.007891177 0.042783428
000140 f1 0e 93 3d ce ec 7e bd 43 2f 88 bd e9 79 3d 3d
       0.07180584 -0.062237553 -0.066496395 0.04625884
000150 eb 1c 33 bd e9 26 a4 bd ba 71 ec bc 81 c6 8d 3d
       -0.04372875 -0.08015234 -0.028862823 0.06922627
000160 f7 2b b9 bd 4c 8b 90 3d 93 69 b6 3c cb 4d 06 3d
       -0.09041589 0.07057819 0.022267139 0.032789033
000170 e0 33 47 bd 87 a0 60 bc 4f bb 3d 3d 22 4a 14 3d
       -0.048633456 -0.013710148 0.04632121 0.03620351
000180 c2 5b 70 bd ca 0f bb 3c a5 00 33 3d 6b ca 6e 3d
       -0.058681257 0.022834677 0.043701787 0.05829851
000190 9f d9 73 bd 82 7f a2 bc c5 e0 47 bd 40 08 12 bd
       -0.05953371 -0.019836191 -0.04879834 -0.0356524
0001a0 a3 0d ad bd b9 cf 88 bc ed 0a 66 3d 5e 42 50 3d
       -0.084498666 -0.016700612 0.056162763 0.050844543
0001b0 f8 13 73 bd 2f d7 cb 3d c1 12 a5 3d 4d fa e2 bd
       -0.059345216 0.099531524 0.08060218 -0.11082897
0001c0 bd d4 77 bd 1b ac 09 bd 91 84 5d 3d d5 ae 6b 3d
       -0.060505617 -0.0336114 0.054081503 0.05753978
0001d0 77 80 96 3d 99 52 2e 3d 1c 4c 9f 3d e1 fc be bc
       0.073487215 0.04255924 0.077781886 -0.023313941
0001e0 b4 cb 1e 3d 27 39 e2 bb 8d a1 93 3d db e5 98 bd
       0.038768485 -0.0069037857 0.07208548 -0.074657165
0001f0 c6 bd 06 3d d3 c9 1a bd 8f a0 a1 3d 16 67 80 3d
       0.032895826 -0.03779013 0.07891952 0.06269662
000200 29 88 a1 3d c8 88 c6 3c 4d f8 86 3d 76 13 02 bd
       0.078872986 0.024235144 0.06590328 -0.03175684
000210 ca cb 0c 3d 38 87 57 3d d1 1f 31 3d 4d 72 a4 3c
       0.034374036 0.05261919 0.043243233 0.020074034
000220 a3 cd 44 bd 2e 66 3f bd 9a 80 60 3d 84 8a 6c 3d
       -0.048047673 -0.046728306 0.054810144 0.057749286
000230 17 f3 73 bd 3b ec 39 3d 7c 59 7d bb 95 a5 82 bd
       -0.059558 0.045391303 -0.0038658073 -0.063792385
000240 54 ef 62 bd 0a 30 28 bd 02 0e 2c bd c8 6b a0 3d
       -0.055404022 -0.04106144 -0.042005546 0.07833058
000250 5c 75 f3 3c 2b 63 6e bd 98 a3 a4 3d dc 87 99 3d
       0.029719047 -0.058200043 0.080390155 0.07496616
000260 38 10 58 3d 11 0d 79 bc 0d 09 42 bd 19 59 96 3d
       0.052749842 -0.015200869 -0.047371913 0.07341213
000270 1f 13 88 bc 6f ad 4e bd b9 19 a2 3d a2 ed 79 bd
       -0.01661068 -0.050458368 0.079150625 -0.06101764
000280 10 c3 d4 bd bf 91 84 bd 4b bf af bd 0a a2 48 3d
       -0.10388768 -0.06473111 -0.08581408 0.048982657
000290 26 90 80 3d c4 2a 75 bb d9 d1 a8 bd 27 87 8a bc
       0.06277494 -0.0037409524 -0.0824315 -0.016910149
0002a0 28 d6 b2 3d 5c 6d f3 bc c4 ee 8e bd 8a 81 ba 3d
       0.08732253 -0.029715233 -0.06979135 0.09106739
0002b0 d0 7c 9f bd 68 16 06 3d a1 6d a3 bd f5 58 aa 3b
       -0.07787478 0.032736212 -0.079798944 0.005198593
0002c0 b6 fc 89 bc 53 f8 a5 bd 48 8d 9a bc 90 62 3a 3c
       -0.016844135 -0.08104005 -0.018866196 0.011376038
0002d0 ce 4c 90 3d 61 89 85 3d 2b 19 3f bd 00 80 4f bd
       0.07045899 0.065203436 -0.04665486 -0.05065918
0002e0 08 eb 13 bd c5 14 51 bc 5d 89 41 3c 0e 22 be bd
       -0.036112815 -0.0127612995 0.011812535 -0.09283839
0002f0 46 ae b1 ba 89 1f 99 3c 7a be 6e 3d 08 8e bd 3c
       -0.0013555966 0.018691795 0.05828712 0.023139015
000300 59 74 aa 3c 2f d1 62 3d 59 13 4c bd 01 55 ac 3d
       0.020807432 0.055375274 -0.04982314 0.08414651
000310 13 54 d2 bd cc c7 c5 bc e2 a6 3f 3d 2a 43 18 bb
       -0.10269942 -0.024143122 0.04679001 -0.0023233392
000320 90 9b 7c bc 4e db 42 3d 28 e5 1c 3c 69 b7 d5 3b
       -0.015417948 0.047572426 0.0095761195 0.0065221083
000330 1a cb 74 bd 18 42 d2 bd 97 5d 18 bb 5b 64 93 bd
       -0.059764005 -0.10266513 -0.0023249143 -0.07196876
000340 5e 86 71 bd 92 39 a2 bd 9c 3e 41 3d fe 59 a0 bd
       -0.058966033 -0.07921137 0.04717885 -0.07829665
000350 87 ff 7b bd ab 49 88 bd 12 e2 21 3c b0 2c 8c bd
       -0.061522987 -0.06654676 0.0098805595 -0.06844461
000360 56 95 4c bd 9d 2e 2f bd 5c 3d 5d 3c 50 b0 b6 bd
       -0.049947105 -0.042769063 0.013503399 -0.08920348
000370 7d 58 96 bd bd 20 a0 3d 44 86 c9 3d 6e ab 8d 3d
       -0.073410966 0.07818744 0.09840062 0.06917463
000380 54 99 3f 3c 73 81 d5 bd f9 07 e4 3b 65 b2 3a bd
       0.011694271 -0.10425081 0.006958958 -0.045580287
000390 9b 7b a0 3c 24 e6 b8 3d 94 5f a0 3c 9c 33 5f bd
       0.01959019 0.09028271 0.019576825 -0.054492578
0003a0 da 56 6d bd 74 74 0e bd 80 c0 22 3d 1d 63 e6 b9
       -0.057944156 -0.034779027 0.039734364 -0.00043942864
0003b0 6d b7 9d 3d b4 15 34 bd 7a 4a d1 bd e6 b7 a6 bd
       0.07701001 -0.04396601 -0.102192834 -0.081405446
0003c0 ef a6 9a 3d 00 81 50 bd c6 4e b2 bc f3 c0 b4 3c
       0.07551371 -0.050904274 -0.021766078 0.022064662
0003d0 e8 41 43 bd fa b8 86 3d 49 c1 ca 3c 01 f7 4f 3c
       -0.047670275 0.0657825 0.024750369 0.012693168
0003e0 5b 95 9f 3d fe 7c 8a 3d bc 16 a0 bc 90 bd 69 bd
       0.07792159 0.067621216 -0.01954209 -0.057065547
0003f0 39 d2 9f bc 6a f1 09 3d 7b 21 99 3d c1 f9 04 ba
       -0.019509422 0.033677496 0.07477089 -0.00050726166

actor.2.weight f4 [2, 512]
000000 92 2c 08 3d d2 37 b1 3d ec 03 a4 bc ad 31 37 3d
       0.03324563 0.08653225 -0.020021401 0.04472511
000010 0c 47 1a bd b8 75 77 3d bc 76 3e bd ac e6 4e 3d
       -0.03766541 0.060415 -0.046499953 0.050512955
000020 9e 4d b1 bc ec 8f 85 bd a1 25 07 bd cd 2a b0 bc
       -0.021643456 -0.065215915 -0.03299487 -0.021504784
000030 3d 77 bd bd ab 28 59 3d 83 9b 51 bb 73 7d 6d 3c
       -0.092512585 0.0530173 -0.0031983561 0.014495241
000040 1d f0 83 bd 4d a9 ea bb 0f d9 5e 3d d4 f0 2d 3c
       -0.06442282 -0.0071612955 0.054406222 0.0106165
000050 d8 a9 d6 3b d9 20 a6 bc 8c 09 96 3c fd cf 67 bd
       0.0065510087 -0.020279335 0.0183151 -0.056594837
000060 2b cc 0d bd 69 8f ef 3a 9a 5a 7a bd 23 ba b0 bc
       -0.034618538 0.0018276992 -0.06112156 -0.021573132
000070 d2 0c 85 bd 9e ed 96 bd d1 c7 04 bd 9d 1d 0a 3d
       -0.06496586 -0.07369541 -0.032417122 0.033719648
000080 17 78 4f 3d 55 03 7f bd f4 6c 5c 3d 30 ba 23 3d
       0.050651636 -0.062259037 0.053814843 0.039972484
000090 4a 00 f1 bc eb 9e 75 3b 04 ca 82 ba d4 02 51 bd
       -0.029419083 0.0037478756 -0.0009978418 -0.051028088
0000a0 9d c4 93 3d a5 41 c0 bc 3d 8b a2 3d c5 eb 4a bd
       0.072152354 -0.023468802 0.07936714 -0.049541254
0000b0 ce 03 7a b9 5e 7a d2 bc 23 41 1a 3d 5a f0 5b 3c
       -0.00023843275 -0.025693115 0.037659775 0.0134240035
0000c0 09 39 45 bd 43 2a 9b bc 34 e8 17 3d 5d af e0 bc
       -0.048150096 -0.01894105 0.03708668 -0.02742737
0000d0 6a 5b a8 bc 08 fd 5d bc bb de 44 3d a4 fd 35 3d
       -0.020551402 -0.013549097 0.048063975 0.044431344
0000e0 59 95 ea bc b6 9b 82 3d d9 f6 fb bc f0 9c b0 bb
       -0.028635668 0.06377356 -0.030757355 -0.005389802
0000f0 63 ec 90 bc cf 23 68 bd 0f f4 fa 3c 48 9f fa bc
       -0.017690843 -0.056674775 0.030633954 -0.03059353
000100 b2 3b 10 3d 05 b9 88 bd 13 16 d2 3c 0b 24 89 bb
       0.03521318 -0.06675915 0.025645291 -0.004185205
000110 79 a6 aa bd 8c 89 ba 3d 00 33 5f 3d 4b 50 ab 3b
       -0.083325334 0.09108266 0.054491997 0.0052280775
000120 95 9b 82 bd 37 fb f1 3c 55 c2 b6 bc cc eb 3c bc
       -0.06377331 0.029538734 -0.022309462 -0.011530828
000130 e5 c6 12 3c 55 ad 5e 3d 1b ee 64 bd 0f ac 7d 3d
       0.008958553 0.05436452 -0.055891138 0.061931666
000140 74 67 86 3c a8 96 ce bc aa b9 38 3d 35 d7 a0 3c
       0.016406752 -0.025218323 0.045098938 0.019633869
000150 12 58 9f bb 32 cb bb bb 05 26 87 bb 7e 4e 64 3d
       -0.0048627937 -0.00573101 -0.0041244053 0.05573892
000160 46 61 67 bb f2 62 2c bc 3d a3 67 3d db eb fd bc
       -0.0035305782 -0.010521637 0.05655216 -0.030996254
000170 a9 dd f5 3c 06 d1 14 3d 9b 60 55 bc c6 fc 94 3d
       0.030012922 0.036332153 -0.013023521 0.07274775
000180 87 33 ad 3c ea cb f3 3c 5c 34 de bc 76 04 a2 3c
       0.021142734 0.02976032 -0.027124576 0.019777518
000190 30 69 b7 bc 83 b9 20 bc 0b e9 c6 3c 29 b3 42 3d
       -0.022389024 -0.009809854 0.024281045 0.04753414
0001a0 e6 0a 1b bc 62 4c 9a bc 27 cd 02 bc 58 f4 53 bc
       -0.009463048 -0.01883525 -0.007983482 -0.012936674
0001b0 88 24 36 bc 39 28 06 3d a0 43 c6 bd 1c 32 16 bc
       -0.011117108 0.032753203 -0.09680867 -0.00916722
0001c0 ab 0e fd bc 54 aa a5 3a f2 9f 63 bd d2 c8 b1 3c
       -0.030890783 0.0012639263 -0.055572458 0.021702204
0001d0 b1 1d 3d 3d d2 f1 95 3c c0 a4 bd bd 2e cd a8 3d
       0.046170894 0.018303785 -0.09259939 0.0824226
0001e0 d6 4e 46 bb c5 18 11 bd f5 13 2e 3c b4 0c 78 bd
       -0.0030259392 -0.035424013 0.010624875 -0.06055899
0001f0 2f f8 99 3d 96 89 a4 bd 1e 4c 22 3d 86 20 8b bc
       0.075180404 -0.08034055 0.039623372 -0.016983282
000200 15 24 d8 bc 1a 29 16 3d e3 e4 45 bc 6c fa 0b 3c
       -0.026384393 0.03666029 -0.012078497 0.008543592
000210 68 77 4c 3d eb 53 74 bd fc 36 04 3d e4 60 c5 bc
       0.049918562 -0.059650343 0.032279 -0.024094053
000220 0f 62 29 bd 7f 31 ae bc 0e b8 41 3c 29 ca 05 bc
       -0.04135328 -0.021263836 0.011823667 -0.0081658745
000230 f9 d4 91 bd 9a 26 26 bd f0 53 46 3d 57 db 17 bc
       -0.071206994 -0.040564157 0.048419893 -0.009268603
000240 09 a1 60 bd e6 bc 0d 3a b2 c6 76 bc c9 e2 82 bd
       -0.054841075 0.0005406871 -0.015062021 -0.06390912
000250 b8 63 8a bb f3 fc de bc c5 fd 3b 3c d1 91 35 3d
       -0.004223313 -0.027220225 0.011474078 0.044328514
000260 3a de 6f bc ca 45 65 3d c5 6c d7 bc 9b 0c 1e 3d
       -0.014640385 0.05597476 -0.026296983 0.03858624
000270 2e dc b3 bc e0 3b 83 bd ab b2 e5 3c f2 bc 65 bc
       -0.021955576 -0.064079046 0.028039297 -0.014022099
000280 ba ab 17 3c c8 8d a9 3c c0 5e 44 bd 9c af 1d bd
       0.009257251 0.02069749 -0.047941923 -0.038497552
000290 63 a5 d0 3c df 8b 9e bb 30 64 83 bd 5c f3 5b 3d
       0.025469488 -0.0048384513 -0.064155936 0.053698882
0002a0 ec 48 3d bd f3 aa 55 bc 08 cc 85 3c 7e d8 6e 3d
       -0.04621212 -0.013041246 0.016332641 0.05831193
0002b0 36 07 10 3c 9f 0e 16 3d c8 9e 09 3d a1 26 58 3d
       0.008790782 0.036635038 0.03359869 0.052771214
0002c0 66 21 95 3d 32 34 88 bd f3 7a 4a bc a2 ad 14 bd
       0.07281761 -0.066505805 -0.012358415 -0.0362984
0002d0 df 64 e5 3c 18 6b 38 bc 07 1d 77 3d f5 72 bb 3c
       0.0280022 -0.011256002 0.060330417 0.022881964
0002e0 9f 98 9b bd bc ff ec bc 28 0f 1a 3d 24 31 86 3c
       -0.075974695 -0.028930537 0.03761211 0.016380854
0002f0 5b 51 9b ba 6a 7f 25 bd f6 19 e3 bc 55 91 8a 3d
       -0.0011849807 -0.040404715 -0.02772234 0.06766001
000300 a5 3b 00 bd 68 29 80 3d d3 a8 8c bd 94 18 27 bd
       -0.03130688 0.062578976 -0.06868138 -0.040794924
000310 f1 f0 2b bd 27 78 ce bc 74 dd 17 bd 19 1f 17 bd
       -0.041977827 -0.025203777 -0.03707643 -0.03689489
000320 9c 5c 45 3c b1 2f d1 3c a0 83 64 3d 93 1a 9c bc
       0.012046006 0.025535436 0.05578959 -0.01905564
000330 4f f8 5f 3b 27 e4 27 bd 02 83 d8 3c af 3f 56 3d
       0.0034175103 -0.040989067 0.026429657 0.052306827
000340 58 0f 97 3c 6e 67 08 bc 87 71 10 ba 3a 20 01 bd
       0.018439934 -0.008325441 -0.0005510081 -0.031524874
000350 ac 81 62 3d 8b 55 d8 bc dc 22 44 3d fa 12 99 3d
       0.055299446 -0.026407978 0.047884807 0.074743226
000360 7a f8 2c bd 5f 4a f4 bc ee 08 66 bd 2a e7 bd 3c
       -0.042229153 -0.02982062 -0.05616086 0.023181517
000370 57 10 b3 3d 4e 77 e2 3c 30 0e 28 bc 06 b2 01 bd
       0.08743351 0.02764478 -0.010257289 -0.031663917
000380 d3 52 1e bd 52 6a d1 bc 00 63 ad 3b 48 93 84 bd
       -0.038653206 -0.025563393 0.0052913427 -0.06473404
000390 bf 49 07 3a e0 f1 52 bd 9f 91 59 3d 59 e9 02 bd
       0.00051608303 -0.0515002 0.05311739 -0.03196082
0003a0 95 5b bb 3c ef 30 ac bc 87 07 71 3d 23 cd de 3c
       0.022870818 -0.021019427 0.05884507 0.027197426
0003b0 df a1 fb 3c e9 62 41 bd 51 00 ea bc 51 07 85 bd
       0.030716835 -0.04721347 -0.028564604 -0.06495536
0003c0 f2 52 3e 3d 90 ad db 3c 43 8b d2 bc 73 21 35 bd
       0.04646582 0.02681616 -0.02570117 -0.044221353
0003d0 1c 5e 83 bd 09 33 70 3d df 37 2d bc 6b 7d 56 3c
       -0.06414434 0.05864242 -0.010572403 0.013091425
0003e0 83 22 29 3d 04 c6 35 39 73 a5 96 bc 45 21 1a bd
       0.04129268 0.00017335272 -0.01838944 -0.037629385
0003f0 5c 43 82 3d 4a 18 f4 bc ed 09 be bd d0 26 c7 3a
       0.06360504 -0.029796738 -0.09279237 0.0015194062

actor.2.bias f4 [2]
000000 55 8f 65 3b 55 5d 10 bd
       0.003502806 -0.03524526

critic.0.weight f4 [512, 127]
000000 50 e2 05 3e 42 34 2a bd 62 05 cc 3c 00 7f dd bb
       0.13074613 -0.041553743 0.02490491 -0.0067595243
000010 5e c0 85 bd 6b 38 08 3b d8 c2 15 3d f1 00 29 be
       -0.06530832 0.002078558 0.03656277 -0.16504265
000020 f7 26 1c be df 35 a3 3d 3e db 7f bd 28 2b 36 bd
       -0.15249239 0.079692595 -0.062464945 -0.04447475
000030 56 91 d7 3b 8f e2 51 3d 92 11 d0 3d 03 d1 6a be
       0.0065786047 0.051241454 0.10159601 -0.22931294
000040 9c ff 3b be 55 24 8f 3d 4e 9a c2 3c 1f b8 08 bd
       -0.18359226 0.06989352 0.023755219 -0.033378717
000050 41 09 a6 3a e2 36 8f bd df 5b 36 bd ac db 46 bd
       0.0012667553 -0.0699289 -0.04452121 -0.04854934
000060 82 61 8c bd 12 6c a4 3d 0b 12 a7 3d 24 16 21 3c
       -0.06854536 0.08028425 0.08157738 0.009831939
000070 01 a6 ce 3d 60 e2 00 bd c6 44 a1 bc d3 13 f8 bc
       0.100902565 -0.031465888 -0.019686114 -0.03028289
000080 44 28 f8 3c 51 ff 44 3d 4a 22 69 bd d6 bd 03 3e
       0.030292638 0.04809505 -0.056917466 0.12865385
000090 8d 8b 9d 3d d7 87 01 be a6 c3 5e 3d b7 96 8b bc
       0.07692633 -0.12649475 0.054385804 -0.01703964
0000a0 70 1f b9 bd 47 8e ba 3d 08 cd ed bc 6e 1d f2 bb
       -0.09039199 0.091091685 -0.02902843 -0.007388762
0000b0 0f 1d 21 3e f6 a8 95 bd 83 c5 c2 bd 57 51 36 be
       0.15733741 -0.07307617 -0.095103286 -0.17804466
0000c0 76 6e a2 bc f8 19 02 3e 45 2f be 3d 4e 44 7c 3c
       -0.019828063 0.12705219 0.0928636 0.0153971445
0000d0 4c 55 45 3e d7 bf f1 bd b3 6b d4 39 f4 88 80 be
       0.1927082 -0.11804169 0.00040516033 -0.25104487
0000e0 90 2e c9 3d ed 0b f5 bb d0 cf 59 b9 c3 62 e7 bc
       0.09823334 -0.0074782283 -0.00020772149 -0.028245335
0000f0 d9 54 67 3e d8 22 0f 3c 9e 4f 80 bd 09 d6 ea bd
       0.2259096 0.008736335 -0.06265186 -0.11466605
000100 6b ad 57 3d fd 43 4a bd 88 1e 11 3c 80 31 5a bd
       0.05265562 -0.049381245 0.008857377 -0.053269863
000110 ca 8b d3 3d d1 eb 63 bd 70 67 92 bc d5 21 63 bd
       0.10329397 -0.055644814 -0.017871588 -0.055452187
000120 ac 71 a9 bd c8 3b 2f bc e5 82 90 bc a8 57 84 3d
       -0.08273634 -0.010695405 -0.01764054 0.064620316
000130 f2 c4 11 3e 14 4c ac bd b2 01 48 bc 6b ca b3 bc
       0.14235285 -0.08412948 -0.012207435 -0.021947106
000140 b3 c2 0a be 78 dd 18 3d de 01 a6 3c 9e 01 3f 3d
       -0.13550834 0.037320584 0.020264562 0.0466324
000150 7a 8e 3f 3e fa 70 48 bd 56 c6 fa 3c fa 8d 95 bb
       0.18706694 -0.048935868 0.030612152 -0.004564044
000160 58 ab 5c be fa c1 4f bd 2a a5 31 3d c3 90 9a 3d
       -0.21549737 -0.0507221 0.043370403 0.07547142
000170 64 fd 5b ba 83 d7 93 bd d4 78 81 bd 94 e8 29 3e
       -0.0008391945 -0.0721884 -0.06321874 0.16592628
000180 d3 30 4c be 54 31 ab ba 87 1b 9a 3d 8a 49 1c 3e
       -0.199405 -0.0013060966 0.07524782 0.15262428
000190 18 98 01 bd ba e8 82 bd 08 db 66 3d eb 7c cb 3d
       -0.03163919 -0.06392045 0.05636123 0.099359356
0001a0 8e 63 0b be ad dd f6 3a 6b 46 21 bb 1d d7 ca 3d
       -0.13612196 0.0018834375 -0.0024608623 0.09904311
0001b0 bc 0b 85 3d c1 c7 99 ba d3 d2 80 3c 95 36 0e 3e
       0.06496379 -0.0011732505 0.015725529 0.13888009
0001c0 57 f8 89 be d8 36 15 bd 53 4f 1c bd 7c 24 c0 3d
       -0.2694728 -0.036429256 -0.038161587 0.09381959
0001d0 77 b3 94 3d 2b 4c 8b 3d 4f f4 a2 3d d0 f5 3e 3e
       0.07260793 0.06801637 0.079567544 0.18648458
0001e0 34 26 5c be 7c c7 64 3d 20 b1 c2 3d 9a 74 c4 3d
       -0.21498948 0.055854306 0.0950644 0.095925525
0001f0 67 0b ce bd 36 43 14 3d 85 19 46 bc ff f4 75 be
       -0.100607686 0.03619691 -0.012091045 -0.2401924
000200 41 5a 5a 3d 47 4a 8a bd 86 29 1b 3d 12 31 13 3e
       0.05330873 -0.067524485 0.037881397 0.14374188
000210 80 52 21 bd 8f 72 c9 3d a2 e9 0a 3e 5f 26 97 3d
       -0.03938532 0.098363034 0.13565686 0.073803656
000220 ad 5d 9e 3d 5d 54 cd bc c9 76 0e 3d 06 74 6a 3d
       0.07732711 -0.025064642 0.03478125 0.057239555
000230 cd a4 84 3d 5d 7c 4a 3d 40 5e 9e 3d e2 62 94 3c
       0.06476746 0.04943501 0.077328205 0.018113557
000240 63 44 17 3d a4 ea a0 3c 2b 54 72 3c 92 28 a0 3c
       0.036930453 0.019643135 0.014790575 0.019550595
000250 79 50 a7 3d 81 4c 5d 3d ab 34 2f 3d 67 22 8c 3d
       0.08169646 0.054028038 0.042774837 0.06842499
000260 06 d7 52 3d e1 79 bd bc e0 2e e0 3c b1 6b df 3c
       0.051474594 -0.023129405 0.027366102 0.027273031
000270 ec 0b 48 3c d7 fa ce 3d 9b 01 fd bc 93 13 b3 3d
       0.012209874 0.10106438 -0.030884555 0.08743968
000280 69 b0 9f bc 48 11 93 bc 19 77 f4 3d 69 c3 cd bd
       -0.019493299 -0.017952576 0.119367786 -0.10047037
000290 40 f8 07 bb 31 4c c8 3b 62 9e b9 bd 97 9f 2e 3e
       -0.0020747334 0.0061125983 -0.09063412 0.17053066
0002a0 0c 76 0d bc 96 bc 62 bc 93 4b 07 3c a0 a0 8f 3c
       -0.008634102 -0.013838908 0.008257764 0.017532647
0002b0 1e c5 22 bd f0 06 9b 3d bf 39 12 3d 0c 4b 07 3e
       -0.039738767 0.075696826 0.035699602 0.13212222
0002c0 f3 01 89 3c e9 60 c6 bc 8d b5 0b bd 89 b6 a2 bd
       0.016724562 -0.024216132 -0.034108687 -0.07944972
0002d0 8a 13 b4 bc 79 47 4e 3c 26 08 8a bc d8 5e 2a 3e
       -0.021981973 0.012590283 -0.016849589 0.16637743
0002e0 9a 9a 07 3d dd ef 6f bd cb 31 47 3d bb 6a db bc
       0.033106424 -0.05857836 0.04863147 -0.026784291
0002f0 ff 46 83 3c 88 e3 85 3d 2f a6 0a bd 51 7c 2c 3e
       0.016025065 0.06537539 -0.03384989 0.16844298
000300 58 21 9f bb 7a b2 1e bd cd 95 09 3e fb 3c d3 bd
       -0.00485627 -0.038744427 0.1343605 -0.103143655
000310 b6 f4 94 bd 7f 4b 01 3d b8 e2 02 be 9c 13 d5 3d
       -0.072732374 0.03156614 -0.12781799 0.10404131
000320 40 9f 00 bd a1 bc c2 3d d6 dd 9a 3d 89 15 24 be
       -0.031401873 0.09508634 0.07561843 -0.1602384
000330 75 d9 1d bd 84 05 35 3d 2f a6 a3 bd 07 09 a4 3c
       -0.03853746 0.044194713 -0.079906814 0.020023836
000340 c0 c1 07 bd cb 21 4b 3d 7d 42 00 3e ce e6 5c bd
       -0.03314376 0.049592774 0.12525363 -0.05393105
000350 bb 2f db 3c 09 6a 85 ba ed 33 ff bc c8 ab 86 3c
       0.026756158 -0.0010178696 -0.03115269 0.016439334
000360 6f 92 8c 3d 08 50 21 bd 16 76 6a 3c c4 05 c5 3c
       0.068638675 -0.039382964 0.01431038 0.0240506
000370 46 50 03 bd 13 5f d7 3c e1 f5 58 3d 99 e9 05 3d
       -0.032058977 0.026290452 0.052968863 0.03269348
000380 7a 3e 80 3d 34 ae af 3d 8c 32 a2 3d b0 6e df bb
       0.062619165 0.085781485 0.07919797 -0.006818615
000390 83 30 80 bd 11 df bd 3c 61 16 8c 3d 95 60 b8 bc
       -0.06259253 0.023177655 0.06840206 -0.022506991
0003a0 ca 16 6b 3d e8 9e 52 bb 6f 8a 8a 3c ee 0c f5 bc
       0.05739478 -0.0032138173 0.016911713 -0.029913392
0003b0 5c c2 e9 bc 30 2a c0 3c 1e 5d e3 3c 5f c3 07 3e
       -0.02853506 0.023457617 0.027754363 0.13258122
0003c0 44 8c 02 3d 94 b3 99 3d 13 ff 63 bd ab e7 05 bd
       0.03187205 0.07504955 -0.05566318 -0.03269164
0003d0 00 78 d3 bc 2a 02 cf 3d a9 78 8e 3d ef e1 07 bd
       -0.025814056 0.10107835 0.06956608 -0.03317445
0003e0 53 27 2a 3d 17 86 db bb db b4 85 3d 2c cc a8 bd
       0.04154141 -0.0066993344 0.06528636 -0.08242068
0003f0 ca 69 17 bd ca b3 a7 bc 78 35 59 3d 16 51 40 bd
       -0.036966123 -0.020471472 0.053029507 -0.04695233

critic.0.bias f4 [512]
000000 ad e2 74 bc ad 9c 4b bd c9 fe f1 bc 8c 44 87 3d
       -0.014946622 -0.049709965 -0.029540436 0.06604871
000010 69 88 b0 3d ec f4 63 bb 56 ed 88 3d bc a2 34 3b
       0.08619768 -0.0034783436 0.06685893 0.0027562818
000020 b1 b9 16 bc c0 bd e1 3c e5 92 05 bd 82 a1 45 3d
       -0.009199546 0.0275563 -0.032610793 0.04824973
000030 b9 98 1e 3d b7 ae 7a 3d 6d d6 85 3d d4 d8 83 bc
       0.038719866 0.061201777 0.06535039 -0.016094603
000040 45 de 5f 3c 28 e2 7a 3d 02 cb c2 3d 0e b5 99 3c
       0.013663833 0.061250836 0.09511377 0.018763091
000050 1f b3 ac 3d 4e ce a4 3c 96 bb 83 3d b7 bd b6 3d
       0.08432602 0.020117905 0.064322636 0.08922904
000060 f5 54 64 bd 24 33 25 bd 53 7c 8f 3c 58 1b 14 bd
       -0.055745084 -0.040331975 0.017515337 -0.03615889
000070 66 3c 85 bc c3 26 81 3d cb 1c 8e 3d 13 8e 02 3c
       -0.016264152 0.06306221 0.069390856 0.007968443
000080 3a aa 9b 3d 28 32 93 3d a9 71 36 3c 98 d6 ec 3c
       0.076008275 0.07187301 0.011135497 0.02891092
000090 32 ef 5e 3c 85 dd 47 3c 9f ed 86 3d 17 45 95 3d
       0.013606833 0.01219881 0.065882914 0.072885685
0000a0 27 cb 4b bb ff c8 54 bc 0c e2 8f 3d 77 f2 3a 3d
       -0.003109643 -0.012987374 0.07025537 0.04564139
0000b0 9e 53 8b 3d 1d 6c cd 3c bb 4e b3 bd 8f ea 33 3c
       0.06803058 0.025075966 -0.08755251 0.010981216
0000c0 39 fb 7a bd 64 78 52 bb 3e 94 bc 3c 03 4e 8f bc
       -0.06127474 -0.0032115215 0.023019906 -0.017493254
0000d0 8c d9 34 bd ab af 82 bc 43 58 b4 bd 29 bc 09 bd
       -0.04415278 -0.015952906 -0.08805897 -0.03362671
0000e0 53 25 80 bd 9f 85 7a 3d 5c 0d f0 3b 4e 86 db ba
       -0.06257119 0.061162587 0.0073258113 -0.00167484
0000f0 08 52 94 3d 17 fc aa 3c 78 64 a9 3c a7 6f 73 bd
       0.07242209 0.020872159 0.02067779 -0.05943265
000100 cf 1b df 3c 9f 84 5b bd de 93 1f 3c 76 68 d4 3c
       0.02723494 -0.053593274 0.009739844 0.025928717
000110 08 ef 41 bc 0b 4c ea 3c 89 3a b9 3d 39 3d 59 bd
       -0.011836775 0.028600713 0.09044368 -0.053036902
000120 a3 5d 99 bd fd e0 a5 bd 7e 9a 90 bb 1d 20 0f 3d
       -0.07488563 -0.08099554 -0.004412948 0.034942735
000130 c0 13 a5 bc 69 a7 fb bc c0 3d bb bd 28 58 de bc
       -0.02015102 -0.030719476 -0.09142637 -0.027141646
000140 d9 fe 97 bd 30 d7 c5 3c 6c bb 89 bd 86 e8 99 3d
       -0.07421655 0.024150461 -0.06725201 0.075150535
000150 4a 77 8f bc 00 47 88 3d 5c 71 7a 3d d3 54 ee bc
       -0.017512936 0.06654167 0.061143264 -0.029093182
000160 3f 87 79 3c 8c db d6 3b 2f 31 00 bd 71 67 a3 bb
       0.015229999 0.0065569337 -0.031296905 -0.0049866964
000170 ee fc 18 bd 9d cc 8b bc 20 f0 58 3b 88 55 a9 bd
       -0.037350588 -0.01706534 0.003310211 -0.08268267
000180 96 66 ab 3d 48 be 40 3d be 34 9b bc dc f3 ac 3c
       0.08369176 0.047056466 -0.018946048 0.021112375
000190 c5 32 37 3a e3 03 68 3d 33 ad 9f bc c5 1f 14 bc
       0.0006988461 0.05664433 -0.019491768 -0.009040778
0001a0 f2 94 db bc 2c cb 9d 3d 62 d1 1d bc d3 e5 c5 bc
       -0.026804421 0.077047676 -0.00963244 -0.02415744
0001b0 10 09 2d bd 9f 22 4e bd cd 92 67 3c b0 ad 5a bd
       -0.04224497 -0.050325986 0.014134121 -0.053388298
0001c0 cc e2 a5 bd e9 9f 14 bd 18 54 ea bb d5 2d 7e bd
       -0.08099899 -0.036285315 -0.007151138 -0.062055428
0001d0 18 75 87 bd 2b 57 a3 3d dd fa 87 3c 35 ee a0 3c
       -0.06614131 0.0797561 0.016599113 0.019644836
0001e0 2f 0c 85 3d 61 33 b9 3c 7a c5 90 bd cc b7 37 bd
       0.064964645 0.022607507 -0.07068916 -0.044853017
0001f0 f8 d1 73 bc 1b 8b b8 bc e4 e7 a3 3c 02 ff e9 3b
       -0.014881603 -0.022527268 0.020008035 0.007140995
000200 7e d7 8d bd 7e 0b b8 3d bd 16 a6 3d b2 fc 92 3d
       -0.069258675 0.08986567 0.08109806 0.07177104
000210 a4 c2 9d bc ee bb 83 bd 79 50 5d 3d 93 9c 3d bd
       -0.019257851 -0.06432329 0.054031823 -0.0462919
000220 9d 26 09 3d 35 e3 8e 3c 3e 1c c4 bd 2d 8b 87 3d
       0.03348409 0.017442325 -0.09575699 0.066183425
000230 73 4c 91 bd d0 93 82 3c de 81 e1 b9 13 16 73 3d
       -0.0709466 0.015939623 -0.00043012103 0.059347223
000240 17 14 af bc 91 81 c8 3c cf 06 44 bd 08 6f 91 3c
       -0.021371884 0.024475845 -0.047858056 0.01775314
000250 21 d4 a2 3d 61 df a6 3d e0 a1 5a 3d 09 52 62 3d
       0.07950617 0.08148075 0.053377032 0.055254016
000260 c0 bb 7f bc d8 76 4e 3d 9f 2c 82 3d f0 ba a4 bd
       -0.015608728 0.050406307 0.06356167 -0.08043468
000270 a7 e5 7d bd 21 c7 88 3d 44 27 1f 3d 0b e6 ae bd
       -0.06198659 0.06678606 0.038855806 -0.08539971
000280 3a 6a b3 bc d6 49 2c 3d 1c e9 bb 3d 62 b0 47 bd
       -0.021901239 0.042062603 0.091753215 -0.048752196
000290 64 f6 34 3c de 54 b2 bc eb 6d 84 bd 00 41 57 bd
       0.011045072 -0.021768983 -0.06466278 -0.052552223
0002a0 69 61 8d bd a9 3c 64 bd 6e 8b 3c 3d 09 58 0e 3d
       -0.06903345 -0.055721913 0.046031408 0.034751926
0002b0 bb 64 ec b7 f6 ec af bc e8 65 a6 3d 88 6f 06 bd
       -2.8180299e-05 -0.021475296 0.08124906 -0.03282121
0002c0 28 f0 76 bd 2e 67 f2 3c 1b c9 68 3c fc a2 64 bd
       -0.060287625 0.029590216 0.0142081035 -0.055819497
0002d0 0a 69 0a 3d c5 96 33 3d b3 b5 8d 3d 5d 84 49 3d
       0.03379158 0.043844957 0.06919422 0.049198497
0002e0 0d f7 62 3c 0c 39 32 bd cd ff aa bd 45 56 87 3d
       0.013852847 -0.043511435 -0.083495714 0.066082515
0002f0 db 43 ac bc f7 44 80 bd 66 7c 32 3d e0 db 02 3d
       -0.02102845 -0.06263154 0.043575667 0.03194797
000300 f7 97 a3 3d 3a a4 8b bd ae f1 57 3d dd de b3 bd
       0.07987969 -0.06818433 0.052720718 -0.08782742
000310 a8 30 d9 3d e6 0d 5d 3d 97 ab 96 3d 60 c2 8c bd
       0.106049836 0.053968333 0.07356947 -0.068730116
000320 02 2b 36 bd 83 01 48 bd 15 ff f9 bc 18 bc 8a bd
       -0.04447461 -0.048829567 -0.03051714 -0.06774157
000330 58 be 8e 3d 77 ed 38 bd cd f1 86 bd 38 b5 b9 3d
       0.06969899 -0.04514834 -0.065890886 0.09067768
000340 73 66 bb bd b9 ca 32 3d 07 df 22 3d 4e ec 17 3d
       -0.091504 0.043650363 0.039763477 0.037090592
000350 ae f3 ac bd 19 27 a4 3d 35 b7 29 3d 76 54 02 bd
       -0.08444916 0.0801527 0.041434485 -0.03181883
000360 99 66 7b 3d 8a 58 0e 3c 8b a8 81 3d 2d 99 27 bd
       0.06137714 0.008688102 0.06330975 -0.040917564
000370 2c 74 8f 3d 5d 4e 3b bd e0 8c bf bb fe c8 cd bb
       0.0700458 -0.04572903 -0.005845651 -0.0062800637
000380 20 68 05 3d 2a e7 9d 3d e4 3b 56 3c 24 7e f7 3c
       0.032570004 0.07710107 0.0130758025 0.030211516
000390 77 24 4d 3c a9 12 86 3d 54 0d a5 3d d2 4e 6b bb
       0.012520901 0.06546528 0.08059183 -0.0035905135
0003a0 e4 98 46 bd 1b fb 62 3d 6b ed 17 3d 9c 3b 77 3d
       -0.04848565 0.055415254 0.037091654 0.060359582
0003b0 5f ce f7 3b 03 ef 8a bc ac aa 81 bd 79 64 64 3d
       0.007562443 -0.016959673 -0.06331381 0.05575988
0003c0 6a 7f 18 bd e6 a6 83 bd 38 f5 80 3d 81 ac 98 3d
       -0.037230887 -0.06428318 0.06296772 0.074547775
0003d0 1d c4 3e 3d 3c b2 4a bd fd 1e 31 bd 8a 0a 46 3d
       0.046573747 -0.049486384 -0.043242443 0.048349895
0003e0 ce a4 ff 3c a9 08 4c 3d 07 4f c8 bd 46 21 43 3d
       0.031206515 0.049812946 -0.09780698 0.047639154
0003f0 5b 08 ec 3c c3 d7 bc 3d 1d df aa bc 70 15 84 bb
       0.028812578 0.09220841 -0.020858342 -0.004030876

critic.2.weight f4 [1, 512]
000000 6a b0 c0 3d be 08 8d bd 49 6f 9c 3d 4c a5 b2 bd
       0.09408648 -0.06886433 0.076384135 -0.08722934
000010 f6 44 78 bd 32 85 bf 3d 70 b8 97 bd 9e 7e 52 bd
       -0.06061264 0.09351577 -0.074082255 -0.051390283
000020 38 97 b2 bd 07 ce ef 3d 13 f8 86 bc 94 09 0e bd
       -0.08720249 0.117092185 -0.016475713 -0.034677103
000030 7d ac c3 bc c6 89 a1 3d 37 0c d1 bc 36 bb f6 3d
       -0.02388596 0.07887606 -0.02551852 0.120474264
000040 88 ba 38 bd ba a5 f3 3d 39 68 40 bd 70 d9 44 bd
       -0.045099765 0.11896844 -0.046974394 -0.048058927
000050 f4 c6 2c be 87 a2 c6 3c e7 eb fe 3b fb 67 6a 3d
       -0.1687277 0.024247421 0.0077795866 0.05722807
000060 65 c0 33 3d 35 ea ce 3d ba 2e 09 bd ae 46 e9 bb
       0.043884654 0.10103265 -0.033491828 -0.0071190214
000070 08 72 b9 3d fe 43 c6 3d d4 bc 95 bd 9c 2b 13 bd
       0.09054953 0.09680937 -0.07311407 -0.03593026
000080 dd 93 46 3d 73 90 45 be 19 92 01 be 3e f6 5b bc
       0.048480857 -0.19293384 -0.12653388 -0.013425408
000090 b9 00 88 bd 44 b3 7f bd ea be 89 3d bd 21 42 bd
       -0.06640763 -0.06242682 0.06725867 -0.047395457
0000a0 49 0c f1 3d 6b 19 cc bd d5 6d ae 3d 42 fd 1a bd
       0.11769921 -0.099657856 0.085170425 -0.03783918
0000b0 f9 b8 a3 3d c6 74 91 3d 17 f6 8d bc cb 81 df 3d
       0.07994265 0.07102351 -0.017329259 0.10913428
0000c0 69 07 96 3c 2b 6e 81 3d 60 8c ae bc 43 f6 0e be
       0.01831408 0.06319841 -0.02130717 -0.13961129
0000d0 71 ce 0a be e8 23 4b 3d cb f3 b6 3d e3 ea c4 bc
       -0.13555314 0.04959479 0.089332186 -0.024037784
0000e0 f2 ca a2 bc 6c a5 dd 3c 42 55 19 3d 5c aa 0c 3d
       -0.019872162 0.027056418 0.037434824 0.034342155
0000f0 3f b0 89 3d 7c 9b b5 3d 4a fa 55 3d d1 52 cc bc
       0.067230694 0.08867547 0.052240647 -0.024941834
000100 7a ec 78 bd 81 b1 9a 3c 8d 74 d1 3c 36 ac a5 bc
       -0.060772397 0.018883469 0.025568271 -0.020223718
000110 ef d1 da 3d 7f b2 ce 3d 1a 58 83 3d 14 d3 d5 3d
       0.10684573 0.10092639 0.064132884 0.104406506
000120 fc 41 a2 3d 3f 4b 0f bd 44 f1 b9 bd b8 ad 43 3d
       0.07922742 -0.03498387 -0.09079221 0.047773093
000130 8b 35 78 3d ed 64 0d be 2a 92 7a 3c 38 35 85 3c
       0.060597938 -0.13808031 0.015293637 0.016260728
000140 d0 49 dc 3c 52 28 3f bd 23 5a 6d 3d bb 61 0e bd
       0.026890665 -0.04666931 0.05794729 -0.03476117
000150 aa 71 05 3d 4e b7 08 bd cf 55 0c bc bd 2f 5e bd
       0.0325791 -0.033377938 -0.00856538 -0.054244746
000160 69 64 17 3d ce 17 d5 3c 84 96 ea bc c8 2d a0 bd
       0.036960993 0.026012328 -0.028636225 -0.07821232
000170 15 f8 62 3d ab 4e a9 bd 65 70 b3 bd 3c c7 1b bb
       0.05541237 -0.08266958 -0.08761672 -0.0023769876
000180 39 3f c7 3c 99 7c 1b bd 9a f4 44 3d 13 66 93 bd
       0.02432214 -0.037960622 0.048084833 -0.071972035
000190 13 3f ae 3c 6b 38 9b 3d aa 23 c5 bb 9d 53 a8 3a
       0.02127031 0.0757912 -0.0060162144 0.0012842302
0001a0 e4 48 4d bd 25 4e 28 bd 7b 84 a8 3d 23 1c 22 bd
       -0.050118342 -0.04109015 0.08228394 -0.039577615
0001b0 3c 57 ec bc ca 72 2b bd 0d 0e 8f 3d 66 fd ad bc
       -0.02885019 -0.04185752 0.06985102 -0.021238994
0001c0 b6 e8 99 3d f1 cc fe 3c 6a 79 85 3d c8 c1 91 bd
       0.07515089 0.031103583 0.065172985 -0.07117039
0001d0 17 96 d6 bc fd 66 93 3d d6 49 4a bd 45 df 9d bd
       -0.026194615 0.07197378 -0.04938682 -0.07708601
0001e0 79 e0 3a 3d 92 e2 8a bd 38 dd cc bc 95 8b cf bc
       0.04562423 -0.06781496 -0.02500783 -0.025335113
0001f0 d6 70 43 bd 66 be b1 3d 0c 8a 1f 3d 46 49 d6 3c
       -0.04771503 0.08678894 0.03895001 0.026157986
000200 90 0e c0 bd e6 a2 6a bd 96 2b c4 3d 97 5d f4 bd
       -0.093777776 -0.05728426 0.09578626 -0.11931913
000210 4e 07 21 3b 33 b2 a0 bc 81 ff ba 3d 75 cc da 3c
       0.0024571004 -0.019616222 0.09130765 0.02670882
000220 f7 29 cf bc 1c ed 96 bd d6 08 d2 3c 86 0f 8c 3d
       -0.025288565 -0.07369444 0.025638979 0.06838898
000230 12 e1 a3 3d 88 15 f5 bc 0f 01 7f 3d 9f 2d 69 bd
       0.08001913 -0.029917493 0.06225687 -0.056928273
000240 4d 56 31 bd 0a 0b 8b 3c 19 93 21 3d 0e 08 90 bc
       -0.043295193 0.016973037 0.039446924 -0.017581966
000250 a9 c0 86 3d 06 35 91 3d c5 31 38 3d ca a1 0c 3d
       0.06579716 0.070901915 0.04496934 0.03433398
000260 67 e5 59 3d 71 b0 0b bc aa 88 b7 bc 98 e7 93 3d
       0.05319729 -0.008525954 -0.022404034 0.072219074
000270 f2 63 89 bd 34 c9 b4 bd 6b fb 13 3e f4 86 3d 3d
       -0.06708516 -0.08827439 0.14451377 0.04627128
000280 62 59 fe bd 3e f8 d5 bc 0c 3f 62 3d eb e0 26 bd
       -0.12419392 -0.026119348 0.055235907 -0.040741842
000290 c6 ef 58 3d 4c 5c e3 bd f0 c3 df bc a6 0a d4 3d
       0.05296304 -0.111015886 -0.02731511 0.103535935
0002a0 3b 1c 94 bc b0 69 11 bd 11 90 4f bc 83 a5 14 bd
       -0.018079868 -0.035501182 -0.012668625 -0.036290657
0002b0 23 78 2f 3d d6 09 bd bc b4 68 c5 bc e6 45 33 3d
       0.04283918 -0.02307598 -0.024097778 0.043767832
0002c0 ff 50 0d 3e 5a 60 12 be 6d 1f ce 3d 60 70 a9 bc
       0.13800429 -0.14294568 0.10064588 -0.020683467
0002d0 03 77 94 3d 1a 5d 4d 3b 42 1e b0 bd 81 64 59 3d
       0.07249262 0.003133601 -0.08599521 0.053074364
0002e0 3c 1e be 3c dc 77 ab 3d 65 c5 52 3d fb 58 34 3d
       0.023207776 0.08372471 0.05145778 0.04403017
0002f0 5f 65 41 3d 9c a6 ce 3d f2 41 ee 3c 53 5a 8f 3c
       0.047215816 0.10090372 0.02908418 0.017499125
000300 fc b6 e3 bb dc e6 8a bd af ec 19 be 03 c9 e3 bb
       -0.0069493037 -0.06782314 -0.15031694 -0.0069514527
000310 ab b0 2e 3d 9c 0a fa bc 97 20 80 bd 2e 59 94 3d
       0.042648952 -0.030522637 -0.06256216 0.07243572
000320 ab 8e e7 3d 40 27 dc bd e5 b2 8f 3d fc 5d ab 3b
       0.11306509 -0.10749674 0.07016543 0.0052297097
000330 50 36 89 bd 50 87 97 bb 19 34 79 3d f3 c1 9c 3d
       -0.066998124 -0.004624285 0.0608407 0.076541804
000340 e5 2e 7d 3d 5b 26 ab bc 46 58 29 3d 8f f2 0f be
       0.0618123 -0.020892313 0.04134395 -0.14057373
000350 17 aa f3 bc e3 d8 8f bd 71 c4 d1 bd 04 22 00 bc
       -0.029744191 -0.0702379 -0.10242546 -0.00782061
000360 12 09 2b bc bb 33 4a bd d4 92 89 3d 5a 07 04 3c
       -0.010439174 -0.04936574 0.06717458 0.008058393
000370 20 cd 99 3d 76 32 5a 3d c8 bc e3 bd df b3 ac bd
       0.075098276 0.05327078 -0.111199915 -0.08432745
000380 4d ef 8f bc 29 6b 00 bd ff 72 ce 3d 0b dc a6 3d
       -0.017570162 -0.031352196 0.100805275 0.081474386
000390 91 58 c5 3d 46 5c 96 bc d3 2d c8 bc 31 e6 85 3d
       0.09636033 -0.018354546 -0.024435913 0.06538046
0003a0 ec 19 a6 bd 2c 9f 94 3d 8e 59 05 3d d6 37 32 bd
       -0.08110413 0.07256922 0.03255611 -0.04351028
0003b0 a6 25 ee 3d 7b f1 13 bd b0 fa 40 bd 65 04 f2 bc
       0.116282746 -0.036118966 -0.047114074 -0.029543111
0003c0 6d 95 80 bc c3 19 97 3d ca d5 d6 bc 54 5e a8 3d
       -0.015696252 0.073779605 -0.02622499 0.08221117
0003d0 f9 24 ff bc 6f 11 02 bd 22 0d 85 bc 6a f6 2c bd
       -0.03114556 -0.031754907 -0.016241614 -0.042227186
0003e0 a5 36 f6 bc 99 ac b1 3d 77 ba 96 3a 02 e1 0d bd
       -0.030055353 0.086754985 0.0011499663 -0.034638412
0003f0 2c 60 c0 bd f2 ef 15 bd 70 a5 12 be bf 46 cb 3d
       -0.09393343 -0.036605783 -0.14320922 0.09925603
