results/env01/ppo/512-256-new-2000/model.pth (torch, 532879 bytes, 7 tensors)

actor.0.weight f4 [512, 127]
0	0x3da1a2cf	0.078923814
1	0x3d9372fa	0.071996644
2	0xbde9404e	-0.11389218
3	0xbc22ba98	-0.009932183
4	0xbded354e	-0.11582433
5	0x3bd1d7a7	0.0064038816
6	0x3d617ac2	0.05504871
7	0xbd358e98	-0.04432544
8	0x3d8a49de	0.0675237
9	0xbd606822	-0.05478681
10	0x3c590fc2	0.013248386
11	0xbd21996d	-0.03945296
12	0x3c57bcfe	0.013167618
13	0xbd7d6dd0	-0.061872303
14	0x3cb2a08c	0.02180507
15	0xbd8eef83	-0.06979277
16	0xbc87da3c	-0.016583554
17	0xbc989a0c	-0.018628143
18	0xbd7097d9	-0.058738563
19	0xbb42dee8	-0.0029734913
20	0xbd6ec470	-0.058292806
21	0xbcd24871	-0.025669308
22	0x3cc60099	0.024170207
23	0xbcc3d7ca	-0.023906607
24	0x3d9078df	0.07054304
25	0x3d99fa54	0.075184494
26	0x3d6c801f	0.057739373
27	0x3d271cc0	0.040798903
28	0x3d6c2dff	0.057661053
29	0x3d9c35be	0.07627438
30	0xbc5e89e2	-0.0135826785
31	0xbab04751	-0.0013448988
32	0x3b73b68f	0.003718767
33	0x3d650a8a	0.055918254
34	0x3d85d027	0.065338425
35	0x3bb61f29	0.005557914
36	0xbc94ac78	-0.018148646
37	0x3d1465d6	0.03622993
38	0x3d5aee04	0.053449646
39	0x3c9807dc	0.018558435
40	0xbd081747	-0.033225324
41	0x3d84d0ac	0.064851135
42	0x3d9e0948	0.07716614
43	0xbd427bca	-0.047481336
44	0x3d06fdbc	0.032956824
45	0x3d9486cc	0.07252273
46	0x3d55a590	0.052159846
47	0xbdbff5b0	-0.09373033
48	0x3df55deb	0.11980804
49	0x3dc2e3b5	0.09516088
50	0x3a248b5d	0.000627687
51	0xbdb3c84c	-0.08778438
52	0xbd640131	-0.0556652
53	0x3ad8757d	0.0016514506
54	0xbca82e76	-0.020529967
55	0x3bf08a0b	0.0073406748
56	0xbd924cfe	-0.07143591
57	0x3d5df409	0.05418781
58	0xbceb3e0b	-0.028716108
59	0xbdcfca83	-0.10146048
60	0x3c0d6a43	0.008631292
61	0x3dc02bb8	0.09383339
62	0xbd47a674	-0.048742726
63	0xbdf535ba	-0.11973138
64	0x3de16c9a	0.11007042
65	0xbb34b8eb	-0.002757604
66	0x3d2556ec	0.0403661
67	0x3c0e500e	0.008686079
68	0xbcf10a84	-0.02942396
69	0xbd4f1c4b	-0.05056409
70	0x3d944db0	0.0724138
71	0xbd2f7537	-0.042836394
72	0x3d9ee3b0	0.07758272
73	0x3d1f3008	0.038864166
74	0x3d84ed14	0.064905316
75	0x3d241db5	0.040067393
76	0xbd8c57f0	-0.0685271
77	0x3da993e9	0.08280165
78	0xbd61d055	-0.05513032
79	0x3d47ad32	0.048749156
80	0xbe078929	-0.13235916
81	0xbc68f382	-0.014218213
82	0xbc8fdeb7	-0.017562253
83	0x3dee57bb	0.11637827
84	0xbd363c32	-0.044491
85	0xbd87254d	-0.065989114
86	0xbc8cc419	-0.01718335
87	0x3d960682	0.0732546
88	0xbe2f248e	-0.17103788
89	0xbc9bdd68	-0.019026473
90	0xbd8daf98	-0.069182575
91	0x3d7c9543	0.061665785
92	0xbceb243a	-0.028703798
93	0x3c3141d8	0.010818921
94	0x3daed60a	0.085369185
95	0x3dc1bce3	0.094598554
96	0xbdb98e49	-0.09060342
97	0xbd076aef	-0.033060964
98	0x3cc6b722	0.024257246
99	0x3d19d700	0.037558556
100	0xbd4c841d	-0.04993068
101	0xba581343	-0.00082426163
102	0x3dc5c5c1	0.09656859
103	0x3dc0a680	0.09406757
104	0xbc9f64f3	-0.019457316
105	0x3d339ade	0.043848865
106	0x3c4078b1	0.011747525
107	0x3d2e5a5b	0.04256664
108	0xbbb9b871	-0.005667739
109	0x3d10d2d5	0.035357315
110	0x3d8190d0	0.06326449
111	0x3caf8b48	0.02142872
112	0xbd998300	-0.074956894
113	0xbbac4d02	-0.0052582035
114	0xbd9457aa	-0.07243283
115	0x3dcae179	0.09906287
116	0x3cf06ea5	0.029349634
117	0x3d306811	0.043067995
118	0x3d20d7c8	0.039268285
119	0xbd990561	-0.07471729
120	0x3d9840f6	0.07434265
121	0xbce3a430	-0.027788252
122	0xb9dd62d6	-0.00042226043
123	0x3db87da8	0.09008342
124	0xbc8c6b7e	-0.0171411
125	0xbd863ff0	-0.06555164
126	0x3db766c8	0.08955151
127	0x3c673617	0.014112017
128	0xbd9347e5	-0.07191447
129	0x3e03dc86	0.12877092
130	0xbc9f398d	-0.019436622
131	0x3ccdc92a	0.025120337
132	0xbca5a86c	-0.020221911
133	0x3d7a566b	0.06111757
134	0xbd6e4975	-0.058175523
135	0x3d43a795	0.04776724
136	0xbd1b88b5	-0.03797217
137	0x3d5d8163	0.05407847
138	0xbc88127b	-0.016610375
139	0xbd40196d	-0.046899248
140	0x3d9fe889	0.078080244
141	0xbdab672a	-0.08369286
142	0xbc5787be	-0.013154922
143	0xbd577c39	-0.052608702
144	0x3c8fbad3	0.01754514
145	0xbdc9ee63	-0.09859922
146	0x3cb23ed0	0.021758467
147	0x3d5a5a60	0.053308845
148	0x3d305cf5	0.0430574
149	0x3d5d9043	0.054092657
150	0x3dc551fb	0.09634777
151	0xbc0553eb	-0.008137683
152	0x3d00f550	0.03148395
153	0x3d6ba2f7	0.057528462
154	0x3deac913	0.11464133
155	0x3d66ddd4	0.056363896
156	0xbd03e1e8	-0.032197863
157	0x3d6fe7e4	0.058570758
158	0xbcfa5ee2	-0.030562822
159	0x3d910953	0.070818566
160	0xbd58f0aa	-0.05296389
161	0x3c84701c	0.01616674
162	0xbd33f4ad	-0.043934513
163	0xbd6d69b4	-0.057962134
164	0xbd809bf1	-0.062797435
165	0xba8d52ac	-0.0010782084
166	0x3d9f8b18	0.07790202
167	0xbdb871b7	-0.090060644
168	0xbd01469a	-0.03156147
169	0xbd403329	-0.04692379
170	0x3cdd686f	0.027027337
171	0x3cd0793d	0.025448436
172	0xbc61aeba	-0.013774568
173	0x3bfadb1f	0.007655516
174	0x3d0050fd	0.031327236
175	0xbd419913	-0.047265124
176	0x3cdeaabf	0.027181027
177	0xbcda699f	-0.026661692
178	0x3e1a2145	0.15051754
179	0x3d8e116e	0.06936918
180	0xbd890fb7	-0.066924505
181	0x3abb8be4	0.0014308658
182	0x3c65680c	0.0140018575
183	0x3db774b8	0.08957809
184	0x3d629026	0.055313252
185	0x3ca68769	0.02032824
186	0x3d2ff764	0.04296054
187	0xbdc12a0e	-0.094318494
188	0x3d9bfa19	0.07616062
189	0xbd2f9a3f	-0.04287171
190	0xbc3e2677	-0.01160585
191	0xbdb6f714	-0.08933845
192	0xbd7959b3	-0.06087656
193	0x3d6da748	0.05802086
194	0x3d85f3c5	0.06540636
195	0xbbb1fda8	-0.0054318495
196	0x3d11b080	0.035568714
197	0xbd8592df	-0.06522154
198	0xbdc76383	-0.09735777
199	0x3cfe7ed0	0.031066328
200	0xbd2cf220	-0.042223096
201	0x3dbaa289	0.09113032
202	0x3d123b7a	0.035701253
203	0xbd53fba3	-0.05175365
204	0x3d777be8	0.0604209
205	0xbc552469	-0.013009169
206	0xbe23cca7	-0.15996037
207	0x3ba88f83	0.005144061
208	0xbd027943	-0.031853925
209	0x3d4e5c99	0.050381277
210	0xbcafa888	-0.021442667
211	0x3d87cf9f	0.066313975
212	0x3d8d93a3	0.06912925
213	0xbd230e32	-0.03980846
214	0xbdc22d28	-0.09481269
215	0x3de88a85	0.113545455
216	0x3ddfae58	0.10921925
217	0x3d3160ed	0.043305326
218	0xbb3bfe22	-0.002868541
219	0x3cc0d757	0.023540182
220	0xbd1b52ed	-0.03792088
221	0x3cbbdd52	0.022932682
222	0xbc19d46c	-0.009389024
223	0xbcfaff98	-0.030639455
224	0x3c8ba088	0.01704432
225	0xbd946a44	-0.07246831
226	0x3d52ba75	0.05144735
227	0x3dc1721d	0.094455935
228	0xb7809302	-1.5327245e-05
229	0xbd92b4e4	-0.071634084
230	0xbdc0ba14	-0.094104916
231	0x3d8bdff4	0.06829825
232	0xbc806b3c	-0.015676133
233	0xbd8fa860	-0.07014537
234	0xbd899ed6	-0.06719749
235	0x3d636a40	0.05552125
236	0x3d3f7993	0.0467468
237	0x3d5e8856	0.05432924
238	0x3d1c0483	0.03809024
239	0xbd8d2a3a	-0.0689282
240	0xbd4c976c	-0.049949095
241	0x3d1a35ab	0.037648838
242	0xbe0113bd	-0.12605186
243	0x3c4b5754	0.012410957
244	0x3d3f5a53	0.046717
245	0x3c064167	0.008194304
246	0x3df2279f	0.118239634
247	0xbd2b6131	-0.041840736
248	0xbd5bfa6b	-0.053705614
249	0x3b62ddc7	0.0034617053
250	0xbd24ac32	-0.04020328
251	0xbcc95e0d	-0.02458098
252	0xbcbced9e	-0.023062523
253	0x3a8a3e67	0.0010547162
254	0xbcf4d13c	-0.029884927
255	0x3da93aa5	0.08263139

actor.0.bias f4 [512]
0	0xbd567a40	-0.05236268
1	0xbb72d995	-0.0037055959
2	0xbcc08a71	-0.023503514
3	0xbd8ddd56	-0.06926982
4	0xbcbe1ddb	-0.023207596
5	0xbd2108f5	-0.039315183
6	0xbd9089f2	-0.07057561
7	0xbd1dfb75	-0.038569886
8	0x3d401054	0.04689057
9	0x3d3c3f6e	0.04595893
10	0x3dab7474	0.08371821
11	0xbd8af8ed	-0.0678576
12	0xbb5d6e46	-0.0033787652
13	0x3d92600c	0.07147226
14	0xbd84b9cc	-0.064807504
15	0x3a997345	0.0011707327
16	0xbd9e0fbb	-0.07717844
17	0xbdaaf304	-0.08347133
18	0xbd1176c9	-0.035513673
19	0xbdcf1e66	-0.1011322
20	0x3d4c4122	0.049866803
21	0x3cb0135f	0.021493612
22	0x3d6b6150	0.05746585
23	0xbda82e50	-0.082119584
24	0x3d5652ce	0.052325062
25	0xbdada65b	-0.084789954
26	0xbbcec874	-0.006310517
27	0x3c47f373	0.012204039
28	0x3cf4b7b0	0.029872745
29	0xbd55712d	-0.052109886
30	0x3d9c3520	0.0762732
31	0x3cd72564	0.026262946
32	0x3d2355f0	0.03987688
33	0xbcf06151	-0.02934328
34	0x3d681295	0.056658346
35	0x3c9983b0	0.018739551
36	0xbc90c118	-0.0176702
37	0x3b7a2fd4	0.003817548
38	0x3d977e83	0.07397177
39	0xba8602a2	-0.0010224173
40	0xbda3edc2	-0.08004333
41	0xbcf31f66	-0.029678058
42	0x3c90ac86	0.01766039
43	0xbd4dd29e	-0.05024969
44	0xbd93cebe	-0.07217167
45	0x3c966ae6	0.01836152
46	0x3da97c82	0.08275701
47	0xbcda74d0	-0.026667029
48	0xbd9d990d	-0.07695208
49	0x3cad1af0	0.021131009
50	0xbd2b89ae	-0.04187935
51	0xbbd5cb67	-0.0065244916
52	0xbdb5d6d2	-0.08878864
53	0xbcf38684	-0.029727228
54	0x3bf38949	0.007432137
55	0xbc973a82	-0.018460516
56	0x3ce30f7b	0.027717343
57	0x3d1f73dc	0.03892885
58	0x3d8073f0	0.06272113
59	0xbd643fac	-0.055724785
60	0x3cad703f	0.021171687
61	0xbcf8c464	-0.030367084
62	0xbcee61e0	-0.029099405
63	0xbbede25c	-0.00725965
64	0xbd83fddf	-0.064449064
65	0xbcb1db25	-0.021710942
66	0xbd03170b	-0.032004397
67	0x3cb5b188	0.02217938
68	0xbd12f5b1	-0.03587884
69	0x3d979f9e	0.074034914
70	0xbd719ba1	-0.05898631
71	0x3b939749	0.0045041186
72	0x3dc85d7a	0.09783454
73	0xbc8ea853	-0.017414248
74	0x3d3b7f02	0.04577542
75	0x3d68c618	0.056829542
76	0xbd9d3999	-0.076770015
77	0x3cf003d7	0.029298706
78	0xbba35015	-0.0049839118
79	0x3ceceb34	0.028920747
80	0x3d8e7a09	0.0695687
81	0x3d88c311	0.06677831
82	0x3d88f84f	0.06687986
83	0x3d17986d	0.0370106
84	0xbd774c1b	-0.060375314
85	0x3d1f5cc5	0.03890683
86	0x3d8e6e66	0.069546506
87	0xbb5b635d	-0.0033475973
88	0xbccb5798	-0.024822041
89	0x3dcfec8c	0.101525396
90	0xbc099fed	-0.008399946
91	0x3cbcce32	0.02304754
92	0xbd8f09b1	-0.0698427
93	0x3c45617a	0.012047166
94	0xbcd65251	-0.026162298
95	0x3dbb5ac1	0.09148169
96	0x3be59139	0.0070058373
97	0x3d188c7a	0.037243344
98	0x3ce5616c	0.028000556
99	0xbd0993fe	-0.033588402
100	0x3dbd9331	0.0925659
101	0x3d402766	0.046912573
102	0x3d9ea53d	0.077463605
103	0xbd1016f0	-0.035178125
104	0x3d95b1fb	0.07309338
105	0xbdadcbec	-0.08486161
106	0xbd6e4a7d	-0.058176506
107	0xbc399c33	-0.011328745
108	0x3ca21ded	0.01978966
109	0x3bd8d630	0.00661733
110	0xbd604027	-0.05474868
111	0xbd132dd1	-0.035932366
112	0x3c5d0d1c	0.013491895
113	0x3c36f123	0.01116589
114	0xbc8482ca	-0.016175646
115	0xbb72da14	-0.0037056254
116	0xbd83611d	-0.06415007
117	0xbd34a638	-0.04410383
118	0xbc122a32	-0.008921193
119	0x3d636dff	0.055524822
120	0xbdc2925d	-0.09500573
121	0x3d2dc74e	0.0424264
122	0x3d7885cd	0.060674477
123	0x3cac416b	0.021027287
124	0xbc817d4b	-0.015806815
125	0xbcc0bbca	-0.023527045
126	0x3ca492eb	0.020089587
127	0x3d91dbf3	0.0712203
128	0xbce3286e	-0.02772924
129	0xbc488c87	-0.012240536
130	0x3cf84365	0.030305574
131	0xbd8b1050	-0.06790221
132	0x3d898b15	0.06715981
133	0xbc161ff9	-0.009162896
134	0xbd9b68e4	-0.07588366
135	0xbd0806f2	-0.03320975
136	0x3d9d17c8	0.076705515
137	0x3c2a68a8	0.010400929
138	0xbcfb06f6	-0.030642968
139	0xbdd913b9	-0.10599465
140	0xba4cda49	-0.00078145094
141	0xbc7bbfc2	-0.015365543
142	0x3d936a6a	0.07198031
143	0x3cd9df70	0.026595801
144	0x3d2c8b5d	0.042125095
145	0x3d6fcf35	0.058547217
146	0x3d50bb16	0.05095967
147	0x3cdd53a9	0.027017431
148	0x3d5dbe73	0.054136705
149	0x3d80e208	0.06293112
150	0x3d088f88	0.033340007
151	0x3dbbbe76	0.09167187
152	0xbd99a9e4	-0.07503107
153	0xbd93fda6	-0.07226114
154	0xbd1badc3	-0.03800751
155	0x3c592da1	0.013255508
156	0x3d2c753b	0.042103987
157	0x3dafb455	0.085793175
158	0xbd8004f9	-0.062509485
159	0x3d9733d8	0.07382935
160	0xbd63ce70	-0.055616796
161	0x3d90d388	0.070715964
162	0x3de0bd45	0.109736
163	0x3cd25c9f	0.02567893
164	0xba9b7570	-0.0011860561
165	0xbdcac676	-0.09901135
166	0x3c939e49	0.018019812
167	0x3dab7731	0.08372343
168	0xbd6d0ba6	-0.057872437
169	0xbd636bca	-0.055522718
170	0x3db03192	0.08603205
171	0x3c3c07bb	0.011476452
172	0xbae8f7e1	-0.0017774069
173	0x3d1afa90	0.03783661
174	0xbce5dd72	-0.028059695
175	0x3d91f815	0.07127396
176	0xbc0c0ae4	-0.008547518
177	0x3c378583	0.011201265
178	0x3da83761	0.08213688
179	0xbd98c473	-0.07459345
180	0x3b3d5017	0.0028886849
181	0xbd2ef4e4	-0.042714015
182	0x3b40f2f4	0.0029441686
183	0x3d63e115	0.055634577
184	0xbcbdc052	-0.023162995
185	0xbd92d8b6	-0.071702406
186	0xbda9501d	-0.082672335
187	0xbc45b0c0	-0.012066066
188	0x3cb2b94d	0.021816874
189	0xbcde7544	-0.027155526
190	0x3b83a921	0.0040179645
191	0xbb171e84	-0.002305896
192	0x3d2f0f51	0.042739216
193	0x3c08ba1e	0.008345155
194	0xbd30703d	-0.04307579
195	0xbd8ff59c	-0.07029268
196	0x3da09b9e	0.078421816
197	0xbd169ade	-0.036768787
198	0xbd6e14a4	-0.058125153
199	0x3da3efb4	0.08004704
200	0x3b65e79f	0.0035080684
201	0x3da72e6b	0.081631504
202	0xbd5432d0	-0.05180627
203	0xbd53b96f	-0.051690515
204	0x3d9cf4be	0.07663868
205	0x3dbad88a	0.09123333
206	0xbd3bd713	-0.045859408
207	0xbd90c424	-0.07068661
208	0xbd80f03b	-0.0629582
209	0xbb4ad771	-0.0030951167
210	0x3bdf16b8	0.006808128
211	0x3da9c462	0.0828941
212	0xbd0db2e3	-0.034594428
213	0xbcc750b8	-0.024330482
214	0x3d602633	0.05472393
215	0xbcd5cc34	-0.026098348
216	0xbc1f5f33	-0.009727287
217	0xbca31e8e	-0.01991203
218	0x3d202c02	0.03910447
219	0xbd67662d	-0.056493927
220	0x3d51261c	0.051061735
221	0xbc9d0ab1	-0.019170137
222	0x3dc7d4dc	0.097573966
223	0x3d86b6b4	0.065778166
224	0x3c8ea3e3	0.017412132
225	0xbd739940	-0.059472322
226	0xbd30c885	-0.04315998
227	0x3d44179e	0.047874086
228	0xbc795b83	-0.015219572
229	0xbc479fda	-0.012184108
230	0xbd17561e	-0.036947362
231	0xbd52495a	-0.051339485
232	0xbda2e277	-0.07953351
233	0xbca245d6	-0.019808691
234	0x3d154f6c	0.036452696
235	0x3c0a537b	0.008442755
236	0x3c9c309e	0.019066151
237	0x3d3e3d17	0.04644498
238	0xbcaadec9	-0.020858185
239	0xbd664705	-0.056220073
240	0x3d9f1a9c	0.07768747
241	0x3d333c94	0.043758944
242	0x3dbe3911	0.09288228
243	0xbd99f4a2	-0.07517363
244	0x3d7d4f56	0.06184324
245	0x3d9eb63f	0.077496044
246	0x3d964782	0.07337858
247	0xbcd2c5a7	-0.025729014
248	0x3ce98dd6	0.028510015
249	0xbd1efdd8	-0.038816303
250	0xbdb8500a	-0.08999641
251	0xbd8dacf8	-0.06917757
252	0xb9bdd700	-0.00036209077
253	0xbd77763a	-0.060415484
254	0x3d7abcb2	0.06121511
255	0xbd00cccc	-0.03144531

actor.2.weight f4 [2, 512]
0	0xbdb6695f	-0.08906817
1	0x3d4842d9	0.048891876
2	0xbc3bee01	-0.011470319
3	0x3d89b4db	0.067239486
4	0x3bf09455	0.0073419013
5	0xbc6e6bb1	-0.014552043
6	0xbd053567	-0.03252163
7	0x3bd9e328	0.0066493936
8	0x3c5744b4	0.013138939
9	0xbd58833e	-0.052859537
10	0x3c711902	0.014715435
11	0xbcbdfda3	-0.023192232
12	0x3dbaa98f	0.09114372
13	0x3d4aa6fe	0.049475662
14	0xbd4a3fdd	-0.04937731
15	0xbc53b531	-0.012921617
16	0x3cda597c	0.026653998
17	0xbcce44a2	-0.025179211
18	0xbcd13283	-0.025536781
19	0xbd4527eb	-0.048133772
20	0x3c00b0cb	0.007854651
21	0xbd6f1a8e	-0.058374934
22	0xbd56a048	-0.05239895
23	0xbd4c18bd	-0.04982828
24	0x3ccd4fd4	0.02506248
25	0x3d075f99	0.033050153
26	0x3d19487e	0.03742265
27	0xbaf87aeb	-0.0018957531
28	0x3d54156d	0.051778246
29	0x3c9df4f5	0.019281844
30	0x3d7862f2	0.060641237
31	0x3ca38c4d	0.019964362
32	0xbcf8544e	-0.030313637
33	0xbbcae64a	-0.0061920034
34	0xbd5f0d09	-0.05445579
35	0xbd17d3bf	-0.03706717
36	0xbcbbff93	-0.022949016
37	0xbc893c96	-0.016752522
38	0xbd50b13b	-0.05095027
39	0xbce30346	-0.027711522
40	0xbd1c0ba9	-0.038097057
41	0xbd372aa2	-0.044718392
42	0x3dab7697	0.083722286
43	0x3b84e9d5	0.0040561953
44	0xbc9d62a3	-0.019212073
45	0xbd82b9f0	-0.06383121
46	0xbd813c16	-0.063102886
47	0xbd7bd9f7	-0.061487164
48	0xbc148ebf	-0.009067236
49	0x3d1ec6f3	0.03876395
50	0x3d832a2e	0.064045295
51	0xbd1175c2	-0.035512693
52	0x3bcf4cb2	0.0063262815
53	0xbca2027f	-0.01977658
54	0x3d2ab8d1	0.04168016
55	0xbcffd0ce	-0.031227496
56	0xbdadfdd2	-0.08495678
57	0x3b02b017	0.0019941384
58	0x3d739ab3	0.059473705
59	0x3daa7e9a	0.083249286
60	0x3d2c8238	0.042116374
61	0x3d10f099	0.0353857
62	0xbd2e1f10	-0.042510092
63	0x3c9163aa	0.017747719
64	0x3b85783b	0.0040731705
65	0x3d606e8a	0.05479292
66	0x3b358288	0.002769621
67	0x3c80a6a1	0.015704455
68	0xbd4ad102	-0.04951573
69	0xbc893cec	-0.016752683
70	0x3a65b1eb	0.00087621686
71	0x3d772571	0.06033844
72	0xbd9ffadf	-0.07811522
73	0xbda161b3	-0.07879963
74	0xbacdca6e	-0.0015700588
75	0x3dc81e1e	0.097713694
76	0xbba73bc0	-0.0051035583
77	0xbc8eb440	-0.017419934
78	0x3d71c616	0.0590268
79	0x3c014efa	0.007892365
80	0xbcbb11d5	-0.022835651
81	0x3bbeddfc	0.0058248024
82	0xbd6346a1	-0.05548728
83	0xbd5a6bde	-0.053325526
84	0x3d363c98	0.04449138
85	0xbdc39d0b	-0.09551438
86	0xbda7517c	-0.08169839
87	0x3a2a5192	0.000649714
88	0x3c88d29a	0.016701985
89	0xbdb6b79a	-0.08921738
90	0x3c989f7b	0.018630734
91	0x3cc3639b	0.023851207
92	0xbd05181e	-0.032493703
93	0x3d13abad	0.036052395
94	0x3dbe2ac1	0.092854984
95	0xbceac73b	-0.028659454
96	0x3d1ef458	0.038807243
97	0x3c34e14c	0.011040043
98	0x388cf99a	6.722212e-05
99	0xbd1de41b	-0.038547616
100	0xbd04676d	-0.032325197
101	0x3c459a1b	0.012060667
102	0xbd854f61	-0.06509281
103	0xbd51d1e1	-0.051225547
104	0xbc832ccb	-0.01601257
105	0xbc0be8b4	-0.0085393675
106	0x3cb00cdf	0.021490512
107	0xbd0220c3	-0.031769525
108	0xbd5fd280	-0.054644108
109	0x3d230fe7	0.039810088
110	0xbda2f68f	-0.079571836
111	0xbd4164ee	-0.047215395
112	0xbd87dcb7	-0.06633895
113	0xbc01b9f8	-0.007917874
114	0x3c519675	0.012792219
115	0xbd3ce4f0	-0.04611677
116	0x3d3805b7	0.044927325
117	0x3c1306aa	0.008973757
118	0x3d187c25	0.03722777
119	0x3d749b7b	0.05971859
120	0xbd007755	-0.031363804
121	0x3cc93469	0.024561124
122	0xbc477fc7	-0.012176461
123	0xbd7f16c4	-0.06227757
124	0xbd84982f	-0.06474339
125	0x3d399075	0.04530378
126	0xbd941d08	-0.072321
127	0x3ddcaafd	0.10774801
128	0xba957195	-0.0011401648
129	0xbc8c064d	-0.017092848
130	0xbca1ab70	-0.019735068
131	0xbca669cd	-0.020314122
132	0x3d5b7c44	0.053585306
133	0x3bba6ee4	0.0056894887
134	0x3d4f093b	0.050545912
135	0xbc1929a5	-0.009348308
136	0xbd704215	-0.05865677
137	0xbccfa10a	-0.025345344
138	0xbd03cf37	-0.032180037
139	0x3ce7452f	0.028231231
140	0xbd3b4981	-0.045724396
141	0xbc2e4040	-0.010635436
142	0x3db2144b	0.08695277
143	0x3d9d02e6	0.076665685
144	0x3cb6e04d	0.022323752
145	0xbd0279d9	-0.031854484
146	0x3d2ac2ce	0.041689686
147	0xbbf5f3f8	-0.00750589
148	0xbcb1847c	-0.021669619
149	0xbda97a4e	-0.08275281
150	0xbcec7c8b	-0.02886798
151	0xbd028bbb	-0.03187154
152	0x3d2fb84e	0.042900376
153	0xbd5e22e8	-0.054232508
154	0xbadfca75	-0.0017073887
155	0xbcf9453f	-0.030428527
156	0xbd5942ea	-0.05304233
157	0xbd452b55	-0.048137028
158	0x3d9067a5	0.070510186
159	0xbc74c901	-0.014940501
160	0xbc9ad8af	-0.01890215
161	0xbd48a7df	-0.04898822
162	0xbcea3428	-0.028589323
163	0xbb6dde39	-0.0036295785
164	0x3da8ac37	0.082359724
165	0x3cdec585	0.027193794
166	0xbd718d2c	-0.058972523
167	0xbcc5c65c	-0.024142437
168	0xbd08fd4b	-0.033444684
169	0xbcef7d84	-0.029234655
170	0xbd9caa9c	-0.07649729
171	0x3c4cfc71	0.012511359
172	0x3c533cf3	0.012892949
173	0x3bfad84b	0.0076551787
174	0x3d0d958f	0.03456646
175	0xbd5b3a65	-0.053522486
176	0xbd3463a5	-0.04404034
177	0x3d0e2683	0.034704696
178	0x3bae199c	0.0053131115
179	0x3d478bba	0.048717238
180	0xbd78469b	-0.06061421
181	0xbcb8f2d0	-0.02257672
182	0x3b8ba9d7	0.00426219
183	0xbbb82422	-0.0056195417
184	0x3d3bf909	0.045891795
185	0xbd23c07b	-0.039978486
186	0x3ce0ae91	0.02742699
187	0xbdc0f4f6	-0.094217226
188	0x3d1644cd	0.036686707
189	0xbd70356f	-0.05864471
190	0x3d5d83f4	0.05408092
191	0x3cbb38a2	0.022854153
192	0x3c6a5280	0.014301896
193	0xbcef32ca	-0.029199023
194	0xbd5a1889	-0.053246055
195	0x3d1cb08e	0.038254313
196	0xbb7fbae2	-0.0039021303
197	0x3b4bf940	0.0031123906
198	0x3d918f20	0.07107377
199	0x3d3a2f0f	0.045455035
200	0xbd5b20c3	-0.05349804
201	0x3d5c58f8	0.053795785
202	0xbce8d0a8	-0.028419808
203	0x3c974b70	0.018468589
204	0xbd7becd8	-0.06150517
205	0x3d8ff5cd	0.07029305
206	0xbc9d342b	-0.019189915
207	0x3d557a78	0.05211875
208	0x3c8cfd3e	0.017210599
209	0xbd10f879	-0.035393212
210	0x3c002c18	0.007823013
211	0x3ce79946	0.028271329
212	0x3cc46c67	0.023977472
213	0x3c79d054	0.015247423
214	0xbd468c9a	-0.04847393
215	0xbcf43d64	-0.02981443
216	0x3d873fd8	0.06603974
217	0x3c6ec059	0.014572226
218	0x3d03f006	0.032211326
219	0xbd1fd6d7	-0.039023247
220	0xbcd49bde	-0.02595323
221	0x3dad7b9a	0.08470841
222	0xbc178ca1	-0.009249837
223	0x3d9107e1	0.07081581
224	0x3ce1ad98	0.027548596
225	0x3d72b6e2	0.059256442
226	0xbd52a0d7	-0.05142292
227	0xbd118450	-0.035526574
228	0x3caa421d	0.020783478
229	0xbcbcc3d2	-0.023042593
230	0xbd71ecfb	-0.059063893
231	0xbc7890ab	-0.01517121
232	0x3cc9001d	0.024536187
233	0xbceb4bce	-0.02872267
234	0x3b2b8659	0.0026172607
235	0x3d5d809c	0.05407773
236	0x3d26b8af	0.04070347
237	0xbd94ce8a	-0.07265957
238	0xbd9b51ae	-0.075839385
239	0xbda56972	-0.08076753
240	0xbda91018	-0.08255023
241	0x3d8c00e7	0.068361096
242	0xbd558830	-0.05213183
243	0x3ab01c4c	0.0013436168
244	0x3d04cdaf	0.032422718
245	0xbdb46b3f	-0.08809518
246	0xbb96c722	-0.004601375
247	0xbdb5d2d5	-0.08878104
248	0x3d83feb7	0.064450674
249	0xbd2b2a65	-0.041788477
250	0x3d3c2df4	0.04594226
251	0xbd75ca4d	-0.060007382
252	0xbd0500df	-0.032471534
253	0x3d917cf6	0.071039125
254	0xbc878b2c	-0.016545855
255	0xbc97c815	-0.018528024

actor.2.bias f4 [2]
0	0xbd06cf2e	-0.032912426
1	0xbce80aee	-0.028325524

critic.0.weight f4 [512, 127]
0	0xbda44606	-0.080211684
1	0xbddc2530	-0.107492805
2	0x3d9222ae	0.07135521
3	0x3d2348dc	0.039864406
4	0x3ce0f592	0.027460847
5	0xbcaafdfa	-0.020873059
6	0x3cdf42a5	0.027253458
7	0xbd587f24	-0.052855626
8	0x3e8154c1	0.25259975
9	0xbd898a07	-0.0671578
10	0x3d815b9a	0.063163
11	0x3d785bf6	0.060634576
12	0x3c9c0ea2	0.019049946
13	0x3cfd4ae5	0.030919502
14	0xbcd0bbc5	-0.02548016
15	0xbd3f5d2b	-0.04671971
16	0x3dbb77d7	0.09153717
17	0x3bc42795	0.005986164
18	0xbd793bde	-0.06084811
19	0x3d88e92c	0.06685099
20	0xbd239fca	-0.03994731
21	0xbcd87bf1	-0.026426287
22	0x3d0dc2c8	0.034609586
23	0xbd15fdbc	-0.036618933
24	0x3c6a8a77	0.014315239
25	0x3d97a60c	0.07404718
26	0xbcacb970	-0.021084517
27	0xbcbafd27	-0.02282579
28	0xbc8c9280	-0.0171597
29	0xbd814b83	-0.06313231
30	0xbc59a85b	-0.013284768
31	0xbd42c096	-0.047546946
32	0xbdcca737	-0.09992831
33	0x3dafa8c4	0.08577111
34	0xbc603905	-0.0136854695
35	0x3da00b80	0.078146935
36	0xbe10a95e	-0.14127108
37	0x3d35aa34	0.04435177
38	0xbcb372f8	-0.021905407
39	0x3d9ce4c6	0.076608226
40	0xbced3608	-0.028956428
41	0x3c7df694	0.015500683
42	0x3c6d4f86	0.014484292
43	0xbd5e9f60	-0.05435121
44	0xbe0dacef	-0.138355
45	0xbda6b19d	-0.08139346
46	0x3cceff82	0.02526832
47	0x3da77006	0.08175664
48	0xbe0ce71a	-0.13760033
49	0xbd8355a8	-0.06412822
50	0x3dc0f1d8	0.09421128
51	0x3d9eb902	0.07750131
52	0xbde77205	-0.113010444
53	0xbd576bce	-0.052593045
54	0xbcbee79d	-0.023303801
55	0x3de56d04	0.11202434
56	0xbda500e8	-0.080568135
57	0x3d374b04	0.044749275
58	0x3d3032f0	0.043017328
59	0x3cbf0743	0.023318892
60	0xbe1062f7	-0.14100252
61	0x3d3c339a	0.04594765
62	0xbd5663c3	-0.052341234
63	0x3c8df36a	0.017327983
64	0xbdc7dcae	-0.09758888
65	0x3d33e1bd	0.043916453
66	0x3c0d59f6	0.008627405
67	0x3d8e0cd7	0.06936043
68	0xbe90484a	-0.28180152
69	0xbd8cc559	-0.068735786
70	0xbcf84520	-0.030306399
71	0x3c938e1e	0.018012103
72	0xbd88d466	-0.06681137
73	0x3cd2a931	0.025715442
74	0xbd8ada03	-0.06779864
75	0x3bb8fb34	0.00564518
76	0xbe205c68	-0.1566025
77	0xbd3dc096	-0.046326242
78	0xbdb7d50d	-0.08976183
79	0x3db66e53	0.089077614
80	0xbd357975	-0.044305284
81	0xbd38e4ad	-0.045139957
82	0xbd53afe0	-0.0516814
83	0x3d8a3b63	0.06749608
84	0xbd4f7ca3	-0.050655972
85	0xbc495387	-0.012287981
86	0x3d8c0f8c	0.06838903
87	0xbd7485b8	-0.059697837
88	0x3dde642c	0.1085895
89	0xbd2e5028	-0.04255691
90	0x3becece0	0.007230386
91	0x3d38de03	0.045133602
92	0xba7384df	-0.00092895137
93	0x3cfeb67a	0.031092871
94	0xbce498ec	-0.02790495
95	0x3d18f9ea	0.03734771
96	0x3d930a9e	0.071797594
97	0xbbc61138	-0.006044533
98	0xbd595a3e	-0.053064577
99	0xbd3e94ae	-0.04652851
100	0x3d9869f1	0.07442082
101	0xbceb471e	-0.028720435
102	0x3d631248	0.055437356
103	0x3dc397d7	0.095504455
104	0x3d840d4d	0.064478494
105	0x3d8ab384	0.06772521
106	0x3ca72b5d	0.02040642
107	0xbd83dc3b	-0.0643849
108	0x3d44f594	0.048085764
109	0x3b839bf1	0.0040163924
110	0xbcab0c40	-0.020879865
111	0xbd95d0b2	-0.07315196
112	0x3c38cc6e	0.011279209
113	0x3b9f469d	0.0048607127
114	0x3b84c0ac	0.0040512886
115	0xbd9e2b97	-0.07723158
116	0xbd4e097e	-0.05030202
117	0xbd0c2f1c	-0.034224615
118	0xbd89026f	-0.06689917
119	0xbd79fc8b	-0.06103186
120	0x3db269f7	0.087116174
121	0xbbe9f893	-0.007140228
122	0x3cc8ff75	0.024535874
123	0x3cd27e43	0.025694972
124	0xbcdd2daf	-0.026999323
125	0x3d4ef83a	0.050529696
126	0xbdaf39ee	-0.08555971
127	0xbd8af96c	-0.06785855
128	0xbd968a39	-0.07350583
129	0xbdaa54ba	-0.083169416
130	0xbd94a02d	-0.072571136
131	0xbca3b618	-0.01998429
132	0xbca0df18	-0.01963763
133	0xbd8dc44c	-0.06922206
134	0x3c86f2c8	0.016473189
135	0xbd24882d	-0.04016893
136	0xbd38c8dd	-0.045113433
137	0xbd2d9340	-0.042376757
138	0xbd0c7db6	-0.034299575
139	0xbd900dcd	-0.07033882
140	0xbd049245	-0.032366056
141	0x3d608279	0.05481193
142	0x3d5dcd26	0.054150723
143	0x3d756d0b	0.059918445
144	0xbd19b4f2	-0.03752608
145	0x3c862948	0.016377106
146	0xbcaf2690	-0.021380693
147	0xbb5d470d	-0.0033764273
148	0xbd73847a	-0.05945251
149	0xbdafdd84	-0.085871726
150	0xbdaf6be6	-0.08565502
151	0xbd5e2eaa	-0.05424372
152	0x3d861434	0.06546822
153	0x3d4d5ce5	0.05013742
154	0x3d856047	0.06512504
155	0x3ca70e34	0.020392515
156	0x3d88b0e1	0.06674362
157	0xbdb2f52e	-0.087381706
158	0x3d89e24d	0.067326166
159	0xbd7db41b	-0.06193934
160	0x3d9180e4	0.07104662
161	0x3d3da6a9	0.046301518
162	0xbd9b0d72	-0.07570924
163	0x3ce19a1e	0.02753931
164	0x3d7629de	0.06009852
165	0xbdba3d53	-0.09093728
166	0x3da2ab8d	0.07942877
167	0x3d169b82	0.036769398
168	0x3d9b3984	0.075793296
169	0xbdb9305d	-0.09042428
170	0x3b289b00	0.0025727153
171	0x3cf052ca	0.029336352
172	0xbd30d6c4	-0.043173566
173	0xbb496a06	-0.003073336
174	0xbd318142	-0.04333616
175	0xbd9161ec	-0.07098755
176	0xbdac9d47	-0.08428436
177	0x3d3c81c1	0.04602218
178	0xbce2014e	-0.027588513
179	0xbcfc95b8	-0.03083311
180	0xbbf38480	-0.0074315667
181	0xbd802d73	-0.06258669
182	0x3d91ccef	0.07119166
183	0xbbc215f0	-0.0059230253
184	0xbd8f2957	-0.06990307
185	0x3d90981e	0.07060264
186	0x3c0d9770	0.008642063
187	0xbb19e2cc	-0.0023481129
188	0x3c1b1c98	0.0094672665
189	0xbdb497c1	-0.08818007
190	0x3c85b7a8	0.016322926
191	0xbdb09050	-0.086212754
192	0x3d8e8e52	0.06960739
193	0xbdb3abfe	-0.08773039
194	0xbcc15bb8	-0.023603305
195	0x3d97b726	0.0740798
196	0xbc26b760	-0.010175556
197	0x3d7199f9	0.05898473
198	0x3d93a30f	0.07208835
199	0x3bca1350	0.006166853
200	0xbd238e19	-0.039930437
201	0x3d7f497b	0.062325936
202	0x3bcc7c10	0.0062403753
203	0x3d539ec1	0.05166507
204	0x3d57d596	0.052693926
205	0x3a94ef31	0.0011362789
206	0x3d0f8750	0.035041153
207	0x3d79cf36	0.060988627
208	0xbd43a6bf	-0.047766443
209	0x3bfb62f0	0.0076717064
210	0x3d8211df	0.06351065
211	0x3caee3d0	0.021348864
212	0xbc3cb483	-0.011517647
213	0x3d5d734d	0.054065038
214	0xbd3fb53f	-0.04680371
215	0xbc944a48	-0.018101826
216	0xbcd97014	-0.0265427
217	0xbdb802fc	-0.08984944
218	0x3bb6e25d	0.005581184
219	0xbd06204e	-0.032745652
220	0x3d138678	0.03601691
221	0xbd9f5052	-0.07778992
222	0xbc91f09c	-0.017814927
223	0x3dae8c57	0.085228615
224	0x3b13b0d4	0.0022535818
225	0x3d183805	0.0371628
226	0x3d8ab6ae	0.06773125
227	0xbcc38d14	-0.023870982
228	0xbd17a9dc	-0.037027225
229	0xbd0b0a5b	-0.033945423
230	0xbd19befc	-0.037535653
231	0x3d3025aa	0.04300467
232	0x3d890980	0.06691265
233	0xbcbcaa14	-0.023030318
234	0x3d24a82d	0.040199447
235	0x3b1a6480	0.0023558438
236	0xbcbb84a8	-0.022890404
237	0xbc5df42c	-0.013546985
238	0xbd3b6c2d	-0.04575746
239	0xbce7d65a	-0.028300453
240	0x3d8bcb90	0.06825936
241	0xbbf4a2f5	-0.007465715
242	0x3b1e3520	0.0024140552
243	0x3d6cc19e	0.057801835
244	0x3d92a9dc	0.07161304
245	0xbd826cc4	-0.06368402
246	0xbd63a4b7	-0.055577006
247	0xbda06504	-0.07831767
248	0xbd053736	-0.032523356
249	0xbd5496fd	-0.051901806
250	0xbce53e9c	-0.027983956
251	0xbd1fa88f	-0.03897911
252	0x3d4ddd65	0.050259966
253	0xbc5fbe5b	-0.013656224
254	0x3df71634	0.12064782
255	0x3dac915c	0.084261626

critic.0.bias f4 [512]
0	0x3d7dda35	0.061975677
1	0xbd121a3f	-0.03566956
2	0x3d0d2681	0.03446055
3	0xbd963089	-0.07333476
4	0x3d629059	0.055313442
5	0x3d47cb87	0.048778083
6	0x3d3a97d8	0.045554966
7	0x3cae9c88	0.021314874
8	0xbd37bd2d	-0.044858146
9	0x3da868ba	0.082231
10	0x3da64258	0.08118123
11	0x3e082ba3	0.13297896
12	0x3caadaa5	0.020856211
13	0x3d8f81b3	0.0700716
14	0xbc84397f	-0.016140698
15	0xbbe9edcd	-0.0071389438
16	0xbcb36baa	-0.021901924
17	0xbcf10c05	-0.029424677
18	0x3dc5c394	0.09656444
19	0x3d0b302a	0.03398148
20	0xbba86c37	-0.0051398533
21	0xbba1e08b	-0.0049400977
22	0x3cb12bb1	0.021627279
23	0x3d0fe312	0.03512866
24	0xbd6908ca	-0.056893148
25	0x3d8a242a	0.06745179
26	0x3db4ce0c	0.08828363
27	0x3d963c26	0.07335691
28	0x3afd51b2	0.0019326715
29	0xbdb261a0	-0.08710027
30	0xbb976012	-0.004619607
31	0x3d959eea	0.07305701
32	0x3daff78b	0.08592137
33	0xbd8bdab5	-0.068288244
34	0xbda6705b	-0.08126899
35	0xbaafd06e	-0.0013413557
36	0x3b564b12	0.0032698554
37	0xbd9e4ff8	-0.077300966
38	0x3db6db7e	0.089285836
39	0x3cd7035a	0.026246715
40	0x3d1f1ed5	0.038847763
41	0x3cb4dac6	0.022076976
42	0xbcc77599	-0.024348067
43	0xbd8e7902	-0.06956674
44	0x3c94fda7	0.018187357
45	0x3b7a79a6	0.003821948
46	0xbda8a565	-0.082346715
47	0x3db06aa7	0.08614092
48	0x3dc11476	0.09427731
49	0xbcbf8d37	-0.023382766
50	0xbd35eadc	-0.044413432
51	0xbd4ae2b5	-0.04953261
52	0x3cff70ee	0.031181779
53	0xbd86bb97	-0.06578749
54	0xbd0b55e4	-0.03401746
55	0xbcd23078	-0.025657877
56	0x3cf83a4a	0.030301232
57	0xbd45f84b	-0.048332494
58	0x3bbffd6f	0.005859069
59	0xbc76bb5c	-0.015059318
60	0x3d812f2b	0.06307825
61	0xbd0dc64d	-0.034612942
62	0x3d9c2df9	0.07625956
63	0x3dc17a26	0.09447126
64	0x3cca854b	0.024721762
65	0xbd081f6d	-0.033233095
66	0xbd953324	-0.07285145
67	0xbb874e29	-0.0041291905
68	0x3badb08f	0.0053005884
69	0x3d9e7186	0.077364966
70	0xbd41788a	-0.047234096
71	0x3d877337	0.06613772
72	0xbc710301	-0.014710189
73	0x3d1911d4	0.037370518
74	0x3d778445	0.060428876
75	0xbcd91648	-0.026499882
76	0x3da2dcb4	0.07952252
77	0xbd925cf5	-0.071466364
78	0xba03a28d	-0.00050214754
79	0xbcd01179	-0.025398957
80	0x3d195a9c	0.037439927
81	0x3d1781b5	0.036988933
82	0xbc802e74	-0.01564715
83	0xbd66d841	-0.05635858
84	0xbd9bba64	-0.076039106
85	0x3d222fbc	0.039596304
86	0xbcc15d20	-0.023603976
87	0x3bf825fb	0.007572887
88	0xbd4745b8	-0.048650473
89	0xbdb0cb8a	-0.08632572
90	0xbbae3f4e	-0.005317605
91	0xbd3a5b76	-0.04549738
92	0x3d9aaef7	0.07552903
93	0xbd9c36be	-0.07627629
94	0xbcf7fd19	-0.030272054
95	0x3aad6106	0.0013227768
96	0xbd870b5d	-0.06593964
97	0x3c349518	0.011021875
98	0xbd83d293	-0.06436648
99	0x3bddbbe8	0.006766785
100	0x3cb96758	0.022632286
101	0x3ccdfff1	0.025146456
102	0x3d59aa69	0.05314103
103	0xbd15b09c	-0.03654538
104	0xbd828a3e	-0.06374024
105	0xbd49eaea	-0.049296297
106	0xbc108697	-0.008821151
107	0xbace7098	-0.0015750108
108	0x3da3b6f1	0.07993878
109	0x3bee690a	0.007275705
110	0xbc44249a	-0.011971617
111	0x3d871a52	0.06596817
112	0x3d188855	0.03723939
113	0x3c64f045	0.0139733
114	0xbd9a3acf	-0.07530748
115	0xbbd90f1f	-0.006624117
116	0xbc08f26b	-0.008358578
117	0xbc31d8e1	-0.010854931
118	0xbd7959cf	-0.060876664
119	0x3d939bc5	0.07207445
120	0x3dcad804	0.09904483
121	0x3d44350f	0.047902163
122	0x3c69fe77	0.014281861
123	0x3c9c48dc	0.01907771
124	0xbd9a8975	-0.07545749
125	0x3cb3d698	0.021952912
126	0x3caa1d72	0.020765994
127	0x3ce06087	0.027389778
128	0xbd85c75f	-0.06532168
129	0x3d32c067	0.04364052
130	0x3cda3f57	0.02664153
131	0x3d826da4	0.063685685
132	0xbd897c16	-0.06713121
133	0xbdb34456	-0.087532684
134	0xbc8b5193	-0.017006671
135	0x3d2c553f	0.042073485
136	0x3d08a4ee	0.033360414
137	0x3d43dc17	0.047817316
138	0x3d2c9b33	0.042140197
139	0x3d841f66	0.06451301
140	0x3d371bc3	0.04470421
141	0x3d8aadb4	0.067714125
142	0xbdb0a319	-0.086248584
143	0xbcb3ee5c	-0.021964245
144	0x3dbfa1d2	0.09357037
145	0x3d4b0bcd	0.0495718
146	0xbcb45900	-0.022015095
147	0xbd8e4f33	-0.069487
148	0x3d61a354	0.055087402
149	0x3d762f40	0.060103655
150	0xbd8a22be	-0.06744908
151	0xbd7b4519	-0.061345194
152	0xbc56e5d8	-0.013116322
153	0x3cfe0f70	0.03101322
154	0xbcc8a767	-0.024493886
155	0x3c1d30e2	0.009594174
156	0xbd51dc02	-0.051235206
157	0x3d940bb9	0.072287984
158	0xbd480620	-0.048833966
159	0x3d69f197	0.057115164
160	0x3d615988	0.055017024
161	0xbd80f58c	-0.06296834
162	0x3d6597b7	0.05605289
163	0x3d5b0bab	0.053477924
164	0x3dc1dacc	0.0946556
165	0x3cfe3730	0.031032175
166	0x3c5ab1a7	0.01334802
167	0xbd8dbb3e	-0.06920479
168	0xbd001dcb	-0.031278413
169	0x3da5ad8a	0.080897406
170	0xbd73226d	-0.059359003
171	0x3da09747	0.07841354
172	0xbd5586d0	-0.05213052
173	0xbd2a80bc	-0.041626677
174	0xbdb0c057	-0.08630436
175	0xbd8354e6	-0.064126775
176	0x3da1301a	0.07870503
177	0x3d7bd400	0.061481476
178	0xbd047718	-0.03234014
179	0x3de077b8	0.109603345
180	0xbd5bb3bd	-0.05363821
181	0x3d825191	0.06363214
182	0x3c2aa30f	0.010414853
183	0xbd4a09e5	-0.049325842
184	0xbd5242c3	-0.0513332
185	0x3d1985ef	0.037481245
186	0x3ca40d79	0.020025956
187	0xbda7e4bf	-0.08197927
188	0x3d0b95f9	0.034078572
189	0xbd715a83	-0.05892421
190	0xbd8d4efd	-0.068998314
191	0xbd959214	-0.07303253
192	0xbcc30e3b	-0.023810497
193	0xbd96bf95	-0.0736076
194	0xbd2b7527	-0.041859772
195	0xbd3941db	-0.04522882
196	0xbd4d1f71	-0.050078813
197	0xba4b9641	-0.0007766225
198	0xbd8712ee	-0.065954074
199	0x3d65bc20	0.056087613
200	0x3cce03d1	0.025148304
201	0x3d60cab1	0.0548808
202	0x3c6ecdb4	0.014575411
203	0x3d2a9b87	0.04165223
204	0xbc717ad8	-0.014738761
205	0xbd374b61	-0.04474962
206	0xbd4fc36e	-0.050723486
207	0x3d646f9a	0.055770494
208	0xba8e450d	-0.0010854319
209	0xbd75ab88	-0.059978038
210	0x3d648ca0	0.055798173
211	0xbd8636a2	-0.06553389
212	0x3d3c611d	0.045991052
213	0xbd188cb7	-0.03724357
214	0x3d76baa8	0.060236603
215	0xbd4e544d	-0.050373364
216	0x3db37cf8	0.0876407
217	0xbd3ef87a	-0.046623684
218	0xbdc1c49b	-0.09461328
219	0x3d009bdf	0.03139865
220	0x3d6ade96	0.05734118
221	0x3d3c6ba4	0.04600109
222	0x3c3d451d	0.011552122
223	0x3d52033e	0.051272623
224	0xbd089a01	-0.033349995
225	0x392e2b8e	0.00016610158
226	0xbd37d5d1	-0.044881646
227	0xbc365d65	-0.011130665
228	0xbd049a57	-0.032373752
229	0xbd519469	-0.051166926
230	0x3ca95c49	0.020673888
231	0x3d1140cc	0.035462186
232	0x3da910eb	0.0825518
233	0x3db45cae	0.0880674
234	0x3d4d0911	0.050057475
235	0x3d0756be	0.03304171
236	0x3d2075c0	0.039174795
237	0x3d8c7c0c	0.068595976
238	0xbc82de47	-0.01597513
239	0xbc58d402	-0.01323414
240	0x3df9ac13	0.12191024
241	0xbda05d62	-0.07830311
242	0x3c7c1973	0.015386927
243	0xbca8aeb3	-0.020591116
244	0xbd987193	-0.074435376
245	0xbda12769	-0.07868845
246	0x3a5c0540	0.00083931163
247	0xbd035e21	-0.03207219
248	0x3c60bb02	0.013716461
249	0xbc17d535	-0.009267141
250	0x3c79c0d5	0.015243729
251	0x3a94e651	0.0011360144
252	0x3d38de11	0.045133654
253	0xbd704673	-0.058660936
254	0xbd9b22f8	-0.07575029
255	0x3d43b5d5	0.04778083

critic.2.weight f4 [1, 512]
0	0xbd558c54	-0.05213578
1	0xbcaf26ca	-0.0213808
2	0x3d9c5eb7	0.07635253
3	0x3dccbb95	0.09996716
4	0x3dbea595	0.09308926
5	0xbcf92ccd	-0.03041687
6	0x3d0b3102	0.033982284
7	0x3d8fd031	0.07022131
8	0xbdad1479	-0.084511705
9	0xbd443777	-0.047904458
10	0x3e0cbd59	0.13744105
11	0x3dad936b	0.08475383
12	0x3d14bb03	0.03631116
13	0x3cd33954	0.025784172
14	0xbd567c28	-0.0523645
15	0x3d8b6486	0.06806283
16	0x3dc32db2	0.095302
17	0x3db9cb21	0.09071947
18	0x3e12babf	0.1432905
19	0x3cbc21bd	0.022965306
20	0x3e1edb9d	0.15513463
21	0x3d932563	0.07184865
22	0x3db515ff	0.08842086
23	0xbd457c54	-0.04821427
24	0x3db7fef6	0.08984177
25	0x3defab2c	0.1170257
26	0x3dc8cae3	0.098043226
27	0xbda222da	-0.07916804
28	0xbca0c049	-0.019622939
29	0x3dc5415a	0.096316054
30	0xbdcecd31	-0.10097731
31	0xbc3c6af6	-0.011500111
32	0xbdc6a074	-0.09698573
33	0x3d4e3e3b	0.050352316
34	0xbcccd8d7	-0.025005741
35	0xbd11726f	-0.035509523
36	0xbdf8799d	-0.12132571
37	0xbda44ceb	-0.080224834
38	0x3d9eb975	0.07750217
39	0xbd848dad	-0.06472335
40	0x3ced586d	0.028972829
41	0xbd3d6852	-0.046242066
42	0x3d1e72b1	0.038683597
43	0x3d430b79	0.047618363
44	0x3ddc4369	0.10755045
45	0xbdbb3f27	-0.09142905
46	0xbd1f421b	-0.038881402
47	0x3dae8fb7	0.08523505
48	0xbe1e0501	-0.15431596
49	0xbc573bf7	-0.013136855
50	0xbdb68a67	-0.08913117
51	0x3e085d49	0.13316835
52	0xbcc00e20	-0.023444235
53	0x3d9ff828	0.07811004
54	0x3d160283	0.03662349
55	0x3dc47591	0.095927365
56	0xbda5b9b3	-0.0809206
57	0xbe0051ac	-0.12531155
58	0xbc970bab	-0.01843818
59	0xbd4f6555	-0.050633747
60	0x3ac2535b	0.0014825867
61	0x3d6bd0ce	0.05757218
62	0x3d40eaf8	0.047099084
63	0x3dd40da7	0.103541665
64	0x3d9b91b6	0.075961515
65	0x3db80a81	0.089863785
66	0x3d9b6fa0	0.0758965
67	0xbc1fd9b7	-0.009756497
68	0xbd534561	-0.051579837
69	0x3d822c42	0.06356098
70	0x3d8b09d0	0.06788981
71	0xbcf9d25b	-0.030495813
72	0xbde18770	-0.11012161
73	0x3d5656fd	0.052329052
74	0xbb013aa9	-0.0019718802
75	0xbcb47aeb	-0.022031268
76	0x3d5054f6	0.050862275
77	0x3dcd5e6c	0.10027775
78	0x3dc9d6c8	0.098554194
79	0xbc879c4b	-0.016554018
80	0xbd91e0dd	-0.071229674
81	0xbd123ea2	-0.035704263
82	0xbdaafd31	-0.08349074
83	0xbd198056	-0.037475906
84	0x3d4d304e	0.050094895
85	0x3df59f5f	0.11993288
86	0x3db865e5	0.0900381
87	0x3b36479c	0.0027813679
88	0xbd2acba6	-0.04169812
89	0xbd5089ed	-0.050912786
90	0x3cbe3121	0.023216786
91	0x3d99fa45	0.07518438
92	0x3db1eaad	0.08687339
93	0xbcd3452c	-0.02578982
94	0xbe26b007	-0.16278087
95	0x3ddb0608	0.1069451
96	0xbc9804d9	-0.018556999
97	0xbca449a0	-0.020054638
98	0xbd43e937	-0.047829833
99	0xbc51847e	-0.012787936
100	0x3bf5ff34	0.007507229
101	0x3da2b1b8	0.079440534
102	0xbdebc56d	-0.11512265
103	0x3c9161e4	0.017746873
104	0x3d44755f	0.047963496
105	0x3d1f518c	0.03889613
106	0xbdf532f7	-0.119726114
107	0x3cd15741	0.025554301
108	0x3ddf2f7a	0.10897727
109	0x3da4b9ae	0.08043228
110	0xbd5f3c5d	-0.054500926
111	0xbc53f951	-0.01293786
112	0x3cee0fc0	0.029060245
113	0x3dcef16a	0.1010464
114	0xbcc138ac	-0.023586594
115	0xbc00bfa5	-0.007858192
116	0x3d942d71	0.0723523
117	0xbe0abe34	-0.13549119
118	0x3de12f14	0.109953076
119	0xbd3811b3	-0.044938754
120	0x3d529bd0	0.051418126
121	0x3db0dafe	0.086355194
122	0xbd966fae	-0.0734552
123	0xbcb8ede7	-0.022574378
124	0xbd2bc75d	-0.041938175
125	0xbd245142	-0.040116556
126	0x3d6e70a3	0.058212887
127	0x3d44bbb7	0.04803058
128	0x3d444763	0.047919642
129	0x3d1f6f69	0.03892461
130	0x3d9ec604	0.07752612
131	0x3c08fa58	0.008360468
132	0xbaf0a0b2	-0.0018358438
133	0x3c869b9a	0.016431618
134	0x3e1c6be9	0.1527554
135	0xbbf4c2df	-0.0074695195
136	0xbd0cae62	-0.034345992
137	0xbd4e9133	-0.05043144
138	0xbd8cf554	-0.0688273
139	0x3ca96749	0.020679133
140	0xbdc0b37d	-0.09409235
141	0xbc91ab83	-0.017781978
142	0xbdef0cdd	-0.11672375
143	0xbdede552	-0.11616005
144	0xbdea5b46	-0.1144319
145	0x3d63fff1	0.055664007
146	0xbe023441	-0.12715246
147	0x3d196e3e	0.03745865
148	0x3b6addbb	0.0035837728
149	0xbd08689c	-0.03330289
150	0xbd1585b9	-0.03650448
151	0xbe374ede	-0.17901179
152	0x3d8efff0	0.0698241
153	0x3d2f2846	0.042763017
154	0xbdade0f9	-0.08490176
155	0xbcd2796e	-0.025692668
156	0x3e014a8a	0.1262609
157	0xbda91870	-0.08256614
158	0xbd298c40	-0.04139352
159	0x3dbc7ebe	0.09203862
160	0x3c98c27e	0.018647429
161	0x3d23be90	0.039976656
162	0x3d4bdb51	0.049769703
163	0xbcfb2dd3	-0.0306615
164	0x3cd22d5d	0.025656397
165	0xbd906048	-0.07049614
166	0x3d96d0e5	0.07364062
167	0xbe266d40	-0.16252613
168	0x3dd74d71	0.10512818
169	0xbd81efc7	-0.06344562
170	0x3de4be95	0.11169163
171	0xbe008e86	-0.12554368
172	0xbd93361b	-0.07188054
173	0x3db38062	0.087647215
174	0xbcdbb84c	-0.026821278
175	0xbd615b92	-0.05501897
176	0xbcd59473	-0.026071763
177	0xbda2b6e1	-0.07945038
178	0xbd6a9d15	-0.05727871
179	0x3d8cf2eb	0.068822704
180	0x3d566d59	0.052350376
181	0x3b22f761	0.0024866688
182	0x3d7ab4c1	0.061207537
183	0xbb215509	-0.0024617335
184	0x3db6283f	0.08894395
185	0xbd221597	-0.03957137
186	0xbe2160e6	-0.1575962
187	0x3da9f9ba	0.08299585
188	0xbd596a4d	-0.053079892
189	0x3dae23fc	0.08502957
190	0x3c6d06ac	0.014466923
191	0xbd6ee853	-0.05832703
192	0x3d7e7363	0.06212176
193	0xbd9922af	-0.074773185
194	0x3d5a1ca8	0.053249985
195	0x3d6554be	0.05598902
196	0x3d99cf37	0.07510226
197	0x3d1f2f4b	0.03886346
198	0xbe20cadd	-0.15702386
199	0xbcf72c80	-0.030172586
200	0x3e093085	0.13397415
201	0x3da90f3b	0.08254858
202	0xbd162071	-0.036652032
203	0xbc68e442	-0.014214577
204	0xbcdfba9c	-0.027310662
205	0xbde9d014	-0.11416641
206	0xbdde893b	-0.108660184
207	0xbd693a79	-0.05694053
208	0x3d9a120b	0.07522973
209	0x3e031f41	0.12804891
210	0xbc714ad1	-0.01472731
211	0xbc134242	-0.008987965
212	0x3d8c9421	0.06864191
213	0x3dc53ea6	0.0963109
214	0x3d9f0f63	0.07766607
215	0x3dbdf941	0.09276057
216	0xbd325a00	-0.043542862
217	0x3d0f6617	0.03500947
218	0x3d177e5b	0.036985736
219	0xbe31d50b	-0.17366426
220	0x3df75731	0.12077177
221	0x3d8be7bf	0.068313114
222	0xbc533d20	-0.012892991
223	0xbe16da63	-0.14731745
224	0xbd52059d	-0.051274884
225	0x3defddf2	0.117122546
226	0x3a6671c7	0.0008790758
227	0xbcfd29ba	-0.030903686
228	0xbd7d8b3c	-0.061900362
229	0xbe14ecf2	-0.14543512
230	0x3c5b0fac	0.013370436
231	0xbd6b60b4	-0.05746527
232	0xbdbf28e7	-0.093339734
233	0xbd9a1df6	-0.07525246
234	0xbdc8b6ba	-0.09800477
235	0x3d49a952	0.049233742
236	0x3c54f2d6	0.01299735
237	0xbd5d0ef6	-0.053969346
238	0xbd9dd746	-0.07707076
239	0xbd7d9dd1	-0.061918084
240	0x3d99a367	0.0750187
241	0xbd4dba8a	-0.050226726
242	0x3dc700be	0.097169384
243	0x3d731f1e	0.059355848
244	0xbdaa74b0	-0.083230376
245	0x3d2de599	0.04245529
246	0xbd568294	-0.052370623
247	0x3dd0bd77	0.101923876
248	0xbc87ccae	-0.016577091
249	0xbc6c1848	-0.014410086
250	0xbccfabd8	-0.025350496
251	0x3d385ef2	0.045012422
252	0xbd68393e	-0.056695215
253	0x3d52a32d	0.051425148
254	0x3db53eb6	0.08849852
255	0xbc6703e4	-0.014100049
