results/env01/a2c/512-nodecay-new-7500/model.pth (torch, 532879 bytes, 7 tensors)

actor.0.weight f4 [512, 127]
00000000: 68cf 68bd 2127 5e3d 66eb d03d 7b6c 533b
00000010: 6fc9 59bd bc4f 373d 39b0 6ebd 0613 703d
00000020: 7fe8 9ebb 38ad b73d 883b 1bbd ac3c 9dbd
00000030: c8fd 993d 62ca 9c3d c95d 6fbd f28a 6f3d
00000040: dca6 683c 38cf 2fbc 38ea 973d 9f82 973d
00000050: 065c 0e3d 8a7f 993c 7ede a4bd 8adf 2f3d
00000060: 72b2 1d3c cb99 7b3c 09ae 003d 3b43 bc3c
00000070: 1439 cabc df5e cabd 779e a43d 2348 de3c
00000080: ec1c 67bd f97a 9dbd fd0c 48bd bb53 5cbd
00000090: e125 94bc c535 57bb 8802 a1bb 0c85 bb3c
000000a0: fe69 87bd 62f7 edbc 6530 403d 2b89 c13d
000000b0: 532c 063d bd1d 17bd 0545 a4bd 14bf 643d
000000c0: 6f9d 87bd 1445 eabc a308 333d c7de 213b
000000d0: 74c1 f2bc e285 203d 39ac 4d3d d67f 7f3d
000000e0: 4aa1 803c 3efd a03c 8d95 913d 9efd 57bd
000000f0: 64e7 a33c 44f4 6c3c baea a23d d40e 623d
00000100: cd18 c3bd bf32 863c 0a2c b83b 94a0 8dbd
00000110: 9fa2 aa3c 3c37 ab3d 774c 21bd 64a6 a53c
00000120: f178 d13c bc07 353d 3d8f 41bc e9c1 80bd
00000130: 3fa9 66bd 389a a53d 6bed 56bd 6d85 cdbd
00000140: e93d 7e3d 9cc9 34bd a3eb 053c 8738 453c
00000150: 8ca3 44bd cea0 d53c 0603 34bd 731d aa3c
00000160: 2723 b53c 1fee 833c fcbf a8bc 69b4 87bd
00000170: 1ac3 37bd 14b2 083d 5425 72bb bd6d c4bd
00000180: 8b38 da3d dddb 90bd 53ed ffba 0a02 2fbd
00000190: 31e6 513c c155 d9bb b2c6 ba3c 2179 aebd
000001a0: a1e0 613d 91b0 88bd 63e8 c9bc 8f95 a1bd
000001b0: 649d 2e3d bb10 a83b 4ee1 2cbd c4f3 2f3d
000001c0: 743d 813c d244 643c 9740 91bd 331e bb3b
000001d0: b858 163d fbd5 44bc a019 603a 2a71 04bd
000001e0: 1e0c 83bd 691b 34bd ec89 f3b9 97ff 493c
000001f0: 7232 c4bc d06b 6f3c 9e0d 0a3d b8a5 053c
00000200: 3f3f 06bd 7736 95bd a621 a13c 5b4f 1ebd
00000210: 4e3b 353c a665 47bd fa97 4bbc 4953 df3c
00000220: bb21 6ebb 26f3 533c a323 003d 649c 8ebc
00000230: e984 afbd 424d 143b 3f13 333c acc0 153d
00000240: 353d 213d 70d9 6b3c 8bdb 8d3d c88d 113d
00000250: 9a45 0dbc 6369 9ebd ed25 17bd a3ca 803b
00000260: 3192 67bd bb18 3c3d 4bdb 473d d8f3 5dbd
00000270: e676 3e3d 8061 23bd 7a15 51bc 2325 79bd
00000280: 7d38 22bd 02ce 343d 455e f1bc 979e 963d
00000290: 8f70 7cbb dc8a 71bd 3349 803d 82c4 04bd
000002a0: c65b 343d be01 863a 2e8d 15bd acbe 95bd
000002b0: 42bd 913d cb7c 963c 397b ff3c f08b b53c
000002c0: 95f3 943d 09b7 64bd a569 893c 9e99 b3bd
000002d0: 660d af3d 3798 6bbd dfbb 25bd 9418 66bc
000002e0: 2e55 cabc a9e1 6d3b 3e4c 863c 2f88 6d3d
000002f0: b2e3 e13b dcfa ea3b 45f4 b73d ae89 8cbd
00000300: 15c3 babd 8277 da3a 44b1 97bd 4d9b 783c
00000310: 8b8a a9bd e777 61bd afb7 573d b78d ef3c
00000320: 76dc 843d 7203 a0bd b0ac 9a3c b2a4 1dbd
00000330: c169 f13c e8ab 7a3d fb4f 2bbd 176c b5bd
00000340: 9aae babc 7f0f 97bd 168e ffbc 257a 38bc
00000350: 46f2 34bd 3842 a63d f4af 11bd baeb 05bc
00000360: fc6f b13d d5bd 803d c50b 9abd 0d54 35bc
00000370: 8d14 4abc c0dd 753b ccd4 b3bc b57e 473d
00000380: 3170 1dbd 3b8e 88bd 4c3a bd3c ef11 f53c
00000390: 0828 073c 200b 11bd 1b40 45bd 5059 503d
000003a0: c135 45bd 20f2 903b d58f 043d 2b47 b03c
000003b0: 0632 9d3c 175f e8bc 595b ac3d 2380 f53c
000003c0: af21 fb3c 7a32 21b9 6891 603c 7601 91bd
000003d0: ee5f 81bb db1f 103d 062b 843d 0529 41bd
000003e0: 60c1 8fbd 7d95 7c3d 7cdc 373d 7586 093d
000003f0: 7751 24bd 1516 cf3c a43f 0abc 8f00 623d
-0.056838423 0.054236535 0.10201149 0.0032260704 -0.053170618 0.044753775 -0.058273528 0.058611892
-0.004849493 0.08968586 -0.03789857 -0.07677588 0.07519108 0.07655789 -0.05843905 0.058482118
0.014199939 -0.010730557 0.074177206 0.07397961 0.03475573 0.018737573 -0.080502495 0.042937793
0.009625064 0.015356491 0.031415973 0.022981277 -0.02468542 -0.098813765 0.08038037 0.027134007
-0.056424066 -0.07689471 -0.04884051 -0.05379079 -0.018084468 -0.0032838446 -0.004913632 0.02289059
-0.06612013 -0.029048625 0.046921153 0.09449991 0.032757115 -0.036893595 -0.08020977 0.05584629
-0.06621825 -0.028597392 0.04370941 0.0024699436 -0.029633261 0.03919018 0.050213072 0.062377773
0.015701909 0.019652005 0.07108603 -0.052732103 0.020007797 0.014462534 0.07954927 0.055189922
-0.09526215 0.01638162 0.0056204842 -0.069153935 0.020829497 0.083601445 -0.039379563 0.020220943
0.025570365 0.04419683 -0.011813936 -0.062869854 -0.05631375 0.080860555 -0.052472513 -0.100352146
0.06207076 -0.044137582 0.008173856 0.012037403 -0.048007533 0.026077654 -0.043948196 0.020765996
0.022111489 0.016104756 -0.020599358 -0.066262074 -0.044863798 0.033372954 -0.0036948519 -0.095912434
0.10655316 -0.070731856 -0.0019525684 -0.042726554 0.01281123 -0.006632537 0.022799823 -0.08519197
0.055145863 -0.06674302 -0.024646943 -0.07889854 0.04263057 0.0051289476 -0.042207055 0.042957082
0.015776373 0.013932424 -0.07092398 0.005710387 0.036705703 -0.012013908 0.00085487403 -0.032334484
-0.063987955 -0.043971453 -0.00046451332 0.012329004 -0.023949835 0.014613107 0.033704393 0.008157186
-0.03277516 -0.07285779 0.019669365 -0.038649898 0.011061503 -0.048680924 -0.012426371 0.027261393
-0.0036336023 0.012936389 0.031283986 -0.017408557 -0.085702725 0.0022629057 0.010929882 0.0365607
0.039365012 0.014395103 0.0692664 0.035535604 -0.008622551 -0.07734945 -0.036901403 0.003930406
-0.056535903 0.045922022 0.04879312 -0.054187626 0.04650011 -0.039887905 -0.012761468 -0.060826432
-0.039604653 0.044141777 -0.029463897 0.07354467 -0.0038519239 -0.058970317 0.06263962 -0.032413967
0.044032834 0.0010223908 -0.036511593 -0.073117584 0.07116176 0.018370053 0.031186687 0.022161454
0.07273022 -0.05583862 0.016774008 -0.087695345 0.085474774 -0.05751821 -0.04046237 -0.014043946
-0.02469882 0.0036297834 0.016393777 0.057991203 0.0068935985 0.007171018 0.089821376 -0.06862198
-0.0911924 0.0016667696 -0.074068576 0.015173745 -0.08278378 -0.05504599 0.05266541 0.02924238
0.06487362 -0.07813157 0.018881172 -0.038487144 0.029469373 0.0611991 -0.041824322 -0.08858507
-0.022788335 -0.073760025 -0.031195682 -0.01125959 -0.044176362 0.08118099 -0.035568193 -0.008173877
0.086639374 0.062862076 -0.07521776 -0.011067403 -0.012334001 0.0037516207 -0.021952055 0.04870482
-0.038437072 -0.06667753 0.023099087 0.029915778 0.00824929 -0.035411 -0.04815684 0.050866425
-0.048146967 0.004423395 0.03236373 0.02151831 0.019188892 -0.028365655 0.08415861 0.029968327
0.03065571 -0.0001537296 0.013706543 -0.07080357 -0.0039482033 0.03518663 0.064535186 -0.04715826
-0.07019305 0.061666 0.044888005 0.033575494 -0.040116753 0.025279084 -0.008438025 0.055176314

actor.0.bias f4 [512]
00000000: ee1a d7bc 616c 89bc e5e4 6dbd a1c0 94bd
00000010: 8572 1d3d eb40 26bd fdbb 833c 4710 bdbd
00000020: 244e e3bc 020a 3abd 633b be3b e86f 9d3c
00000030: 2968 093d 4ea1 0e3d 8c13 19bd ee7f 3c3c
00000040: 9c37 cb3a e04f bcbb 5b40 563d 8264 3e3d
00000050: 2bdd 643d eeab 5f3b 1df1 513c 92e2 1fbd
00000060: 8b1d 073c bc1f 0bbd c704 a33d 641d 6f3d
00000070: b09a acbd 36d8 773d e565 ac3d 3dbc bdbd
00000080: e976 e83c 57e1 933d 03fa da3c cb25 54bd
00000090: 42c2 3fbb 33a6 263d 2d6e 48bd ab42 b13d
000000a0: 5561 a53c a10e 923c f49e 15bd dd98 9f3d
000000b0: 1608 b8bd 4d78 53bc e229 4d3d 3584 99bd
000000c0: 0341 833d f8a2 efba 80f4 7cbd 49b4 44bd
000000d0: 94d9 1e3d 26c1 163d 9612 9a3d e413 68bd
000000e0: 70d1 6bbd 966f 0a3d c4c9 0fbd 010e 683d
000000f0: 00a9 a13c 89cb 773d 556d 413c 49cb d93c
00000100: 2686 97bd 7e8f b1bd 1581 0d3c 655a 0cbd
00000110: b7cc 6c3c cb50 c23c 805e f3bc 0686 373d
00000120: 8071 32bd 41c0 bf3d 1246 1e3d d947 5a3d
00000130: a622 623d 3da5 56bd d900 e4bc c6aa 8e3d
00000140: 7707 82bd fca4 a23d a9cd 933d 7463 97bd
00000150: 2e44 883d fb81 29bd 9539 28bd 7815 54bd
00000160: 6699 6d3d f93e bfbb b964 57bd 0acb 5a3d
00000170: 1a36 563c 4f45 a9bd b3ff aabd 8b8f 3a3d
00000180: 3ade 23bd b98a dcbc 2b41 e3bc 25a8 a93d
00000190: a1d0 56bd 6571 d9bc 4660 76bd 85c5 b83d
000001a0: 841f 9abd bbaf eeb9 2bad 37bc 98ab b2bc
000001b0: dc02 a13d 6143 bb3d 3985 85bd 8224 b6bc
000001c0: a9a0 d13c 980e 82b9 4375 b73c 939e 97bd
000001d0: ef1b 3e3d 0786 943d 73fe 963c aa98 5fbd
000001e0: c5c0 943d 62d9 debc a285 47bd 1752 9e3d
000001f0: b021 01bd 4112 9cbd fb39 90bd ef12 ad3c
00000200: 59d5 373c ef85 a4bd acde 1f3d 42fb ee3b
00000210: cf1e 273c d967 aabd 94aa 8abd 5360 a43d
00000220: d7b1 58bd e167 343d da36 debc 70a1 18bc
00000230: c8cf 4bbd 49f3 abbd 9dd7 233d d358 983d
00000240: 3c5b 293d 689b e53b 9db5 84bd a2e8 21bd
00000250: 9e8a 57bc d8a2 aebc 9511 87bc 2e12 f438
00000260: 93d6 afbd 226f 57bd 61cc 833c 1418 40bc
00000270: 4387 55b9 d874 91ba 925b 223b fdee 67bb
00000280: 6d18 0fbd f27a 39bd 2b0e 9fba fb14 b0bd
00000290: 87ac b33d 33fa 903d 6b30 86bb a12e a53d
000002a0: f79f b1bd deeb bf3d 4df0 e33c 9726 b03d
000002b0: 8d2a e73c 9d57 683b f933 aa3c 0140 6a3c
000002c0: b829 63bd f679 3ebd ec60 c23d 0c1c 7a3a
000002d0: 5acd 363d 7873 a83d 6637 36bd 53a5 b1bd
000002e0: 7f04 433d bbe5 673d 170c a3bc 030f 433c
000002f0: 6030 e3bc f066 653d 67c0 a4bd a91a 413d
00000300: 01f4 84bd 7c04 023d 7af8 9a3b db76 33bd
00000310: 145b aebc 7be9 36bc 5425 383c 5687 233d
00000320: ae02 96bd ae49 e83c ddd3 b8bb a45d 873c
00000330: bbb4 54bd 6422 83bd d6b1 7bbd 4bd4 b7bb
00000340: 06ca 713d a054 e83c e771 893d 2fa0 4f3d
00000350: 4576 3a3a 4898 91bd 9316 adbc 042b 7abd
00000360: e470 55bd 5c95 99bd 846f cf3c ee85 2f3d
00000370: 86a3 d1bc 5487 9f3c 00eb 19bc 24d2 e83c
00000380: 7478 93bd bfbc 79bd 50f1 21bd 574a 79bd
00000390: 15e0 843c 362a 86bd 6353 acb9 8d60 1bbd
000003a0: a0bd 953d ef32 883c 975e 713c ec3d b43d
000003b0: 31e4 92bd 2f4f c43c 36a5 4bbd 3783 d73c
000003c0: 89be 4f3d f100 ae3d 5519 313d 9609 85bd
000003d0: f431 6d3d 7893 ec3c b4eb 72bd 7c47 9f3d
000003e0: bbd5 363d 76ea 3dbc 9f05 8c3c b61f 9c3d
000003f0: ac6a 883d 9e68 95bd c8dc cf3d 8c22 e83a
-0.026257958 -0.016775312 -0.05807962 -0.072633035 0.038439292 -0.040589254 0.01608085 -0.0923162
-0.027747221 -0.0454197 0.0058054193 0.0192184 0.0335466 0.0348218 -0.037372157 0.01150511
0.0015504244 -0.0057468265 0.052307468 0.04648257 0.055874985 0.0034129578 0.012813834 -0.039034434
0.00824679 -0.03396581 0.079598956 0.05837764 -0.08427942 0.06050893 0.08417872 -0.09264419
0.028377013 0.072207145 0.026730543 -0.051793855 -0.0029260074 0.040685844 -0.048933197 0.08655294
0.020188013 0.017829241 -0.036528543 0.07792828 -0.08985917 -0.0129071 0.05008877 -0.074959196
0.064088844 -0.0018282821 -0.06175661 -0.048023496 0.038781717 0.036805294 0.07523076 -0.056659594
-0.057572782 0.033797823 -0.035104528 0.05665398 0.019733906 0.06049684 0.011805852 0.026586192
-0.07398634 -0.08669947 0.008636733 -0.034265894 0.014453105 0.023720166 -0.029708147 0.04480555
-0.043565273 0.093628414 0.038641043 0.053291176 0.055208825 -0.052403677 -0.027832435 0.06966166
-0.0634908 0.079416245 0.07216961 -0.07392016 0.06653629 -0.041383725 -0.04107054 -0.051778287
0.05800762 -0.0058363643 -0.05258629 0.05341629 0.013074422 -0.08265173 -0.08349552 0.04554705
-0.040006854 -0.026921617 -0.027741035 0.08284024 -0.052445058 -0.026543329 -0.060150407 0.09022049
-0.075255424 -0.00045525827 -0.01121072 -0.021810338 0.078618735 0.09143711 -0.06519551 -0.022234205
0.025589304 -0.00024806405 0.022394782 -0.074032925 0.04641336 0.07252126 0.018431878 -0.05458895
0.0726333 -0.027203266 -0.048711427 0.07730501 -0.031526268 -0.07620669 -0.07042309 0.021127192
0.0112203 -0.08033358 0.039030716 0.007293136 0.010200216 -0.083205886 -0.067708164 0.08026185
-0.052903976 0.04404438 -0.027125765 -0.009315833 -0.049758703 -0.08396012 0.040000547 0.07438817
0.041346774 0.0070070513 -0.064799525 -0.039528497 -0.0131556075 -0.021317884 -0.016487876 0.00011638213
-0.08585849 -0.05259622 0.016088666 -0.011724491 -0.00020363652 -0.0011097444 0.0024773818 -0.003539025
-0.034935404 -0.045283265 -0.001213496 -0.08597752 0.08773141 0.07078972 -0.0040951273 0.080655344
-0.08673089 0.0937116 0.027824545 0.086011104 0.028218532 0.0035452612 0.020776736 0.014297486
-0.055459708 -0.04650303 0.09491143 0.00095409225 0.044629432 0.08225149 -0.044486426 -0.08674111
0.04761171 0.056615572 -0.019903226 0.011905435 -0.027733028 0.056006372 -0.0804451 0.047144566
-0.064918526 0.031742558 0.0047293277 -0.04381452 -0.021283664 -0.0111640645 0.0112393685 0.03992399
-0.0732473 0.028355446 -0.0056404904 0.016524144 -0.05193017 -0.06403044 -0.061448894 -0.005610024
0.059030555 0.028360665 0.06711178 0.050689872 0.00071129604 -0.071091235 -0.021128928 -0.06107618
-0.052109614 -0.07499191 0.02532173 0.042852335 -0.02559067 0.01947371 -0.009394407 0.028420515
-0.07200709 -0.060971018 -0.039536774 -0.06086191 0.016220132 -0.0655102 -0.00032868524 -0.037933875
0.07311559 0.01662585 0.014732025 0.08800873 -0.0717243 0.023963539 -0.049718104 0.026307685
0.050718818 0.08496273 0.04323705 -0.06495969 0.057908967 0.028878912 -0.059306815 0.077773064
0.044637423 -0.011591544 0.017092524 0.07623236 0.06660971 -0.07295345 0.101495326 0.0017710491

actor.2.weight f4 [2, 512]
00000000: 21e6 f93c 0791 f13c 8f24 f3bc 4b23 4a3d
00000010: 292d b03c 8158 ce3b 8348 4d3c 9320 193d
00000020: fac5 f83c 5811 6e3d bb33 9abc 57e0 8bbc
00000030: b78b f3bc 9648 a33c 93ae f73c 8370 68bc
00000040: f563 39bd b2a3 1c3c d8d0 c73b 0330 9a3b
00000050: df31 11bd 1f7d 873c db2a 97bc 046c 793d
00000060: a059 f5bc a527 cf3c ed01 443c 1960 443d
00000070: 6ced 083d 3b9f c4bc 6ac9 cfbb d107 83bc
00000080: e853 59bc b28f 1abd a9c0 0dbd d2a6 a0bd
00000090: 23b5 943c 3a12 14bd e381 9abc b49e a6bc
000000a0: e0ce ea39 2e96 aebb d3a9 4fbd 2cab fd3c
000000b0: ad5b 203d 5df1 213d ca52 7abb c54f 423d
000000c0: ce49 06bd eef9 01bd 5753 813b f8d5 5b3d
000000d0: aec5 193d 89c5 6b3d 5e3e cebb de12 e1bc
000000e0: c807 5b3d 37dd 533c e1e2 c63a c3a0 1ebd
000000f0: 2032 18bd 6ee6 1c3c 58be 0ebc 6140 a9bb
00000100: f25e 143d 7795 013d 40bd 593a c915 03bd
00000110: 7c93 813d f85e 7f3c 61c8 723c afe6 27bc
00000120: f216 f43c 97a3 5dbd 1909 9a3c a821 d0bc
00000130: 8fb0 383a dcfc 0fbd 0624 b93c c650 ff3c
00000140: ab79 8f3c 5933 233a 26c8 793d f224 483d
00000150: de0a 26bc 970a 1b3b a6b4 d4bc 9b25 813c
00000160: febb 133d 20bc 923c b847 293d eb00 4ebd
00000170: eab8 363d 3b0a 183d 9665 3dbd c8f6 cfbc
00000180: c046 363d 6e3f 813a 8655 03bd d120 2bbd
00000190: d1c1 5e3d 6c00 a8bc c025 13bd 56c1 fd3a
000001a0: be97 e23c 204c 673b 2e64 993c db6d 6ebd
000001b0: 84f6 60bd 771a 943d 275a 193d 046c 043b
000001c0: ee49 393d 89a7 aa3b e3f7 0e3d d5d8 83bd
000001d0: e8ca 883c c869 e23b 5e74 b83c 4b8f a2bb
000001e0: a276 57b8 142b d03c da11 37bd a47f 3a3c
000001f0: 4ef6 f9bc bd5d 81bd ce1f d13c 2111 853c
00000200: 2124 bfbb c126 753b aeb6 123d a52a 8fbd
00000210: d8f9 7cbd 286f 6e3b db87 493d b1d0 03bd
00000220: d87a 16bd e944 28bd b499 903d 1888 1abd
00000230: 2a99 803d 895c 093d 8ae6 3ebd 50de c9bc
00000240: eaa7 b03c 02b0 c33b ff4e 1b3d 47cd a23c
00000250: 5231 eb3c c211 87bc 9889 23bd b910 a93c
00000260: ac9b 113c 3d3c 7bbc 29de 2ebd 1639 373d
00000270: 1151 40bd 8a2e 853d 0fc1 763b 55fb b2bc
00000280: 4f12 933c b29a 1ebd a04c bb3a abc2 6e3c
00000290: 60f3 3c3d d74e 7e3d 8024 913c 68e7 613d
000002a0: 06e3 56bc 0cc9 b2bd 9174 5bbd 885f 52bd
000002b0: 82dc 10bd 0039 3a3d 00ad 6d3d 84a4 503c
000002c0: 5cd8 6cbd 56bf d7bc 9a5d 18bd 0f4a cebc
000002d0: 2e35 91bd d7b8 64bd 2f0d 64bd 07b4 503d
000002e0: ad73 593d 8dcb dbbc c11a 12bd db41 9f3c
000002f0: 2366 0fbb 30d6 053d 26ed 2c3d 091a 113d
00000300: e5df 5cbd bef3 2f3d ae47 8e3c ae3f 133c
00000310: ee08 3b3b c839 69bc f489 d53c 7fa9 093d
00000320: bb21 eabc c50c 523d 43da 973c cb19 8e3c
00000330: 19cd 123d bdf2 423c cbce f23c c08e 1abd
00000340: c10e 853d 56b9 c5bc f7f8 973c c90c a0bc
00000350: e2e9 a9bc a91c ec3c f739 c0bd 6fc3 293c
00000360: ff9c f239 c595 c83c 0008 e2bc e6da d43c
00000370: 05a5 953b 53b2 27bb 3089 07bd 50bd e6bc
00000380: c6cf 14bd 6c7d 8d3d 8a7f ae3c edf5 973d
00000390: 6fe5 9cbb 4956 44bd d5fa 0a3d 2be2 f03c
000003a0: d49c 6b3d a999 59bd 6f29 e53c 1ee3 4bbd
000003b0: 9100 0c3d 7338 3abc df38 42bd b7b6 7fbd
000003c0: 459d 8a3d d23c 913c ce00 7dbb b893 dcbc
000003d0: 9d74 88bd 6302 053d 9518 a93c 2a29 d4bc
000003e0: 6d0e 84bb 1d4e 483d 8d6e 6fbd 329e 29bd
000003f0: 07a4 b9bc 5ced 273c 5452 62bd 56ea 0dbd
0.030505242 0.0294881 -0.029680518 0.049350064 0.021505909 0.0062971716 0.012529495 0.03738458
0.03036784 0.05812201 -0.018823495 -0.017074747 -0.029729707 0.019932073 0.03023461 -0.014186981
-0.045261342 0.009560512 0.006097894 0.0047054305 -0.03544795 0.016539155 -0.018453052 0.060894027
-0.029949963 0.025287459 0.01196335 0.04794321 0.03342955 -0.024001708 -0.006341149 -0.015994938
-0.013264634 -0.037734695 -0.034607563 -0.078443184 0.018152779 -0.036150195 -0.018860763 -0.020339347
0.00044786092 -0.0053279614 -0.050699066 0.03096541 0.03914993 0.039536823 -0.0038196319 0.047439355
-0.03278523 -0.031732492 0.0039467025 0.053670853 0.037542038 0.05756143 -0.006294056 -0.027474817
0.053474218 0.01293116 0.0015173816 -0.038727533 -0.037157178 0.009576423 -0.008712374 -0.0051651453
0.03622336 0.03163668 0.00083060935 -0.032003198 0.063269585 0.015586607 0.014818282 -0.01024787
0.029796097 -0.05411109 0.018803166 -0.025406674 0.0007045352 -0.035153255 0.022600185 0.031166445
0.01751407 0.0006225608 0.060981892 0.04886336 -0.010134427 0.0023657435 -0.025965046 0.015765002
0.036067955 0.01791197 0.041328162 -0.050293844 0.04460994 0.03711913 -0.046239458 -0.02538623
0.044501066 0.0009860822 -0.032063983 -0.041779343 0.054384056 -0.020508014 -0.035924673 0.0019359987
0.027660247 0.0035293177 0.018724527 -0.058210235 -0.054922596 0.0723161 0.03743949 0.0020205984
0.04523652 0.00520796 0.034904372 -0.06437842 0.016698316 0.0069095828 0.022516426 -0.0049609295
-5.137048e-05 0.025411166 -0.04469476 0.011382971 -0.030512955 -0.06316707 0.025527861 0.01624352
-0.0058331643 0.0037407132 0.03581875 -0.06990556 -0.061761707 0.0036382172 0.049201827 -0.032181446
-0.036738247 -0.041081343 0.070605665 -0.037727445 0.06279214 0.033535514 -0.046606578 -0.02464214
0.021564443 0.0059719095 0.037917133 0.019873274 0.028710041 -0.01648796 -0.03992614 0.020637857
0.008887213 -0.015334186 -0.042692337 0.044732176 -0.04695231 0.06503017 0.0037651693 -0.02184836
0.017953066 -0.038721748 0.0014289804 0.01457278 0.046130538 0.062086906 0.0177176 0.055152327
-0.01311565 -0.08729753 -0.053577963 -0.051360637 -0.035366543 0.045464516 0.058026314 0.012734536
-0.057823524 -0.026336353 -0.03719864 -0.025181798 -0.07090221 -0.05584034 -0.055676635 0.050952937
0.053088833 -0.026830459 -0.035670046 0.019440582 -0.0021880947 0.03267497 0.04221835 0.03542522
-0.05392446 0.04295706 0.017368164 0.00898735 0.0028539258 -0.0142349675 0.026066758 0.03360891
-0.028580537 0.05128171 0.018536692 0.017346283 0.035840128 0.011898694 0.029639622 -0.037733793
0.06496955 -0.024136227 0.018551333 -0.019537346 -0.020741407 0.02882226 -0.09386056 0.010361536
0.00046274808 0.024485478 -0.027591705 0.025983285 0.004566791 -0.0025588467 -0.033089817 -0.028166443
-0.03633096 0.06908688 0.02130105 0.074199535 -0.004788093 -0.04793385 0.03393062 0.02940472
0.05752261 -0.053125057 0.027973859 -0.049777143 0.034180228 -0.011365998 -0.047417518 -0.06243011
0.06768278 0.017729197 -0.0038605216 -0.026925907 -0.06662867 0.03247298 0.020641604 -0.025898535
-0.00403004 0.04890262 -0.05845504 -0.041410632 -0.022661222 0.010249462 -0.055254295 -0.03464731

actor.2.bias f4 [2]
00000000: 9d30 a0bc caae 323d
-0.01955443 0.043623723

critic.0.weight f4 [512, 127]
00000000: 6044 abbd eeef 3838 06e5 08bd 8b99 afbc
00000010: da2e 093d 32e9 3f3d fb60 1f3c aba5 2d3d
00000020: cc89 bb3d 008e 6dbb 7766 5ebc 70d1 9b3d
00000030: ef38 9d3b dbdb c63b 05e7 1f3d 655c a83d
00000040: c0e8 fe3b e368 d0bd 982d 343d 4940 973d
00000050: 6627 75bc d210 9fbc 3477 32bd 355c fc3d
00000060: 6dcf 1b3e 1f4f 89bc f252 163d db3b bbbc
00000070: 8099 4fbe 662d 1f3d d451 923d 249f a9bb
00000080: 05ea 183e 777f 9cbd cdb0 bcbc d916 d93d
00000090: 3c4f 32be 941a 753d cf7f 983d c331 c7bc
000000a0: 4b65 0f3e 7c67 aebc f3fa ca3b 6870 f03c
000000b0: 04c8 703b 7b18 3dbd 881c 913d 3304 903d
000000c0: b9e1 343e ebe8 93bd ee79 6a3d 65ea 4e3d
000000d0: 493e 383d 2da7 81bd 4866 94bd b938 5fbb
000000e0: 1991 193d 6cd1 f338 416f b13c d293 afbd
000000f0: 802e 8dbd de20 cc3d a471 02bd b8be 093d
00000100: 13f3 913d 74a8 54bd b213 3cbd 9de7 26be
00000110: 93d5 923d 535d a33a 8d3e 0cbd 2e1c 9abd
00000120: 4233 9b3d cfa0 b8bd a596 ffbc f705 0bbe
00000130: 50c4 68bc 75e2 d43d 24d4 a33d b9d2 2e3c
00000140: 2fd7 1e3e 2433 533d 1f78 9abc ea6c 43be
00000150: c3ca ee3d ce55 653d e0c9 b0bc aaa0 6c3d
00000160: 24f2 e73c 2795 51bc 3ea4 17bd 1b66 30be
00000170: 0ebe 1e3d c1a9 743d 27c2 8c3d 9cef c63d
00000180: ecb7 bf3d d02a 4f3b d2e2 a8bc 3ba7 2abd
00000190: 9509 e53d e91a d7bc 9f05 f2bc ece5 4dbd
000001a0: e555 103d 0b20 333d 5ef2 a23a 5ff3 07be
000001b0: b437 763d cfbe 95bd bf9d 183d 41ef 8f3d
000001c0: 83b7 ac3d 0b8a 3bbd 806f 853c 1be1 dfbd
000001d0: 47a6 893d 1be1 a63d f685 55bc e96b 47bd
000001e0: 4931 283d 9d33 3cbd d823 713d 0c27 4c3c
000001f0: 7211 0f3e aecc 55bd 88c5 d03b c0aa 9abc
00000200: 391a 9c3c 8970 58bd 653b a13d deab ed3c
00000210: a7d8 afbd 4140 fa3c a01a 573d ee1d 133c
00000220: 4b8f db3c 24f3 f43a 532f e43c d62e 04bd
00000230: dde7 233d cd2b 07bd 1e31 c7b9 1860 423d
00000240: bd0d 8fbc 99ea 203d 495e e83d 7580 273e
00000250: f760 8bbd ff8c 3abd c550 6a3d b456 b33d
00000260: 1099 a4bd f0c1 49bd cc16 3cbc d9ee 683d
00000270: d9cb fbbc 49e7 1bbc aa5b 283d c364 30bd
00000280: 751f 2abd dd0d c93d aca0 0d3e f7b6 ec3d
00000290: 7676 96bd 5600 1bbd b2d6 bc3d 3a30 abbb
000002a0: 3877 9cbd f228 993d ce62 fe3c 5f50 3ebd
000002b0: fc94 94bd 154d 473c 422c 083d 3195 65bd
000002c0: 3b5d bbbc 3328 4f3d 78c6 bd3d 8a6a be3d
000002d0: b7ed ba3a 34d4 9fba 4b9d 55bd 4ae4 61bc
000002e0: 1c0e b83b 9b7c 983c 0eeb 893d 69d7 c93c
000002f0: c9bb 0abd 3918 50bd c124 8dbd 4388 3a3d
00000300: 5adf 893d f02f b23d 7575 17be 054f 073e
00000310: dab0 af3d f543 21bc eee3 3cbe 1efb 8a3d
00000320: 92eb 7dbd bc82 b8bc 7578 b9bd 5c5b 563d
00000330: 1af8 edbb d4bb 993c 91eb 63be 0a87 343e
00000340: 13f7 c53d b72d 9b3c a128 823c 50ee 413e
00000350: 8824 a63d 3bf8 f43c d4ba 88bd ca15 b53d
00000360: 4672 e8bc 1136 9a3d ba90 06be 391a f43c
00000370: d912 a1bd 9c2e 5cbd 00e2 d8bd 2059 b63b
00000380: 5095 0abd 2207 86bd 81f7 22be efab 053e
00000390: 23fe 76bd ff08 8b3d 1e39 62be 8c33 f43d
000003a0: 58da 533c a2fc 00bd 1686 5dbe 31c4 073e
000003b0: 00de be3d be0b 0e3d 306b 91bd fd58 093e
000003c0: fcb1 533d f3ab 43bd 6453 0dbe 54dc 1b3e
000003d0: 6fb6 533d b62f 533c 2cea e33c b0ce 843c
000003e0: 6caf 873d a077 02bd 54f6 9f3c 27c9 8d3c
000003f0: 2005 ccbc aeec a73d f81c 4a3d 0497 19bd
-0.08362651 4.409247e-05 -0.03342154 -0.02143552 0.033491947 0.04685325 0.009727712 0.04239432
0.09157142 -0.0036247969 -0.013574234 0.076083064 0.004798047 0.0060686893 0.039038677 0.08220748
0.007779211 -0.101762556 0.043988794 0.07385308 -0.014963007 -0.0194172 -0.043570712 0.123222746
0.15215845 -0.01676136 0.036700197 -0.02285569 -0.202734 0.038861655 0.07144514 -0.0051764417
0.14933021 -0.076414995 -0.023033524 0.10600061 -0.17413038 0.0598398 0.074462526 -0.02431572
0.14003484 -0.02128958 0.0061944663 0.029350474 0.0036740312 -0.046165925 0.0708552 0.07032051
0.17664231 -0.0722216 0.057245187 0.050516505 0.044981275 -0.063307144 -0.07246071 -0.003406091
0.03749189 0.00011626151 0.021659495 -0.08573116 -0.06893635 0.099672064 -0.031846657 0.03362915
0.07126441 -0.051918462 -0.04591722 -0.16299291 0.07169642 0.0012463726 -0.03423934 -0.07524906
0.07578136 -0.09015047 -0.031199763 -0.13576494 -0.014206961 0.10394756 0.07999447 0.010670357
0.15511774 0.051562443 -0.018856106 -0.19084516 0.116597675 0.055990033 -0.021580637 0.05777041
0.028313704 -0.012791908 -0.037021868 -0.1722645 0.03875547 0.059732202 0.06872969 0.097136706
0.09361252 0.0031611212 -0.020615969 -0.04166339 0.11183468 -0.026257949 -0.029543696 -0.0502681
0.035238165 0.04373173 0.001243185 -0.13276432 0.060111716 -0.073117845 0.037259813 0.07028056
0.084334396 -0.045785945 0.016288519 -0.10931607 0.06721168 0.08148404 -0.013032427 -0.048686896
0.041062627 -0.04594766 0.058872074 0.012460481 0.13971499 -0.05219715 0.006371204 -0.018880248
0.019055473 -0.052841697 0.07872657 0.029012617 -0.08586245 0.030548217 0.052515626 0.008979304
0.026801726 0.0018688184 0.027854597 -0.03227123 0.040016044 -0.033000756 -0.00037992833 0.047454923
-0.017462606 0.03928623 0.113461085 0.16357596 -0.06805604 -0.04554462 0.057205934 0.08756772
-0.08037007 -0.04925722 -0.011480045 0.056868408 -0.03073685 -0.009515592 0.041103043 -0.043064844
-0.041533906 0.09817097 0.13830823 0.11558335 -0.073468134 -0.037842117 0.092206374 -0.005224255
-0.07639927 0.07478513 0.031052973 -0.046463367 -0.07254979 0.012164374 0.033245333 -0.056050483
-0.022871604 0.050575446 0.092663705 0.092976645 0.0014261518 -0.0012193979 -0.05215196 -0.0137873385
0.0056169163 0.018614104 0.06734286 0.024638848 -0.033870492 -0.05080435 -0.06891776 0.045540106
0.06732054 0.087005496 -0.147909 0.13213737 0.08578654 -0.009842862 -0.18446323 0.06786178
-0.061992235 -0.022523277 -0.090561785 0.05233322 -0.007262242 0.018766321 -0.2225783 0.17629638
0.09666266 0.018942697 0.015888514 0.18938565 0.081124365 0.029903522 -0.0667626 0.088420466
-0.028374802 0.075298436 -0.13141146 0.02979766 -0.07864923 -0.053755388 -0.10589981 0.0055648237
-0.0338338 -0.06544329 -0.15914728 0.13053869 -0.060300957 0.06788825 -0.22092101 0.11923894
0.012930475 -0.03149093 -0.21633181 0.13258435 0.09319687 0.034679167 -0.071005225 0.13412853
0.05168341 -0.047771405 -0.13801342 0.15220767 0.051687654 0.012889793 0.027821623 0.016211838
0.06625256 -0.031852365 0.019526638 0.017307831 -0.024904788 0.0819944 0.049344033 -0.037497535

critic.0.bias f4 [512]
00000000: e184 703d 7b69 d83d f598 3f3d ec52 ce3b
00000010: 62de 6ebc 5635 72bc 26e9 3f3d 6604 ae3c
00000020: 68b4 293c 6d39 bfbc 9da9 a0bd 4ee5 57bd
00000030: 586e a53d 5268 043d 705c f13c 6bab 363d
00000040: 6220 af3d e1d4 3f3d 39f0 5e3c 0b42 86bd
00000050: 1051 25bc 8f0d 5d3d 75ba 60bd f890 55bc
00000060: dfeb 4a3d 9735 42bd 394a 28bd 30d5 86bd
00000070: 1536 8a3d 63d0 973c 218b b43d 7118 df3d
00000080: 16ad 03bd e2a4 9ebd db71 873d 6a3d 45bd
00000090: c9dc 2cbd a03c 3c3d 655c a13d a587 d73c
000000a0: 9a86 2cbc 1a65 60ba e19b 17bd cd6c f0bc
000000b0: 2aad 5c3d 3ddf 6e3a 7d49 b03d e929 703d
000000c0: c960 203d f6cd 153d 967d 3ebd 5af5 273d
000000d0: 1271 f23c e903 22bc 2f8d 7dbd 8075 773d
000000e0: 8fb2 b5bc 23e0 65bd c558 913c e2d9 953d
000000f0: bb18 a6bb 76df d03d 3689 103d 788b 95bb
00000100: d374 62bd 10c3 c6bc 2161 19bd 052c 6dbb
00000110: 9d9b 793c 2d54 43bd d03e 35bd acbe 78bd
00000120: 345e c33d bd81 6e3d 054c 113d abb7 b83c
00000130: 6ecd 9b3b c0b4 aa3d ae71 17bd b22e ab3c
00000140: ac27 31bc ce17 773d 0bda 333d 4781 88bd
00000150: 270b 27bb 23a8 6e3d c5f6 253d fcf7 6abd
00000160: 4007 413d 24e2 973d be3e 77bc d2fc 863d
00000170: 1f73 7f3c 2988 63bc 0c7f a0bd 6496 d43d
00000180: 1664 933d 1810 95bd 86ae 44bd 3ffa 5ebd
00000190: be0a c03d 8dd5 353c 26c4 923d 16b9 ca3d
000001a0: f6ac 623d 84f3 aa3d f3df 9d3d 24db dcbc
000001b0: c761 8f3d 83e6 d43d c1b4 8e3d 4cdf 603d
000001c0: 38f6 e9bc bac5 4dbd 6b7a b33c 749e 22bd
000001d0: a586 9bbd 6d5f 8f3d 898f c53c 9c2a 383d
000001e0: 43fa 59bd f051 d4bc bcaf 59bc c68d 72b8
000001f0: 6234 0b3d dac7 073d 8e79 cdbd 58ca 3dbd
00000200: 158b 983d b410 8b3b b5c6 a7bd dabe 753c
00000210: a68e 8d3d cbd8 7bbd 1f2c 7fbd 57b8 afbd
00000220: 7153 1c3d 1c33 1f3b f7a0 083b 0789 0d3d
00000230: 847b 63bd fb12 77bd 473c 10bd ed53 d73c
00000240: ab1d 993c 0b34 f0bc 5e89 fcbc afc4 c33d
00000250: 2a11 89bb 17b7 95bc e2dc 34bd 8926 a7bc
00000260: f1a3 00bd ec8a 71bd 76c3 13bd e071 c03c
00000270: 08d5 8d3c 0c0d 8bbd fd10 8e3c 5beb ad3d
00000280: 578c acba d4a7 6eba 379f c7bc b225 c1bc
00000290: 888c 5cbd 9d1d 1dbd b847 4abd dd15 fcbc
000002a0: f588 ef3c c765 753d 5a28 933c ed97 d73d
000002b0: 20b9 c7bc 58f2 6cbd cd81 a9bd e927 8ebd
000002c0: dfce 393d ec97 6d3d 1c68 c93c 4085 89bc
000002d0: a9c5 25bc c5bb 28bd 2cec f6bc f153 f3bc
000002e0: 5c65 8c3d 333b 793d 6ae7 84bd 70c8 793c
000002f0: 52c6 24bd 68ed 03bc 9334 7bbd b830 d33c
00000300: 95e4 32bd 8d03 6fbc 1a24 043d eaff 21bd
00000310: 7ce2 d93b 4a56 28bd bc12 81bd 0cd5 c3bc
00000320: 0141 50bd 7067 fcbc 3fba 1cbb c2e4 63bd
00000330: 3a6f 563c 91d2 8f3d b833 36bd 8bb4 233c
00000340: 16db 1abc d444 0dbd 06b5 913d 25b6 93bd
00000350: 354c 8fbd 912e 88bc 86c9 25bd e83e b13d
00000360: 1f5c c53d f91f 923d afb0 933d d0f6 1f3c
00000370: ca70 58bd 06a3 cd3d e94d b6bd 40cb a83b
00000380: ff25 0fbb 7c0a eb3c 7617 8abd e74b a13d
00000390: fec3 3a3d 97af 5f3d acfd a2bb 2492 9abb
000003a0: e19a 77bb b970 713d 3fef 423c f79c a13d
000003b0: a8d8 9bba 00fb 27bd 46e2 84bd a974 0bbd
000003c0: 3f2f 4fbd 5971 cc3a 5c9b 94bc d280 afbc
000003d0: 6e65 7dbd 09f4 053d 8396 50bd b8da 583c
000003e0: 722b 8e3d 3d6f 1abd 8632 703d 64b7 93bd
000003f0: 6a98 b93d bbf2 083c 0044 cf3c 9215 82bd
0.058720473 0.10566994 0.04677673 0.006296506 -0.014579387 -0.014783224 0.046853207 0.021242332
0.010357954 -0.023342812 -0.07844851 -0.052708916 0.08077687 0.03232605 0.029463023 0.04459707
0.085510984 0.046833877 0.013607078 -0.065555654 -0.010090128 0.05396801 -0.05486532 -0.0130350515
0.04954135 -0.04741439 -0.04108641 -0.06583631 0.067485966 0.018531984 0.08815599 0.10893334
-0.03214749 -0.07746293 0.06613513 -0.048154272 -0.042202745 0.045956254 0.07878951 0.026309798
-0.010530138 -0.0008559987 -0.037013892 -0.029348755 0.05387608 0.00091122446 0.08607767 0.05863372
0.0391548 0.036573373 -0.046506487 0.04100547 0.029594932 -0.009888628 -0.06190222 0.06041479
-0.02217987 -0.056121957 0.017742524 0.073169485 -0.005068866 0.10198872 0.035287105 -0.004563745
-0.055287194 -0.024262935 -0.037446145 -0.0036189568 0.015234855 -0.0476877 -0.044249356 -0.060728714
0.09539452 0.058229197 0.03547289 0.022548517 0.0047547137 0.083352566 -0.036973648 0.02089629
-0.010812681 0.060325436 0.043909114 -0.06665283 -0.0025488825 0.058265816 0.04051854 -0.057365403
0.047126055 0.0741618 -0.0150906425 0.065911904 0.015591412 -0.013887444 -0.07836732 0.10380247
0.07196824 -0.0727846 -0.048018 -0.054437872 0.09377049 0.011098278 0.071663186 0.098985836
0.05534073 0.08347228 0.077087305 -0.026959963 0.070010714 0.10395529 0.0696807 0.054900452
-0.028559789 -0.050237395 0.02190896 -0.039701894 -0.07594041 0.07000623 0.024116294 0.04496251
-0.053217184 -0.025917977 -0.013286527 -5.7829333e-05 0.033985503 0.033149578 -0.1003295 -0.04633555
0.07448403 0.0042439345 -0.08192197 0.014999116 0.06911974 -0.061486047 -0.062297937 -0.08580082
0.038165513 0.0024291938 0.0020847896 0.034554508 -0.055537716 -0.060320836 -0.035213735 0.026285136
0.018690905 -0.029321691 -0.03082722 0.09558999 -0.0041829543 -0.01827578 -0.044155963 -0.020404117
-0.031406347 -0.058970377 -0.036075078 0.0234918 0.017313495 -0.06789598 0.017342085 0.08492156
-0.0013164383 -0.0009103988 -0.024367912 -0.023577545 -0.05384496 -0.03835832 -0.049384803 -0.030772144
0.02924011 0.059911516 0.017963577 0.105270244 -0.024380267 -0.057848305 -0.08276711 -0.06941206
0.045363303 0.058006212 0.024585776 -0.016787171 -0.010117927 -0.041194696 -0.030141912 -0.029703112
0.0685527 0.060847472 -0.06489451 0.015245542 -0.040228195 -0.0080522075 -0.061329436 0.025780067
-0.043675024 -0.014588249 0.03226099 -0.0395507 0.0066493135 -0.041097917 -0.063024014 -0.0239053
-0.050843243 -0.030811042 -0.0023914722 -0.055638082 0.013088042 0.07022584 -0.044482917 0.009991775
-0.009451648 -0.034489468 0.071146056 -0.07212476 -0.06996957 -0.016623767 -0.04047539 0.086545765
0.09636711 0.071350046 0.07211434 0.0097634345 -0.05284194 0.1004086 -0.08901579 0.0051511824
-0.0021842716 0.028691523 -0.06742756 0.07875805 0.04559707 0.054610815 -0.0049740877 -0.0047171284
-0.0037781524 0.05894539 0.011897861 0.07891267 -0.001189013 -0.041010857 -0.06488471 -0.034046803
-0.050582167 0.0015597745 -0.018140487 -0.021423731 -0.06186431 0.032703433 -0.05092479 0.01323574
0.0694188 -0.03770374 0.058641933 -0.07212713 0.09062274 0.008358653 0.02530098 -0.063517705

critic.2.weight f4 [1, 512]
00000000: ec87 ae3d a9a0 0c3e 22b1 e43c 2236 05bc
00000010: 1b5a 68bd 1b5e b3bc 7edd 903c 79aa 613d
00000020: 96c9 56bd e483 8abc 4b07 ebbc 1d0e c83c
00000030: 7217 243d 418d 51bd 5a85 85bd 988b 53be
00000040: bc54 993d 3a3e 0f3d cfc6 84bd 12ea aabd
00000050: 5d17 3fbd 6f79 54bd 3733 f63d 31db fd3c
00000060: d7c5 9fbd 9f51 e33c e1d9 373d 7dbf 883c
00000070: 6f8a 3bbd 6ddd cb3d d984 f03d 90e3 a63d
00000080: 518d 21bd 7105 ffbd 8255 63bd ba7a c8bd
00000090: 11b3 be3d 322d 64bd 22c4 d03d ef1b 54bd
000000a0: 9825 833c 4059 6ebe 2701 373d 14ce 95bb
000000b0: 1525 8e3d 93f3 34bc 9efd ccbc 26be 18bd
000000c0: c837 8d3d 68e3 753d 9b8e babc 44f5 d23d
000000d0: 796c b1bc 343a 2a3d 8f83 28bd 27bb 303d
000000e0: 8a1c 033e 9e43 5bbd ffbf a63d ddad a3bd
000000f0: ed00 28bd c035 a73d 5270 12bd ff1b 4bbd
00000100: 2894 95bd a70f 00bd d7ae 8dbd 4542 c7bc
00000110: c3be 31be 93c4 a4bd bd9a 28bd 786c 2cbd
00000120: 2a8c 773d 4462 b23b 073e 7ebd 539d 513d
00000130: f2c4 5a3d e46b f53d 533c b7bc 03c8 9c3d
00000140: 78f9 963d cd82 35bd f8b9 a1bb 1eb3 bdbd
00000150: 03a8 69bc 1c04 a7bd ec23 f33d 4825 29bd
00000160: 98e7 483d 0a6f 26bd 27a9 93bd fa29 a1bd
00000170: 15e0 82bd c24c e7bd a67b 073d 5654 823d
00000180: 639f 63bd 0e10 32bd bde4 80bd 882b c8bc
00000190: 5db9 c9bd 9789 27bd 1f3c 0f3d 721e 31be
000001a0: 6cbf 18bd 2c00 29bd ddf8 9ebd 19c4 cf3d
000001b0: afbd 79bc 3df4 b43d 8bbf a6bd f816 20bd
000001c0: 47c0 83bd 45a0 c33d 150c a4bc 0ad2 8d3d
000001d0: 29eb 063e e16a bc3d f300 04bd e864 09be
000001e0: be1a f83d 4031 ebbc 4f2b 64bd 9d93 46be
000001f0: e916 39bd 6866 54bd 8e78 c5bc 9aa4 18bd
00000200: ba81 dabc 2944 9ebd 749f 563d ddd6 ad3d
00000210: 606a 9ebd c25a 053e a700 f03d 4ab4 58bd
00000220: aeb2 893d 6ae8 6a3d ccd8 9abd ff5c f63c
00000230: 4e4b d73c eae0 cb3d cb77 c5bc 227b 5cbd
00000240: 52a2 623c 6108 553d 4df7 98bc 03fc f03d
00000250: 2af7 573d 6bb3 a83d d4e3 33bd 105e b03c
00000260: b33f 34be 3d9d d1bd b89d e2bc 9c82 a1bc
00000270: 1ca8 883d 7a66 88bd cc77 81bd a070 4a3d
00000280: 77c4 483d 47ef 823d 6bd6 1bbd 9d5d 8a3d
00000290: e877 99bd ad3e 9b3d ea19 5b3c 90be 683d
000002a0: 441e 793d 96c0 35bd 5ec9 793d aafb 733d
000002b0: 39b5 b33d 9eca 6bbd 79da f9bc 0bf5 85bd
000002c0: 8672 063e 7419 303d b6b0 f2bd 6bb4 c0bd
000002d0: 0137 a5bd 6b8e b33d 6696 f23c 55a9 843d
000002e0: e64e acbc 817d 39bd 2e62 31bd 232f 3fbd
000002f0: c128 4dbd a1a0 f4bd 6f2c 3abd 613d 52be
00000300: 6065 6e3d b7f6 5abd 7946 0dbe 218f 923d
00000310: 889c 093e 1497 0f3e 7b57 883c 439c 35be
00000320: 371d c43d 71c4 c8bc 1985 c4bd f040 1abd
00000330: 5e7f b5bd 94af 933d 4d7d 41bd 72a2 18bd
00000340: df1c 423d 2ca2 07bd c340 fb3d 27a7 873d
00000350: 4425 4abd 4450 a4bd 5438 43be d70b 07bd
00000360: 4248 f73d 717d 193d 0a34 24bd dcd0 0c3b
00000370: ec50 a43d 0ba3 8a3d 4e9a 86bc 0471 cfbc
00000380: a007 283d 08d9 fb3c 388f a13d 7600 de3d
00000390: d763 3d3d ba97 e53c 4499 76be ad01 57bd
000003a0: 4b49 49bd d762 71bc 67d7 16bd e71b 933d
000003b0: d792 43bd b6ae 48be dc98 913d cdbb f03c
000003c0: fa6a 13bd 1a57 34bd 8269 37bd f3f7 a83d
000003d0: 787a 193d 4773 05bd 64c7 093d 0205 73bd
000003e0: 6ebb 2abd 70d4 8fbd 3090 163c 8420 d63d
000003f0: 057b cd3c 8cc3 2d3d 83c0 cdbd 02f3 3cbd
0.08522019 0.13733162 0.027916495 -0.008130582 -0.056726556 -0.021895459 0.01768374 0.055094216
-0.05243834 -0.016908593 -0.028690001 0.024420792 0.04006142 -0.0511601 -0.065195754 -0.2065872
0.07486865 0.034971453 -0.06483232 -0.083454266 -0.04665314 -0.05187362 0.12021487 0.030988308
-0.07801407 0.02774888 0.04488552 0.016692871 -0.045786317 0.09954343 0.11744089 0.08148873
-0.03944141 -0.1245221 -0.05550147 -0.09789033 0.09311498 -0.055707164 0.10193659 -0.051784452
0.016009137 -0.23276234 0.044678833 -0.0045716856 0.069406666 -0.011044401 -0.025023278 -0.037290715
0.06895405 0.060031325 -0.022773078 0.10300687 -0.02165817 0.041559413 -0.04114109 0.043147232
0.12803856 -0.05353128 0.08142089 -0.07992146 -0.041016508 0.08164549 -0.03575165 -0.049587246
-0.07303649 -0.031264927 -0.06918114 -0.024323592 -0.17357926 -0.08045306 -0.041163195 -0.04209563
0.060436405 0.005443843 -0.062070873 0.051175427 0.053410478 0.11983469 -0.022367632 0.07655337
0.07371801 -0.044314194 -0.0049354993 -0.092626795 -0.0142612485 -0.08155081 0.11872086 -0.04129532
0.04904899 -0.04063324 -0.072099976 -0.078693345 -0.063903965 -0.11293937 0.033076905 0.06363742
-0.055571925 -0.043472342 -0.06293628 -0.02443482 -0.09849808 -0.0409027 0.034969445 -0.1729677
-0.03729193 -0.04125993 -0.07762311 0.101448245 -0.015242978 0.08835647 -0.08142003 -0.039084405
-0.06433158 0.09552053 -0.020025292 0.069248274 0.13175644 0.09200073 -0.032227468 -0.13417399
0.12114476 -0.028710008 -0.055705365 -0.19392247 -0.045187864 -0.051855475 -0.024105337 -0.03726635
-0.026673187 -0.07727844 0.05239816 0.084882475 -0.07735133 0.13022903 0.117188744 -0.052906312
0.067235336 0.057350554 -0.07560882 0.03007364 0.026281025 0.09955008 -0.024104973 -0.053828366
0.0138326455 0.052009944 -0.01867261 0.117668174 0.05272595 0.08237346 -0.043918446 0.021529227
-0.17602424 -0.10235069 -0.027663097 -0.0197156 0.06672689 -0.06660171 -0.063216776 0.049423814
0.04901549 0.06393295 -0.03804628 0.067561366 -0.074935734 0.07580314 0.013372878 0.05682236
0.06081988 -0.044373117 0.060983054 0.059566177 0.087748 -0.057566278 -0.030499684 -0.06540879
0.13129625 0.042993024 -0.11850111 -0.09409412 -0.08067132 0.087673984 0.029612731 0.0647761
-0.021033715 -0.045285705 -0.043306522 -0.046675812 -0.050087694 -0.119447 -0.04545253 -0.20531227
0.058202147 -0.05345794 -0.13796414 0.07156206 0.13438618 0.14022475 0.016643276 -0.1773539
0.09575885 -0.024507733 -0.09595699 -0.037659585 -0.08862184 0.07211223 -0.047238637 -0.037264295
0.047390815 -0.033113644 0.12268212 0.06623679 -0.049351946 -0.08023122 -0.19064456 -0.032970276
0.12074329 0.037473146 -0.04008869 0.0021486795 0.08023247 0.06769379 -0.016431 -0.025322445
0.041022897 0.030743137 0.07888645 0.10839932 0.046237793 0.02802645 -0.24081904 -0.052491833
-0.049142163 -0.014733038 -0.036826517 0.07183056 -0.04774746 -0.19597897 0.07109234 0.029386425
-0.035990693 -0.04402838 -0.044778354 0.082504176 0.03747031 -0.03258064 0.03363742 -0.059330948
-0.041682653 -0.07022941 0.00918965 0.104554206 0.025083074 0.042422816 -0.10046484 -0.046130188
