results/env01/ppo/512-256-nodecay-tanh-3000/model.pth (torch, 532879 bytes, 7 tensors)

actor.0.weight f4 [512, 127]
0	0x3d943db1	0.07238329
1	0x3c51140d	0.012761128
2	0x3b833196	0.004003714
3	0xb9371b86	-0.00017462493
4	0xbcf5f906	-0.03002597
5	0x3d2c7b06	0.04210951
6	0x3d66f4a6	0.05638566
7	0xbc93e410	-0.018053085
8	0xbd7d150d	-0.061787654
9	0xbd908135	-0.07055894
10	0x3dc1280b	0.09431466
11	0x3e0769c7	0.13223945
12	0x3c8c9db7	0.017165048
13	0xbb79f7c7	-0.0038142072
14	0xbdb25ffb	-0.08709713
15	0x3cab356e	0.0208995
16	0x3d3f4a6b	0.04670183
17	0x3b5bab9b	0.0033519033
18	0x3d8a5691	0.067547925
19	0x3d941ae0	0.072316885
20	0x3cd05a07	0.025433553
21	0x3d919727	0.07108908
22	0x3d282a83	0.041056167
23	0x3b4379d0	0.0029827245
24	0xbe0568f6	-0.1302832
25	0xbd096b46	-0.03354957
26	0xbbf3280f	-0.007420547
27	0xbda3e1dc	-0.08002064
28	0x3dee1ae4	0.11626223
29	0x3d64e98a	0.055886783
30	0xbd5d218a	-0.053987063
31	0x3e03d054	0.1287244
32	0x3cf70431	0.030153366
33	0x3c870392	0.016481195
34	0xbc940625	-0.018069336
35	0x3d0ca6f7	0.034338918
36	0x3ae2e305	0.0017310089
37	0x3cc1d802	0.02366257
38	0x3dbe518b	0.09292897
39	0x3dcb8e3b	0.09939238
40	0xbd4f474e	-0.05060511
41	0xbd58b5a9	-0.05290762
42	0x3cd6e7d9	0.0262336
43	0xbcdf71f7	-0.027276022
44	0x3da700cc	0.08154449
45	0xbd544b04	-0.051829353
46	0xbd42dac4	-0.047571912
47	0x3ce7e8ef	0.028309314
48	0xbd33a155	-0.04385503
49	0xbc736e22	-0.014857801
50	0xbd367bfa	-0.044551827
51	0xbdf68ff4	-0.12039176
52	0x3d53cf54	0.051711395
53	0x3da7cc06	0.08193211
54	0xbd60dbd4	-0.054897144
55	0xbdd8c63b	-0.105846845
56	0xbd25e43f	-0.040500876
57	0x3da5f7a0	0.08103871
58	0xbc8a560a	-0.01688673
59	0x3b89f24b	0.004209792
60	0xbe073487	-0.13203631
61	0xbd897de7	-0.06713467
62	0x3d154dae	0.036451034
63	0xbe2aa3e8	-0.16664088
64	0xbc6c284f	-0.014413907
65	0x398872fe	0.00026025617
66	0x3d086593	0.033299994
67	0x3e018691	0.1264899
68	0xbd5c68bd	-0.053810824
69	0x3d5538e4	0.05205621
70	0xbdcb971a	-0.0994093
71	0xbdff126e	-0.12454687
72	0x3e11a6af	0.14223741
73	0x3da9f61d	0.082988955
74	0x3da37be5	0.079826154
75	0xbc48c4fa	-0.012253994
76	0x3d73b80c	0.059501693
77	0xbd1259ad	-0.035730053
78	0xbd78b534	-0.060719684
79	0x3d1355b7	0.035970416
80	0x3ddd2849	0.107986994
81	0xbd9639ef	-0.07335269
82	0xbda63994	-0.08116451
83	0x3d9dc806	0.07704167
84	0x3a4baa25	0.0007769189
85	0x3bb3e170	0.0054895207
86	0xbd7a4b9b	-0.06110726
87	0xbdf806ec	-0.12110695
88	0x3d242ec5	0.040083665
89	0xbd257cd7	-0.04040226
90	0x3d599432	0.053119846
91	0xbcdbac66	-0.026815604
92	0x3d8943f6	0.06702416
93	0xbda896d7	-0.082318954
94	0xbda19080	-0.07888889
95	0x3d5cba15	0.0538884
96	0x3cb0b8e5	0.02157254
97	0xbd28f4d3	-0.041249108
98	0xbd9cb228	-0.07651168
99	0xbda595b9	-0.08085198
100	0x3de88950	0.11354315
101	0xbd828e03	-0.06374743
102	0xbd283bf4	-0.0410728
103	0x3dbf76e5	0.09348849
104	0xbd0f8a3c	-0.03504394
105	0xba892892	-0.0010464361
106	0xbd2f5381	-0.042804245
107	0x3cb60cb1	0.022222849
108	0x3d9823c1	0.074286945
109	0x3d860c3f	0.065453045
110	0x3c655144	0.013996426
111	0x3d59f954	0.053216293
112	0xbc7e82fd	-0.01553416
113	0x3d62828a	0.055300273
114	0x3d935cfc	0.0719547
115	0xbcf96163	-0.030441945
116	0x3c4764f7	0.012170068
117	0xbbca7e3f	-0.0061796005
118	0xbca5e6fb	-0.020251742
119	0xbdb341da	-0.087527946
120	0xbdc48d00	-0.09597206
121	0x3a93642f	0.0011245067
122	0xbc5bf671	-0.013425455
123	0xbd7f3142	-0.062302835
124	0x3d087b1f	0.033320542
125	0xb9aa751e	-0.00032512186
126	0x3d9633ea	0.073341206
127	0x3d59f270	0.053209722
128	0x3d893566	0.06699638
129	0x3daca560	0.0842998
130	0xbcd3bb0a	-0.025846023
131	0xbcf8fbd4	-0.030393519
132	0x3dcde03e	0.100525364
133	0xbb822e80	-0.0039728284
134	0xbd20127a	-0.03908012
135	0xbb484ba2	-0.0030562659
136	0xbcc6f87e	-0.024288412
137	0x3c94381b	0.01809316
138	0xbde2badc	-0.11070797
139	0xbd9ab158	-0.07553357
140	0x3d9ab0a7	0.07553225
141	0x3cfc44b7	0.030794485
142	0xbded67ec	-0.11592087
143	0xbd19e0d8	-0.037567943
144	0x3b108bdb	0.0022056017
145	0xbd004779	-0.03131816
146	0xbd051f97	-0.03250083
147	0xbbf00ae2	-0.007325516
148	0x3dc8cc56	0.09804599
149	0xbce879ed	-0.028378451
150	0xbbed486d	-0.0072413
151	0xbd93a238	-0.07208675
152	0x3cddab2a	0.027059156
153	0xbd54143e	-0.051777117
154	0x3ddda861	0.10823131
155	0xbda67f7c	-0.081297845
156	0x3bc3f89b	0.005980564
157	0x3c6a7ec8	0.014312454
158	0xbd1e65b1	-0.0386712
159	0xbd39e9a1	-0.04538882
160	0xbd55fe27	-0.05224433
161	0xbd6961e5	-0.056978125
162	0xbbbde31f	-0.005794897
163	0x3de1d5ff	0.11027145
164	0xbd905d84	-0.07049087
165	0x3b95baec	0.004569402
166	0x3dff04f0	0.12452114
167	0xbc83f563	-0.01610822
168	0x3c912575	0.017718056
169	0xbd9755f6	-0.073894426
170	0xbd39b560	-0.04533899
171	0x3d84278d	0.06452856
172	0xbd496960	-0.04917276
173	0xbd248164	-0.04016246
174	0x3e00e168	0.12585986
175	0x3da5c874	0.08094874
176	0xbb4fba79	-0.003169684
177	0xbd9b66f8	-0.07587999
178	0xbcb42de0	-0.021994531
179	0xbdb5ff9c	-0.08886644
180	0xbd5d9180	-0.054093838
181	0xbd8fee78	-0.07027906
182	0x3de90f2a	0.113798454
183	0x3cc57c08	0.024106994
184	0x3c968f2c	0.018378817
185	0x3c2815f3	0.010259139
186	0x3e14db1f	0.14536713
187	0xbcde9b94	-0.027173795
188	0xbdb04aa1	-0.08607984
189	0xbd14d36c	-0.03633444
190	0xbb63b191	-0.003474329
191	0xbddb3afa	-0.10704608
192	0x3c9a3b11	0.018826993
193	0x3b970a43	0.0046093776
194	0x3d670be1	0.056407813
195	0xbca0f2a1	-0.019646944
196	0xbcafbd33	-0.021452522
197	0xbc2f7c0a	-0.010710726
198	0xbdd6efe6	-0.10494976
199	0x3cc3f718	0.023921534
200	0xbd9dd350	-0.0770632
201	0x3db22d83	0.08700087
202	0xbd4b0eff	-0.04957485
203	0x3d4ef42c	0.05052583
204	0x3ce446b9	0.027865754
205	0x3d6d75ae	0.057973556
206	0xbcbb4ef8	-0.022864804
207	0x3e2e080d	0.16995259
208	0x3c4caab3	0.01249187
209	0xbd84509a	-0.06460686
210	0x3cdf3a76	0.027249556
211	0x3b8fcb6a	0.0043882625
212	0xbcb46c10	-0.022024184
213	0xbda327f6	-0.07966606
214	0xbd92df33	-0.07171478
215	0x3df51f36	0.11968844
216	0xbcb68f1c	-0.022285037
217	0x3d43e750	0.04782802
218	0x3c571cbf	0.013129412
219	0x3db25a41	0.08708621
220	0xbdafc467	-0.08582383
221	0xbd81d54a	-0.0633951
222	0xbd17f827	-0.03710189
223	0x3d063bf7	0.03277203
224	0xbb03bc66	-0.0020101308
225	0xbd0ee9f8	-0.0348911
226	0xbd7a8aa3	-0.06116737
227	0x3c1798f6	0.009252777
228	0x3d3835e3	0.044973265
229	0x3c08d137	0.008350662
230	0xbddc0703	-0.10743525
231	0x3de2cb5f	0.11073946
232	0x3da14697	0.07874792
233	0x3b873ac9	0.004126881
234	0xbd8f1385	-0.06986145
235	0x3d99d7ae	0.07511841
236	0xbd5f1abb	-0.05446885
237	0xbdc890ad	-0.0979322
238	0x3d059b39	0.032618735
239	0x3e0ee0c6	0.13952932
240	0xbdac6c05	-0.084190406
241	0xbdbeff78	-0.093260705
242	0xbd2a3a1a	-0.041559316
243	0xbc4b11d0	-0.012394384
244	0x3d84e0cc	0.06488189
245	0x3bdb1860	0.0066862553
246	0x3e0eaf6b	0.13934104
247	0xbad219d8	-0.001602943
248	0xbd843577	-0.0645551
249	0xbc341a44	-0.01099259
250	0xbda7f841	-0.082016475
251	0xbcb22e00	-0.02175045
252	0x3d88c686	0.0667849
253	0xbda93d88	-0.08263689
254	0xbbc6a60f	-0.006062276
255	0x3c8b9c1d	0.017042214

actor.0.bias f4 [512]
0	0x3dbe043d	0.09278152
1	0xbcb1d701	-0.021708967
2	0xbd9305ff	-0.07178878
3	0x3d2649b5	0.040597636
4	0x3d516717	0.051123705
5	0xbd93ca04	-0.07216266
6	0x3daf042f	0.0854572
7	0xbdc65f14	-0.096861035
8	0xbb142cc9	-0.0022609702
9	0xbcf9aba3	-0.03047735
10	0xbdb31882	-0.08744909
11	0xbc68073d	-0.014161882
12	0x3d81ca24	0.063373834
13	0x3b78f0cf	0.003798533
14	0xbd49da9f	-0.04928076
15	0xbd3df532	-0.046376415
16	0xbd9bf479	-0.07614989
17	0xba8a7494	-0.0010563307
18	0xbcd8dd9d	-0.026472861
19	0xbd191caa	-0.03738085
20	0xbd9e39d7	-0.07725876
21	0xbd9b4a68	-0.07582551
22	0xbd64d6bc	-0.05586885
23	0xbd997ffc	-0.07495114
24	0x3d11b646	0.03557422
25	0x3da63b4a	0.08116777
26	0xbd06d0df	-0.03291404
27	0x3d264acb	0.040598672
28	0x3d21a23d	0.039461363
29	0xbd81ff4f	-0.063475244
30	0x3da87b06	0.0822659
31	0xbd00cdf7	-0.031446423
32	0xbd821cbe	-0.063531384
33	0x3d6db201	0.058031086
34	0x3d88c0cb	0.06677397
35	0x3dc5ba56	0.096546814
36	0x3daa8f0e	0.08328067
37	0xbd59589c	-0.05306302
38	0xbd98e943	-0.07466366
39	0xbd4f489c	-0.050606355
40	0x3d86f3c8	0.06589466
41	0xbd1440b1	-0.036194507
42	0xbd9d85c4	-0.076915294
43	0x3cac7a45	0.021054396
44	0xbcfb1346	-0.030648839
45	0xbd10fea9	-0.035399113
46	0x3d4b284c	0.049598977
47	0x3cddf716	0.027095359
48	0x3d509151	0.050919835
49	0x3d8cfab3	0.068837546
50	0xbd6edeed	-0.058318067
51	0xbd959953	-0.07304635
52	0x3cac29bf	0.021016
53	0x3d68737f	0.05675077
54	0xbd22f2b1	-0.03978223
55	0xbd570a1d	-0.05249988
56	0xbd7b8b67	-0.06141224
57	0xbd21ad5d	-0.039471973
58	0xbcca8e3c	-0.024726026
59	0x3da037b0	0.078231215
60	0x3d0d3fa1	0.03448451
61	0x3d024c2d	0.031810928
62	0xbcc76d39	-0.024344074
63	0xbd1e0cf8	-0.038586587
64	0x3d9fad53	0.07796731
65	0xbd316393	-0.043307852
66	0xbd85a50e	-0.06525622
67	0x3d1d5e80	0.0384202
68	0x3cefda29	0.029278832
69	0x3d39d198	0.0453659
70	0x3d805e61	0.06268001
71	0x3c2884e7	0.010285593
72	0xbd92b577	-0.07163518
73	0xbc97bef4	-0.01852367
74	0x3cd5fb57	0.026120825
75	0xbcbf9550	-0.023386627
76	0xbcf001e8	-0.029297784
77	0x3c2f943e	0.010716496
78	0xbcc1ad6b	-0.023642262
79	0x3d02f597	0.031972494
80	0x3d4a3c25	0.049373765
81	0x3cd1cf61	0.025611581
82	0xbc723c15	-0.0147848325
83	0x3abd1dff	0.0014428495
84	0x3cf58d7e	0.029974695
85	0xbc8c99a0	-0.017163098
86	0x3d2ec199	0.042665098
87	0x3d6520c0	0.055939436
88	0xbcb53d07	-0.022123827
89	0xbc672bb2	-0.014109539
90	0x3da6e2cb	0.08148726
91	0xbbea4901	-0.007149816
92	0xbddac5ab	-0.106822334
93	0xbd3c82d1	-0.046023194
94	0x3cdd721e	0.027031954
95	0xbcf266cf	-0.029590039
96	0x3d1e563f	0.03865647
97	0xbd56a7e1	-0.052406196
98	0x3dae0314	0.08496681
99	0x3cc64443	0.024202472
100	0xbda83f7e	-0.08215235
101	0xbcf227a1	-0.029559912
102	0x3dc3ef1d	0.095670916
103	0xbcad7935	-0.02117596
104	0x3d552fa2	0.05204738
105	0xbc8756f4	-0.016520955
106	0xbdabb595	-0.083842434
107	0xbd12aac6	-0.035807393
108	0x3c08f623	0.008359465
109	0x3d83f3c9	0.06442983
110	0x3da53981	0.080676086
111	0xbd27e7d2	-0.040992565
112	0xbd6204c1	-0.055180315
113	0x3da241a8	0.07922679
114	0x3d5ab866	0.053398512
115	0xbd6d237d	-0.057895172
116	0x3b177833	0.0023112416
117	0x3c9bbdd6	0.01901142
118	0x3cde27c4	0.027118571
119	0x3d8b63db	0.06806155
120	0x3c165f83	0.009178045
121	0x3d7858c8	0.060631543
122	0xbcd97331	-0.026544185
123	0x3dce19be	0.10063504
124	0x3c93f71f	0.018062172
125	0x3dc25383	0.09488585
126	0xbd553475	-0.05205198
127	0xbcbe28b2	-0.023212764
128	0xbd7a6114	-0.061127737
129	0xbdad3d70	-0.08458984
130	0xbaf18cda	-0.0018428818
131	0xbd18a942	-0.03727079
132	0xbd88e20e	-0.066837415
133	0xbcd62e23	-0.026145047
134	0x3db62b72	0.08895005
135	0x3b999033	0.0046863793
136	0xbd6c5fda	-0.0577086
137	0xbc283ed8	-0.010268889
138	0x3cfadab9	0.030621873
139	0xbcfa11a0	-0.030525982
140	0xbd99082f	-0.07472264
141	0x3d8f7092	0.07003893
142	0xbd77e05e	-0.060516708
143	0x3bcd1b1a	0.0062593343
144	0xbb5fa0d0	-0.0034122951
145	0x3d3d8935	0.04627343
146	0xbd906403	-0.07050326
147	0x3cb2a923	0.021809166
148	0x3d65eaca	0.056132115
149	0x3c9ba313	0.018998658
150	0x3d62406a	0.05523721
151	0x3d101c8c	0.035183474
152	0x3d3bafd0	0.045821965
153	0xbb124157	-0.0022316778
154	0x3d82a6c9	0.06379468
155	0xbda65f07	-0.08123594
156	0x3d0a609c	0.03378354
157	0xbd8df696	-0.06931798
158	0x3d436125	0.047700066
159	0x3a9eb2c2	0.0012107717
160	0x3b9658a9	0.004588206
161	0xbc56c4a5	-0.013108407
162	0xbd796b7e	-0.06089353
163	0x3d2f716f	0.042832788
164	0x3da93aef	0.08263194
165	0x3d91dd4c	0.07122287
166	0x3d444d8e	0.047925524
167	0xbc88d774	-0.016704299
168	0x3db89c2c	0.090141624
169	0x3c145551	0.009053544
170	0xbcf28536	-0.029604536
171	0x3d928f50	0.07156241
172	0xbd829594	-0.06376186
173	0x3d56e084	0.05246021
174	0xbd2e0829	-0.04248825
175	0xbd77afdb	-0.060470443
176	0x3c615a11	0.013754384
177	0x3bf8975a	0.007586402
178	0xbd082cd2	-0.03324587
179	0xbd9244c5	-0.07142023
180	0xbda60258	-0.08105916
181	0x3d48689d	0.048927892
182	0x3d8a6c22	0.06758906
183	0x3d2a4a2a	0.041574635
184	0xbcd079df	-0.025448738
185	0xbd9e69a2	-0.077349916
186	0x3d50ba5e	0.050958984
187	0x3d395a6c	0.04525225
188	0xbd3d6399	-0.04623756
189	0x3da46e96	0.08028905
190	0x3cd39ca8	0.025831535
191	0xbd0fc9e5	-0.03510465
192	0xbbfb070d	-0.0076607526
193	0xbd666296	-0.056246363
194	0xbaab4bc9	-0.001306885
195	0xbc6ad5c9	-0.014333197
196	0x3d3e578f	0.04647022
197	0x3c3c0fc6	0.01147837
198	0xbcd9989a	-0.026562024
199	0x3d3bad35	0.04581948
200	0xbc3a22ed	-0.011360866
201	0xbd6324b2	-0.055454917
202	0x3b13cf18	0.0022553857
203	0xbdba64a8	-0.0910123
204	0xbc6cf5ba	-0.014462883
205	0x3d3af5d1	0.045644585
206	0x3d79dc3e	0.061001055
207	0xbc7a16db	-0.015264238
208	0xbcac7af9	-0.021054732
209	0x3cd3a755	0.025836626
210	0xbd3ff7a7	-0.04686704
211	0xbccb33cc	-0.024804972
212	0xbcc164be	-0.023607608
213	0x3d403dc6	0.04693391
214	0x3d8142be	0.06311558
215	0x3d073c9a	0.03301678
216	0xbc7112f7	-0.014713994
217	0x3d80894a	0.06276186
218	0xbd3caefd	-0.04606532
219	0xbd641601	-0.055685047
220	0xbd4c5c3a	-0.04989264
221	0xbb910fd4	-0.0044269357
222	0x3d6c7856	0.05773195
223	0xbb323459	-0.0027191846
224	0xbc99d7cf	-0.018779663
225	0xbcbf6cce	-0.023367312
226	0xbd97d515	-0.07413689
227	0xbd1c9370	-0.038226545
228	0x3b33dbed	0.0027444318
229	0x3d6e6cc3	0.058209192
230	0x3d6e5952	0.05819065
231	0xbc64aaf8	-0.013956778
232	0x3c3e3e59	0.0116115445
233	0x3a541aef	0.00080911716
234	0x3bd581bc	0.0065157097
235	0xbce06a7e	-0.02739453
236	0x3bea5b59	0.007152003
237	0x3d4d3dc4	0.050107732
238	0x3d3250b5	0.043534
239	0x3bd35e38	0.0064504407
240	0xbd65d44e	-0.056110673
241	0xbcb86f4d	-0.02251401
242	0xbd025ea8	-0.031828552
243	0xbc6cd857	-0.014455876
244	0x3d626479	0.0552716
245	0xbcf96e16	-0.030448
246	0x3c9e184b	0.019298693
247	0x3da6608c	0.081238836
248	0xbc9a9df2	-0.018874142
249	0x3d8d8c50	0.06911528
250	0xbd084335	-0.03326722
251	0xbc88827c	-0.016663782
252	0x3d8c4c1a	0.06850453
253	0x3d8c38b9	0.068467565
254	0x3d84e7a9	0.06489498
255	0x3d3df504	0.046376243

actor.2.weight f4 [2, 512]
0	0x3cec5c1d	0.028852517
1	0x3d115113	0.03547771
2	0x3d886ca5	0.06661347
3	0x3c8454b8	0.016153678
4	0x3c3ca6b0	0.011514351
5	0x3af68525	0.0018807991
6	0x3bedc71c	0.0072564017
7	0x3c2c6387	0.010521776
8	0x3c854eae	0.016272869
9	0xbc340be3	-0.010989162
10	0x3cbaea5d	0.022816831
11	0x3c9bab2b	0.019002518
12	0xbd92e581	-0.07172681
13	0xbc77139d	-0.01508036
14	0xbc140421	-0.0090341875
15	0xbc3ffc79	-0.011717909
16	0x3dba7108	0.0910359
17	0xbab6066f	-0.0013887415
18	0xbaf0cf41	-0.0018372313
19	0x3c40b47a	0.011761779
20	0x3c6bddc2	0.014396133
21	0xbd1f0d2a	-0.038830914
22	0x3c44fa3c	0.012022551
23	0x3adea010	0.0016984958
24	0x3ccc9c8f	0.024976997
25	0xbddeaf4d	-0.1087328
26	0x3b5e66a7	0.0033935697
27	0xbe03d608	-0.12874615
28	0x3bd21751	0.006411471
29	0xbd9f50d7	-0.07779091
30	0x3d0020d2	0.0312813
31	0x3c09ac43	0.008402887
32	0x3c952fe0	0.018211305
33	0x3d3b17dc	0.04567705
34	0x3c9a438d	0.018831039
35	0xbd479031	-0.048721496
36	0xbdb25638	-0.08707851
37	0xbc9015ec	-0.017588578
38	0xbdb0cdf7	-0.08633035
39	0xbc9b8414	-0.018983878
40	0xbc281588	-0.01025904
41	0x3ce263bc	0.027635448
42	0x3b6fec07	0.003660919
43	0xbcda0735	-0.026614765
44	0xbb983226	-0.00464465
45	0xbc67651f	-0.01412323
46	0x3d481f35	0.048857886
47	0xbcaedade	-0.021344598
48	0xbd9c72fb	-0.07639118
49	0xbc56f43d	-0.013119754
50	0xbca2a3b1	-0.019853445
51	0x3caf805d	0.021423513
52	0x3b1227c1	0.0022301527
53	0xbc16d825	-0.009206806
54	0x3b8af6e6	0.0042408584
55	0xbd0af200	-0.033922195
56	0xbc479980	-0.012182593
57	0xbd047f1e	-0.03234779
58	0xbd3c1bfe	-0.045925133
59	0xbc2d07a5	-0.010560905
60	0x3c28f5ff	0.010312556
61	0xbdaed441	-0.08536578
62	0x3c3432d5	0.010998447
63	0x3c10e48e	0.008843554
64	0xbb84c947	-0.0040523144
65	0xbd1220f7	-0.03567597
66	0x3df5f7db	0.12010165
67	0x3c8dad53	0.017294561
68	0x3d8873ae	0.06662689
69	0x3a825b17	0.000994536
70	0xbc21041b	-0.009827639
71	0xbd887a0e	-0.06663905
72	0xbc7d7f3d	-0.0154722305
73	0xbbcd8101	-0.006271482
74	0xbd8e1ca5	-0.06939057
75	0xbb9075e9	-0.0044085872
76	0xbc636778	-0.013879649
77	0xbcd6fb17	-0.026242776
78	0x3d9cfb8e	0.07665168
79	0x3b89f71a	0.004210365
80	0x3cfa5ee0	0.030562818
81	0x3c8763eb	0.016527137
82	0xbdafc955	-0.08583323
83	0xbbb617fb	-0.005557058
84	0xbcc3ed1c	-0.023916773
85	0xbccddf00	-0.025130749
86	0xbc64dd97	-0.013968847
87	0xbcdd5fbd	-0.02702319
88	0xbdd8f364	-0.10593298
89	0xbcd5e7e2	-0.026111547
90	0xbd9436bf	-0.072370045
91	0x3d8690f6	0.06570618
92	0xbc93bacd	-0.01803341
93	0x3c2aad54	0.010417301
94	0xbc75ba69	-0.014998057
95	0xbd3d314d	-0.046189595
96	0x3cf68d14	0.030096568
97	0xbcf11aeb	-0.02943178
98	0xbc07a914	-0.008280057
99	0x3c0501fc	0.008118149
100	0xbd0396dd	-0.032126296
101	0xbce74079	-0.028228985
102	0xbc806a6b	-0.015675744
103	0x3d6dc063	0.058044802
104	0x3dd689dd	0.10475514
105	0x3bf685b6	0.007523264
106	0x3cb976be	0.022639628
107	0x3d0279a3	0.031854283
108	0x38cdd8b0	9.815523e-05
109	0x3bb448b8	0.005501833
110	0x3d67aa22	0.056558736
111	0x3b21c352	0.002468307
112	0x3d8ced2f	0.06881177
113	0xbcc799a8	-0.024365261
114	0xbc3b757c	-0.011441585
115	0xb9fc4db2	-0.00048123073
116	0x3b4c3ed2	0.0031165374
117	0xbd9aed94	-0.07564846
118	0x3e0bafe8	0.13641322
119	0x3cafe69e	0.021472272
120	0xbd1c968f	-0.03822952
121	0xbd1a565e	-0.037680022
122	0x3c3faa8d	0.011698377
123	0xbd9c1796	-0.07621686
124	0x3c9ef018	0.019401595
125	0x3c39915f	0.011326163
126	0x3cf2aa6a	0.029622275
127	0x3ab36c07	0.0013688811
128	0x3d33498a	0.043771304
129	0x3c954bb4	0.018224575
130	0xbd9a8c10	-0.07546246
131	0xbd62c26b	-0.055361193
132	0xbb4bb368	-0.0031082276
133	0x3d9d2ac3	0.07674172
134	0xbd187256	-0.037218414
135	0x3c85e01d	0.016342217
136	0xbd693be7	-0.056941893
137	0x3d02741b	0.031849008
138	0x3d23dbf1	0.040004674
139	0xbd8bcacc	-0.0682579
140	0x3c65b107	0.014019257
141	0xba1c4c2a	-0.0005962277
142	0x3db434ce	0.08799134
143	0xbc286bde	-0.010279624
144	0x3cef15aa	0.029185135
145	0xbc2222cb	-0.009895991
146	0xbd1defdc	-0.038558826
147	0xba0f1e6a	-0.0005459549
148	0x3d4849bf	0.048898455
149	0x3cdb2d4f	0.026755003
150	0x3b835b81	0.004008711
151	0xbc5abdc2	-0.013350906
152	0x3c61b4d2	0.013776021
153	0x3d9c91d5	0.07645003
154	0x3d6f55ae	0.05843132
155	0x3c87b14b	0.016564032
156	0xbd4d6795	-0.05014761
157	0xbc08cba0	-0.008349329
158	0x3b31cbd9	0.002712956
159	0xbce451cb	-0.027871033
160	0x3bb4537f	0.0055031176
161	0xbc87f3d9	-0.016595768
162	0x3b825aab	0.0039780936
163	0x3c7c1a42	0.01538712
164	0xbc34d1b9	-0.01103633
165	0x3cd4d23a	0.02597915
166	0xbc803c93	-0.015653884
167	0x3d936bab	0.071982704
168	0x3cb63552	0.022242222
169	0x3c998087	0.018738044
170	0xbc13df4f	-0.009025409
171	0xbcc7ab7f	-0.024373768
172	0xbc424dae	-0.011859341
173	0xbd723ae3	-0.05913819
174	0x3d17718d	0.036973525
175	0x3d5f57bd	0.054527033
176	0xbc1765ba	-0.009240562
177	0x3d821ded	0.06353364
178	0x3cf4acb4	0.029867508
179	0xbd7edb4b	-0.062220853
180	0xbc8f62ac	-0.017503105
181	0xbd9de7e9	-0.07710249
182	0xbd00b931	-0.031426612
183	0xbcf7f85a	-0.03026979
184	0xbdfb3feb	-0.12268051
185	0xbcef567a	-0.02921604
186	0xbb695ab5	-0.0035607044
187	0xbd349380	-0.04408598
188	0xbced008f	-0.02893093
189	0xbd385111	-0.044999186
190	0xbbb768af	-0.005597196
191	0xbd6e5f03	-0.05819608
192	0xbcc15aa9	-0.0236028
193	0xbc5b721c	-0.013393905
194	0x3d1c3edb	0.03814588
195	0x3d2982a1	0.041384343
196	0x3bc69776	0.006060536
197	0xbce54375	-0.027986268
198	0xbd2ec5de	-0.04266917
199	0x3cf916c3	0.030406361
200	0x3d26c752	0.04071743
201	0xbc930c9e	-0.017950352
202	0x38e3b554	0.000108579785
203	0xbcf91d1c	-0.030409388
204	0x3d36da28	0.044641644
205	0x3ad1f9cb	0.0016019879
206	0x3d6da8ee	0.058022432
207	0x3d113b30	0.035456836
208	0xbd11e762	-0.035621054
209	0x3c775ffe	0.01509857
210	0xbd0d4ad5	-0.034495194
211	0x3c93a6b5	0.018023828
212	0x3cadca2e	0.02121457
213	0x3c31ba1e	0.010847596
214	0xbcf98167	-0.030457212
215	0xbc09feb9	-0.008422547
216	0xbd68231e	-0.056674115
217	0x3b990b32	0.004670524
218	0xbd32ebb3	-0.04368181
219	0xbd9e777b	-0.07737633
220	0x3d3c8f4e	0.046035103
221	0xbd913a6f	-0.070912234
222	0xbd309dec	-0.043119356
223	0xbd277bf7	-0.040889706
224	0x3ce123ea	0.027482945
225	0xbbd6c522	-0.006554262
226	0x3c30d14c	0.010792088
227	0xbd14f725	-0.036368508
228	0xbd4dd3b4	-0.050250724
229	0x3c3b708f	0.01144041
230	0xbd3bc365	-0.04584064
231	0xbb12f3fe	-0.0022423263
232	0x3ba25b0e	0.004954702
233	0x3dfad6db	0.12248012
234	0xba4bd469	-0.0007775487
235	0x3dd68ae9	0.10475714
236	0x3c9a93ee	0.018869366
237	0x3cdad2c8	0.026711836
238	0x3d2fdc38	0.042934626
239	0x3d4eba45	0.05047061
240	0x3c9cb37c	0.019128554
241	0xbd11b744	-0.035575166
242	0xbbce9521	-0.0063043986
243	0x3c1886e4	0.009309504
244	0xbc175ac1	-0.009237946
245	0x3c144677	0.009050003
246	0xbe0c8136	-0.13721165
247	0xbd830b01	-0.06398583
248	0x3c41b382	0.011822583
249	0x3bc6c252	0.0060656453
250	0xbccfc0f5	-0.025360564
251	0x3d63ceb6	0.055617057
252	0x3cd832db	0.026391437
253	0x3db14881	0.08656407
254	0x3dd868a0	0.10566831
255	0x3d48dcbb	0.04903863

actor.2.bias f4 [2]
0	0x3cbf4453	0.02334801
1	0xbc9d671f	-0.019214211

critic.0.weight f4 [512, 127]
0	0x3e8f58a1	0.27997306
1	0xbe23f5f8	-0.16011798
2	0x3d380a9b	0.04493199
3	0xbd454d7e	-0.048169605
4	0xbd16f969	-0.03685895
5	0x3d5ac1de	0.053407542
6	0xbd372785	-0.044715423
7	0x3db845ca	0.08997686
8	0x3dec18ba	0.11528154
9	0xbc07db8f	-0.008292093
10	0x3cc46cc8	0.023977652
11	0x3dff05b3	0.12452259
12	0x3da65d3a	0.0812325
13	0x3d2a331e	0.041552655
14	0x3cea8265	0.02862663
15	0x3cf7ded7	0.030257626
16	0xbe10ae11	-0.14128901
17	0xbd565f4d	-0.05233698
18	0xbcdbac72	-0.026815627
19	0xbd0422a7	-0.03225961
20	0x3ca961ae	0.02067646
21	0xbdbf8298	-0.09351081
22	0xbd9792f7	-0.07401078
23	0x3cde27f2	0.027118657
24	0xbe36168c	-0.17782038
25	0xbc149bab	-0.009070317
26	0x3d50144b	0.050800603
27	0xbd1a0708	-0.03760436
28	0xbd447152	-0.047959633
29	0xbdacfae0	-0.08446288
30	0xbcde3867	-0.027126504
31	0x3d6978fd	0.05700015
32	0xbe55579c	-0.20834202
33	0x3d8b1d06	0.06792645
34	0xbd08132c	-0.03322141
35	0x3d822771	0.06355179
36	0xbdac694d	-0.08418522
37	0xbc41bc72	-0.011824714
38	0x3c4ca200	0.012489796
39	0x3d213847	0.03936031
40	0xbd4f470f	-0.050604876
41	0x3dc41573	0.095744036
42	0x3cf2c7c7	0.029636277
43	0xbcae45a4	-0.021273442
44	0xbd10e882	-0.035377987
45	0x3c91f19c	0.017815404
46	0xbd2bf785	-0.0419841
47	0x3d80fc7b	0.06298157
48	0xbde45e15	-0.11150757
49	0x3ce94436	0.028474908
50	0x3c4aa2fe	0.012367962
51	0x3dec207a	0.11529632
52	0xbc9e06b2	-0.019290302
53	0xbd9e8611	-0.07740415
54	0x3ccd77ee	0.025081601
55	0x3e3e876c	0.18606347
56	0xbe5f3bf8	-0.2180022
57	0x3c315f7a	0.010825986
58	0xbd96ebcd	-0.07369194
59	0x3d98f482	0.07468511
60	0xbe1834ab	-0.14863841
61	0xbd47ad55	-0.048749287
62	0xbc08babe	-0.008345304
63	0x3e936ed8	0.28795505
64	0xbe3b26a2	-0.18276456
65	0xbe3b69b8	-0.18302047
66	0xbc1e3d0e	-0.009658111
67	0x3e24d422	0.16096547
68	0xbdbbe246	-0.091740176
69	0x3d3763f5	0.04477306
70	0x3cb8dd17	0.022566361
71	0x3e6ef992	0.23337391
72	0xbe6384d7	-0.22218643
73	0xbe00fbfd	-0.12596126
74	0xbb8f7ca6	-0.004378873
75	0x3dc9e929	0.09858925
76	0xbd9b581b	-0.07585164
77	0x3d0d9cd8	0.034573406
78	0xbd0d2a7d	-0.034464348
79	0x3d646a8e	0.05576568
80	0x3ca9e030	0.020736784
81	0xbc51b4b8	-0.012799434
82	0x3ccb8d92	0.02484778
83	0xbda0c0b8	-0.07849258
84	0xbc936c06	-0.017995846
85	0x3d8fcdbb	0.07021662
86	0x3d4ae856	0.04953798
87	0x3d6142f6	0.0549955
88	0x3e116cc5	0.14201649
89	0x3d7a22f6	0.061068498
90	0xbcea25a0	-0.028582394
91	0xbe0a0631	-0.13478924
92	0x3e2928fb	0.16519539
93	0xbda0c026	-0.078491494
94	0x3c8898db	0.01667445
95	0xbde203fc	-0.11035916
96	0x3d8f3ef0	0.06994426
97	0x3bc769c0	0.0060856044
98	0x3ca17eb7	0.019713743
99	0xbd63a114	-0.055573538
100	0x3e634ede	0.22198054
101	0xbcf453fd	-0.029825205
102	0x3d883a19	0.06651706
103	0xbcd60180	-0.026123762
104	0x3caad180	0.02085185
105	0xbd99642d	-0.0748981
106	0x3d9a4f26	0.075346276
107	0x3dc81a8b	0.09770688
108	0x3def42b7	0.11682647
109	0x3d913007	0.070892386
110	0x3d0d8ac3	0.03455616
111	0xbcccc58e	-0.024996545
112	0x3b9cd525	0.004786151
113	0x3d168ede	0.036757343
114	0xbda50a15	-0.080585636
115	0x3d507577	0.050893273
116	0x3e53beef	0.20678304
117	0x3ce0aac1	0.027425172
118	0xbcd6c540	-0.026217103
119	0x3db97bde	0.09056829
120	0xbbec6532	-0.007214212
121	0xbd4c9a24	-0.049951687
122	0xbcfb5eb2	-0.030684803
123	0x3d8290c1	0.06375266
124	0x3e61abe6	0.2203823
125	0xbc716bfd	-0.014735219
126	0x3c8f1bbb	0.017469278
127	0xbd693209	-0.056932483
128	0xbdced83e	-0.10099839
129	0x3d355d7d	0.04427861
130	0xbe2acb08	-0.16679013
131	0xbdb0f25c	-0.086399764
132	0xbcc9ba60	-0.024625003
133	0x3c18e0ac	0.00933091
134	0xbdf705cc	-0.120616525
135	0xbe5dd12d	-0.21661825
136	0x3d2562c5	0.040377397
137	0x3d28d2da	0.04121671
138	0xbdd2c76e	-0.102919444
139	0xbe0d32d3	-0.13788919
140	0xbd49e9e8	-0.049295336
141	0x3d5c0510	0.053715765
142	0xbd97f4c1	-0.0741973
143	0xbe105475	-0.14094718
144	0xbd383c19	-0.04497919
145	0x3d8de124	0.06927708
146	0xbda43ac3	-0.080190204
147	0xbe2f2ca2	-0.1710687
148	0xbd234ee0	-0.039870143
149	0x3d665fcc	0.056243703
150	0xbbf72924	-0.007542746
151	0x3d9bdc36	0.07610361
152	0x3cd2eeb6	0.025748592
153	0xbd76ba9f	-0.06023657
154	0xbc4eae58	-0.012614809
155	0xbced0997	-0.028935237
156	0x3d0a7307	0.033801105
157	0x3dc70faa	0.097197846
158	0xbd1980aa	-0.03747622
159	0x3cda42e1	0.026643218
160	0xbddcba05	-0.10777668
161	0x3d943348	0.072363436
162	0x3dcb4682	0.09925558
163	0x3e3125b0	0.17299533
164	0xbdc23542	-0.09482814
165	0x3d95d406	0.07315831
166	0xbd3f749e	-0.046742074
167	0x3e2e5764	0.17025524
168	0x3b9c098f	0.0047618817
169	0xbd59625a	-0.05307231
170	0x3d200981	0.039071564
171	0x3dacd153	0.08438363
172	0x3c95c8f8	0.018284306
173	0xbc140209	-0.009033688
174	0xbe424d11	-0.18974711
175	0x3e04a72e	0.12954399
176	0x3c9279be	0.017880317
177	0xbd554cb8	-0.052075118
178	0xbd1b5c78	-0.037929982
179	0x3e1a3498	0.15059125
180	0xbcaef5a1	-0.02135736
181	0x3c51e0fe	0.01280999
182	0xbe4d374f	-0.2004063
183	0x3e501a71	0.20322587
184	0xbc27913b	-0.010227497
185	0xbc26a6b6	-0.010171583
186	0xbe8aab34	-0.27083743
187	0x3e66b542	0.22530082
188	0xbdc55608	-0.0963555
189	0x3d17bc90	0.03704506
190	0xbde3d637	-0.111248426
191	0x3e574688	0.21023
192	0xbcd205c1	-0.02563751
193	0xbc0e5788	-0.008687861
194	0xbe930234	-0.28712618
195	0x3e82376f	0.25432917
196	0xbd96382e	-0.07334934
197	0x3c30fb3a	0.010802085
198	0xbba1db3c	-0.004939465
199	0x3e805984	0.25068295
200	0xbd8dc623	-0.06922557
201	0xbcfeb4de	-0.031092104
202	0xbe0f026c	-0.13965768
203	0x3e775176	0.24152169
204	0x3cd0e801	0.025501253
205	0xbdb0aa27	-0.08626204
206	0x3d9fe4eb	0.078073345
207	0x3e194fab	0.14971797
208	0xbd3d2fb3	-0.046188068
209	0xbd0cfe71	-0.03442234
210	0xbde52417	-0.11188524
211	0x3e5427ee	0.20718357
212	0xbdb13f1b	-0.086546145
213	0x3d5a7f81	0.053344253
214	0x3d89fe33	0.06737938
215	0x3e141187	0.14459811
216	0xbcd7f25a	-0.02636068
217	0x3d878244	0.06616643
218	0x3dc3a7a8	0.09553462
219	0x3e5f52ad	0.21808882
220	0x3d061f93	0.032744955
221	0x3d87461e	0.06605171
222	0x3db78b24	0.08962086
223	0x3dbda089	0.09259135
224	0xbaeb7069	-0.0017962578
225	0x3c4d70f9	0.012539142
226	0x3c8a8ee6	0.016913842
227	0x3e1daf48	0.15398896
228	0xbd35ae6b	-0.04435579
229	0x3d92bf3d	0.07165382
230	0x3e080d2a	0.13286272
231	0x3c9f1aea	0.019422013
232	0xbd2eef08	-0.042708427
233	0xbc2ab11a	-0.010418201
234	0x3d2413c7	0.040057924
235	0x3d6ff55d	0.058583606
236	0xbcb30385	-0.021852264
237	0xbdace6aa	-0.08442433
238	0x3dd93574	0.106058985
239	0xbcf11079	-0.0294268
240	0xbcde8fff	-0.027168272
241	0x3d96d3a2	0.073645845
242	0x3df8bc02	0.12145235
243	0x3c29e0c2	0.010368528
244	0xbd3c7cef	-0.046017583
245	0xbdafbc16	-0.085807964
246	0x3dc2c68c	0.09510526
247	0xbde5b451	-0.11216033
248	0xbc210905	-0.009828811
249	0x3c3983ac	0.011322897
250	0x3d6a4db3	0.057203006
251	0xbd29803d	-0.041382063
252	0x3ccb1e52	0.024794731
253	0x3d540ac0	0.051768064
254	0xbe8367f0	-0.25665236
255	0x3c80dab9	0.015729295

critic.0.bias f4 [512]
0	0x3ccb9824	0.02485282
1	0xbb1e7290	-0.0024177171
2	0x3cdb6bf7	0.02678488
3	0xbbe6f8d5	-0.007048706
4	0xbd8c94a7	-0.06864291
5	0x3c85cc90	0.016332895
6	0x3c1c1827	0.009527243
7	0xbd4cbebb	-0.049986582
8	0xbcd9d53f	-0.026590941
9	0x3d60ce93	0.054884505
10	0x3cfb4139	0.030670749
11	0x3d48bc13	0.049007487
12	0x3d4c8d53	0.049939465
13	0xbc58574f	-0.01320441
14	0x3d2d80af	0.04235905
15	0x3db69970	0.08915985
16	0x3cd41225	0.025887558
17	0x3d1f1cff	0.038846012
18	0xbd9a5d2f	-0.075373046
19	0x3c5fc9ea	0.01365898
20	0x3d834b66	0.064108655
21	0x3bcadf7b	0.0061911917
22	0xbc1725ba	-0.009225303
23	0xbd82c9f0	-0.06386173
24	0x3c86e7ff	0.016468046
25	0x3d8419fa	0.06450267
26	0xbd2a6f9c	-0.041610345
27	0xbc540c4b	-0.012942384
28	0xbc2f4ac8	-0.010698982
29	0x3c34faa7	0.011046088
30	0xbc5c63ad	-0.013451499
31	0x3d022823	0.03177656
32	0xbd3dae59	-0.04630885
33	0x3ca5f644	0.02025903
34	0x3d8076b3	0.0627264
35	0x3cac9137	0.021065338
36	0x3cc52734	0.024066545
37	0x3dadc8da	0.08485575
38	0x3c431ba5	0.011908446
39	0x3d37d8fc	0.044884667
40	0xbd420b9c	-0.047374353
41	0xbd3160a6	-0.04330506
42	0xbbc72d5e	-0.0060784062
43	0x3b35d759	0.0027746765
44	0xbcf83786	-0.030299913
45	0x3b8d6dbe	0.004316061
46	0x3dc14c3f	0.09438371
47	0xbca1a12a	-0.01973017
48	0xbc659413	-0.014012354
49	0x3d74a61e	0.059728734
50	0x3d7174da	0.05894933
51	0xbd4a74df	-0.049427863
52	0x3cb15dc5	0.021651158
53	0x3d2af16d	0.041734148
54	0x3cf79087	0.030220283
55	0xbc4985fa	-0.012300009
56	0x3d50e91c	0.05100356
57	0xbdb4517d	-0.08804605
58	0xbdd49f50	-0.10381949
59	0xbcd2e63f	-0.025744556
60	0x3d66533d	0.056231726
61	0xbd9a55c5	-0.075358905
62	0x3daa64bb	0.08319994
63	0x3d0d2d6e	0.034467153
64	0xbd6c395f	-0.0576719
65	0x3ba8111f	0.005128994
66	0x3aee8e76	0.0018200416
67	0x3daa7961	0.083239324
68	0xbd4a47b9	-0.049384806
69	0xbc9ceb43	-0.01915515
70	0xbda84b18	-0.08217448
71	0x3c23134e	0.009953333
72	0x3d0206a7	0.031744625
73	0xbc16a2f5	-0.009194125
74	0xbd8080bc	-0.06274554
75	0x3c005366	0.007832384
76	0x3cf15a57	0.029462023
77	0x3c392d47	0.011302299
78	0xbd080b85	-0.03321411
79	0x3dd60664	0.10450438
80	0x3c054086	0.008133059
81	0x3d10ed97	0.035382833
82	0xbc88a6a4	-0.016681023
83	0xbd5d7a4b	-0.054071706
84	0x3d1230c3	0.035691034
85	0x3cb48ec3	0.02204073
86	0x3c87ffe3	0.016601508
87	0xbcfada2f	-0.030621616
88	0xbd20e250	-0.03927833
89	0x3ce87795	0.028377334
90	0xbd2ee389	-0.042697463
91	0x3d99f04c	0.07516536
92	0x3d4495c2	0.047994383
93	0x3dadedbf	0.08492612
94	0xbd8c98e8	-0.06865102
95	0x3d579858	0.05263552
96	0x3d980010	0.07421887
97	0x3db78a50	0.08961928
98	0x3c405fbe	0.011741577
99	0xbdb13d90	-0.0865432
100	0x3d42915b	0.047501903
101	0x3cca7a00	0.024716377
102	0x3d8f5cc6	0.07000117
103	0x3d04ce89	0.03242353
104	0x3d5f0caa	0.054455437
105	0x3db734a4	0.08945587
106	0x3da639c2	0.08116485
107	0xbd3a1737	-0.045432296
108	0x3cafc158	0.021454498
109	0x3d7befda	0.061508037
110	0xbdc147e7	-0.094375424
111	0x3d541558	0.051778167
112	0xbd8c6459	-0.06855077
113	0xbbe802f0	-0.0070804283
114	0x3cc082d2	0.02349988
115	0x3d520446	0.051273607
116	0xbc15315f	-0.009106009
117	0xbd9ba56b	-0.0759991
118	0x3d816e2a	0.0631984
119	0x3d24b70a	0.040213622
120	0xbcdebc58	-0.027189419
121	0x3c9a3d52	0.018828068
122	0xbbcaead8	-0.0061925463
123	0x3d3e9c6d	0.046535898
124	0xbd503948	-0.050835878
125	0xbd1456ba	-0.03621552
126	0xbc84eb7a	-0.016225565
127	0xbd62f551	-0.055409733
128	0x3d37ed2a	0.04490391
129	0x3da43187	0.08017259
130	0xbd61d2ea	-0.055132784
131	0x3b293e70	0.002582457
132	0xbc180b5a	-0.00928005
133	0x3d835386	0.06412415
134	0xbd6f8003	-0.05847169
135	0x3cfc1dfb	0.030776015
136	0xbd8773c4	-0.066138774
137	0xbb684df0	-0.0035446845
138	0x3d8f3249	0.06992013
139	0xbd733d34	-0.05938454
140	0x3d6cc91e	0.057808988
141	0x3d8b78cc	0.068101496
142	0x3da19114	0.078889996
143	0x3d348d63	0.04408015
144	0x3c7ea13c	0.015541371
145	0xbd590a6b	-0.05298845
146	0x3c5f704c	0.0136376135
147	0x3cc96a7b	0.024586907
148	0xbcc7f70c	-0.024409793
149	0x3bce10c0	0.006288618
150	0xbc56af0d	-0.013103259
151	0xbd34df80	-0.04415846
152	0x3cd0e5c6	0.02550019
153	0xbb3a3e49	-0.0028418473
154	0xbd935c65	-0.07195357
155	0xbd844811	-0.06459058
156	0x3d89efc3	0.06735184
157	0xbd32858b	-0.043584388
158	0xbaf1997d	-0.0018432584
159	0xbd6a40e1	-0.05719078
160	0x3d797737	0.060904708
161	0xbd7dc6f1	-0.061957303
162	0xbbb212cd	-0.00543437
163	0x3d13e103	0.03610326
164	0xbc4a3235	-0.012341072
165	0xbc56c087	-0.0131074255
166	0xbd9b33fc	-0.075782746
167	0xbcd4b5ef	-0.025965659
168	0xbd03899a	-0.03211365
169	0x3c5569dd	0.013025728
170	0x3da98c51	0.08278716
171	0x3d4c9b58	0.049952835
172	0x3d466b2a	0.048442043
173	0x3d8c0ce4	0.06838396
174	0x3dc4e58f	0.09614097
175	0x3dc38bcb	0.09548148
176	0xbcc76438	-0.02433978
177	0xbd55c5c8	-0.052190572
178	0x3d952e9a	0.07284279
179	0xbd4169a7	-0.0472199
180	0x3c0fb824	0.00877193
181	0x3d7a5a62	0.061121352
182	0x3d14cced	0.036328245
183	0x3da38eb9	0.079862066
184	0xbd198ee2	-0.03748978
185	0x3d72493d	0.059151877
186	0x3d952574	0.07282534
187	0xbc64a7a5	-0.013955985
188	0x3d5ee509	0.054417644
189	0x3d6cb0aa	0.057785667
190	0xbb6826ff	-0.0035423634
191	0x3d84502f	0.06460606
192	0xbd6c55ca	-0.057699002
193	0xbd2ed535	-0.0426838
194	0xbd2740af	-0.04083317
195	0xbd5d4799	-0.05402336
196	0xbd397856	-0.045280777
197	0x3d6407f6	0.055671655
198	0x3dbd40bb	0.09240862
199	0xbc95d1b7	-0.018288476
200	0x3da8e5d6	0.08246963
201	0xbd1c7df7	-0.038206067
202	0x3d3c80bf	0.04602122
203	0x3d00f184	0.031480327
204	0xbd6aaedf	-0.057295676
205	0xbd87b73e	-0.066267475
206	0x3be5ccaa	0.0070129232
207	0xbc1f085f	-0.009706586
208	0x3d2343aa	0.03985945
209	0xbd4baf27	-0.049727585
210	0x3d9fe375	0.07807056
211	0xbd34d4b3	-0.04414816
212	0xbc9cdfb5	-0.01914964
213	0x3c85a4c1	0.016313912
214	0xbd7a7548	-0.061147004
215	0x3d74e234	0.059786037
216	0xbc491623	-0.012273344
217	0xbd9b03f5	-0.07569114
218	0xbcdddfc5	-0.02708424
219	0x3c7dcf70	0.0154913515
220	0x3cd6d307	0.026223673
221	0xbd0bf7b7	-0.034171786
222	0x3cf186f0	0.029483289
223	0xbcc66a70	-0.024220675
224	0xbcf00987	-0.029301418
225	0x3c87e7e1	0.01659006
226	0xbd854082	-0.065064445
227	0x3dc78d6f	0.09743773
228	0x3b4489a6	0.0029989271
229	0x3defe1e0	0.11713004
230	0x3c8fddd5	0.017561832
231	0xbd5a6931	-0.053322975
232	0x3bae00e8	0.0053101666
233	0x3cc6ad8d	0.024252677
234	0x3d2d2fcf	0.042281922
235	0xbd52358d	-0.0513206
236	0x3c9a8f2d	0.0188671
237	0x3d34d48c	0.044148013
238	0xbd468702	-0.048468597
239	0x3da8eee7	0.08248692
240	0xbc5a010e	-0.0133059155
241	0x3d384d86	0.044995807
242	0x3bf3e33b	0.0074428595
243	0x3d36e01e	0.04464733
244	0x3d6a87d4	0.057258442
245	0xbd458b83	-0.048228752
246	0x3d949336	0.07254641
247	0xbd6dfa13	-0.058099817
248	0x3d20fe33	0.039304923
249	0x3d0e80b0	0.034790695
250	0x3d6f92e5	0.0584897
251	0x3d6ee686	0.058325313
252	0xbcb9b3be	-0.022668716
253	0x3c62b00a	0.013835916
254	0xbbc22968	-0.005925346
255	0xbd294579	-0.04132602

critic.2.weight f4 [1, 512]
0	0xbe4284d2	-0.1899598
1	0x3d843b07	0.06456571
2	0xbd60104f	-0.054703053
3	0x3d859abb	0.06523653
4	0xbdc95e9a	-0.09832497
5	0x3d940390	0.07227242
6	0x3e0a98d9	0.13534869
7	0xbda380d3	-0.07983556
8	0xbd7a4111	-0.06109721
9	0x3c76e10b	0.015068303
10	0xbdae53df	-0.08512091
11	0xbe6d57d0	-0.23178029
12	0xbccb8709	-0.024844663
13	0xbe1a0dde	-0.15044352
14	0x3dc7d5c3	0.09757569
15	0xbe070ab4	-0.13187677
16	0x3d812376	0.06305592
17	0xbdef5942	-0.116869465
18	0xbdfa316b	-0.12216457
19	0xbd3cbb98	-0.04607734
20	0xbe158987	-0.14603244
21	0x3d41c9f6	0.047311746
22	0x3de58a0b	0.1120797
23	0xbe11e852	-0.1424878
24	0x3de341d9	0.11096544
25	0xbca4a581	-0.02009845
26	0xbd92f9f8	-0.07176584
27	0xbd41ceaa	-0.04731623
28	0xbd8eb22b	-0.069675766
29	0xbe38c760	-0.18044806
30	0x3d9dae7b	0.07699295
31	0x3dee738d	0.11643133
32	0xbe43daba	-0.19126406
33	0x3c87c6c3	0.01657427
34	0x3d856b67	0.06514626
35	0xbdf10319	-0.11768169
36	0xbeb62c03	-0.35580453
37	0x3e2933ad	0.16523619
38	0xbe11ad40	-0.14226246
39	0xbe037c95	-0.12840493
40	0xbdde6f03	-0.108610176
41	0x3ddca1e6	0.10773067
42	0xbe45b503	-0.19307332
43	0xbcd504db	-0.026003292
44	0xbddda9e7	-0.10823422
45	0xbda63cba	-0.081170514
46	0x3d8fccbe	0.07021473
47	0x3e0ca0df	0.13733242
48	0xbcb13f55	-0.021636644
49	0x3d67b97e	0.056573384
50	0xbe087d85	-0.13329132
51	0xbdb51bbd	-0.08843181
52	0xbd911ede	-0.070859656
53	0xbde8f5b6	-0.11374991
54	0xbcde570a	-0.027141113
55	0x3ceff707	0.029292597
56	0x3d4ff44b	0.050770085
57	0x3d900aa2	0.07033278
58	0xbcd2b4e5	-0.025721023
59	0x3dc86ecc	0.09786758
60	0xbe011c90	-0.12608552
61	0x3be64ea8	0.0070284195
62	0xbde4d100	-0.11172676
63	0xbb594070	-0.003314998
64	0x3da981d6	0.08276717
65	0xbbc0cee0	-0.0058840364
66	0x3a7c6486	0.0009628016
67	0xbd947345	-0.072485484
68	0xbe0eee99	-0.13958205
69	0xbe34867a	-0.17629424
70	0xbb313429	-0.0027039147
71	0x3dc55703	0.09635737
72	0x3b20bed1	0.0024527798
73	0x3d9ad442	0.07560016
74	0xbd6ad394	-0.057330683
75	0xbd178dcf	-0.037000474
76	0xbe43b4fc	-0.19112009
77	0xbd5567e9	-0.05210105
78	0x3cd54f86	0.026038896
79	0x3cdd9c83	0.02705217
80	0x3def06ba	0.11671205
81	0x3e7ddc19	0.24790992
82	0x3da9b431	0.08286322
83	0x3df672d8	0.120336235
84	0x3dc50b99	0.09621353
85	0x3d5b53dd	0.053546775
86	0xbd91dab8	-0.071217954
87	0xbd9eaf30	-0.07748258
88	0x3daffcb8	0.08593124
89	0x3db47f17	0.08813303
90	0x3dae76fe	0.0851879
91	0xbe8c9baf	-0.27462527
92	0x3b9dc7a5	0.0048150592
93	0xbe374afa	-0.17899695
94	0x3d504584	0.050847545
95	0xbdffb648	-0.12485939
96	0x3dc3e243	0.095646404
97	0xbe310355	-0.17286427
98	0xbe6d93b6	-0.23200879
99	0x3d87d7ca	0.06632955
100	0xbe533e34	-0.20629197
101	0x3db2e546	0.08735137
102	0xbe670571	-0.2256067
103	0x3d5c95f1	0.053853933
104	0x3d634e3e	0.05549454
105	0xbd369a82	-0.044580944
106	0x3d35160c	0.04421048
107	0x3dc73a2a	0.09727891
108	0x3db6046a	0.08887561
109	0xbd9acfa0	-0.075591326
110	0x3ce7d012	0.028297458
111	0x3cefd12c	0.029274546
112	0x3e093ac0	0.13401318
113	0x3d01156f	0.03151458
114	0x3cd4eb0b	0.025990983
115	0xbe4c5793	-0.19955282
116	0x3c11bcfb	0.008895154
117	0x3db6fa71	0.08934487
118	0xbbd7cea5	-0.0065859132
119	0xbd8e4f0f	-0.06948673
120	0xbcc7bff4	-0.024383523
121	0xbe5a941b	-0.2134556
122	0x3dd01596	0.10160367
123	0x3d3ae5be	0.045629255
124	0x3daecc64	0.08535078
125	0x3dc72174	0.097231776
126	0xbd78fa68	-0.06078568
127	0xbd59a804	-0.053138748
128	0x3e0aa3af	0.13539003
129	0xbd2889e2	-0.04114712
130	0xbe13665d	-0.14394517
131	0xbd931eb9	-0.07183594
132	0x3db95625	0.09049634
133	0x3e0590f6	0.1304358
134	0x3e02911a	0.12750664
135	0xbe216db5	-0.15764506
136	0xbdb2ccbb	-0.087304555
137	0xbc8278d7	-0.015926762
138	0xbd3b477f	-0.04572248
139	0x3c2e8e33	0.01065402
140	0xbd87403d	-0.06604049
141	0xbd336cb5	-0.043804843
142	0xbe36ffad	-0.1787097
143	0x3d512803	0.05106355
144	0x3c94dbd4	0.018171228
145	0x3e17037b	0.14747421
146	0x3d019c52	0.03164322
147	0xbd35d3f0	-0.044391572
148	0x3de651a5	0.11246041
149	0xbbe10286	-0.006866756
150	0xbe024ed6	-0.12725386
151	0x3d024a9b	0.03180943
152	0xbe095fa5	-0.13415392
153	0x3e8f2238	0.27955794
154	0x3dd77d1b	0.10521909
155	0x3d0b0c0e	0.033947043
156	0xbdaf104c	-0.0854803
157	0x3d37292d	0.044717003
158	0xbe4f7acf	-0.20261692
159	0x3d71a18d	0.058991957
160	0x3c82eb54	0.015981354
161	0x3de492e3	0.11160829
162	0xbe52290c	-0.2052347
163	0x3d958079	0.07299895
164	0xbde84f2c	-0.11343226
165	0xbce2050c	-0.027590297
166	0xbc0ea408	-0.0087061
167	0x3d99ba6a	0.07506259
168	0x3d9c9fb6	0.0764765
169	0xbe5bdf86	-0.21471986
170	0x3e01d00d	0.12677021
171	0x3d17ced1	0.03706247
172	0x3b327930	0.0027232878
173	0xbd16c749	-0.036811147
174	0xbdcd9ef9	-0.10040087
175	0xbe02beb8	-0.12768066
176	0x3d235e8d	0.039885093
177	0xbe74d9b9	-0.2391118
178	0xbe298866	-0.16555938
179	0xbdd40c27	-0.103538804
180	0xbda1753e	-0.0788369
181	0x3c208ac6	0.009798711
182	0xbdba43f2	-0.09094991
183	0xbe022919	-0.1271099
184	0x3dce253b	0.10065695
185	0xbe5c4bc9	-0.21513285
186	0x3d0c3300	0.034228325
187	0x3daaa68c	0.083325475
188	0x3dab91f2	0.08377446
189	0x3d1b89c9	0.0379732
190	0xbe8deb7e	-0.2771873
191	0xbe257357	-0.1615728
192	0xbe9cff50	-0.30663538
193	0x3daad3cf	0.083411805
194	0xbd0832ea	-0.03325168
195	0xbe572ecd	-0.21013947
196	0x3d36ad5a	0.044598915
197	0x3d8daa26	0.06917219
198	0xbe107547	-0.14107238
199	0x3d114ff1	0.03547663
200	0xbe376230	-0.1790855
201	0x3d639068	0.05555764
202	0x3e2479cb	0.16062085
203	0xbda6d541	-0.08146144
204	0xbd288e15	-0.041151125
205	0xbe4477c2	-0.19186309
206	0x3df3f8b2	0.11912669
207	0xbde47b49	-0.11156327
208	0xbe7518eb	-0.23935287
209	0x3d6b8e4e	0.05750876
210	0x3dba1310	0.09085667
211	0x3c849398	0.01618366
212	0xbe7a71a7	-0.24457417
213	0xbdde6b57	-0.10860317
214	0x3caa81a2	0.020813767
215	0x3d67506d	0.056473184
216	0x3cbe9253	0.023263132
217	0xbe13d7d7	-0.14437805
218	0xbd9d0ab5	-0.07668058
219	0xbe14c3c1	-0.14527799
220	0x3e2693ca	0.16267315
221	0x3db9efa5	0.09078912
222	0xbce7c0a5	-0.028290102
223	0xbd5131b9	-0.05107281
224	0x3dfe3e26	0.124141976
225	0xbdd0a3e0	-0.10187507
226	0x3dc72912	0.097246304
227	0xbdec2282	-0.11530019
228	0xbd081699	-0.033224676
229	0x3ddc8291	0.10767091
230	0xbd386fa6	-0.04502835
231	0xbb5ae9f5	-0.003340361
232	0xbdf8d797	-0.121504955
233	0xbdd7bd5f	-0.105341665
234	0xbe7315c9	-0.23738779
235	0xbe34a3d5	-0.17640622
236	0x3ddfb636	0.10923426
237	0xbdaca4ac	-0.08429846
238	0xbd3a33e6	-0.04545965
239	0x3d695d34	0.05697365
240	0x3cf43c3a	0.029813875
241	0xbd09ff18	-0.033690542
242	0x3dfa5510	0.12223256
243	0xbd7a1a5f	-0.061060306
244	0xbd744d4c	-0.05964403
245	0xbd5da6ff	-0.054114338
246	0x3d9f5343	0.07779553
247	0x3d9e1fb5	0.077208914
248	0xbe1ac48b	-0.15114038
249	0x3dabf4d2	0.08396305
250	0x3d9c92cd	0.076451875
251	0x3e19f034	0.15033036
252	0x3d8f36f5	0.06992904
253	0x3e169d7b	0.14708512
254	0x3dadf29c	0.0849354
255	0xbd07bec9	-0.03314093
