results/env-1,1/preprocessed_a2c/512-decay/model.pth (torch, 532879 bytes, 7 tensors)

actor.0.weight f4 [512, 127]
00000000: 3954 9b3d 2304 a13c 1466 413d e24d 72bd
00000010: c601 923d 6544 a43d 8be1 663d 70e9 5c3d
00000020: 18f0 4a38 7ea5 a03d 837f 58bd 5312 c1bc
00000030: b5df 643c 10c2 263d 7447 b13c 25e0 cd3c
00000040: ffe9 513c 9ecf 8cbd 8637 c13d e449 a1bc
00000050: 7285 93bc 19cf b0bd 2b6c 34bd acd7 823c
00000060: bb50 99bc 4058 9a3d c08b b3bc 5de0 05bd
00000070: 6f84 a23d 85e9 873c f3f8 69bb 6fb0 523b
00000080: 74b0 82bd 58ca 323d 3541 0f3d 04a5 81bd
00000090: 88f7 0b3d f2b1 33bd 56dc 013d 234b 9cbd
000000a0: 4392 75bd 8e37 29bc 78f7 793d c1ae 96bd
000000b0: cd4f bc3c cb35 c13c d9fd 50bd cc6d 99bd
000000c0: e689 8ebd d38e 43bd bcf8 0dbd 07a7 3e3d
000000d0: ce78 873d 5a51 bf3d 73e1 8d3d 4585 52bd
000000e0: 5699 9b3d 108a 97bd 3d07 293c c67a 10bd
000000f0: 0a18 af3d 9487 a53d a41c 1bbd 22d6 cabc
00000100: 44c3 073b 88aa 9a3d 89fa 40bd c608 983d
00000110: 0bd8 943d 7be2 743d aab1 0dbd 1409 a73c
00000120: e3de e73b db3a 833d 9dbc 46bd a75b 17bd
00000130: 9646 73bd 9a2d 3bbc 0892 fabc 7e9b 66bd
00000140: 141d 193d f3a6 65bd 4e28 23bd d7b5 453d
00000150: 17bf 353d 98cb 9fbc 95b8 c33d 7134 86bb
00000160: b499 833d 00fe de3c 5871 81bd fe26 c9bc
00000170: 2391 10bd 25dd 08bc f8d9 7abd c597 bf3d
00000180: a528 a2bc 4e3d 19bd 6059 933d 5fa7 82bc
00000190: 5a77 a1bc a102 1d3d 020b 7cbd 6755 7bbd
000001a0: 2529 733d 9325 9dbd a865 3b3b a616 443d
000001b0: 5a4e d3bb b22e 4bbd 3fb6 193d 8d4d 0f3d
000001c0: fe0e 8bbd 71aa 98bd 89a5 4fbd 1e2b 82bd
000001d0: 9753 22bc afd2 213d 3b74 a03d 7692 dcbc
000001e0: 54d0 b73b 5ff4 4cba 4ccd 5d3d 4945 5cbd
000001f0: ff22 423c 5ead 103d c48a 1ebc 79a6 453b
00000200: ec57 a3bd 5307 453d ed36 7c3d e448 66bd
00000210: 3665 44bd e50c 923d 1e7d 5b3d 5e6c 6f3d
00000220: 74b2 a8ba 3f22 a0bc efa1 493d f8d6 083d
00000230: 471d 863d 113b 513d 4e99 2dbd 05d3 87bd
00000240: 759f 463d 4a87 883d 946a 80bd d1da 8c3a
00000250: b82d a83d e024 7fbd dff7 e53c 092c 733d
00000260: 4ca9 b1bd 9765 553c 4c50 bc3d 3c30 523d
00000270: 195f 2bbc 7592 6ebd bf36 663d 7152 093c
00000280: 5dad 0f3d eeed 8ebd 6b13 bebc 521e 243d
00000290: f0e8 90bd b396 aabd be4f 823d e54c 0abc
000002a0: cbd7 d13c e533 a0bc 4efb 623d 6d5f 2cbd
000002b0: 330d c7bc 7c6f a23d 4ad6 f1bc 5f68 a9bd
000002c0: b10b 753c 803a 71ba d15c 453b 7ec0 883d
000002d0: 9481 ba3b 4e64 843d 4bf9 4cbd 0dd3 f3bc
000002e0: 3198 493d fecb 073d ff9d 4abb 288c c2bb
000002f0: 1d30 8cbd 370c dcbc 3416 78bd 94bb 80bd
00000300: 89b4 a7bc 96f5 9bbd b9cd 823d abdb a23d
00000310: 5570 ac3d 7efd 98bb afe1 66bd 1b82 de3c
00000320: c9fa 983d 3c83 aa3d ec46 46bd 16f8 a63d
00000330: 6ab6 093d a00b f23c d474 a1bd a0ca 27bc
00000340: 9cca 903d b0cb 863c 6182 81bd e517 e23d
00000350: 6333 7f3d 6ad1 7cbc 101b ddbc da23 993c
00000360: 4b0e 943c 3bc9 b7bd 3b7d 10bd cfb8 19bd
00000370: 5a99 ac3d 3080 86bd 5bb5 383d 73c6 40bd
00000380: 28c7 ab3d e18c c53c 456f 0a3c d525 71bd
00000390: d9fd 143d fda7 72bd ea70 763d 5477 2fbd
000003a0: 255c 543d d5dc 963d 1204 97bb 6cba 053d
000003b0: f0cf 083d 5c96 683b 1589 aa3d 56ef b13c
000003c0: 3c64 9f3c c850 9abb c68a b3bd ea2a df3c
000003d0: 15c9 a3bd 3e18 813b 3735 ad3b aad3 4ebd
000003e0: 95f0 1d3d 5e56 3b3d b329 2dbd a9c3 14bc
000003f0: 276b 1e3c c7f8 7f3d e156 bdbd 8e9b d93c
0.075844236 0.019655293 0.04721649 -0.059156306 0.071292445 0.08020858 0.05636744 0.05393356
4.8384158e-05 0.07844065 -0.05285598 -0.023568308 0.013969352 0.040712416 0.021640517 0.025131295
0.012812137 -0.06875537 0.094344184 -0.019688554 -0.018007968 -0.08633251 -0.04404847 0.015971981
-0.018715253 0.075363636 -0.021917224 -0.032684673 0.07935416 0.016590843 -0.0035701364 0.003214862
-0.06381312 0.04365 0.034974296 -0.06330302 0.03417161 -0.043870874 0.03170427 -0.07631519
-0.05995394 -0.010328187 0.06102702 -0.073575504 0.02298727 0.02358522 -0.051023338 -0.07491645
-0.06959896 -0.04774363 -0.03466104 0.04654601 0.066148385 0.093416885 0.06927767 -0.051396627
0.07597606 -0.0739938 0.010316667 -0.035273336 0.08549507 0.080825 -0.03786911 -0.02476031
0.0020715753 0.075520575 -0.04711393 0.074235484 0.072677694 0.0597863 -0.03459326 0.020390071
0.0070761307 0.0640771 -0.04851972 -0.03695264 -0.059393488 -0.0114244465 -0.030587211 -0.056300633
0.037381247 -0.05606742 -0.03983336 0.04826912 0.04437169 -0.01950626 0.095566906 -0.004095607
0.06425801 0.027220726 -0.06320447 -0.024554726 -0.035294663 -0.008353506 -0.061243027 0.093551196
-0.019794771 -0.03741198 0.07194781 -0.01594895 -0.019710232 0.038332585 -0.061533935 -0.061360743
0.05936541 -0.07673182 0.0028594527 0.04787316 -0.006448549 -0.04960508 0.03752732 0.034986068
-0.06789969 -0.07454384 -0.050694976 -0.0635588 -0.009907625 0.039507564 0.07834669 -0.026925307
0.0056095514 -0.00078183966 0.054150864 -0.053777013 0.011849164 0.035321586 -0.009676639 0.003015904
-0.07975754 0.048102688 0.06157582 -0.056221858 -0.047948085 0.07131366 0.053586118 0.058452956
-0.0012870566 -0.01954758 0.049226698 0.033408135 0.06548553 0.05108172 -0.04238253 -0.06632046
0.048491914 0.06666429 -0.06270328 0.0010746365 0.08211845 -0.062291026 0.028072296 0.059368167
-0.08674869 0.013024709 0.09195003 0.05131553 -0.010459685 -0.05824514 0.056204554 0.008381472
0.03507744 -0.06978975 -0.023202619 0.04006798 -0.07075679 -0.08329525 0.06362866 -0.008441185
0.025615593 -0.019555995 0.055415444 -0.042083193 -0.024298286 0.0793142 -0.029521126 -0.0827186
0.014956401 -0.00092021376 0.0030115137 0.0667734 0.0056917164 0.06464444 -0.05004243 -0.029763723
0.049217407 0.033153526 -0.0030916927 -0.005937118 -0.068451144 -0.026861293 -0.06056805 -0.06285778
-0.020471828 -0.07615201 0.06386895 0.079520546 0.08419863 -0.0046688905 -0.056367572 0.027161648
0.074697085 0.08325812 -0.04840748 0.081527874 0.03362123 0.029546559 -0.07883611 -0.010241181
0.07069895 0.016454548 -0.06323696 0.11039714 0.062304866 -0.015430788 -0.026990443 0.018693853
0.018073222 -0.089739285 -0.03527568 -0.037529763 0.08427687 -0.065674186 0.04509483 -0.047064256
0.083875954 0.024115028 0.00844938 -0.05887397 0.0363749 -0.059242237 0.060166277 -0.04283841
0.05184569 0.07366339 -0.0046086395 0.03264849 0.03340143 0.0035490012 0.083269276 0.02172057
0.019456975 -0.004709337 -0.08766703 0.027242143 -0.07997338 0.0039396575 0.0052858847 -0.050494827
0.038559515 0.045736663 -0.042276096 -0.009079852 0.009669102 0.062493112 -0.092450865 0.026563432

actor.0.bias f4 [512]
00000000: dcb3 61bd 12f3 acbd 3c5e 81bd e59d a2bd
00000010: ec40 773d 618f 1c3d 979a f33c fa78 6ebd
00000020: ab9b ae3a 738a 94bd 1bfc 333c ca66 4ebd
00000030: c908 b73d 848b 7fbd f2c9 9c3c ea4a e8bb
00000040: d3b7 54bc 5143 8cbb 3d51 5dba cc06 413d
00000050: 6768 083d 3286 b63d 370f b23c cfd6 21bc
00000060: 5239 ab3d 490d c53c 1ad1 4c3d 80f9 7fbd
00000070: e399 0c3d f8b0 a9b9 9004 623d 83a2 99bd
00000080: 8e41 9fbd c49e 89bc 5751 493d 4129 e7bc
00000090: 341d 823d 3fe4 813d 51a1 a2bc 0163 163d
000000a0: e991 083d b1bf a53b 7bde 81bd 92e0 04bd
000000b0: 9119 8f3d 9fdb 723d f39b 82bc 09e4 753d
000000c0: 8508 25bd bda7 31bc 1326 7fbd caba 67bd
000000d0: 6270 89bd 974a 993d cf77 3c3c 2e2c 8abd
000000e0: a2be e2bb ab39 b93c 5a6a 8e3c b148 c73c
000000f0: 0b07 b03d 11e9 e03c a01d 103c 2ed9 3e3d
00000100: 935e 88bd fa1a 6e3c 07e0 20bb 27e2 f8bb
00000110: 6f35 703d 59d1 8fbd e664 3abd fb61 54bd
00000120: 9e1e 03bd f6a6 8abd 303f b9bc 8739 5a3d
00000130: b5a6 b0bc 333c a43d cad9 203d 155d 79bd
00000140: c428 bf3b a120 85bd 3775 47bd f5aa 61bc
00000150: 90b6 7a3d acf4 a3bc f358 993d 44cc 92bd
00000160: 08d7 efbc e46c 053d 44cc 71bd ed16 75bd
00000170: 6e1e adbd 1bcf 20bd 3140 da3c 70ef 003d
00000180: 8475 333d 9a52 923b 1aaf 34bc 5799 cdbc
00000190: 60e2 773b aa1f c83c 57c1 b83c 48e3 edbc
000001a0: bb10 8fba 35c7 853c 3f10 813c 11d9 84bb
000001b0: fb42 7a3d d9bd bdbc 21f8 833d 05f4 833d
000001c0: 2f16 203c 4ce6 a0bc b442 0d3c 5279 8f3d
000001d0: 7eea b03c 1472 4b3d f0f8 693d f846 06bd
000001e0: b249 94bc 83ed 5bbd 9dc9 8ebd 0559 56bd
000001f0: 7cac ce3b 48d0 9c3c 2c4f 8e3c f590 5e3d
00000200: 8d90 b03d 4ac2 6ebd 8829 213d 0759 ab3d
00000210: a7b1 e9bc 96a4 2c3c fdb1 b0bc 5977 d53c
00000220: 4079 a53c faa9 2dbc 3071 72bb c336 9d3d
00000230: 6b01 57bd c6b2 5bbd 8a3f 95bd 5915 ac3d
00000240: 5aa0 9ebc 2dd1 533d 84be 71bb 18a6 8ebd
00000250: 4fbb 103d 38dd 543d ae11 353d 1e16 00bd
00000260: b0b1 93bd bf6f 093c c91f 33bd cb43 ad3d
00000270: 3c5e 673c 2dfb a6bc 9a8f aabc caa9 e83c
00000280: b6ea 86bb b845 eabc ba2d 2b3d 4ea5 323c
00000290: 6a80 b4bc 5dfe 4cbd a6a6 6e3d 887e ec3c
000002a0: fa73 0f3b fa10 7ebc ccc0 b73d 0e21 f63c
000002b0: f68d 12bd d85f 82bd efd9 02bd 6275 54bd
000002c0: 04c8 38bd c820 6e3d 55a8 bf3d 49eb 69bc
000002d0: ef22 6e3d 0763 9c3b 3b68 19bd 76db 9abd
000002e0: 8bf6 333d 6508 2cbd ecde e4bc 00f5 923c
000002f0: 2591 6f3d 04c4 96bd a453 823d 5b71 603c
00000300: 5112 a3bd e460 753d 5a28 c2bc a98d 4b3d
00000310: fbf6 a3bd 9c14 d9bb 3a73 143d 1d01 723d
00000320: 4186 e33c 55d7 34bd 29ef 89bd 28df eebc
00000330: 1d71 9e3d 3436 983c 08c4 bbbc cac7 0fbd
00000340: 1b8d 9dbd 47cb b6bc a011 9f3c d24c 1abd
00000350: 309a 81bd 3556 52bd 0040 f8bc d591 e03c
00000360: e6cd 0c3c f2cb 523d 86fa 0fbd 0544 4f3c
00000370: c845 1bbd e566 853b 0559 053d a172 313d
00000380: ba64 8bbd 7889 943d 3f57 a6bd fa31 aebd
00000390: 45bc abbd 9069 273d ae78 63ba ab86 83bd
000003a0: 7c99 fc3c e738 733d b8f1 98bd aa06 a43c
000003b0: 2a9b 57bd 5593 893d 9ad1 5bbc aa94 58bd
000003c0: e3b1 3aba d29d 34bc 23b5 563d c9bc 7e3d
000003d0: d8e7 0c3d c3c4 a5bd 10ac 30bb 6726 97bd
000003e0: 25d0 233c 617e 6abb 0d14 45bc d7bb 403d
000003f0: f133 55bd 756c 403b 7e03 2cbd 383c b1bc
-0.055103168 -0.084447995 -0.06316802 -0.07940272 0.06036465 0.038222674 0.0297368 -0.05822084
0.0013321539 -0.072529696 0.0109854 -0.050390996 0.089372225 -0.06238891 0.019139264 -0.0070890086
-0.01298328 -0.0042804857 -0.00084425864 0.047125623 0.03330269 0.089123145 0.02173577 -0.0098778745
0.08360542 0.024054186 0.050004102 -0.0624938 0.034326445 -0.00032366044 0.055180132 -0.075017
-0.077761754 -0.016799338 0.049149837 -0.028217914 0.06353226 0.063423626 -0.019852312 0.03671551
0.033342276 0.005058252 -0.06341263 -0.03244073 0.06987298 0.05929148 -0.015943503 0.060031924
-0.040291328 -0.010843215 -0.06229217 -0.05657462 -0.067108884 0.0748493 0.011503174 -0.06746708
-0.006919698 0.022610506 0.017384697 0.024326654 0.08595093 0.027454885 0.008796126 0.046593837
-0.066586636 0.014532799 -0.0024547593 -0.007595319 0.05864471 -0.07022352 -0.04550638 -0.051851254
-0.03201162 -0.067701265 -0.022613138 0.05327752 -0.021563867 0.080192946 0.0392702 -0.060879786
0.005833717 -0.06500364 -0.04869577 -0.0137736695 0.06120926 -0.02001413 0.07487669 -0.07167867
-0.02927734 0.03257455 -0.059032694 -0.059836317 -0.084530696 -0.03926001 0.026641937 0.031478345
0.043813244 0.0044654133 -0.011028076 -0.025097532 0.003782414 0.024429161 0.02255313 -0.02903904
-0.001091502 0.01633034 0.015754817 -0.0040541966 0.061099034 -0.023161815 0.06443811 0.064430274
0.009770914 -0.019641064 0.00862186 0.07005562 0.02159619 0.04966934 0.05712217 -0.032782525
-0.018101547 -0.053693306 -0.069720484 -0.05233099 0.006307183 0.019142285 0.017371736 0.05433746
0.08621321 -0.058290757 0.039346248 0.0836659 -0.028527094 0.010537287 -0.021569246 0.026057886
0.020199418 -0.010599608 -0.0036993735 0.076764606 -0.052491587 -0.05363729 -0.0728751 0.08402509
-0.019363571 0.051713157 -0.0036887238 -0.069652736 0.03533488 0.051968783 0.044206314 -0.031271093
-0.072116256 0.008388459 -0.043731485 0.08460196 0.014121588 -0.020383442 -0.020820428 0.028401274
-0.004117335 -0.028597698 0.041791655 0.0109036695 -0.022033889 -0.050047267 0.058264397 0.028868929
0.0021889196 -0.015506977 0.0897232 0.030045059 -0.035779916 -0.06365937 -0.03194612 -0.051869757
-0.045112625 0.05813673 0.09358279 -0.014277288 0.058138784 0.004772547 -0.037452918 -0.0756139
0.043936294 -0.042000193 -0.027938329 0.01793909 0.05848803 -0.07361606 0.063636094 0.013698901
-0.07962478 0.059906855 -0.023700882 0.049695645 -0.08006092 -0.0066247713 0.0362427 0.059083093
0.027773978 -0.04415067 -0.06735069 -0.029159144 0.077364184 0.018580534 -0.022920623 -0.035102643
-0.07692929 -0.022313727 0.019417584 -0.037670918 -0.06328237 -0.051351745 -0.030303955 0.027413288
0.008594012 0.05146403 -0.035151027 0.012650494 -0.037908345 0.004071104 0.0325556 0.04332221
-0.068063214 0.072527826 -0.081221096 -0.08505626 -0.08385519 0.040872157 -0.00086773455 -0.0642217
0.030834906 0.05938044 -0.07467979 0.020022709 -0.05263821 0.067175545 -0.013416672 -0.052876152
-0.0007121844 -0.011023955 0.05241884 0.06219176 0.03440079 -0.0809417 -0.0026958026 -0.073803715
0.009998356 -0.0035780894 -0.012028706 0.047054138 -0.05205149 0.002936152 -0.041995518 -0.02163516

actor.2.weight f4 [2, 512]
00000000: a4cb 24bc f47d 963c aa34 26bd aa42 af3c
00000010: 7e12 173d 2fb1 09bd e0ca 1abd 604a b73c
00000020: 96e9 73bc df74 573d b609 0cbd c826 d8bc
00000030: 3fd7 59bd 9e07 2fbd fd82 a93a e30d 113b
00000040: c286 10bd 0b50 03bd 3a64 423c b279 313d
00000050: b7d0 ed3c d822 95bc b57b 4b3d 96fb 1d38
00000060: a013 48bd 31f4 19bc 37a1 783c 06ca a4bc
00000070: 6bfc f03c 416b 04bd 2ad7 27bc d62c 1a3d
00000080: 63a7 313b d3b0 64bd fb3b 1d3d 88cc 9ebc
00000090: 866a b7bc 8c30 ffbc dc42 693d 7cfe a53c
000000a0: 60c5 19bd c001 9b3c cac0 f63b 1788 9e3c
000000b0: 611d 543d 902e dc3c 6ef7 2c3c 3569 8fbc
000000c0: 637b edbc ab18 3cbd c7a4 013d 8ae4 a03c
000000d0: 56e2 1c3c 3dc9 15bc 24e1 d5bc a7dc 83bd
000000e0: 9016 223d acff 013d 20ea c3bc 0bc5 e63c
000000f0: 8713 74bc 3671 d53c 3fb7 553c 43ee 8abc
00000100: 8847 003d a64c 36bc 3d95 e33c ee25 213c
00000110: 40a8 353c 419a c6bc a052 04bd 8404 aa3c
00000120: 36a7 0bbc e1c0 e83c 5031 e33c 8937 36bd
00000130: 8521 7abc e167 04bd 3e8f 57bd 445c 31bd
00000140: a68c 6dbd 2da5 013d b329 283d 5a7a 61bd
00000150: 0d39 f5bb fd1d 10bc 7089 e53c f7ec da3c
00000160: 165f 873c b5d9 0dbc 4c5b d8bc 170f e4bc
00000170: 1aad 843c a26f 5fbd d0c1 4a3d e4ed 1f3c
00000180: 1f14 ebbb 2cb5 28bc 172c debc 74e2 00bd
00000190: 35b9 dc3c da02 473d 9f25 073d ee67 34bb
000001a0: 665f 4b3d 5559 323a a8a3 fcbc 3e90 33bd
000001b0: 5c81 33bd 2230 22bd 2ea2 1b3b 6e1b d4bc
000001c0: 7d47 b5bc ec93 5abd 9862 0f3d d363 9d3b
000001d0: c3d0 abbc 474e 96bc f215 9dbb e65a 2c3c
000001e0: fc44 6a3d c6d3 1ebd 0cf9 323d fd7f 8d3c
000001f0: dadc 683d a303 e7bc b13a 5c3d f541 60bc
00000200: 85e7 3bbd f606 693d 0d38 b93c 892c 57bd
00000210: 381b 8e3c 32d1 3d3d c169 41bd f5d1 093d
00000220: a7f2 f2bc 50cf 47bc 5830 493d ea58 3dbd
00000230: dd3a 07bd 0a4f 9f3c 0a1c fa3c 3d1d 93bb
00000240: b467 c43c 1100 073c 0b3b 84bc a1bf 263d
00000250: 033b 33bd 4679 96bc 38e1 85bd 17ed d73c
00000260: 0f6d ba3b a775 04bd 5af8 7abd b8dd 893c
00000270: 1593 933c 69af 8aba 23a6 053c 525e d93c
00000280: c530 b03c 7afd 32bd 3897 c0bb 8c17 8c3d
00000290: 809d a1bb 4081 483d f003 35bc efcf 1bbb
000002a0: 3687 3cbd e156 8a3c 6231 19bd 7efe 9dbb
000002b0: df91 ffbc 4112 653d 9de5 363d 0237 fcbc
000002c0: 3a2d dd3c 23e7 403d a39f 9fbc 85c5 563d
000002d0: 1f97 113d dc11 1bbd 843e 18bd 556b 19bd
000002e0: 4829 603c 174f 223c b120 babc 94cd 24bd
000002f0: 87bf 79bc e5ec 51bd 0b6c 7c3d 883b e1bc
00000300: 143a 4cbc 9cc8 233d ffcd 6e3c 236d 353d
00000310: bc1f ffbc 7f89 3a3d 9c6e 9bbc 882c 143d
00000320: c8a9 72bc 09fa 3a3c 896a d6bb 2c2e 0c3d
00000330: b065 443c 6606 853d 3378 b43c d708 5dbd
00000340: 4c1f f7bb 2139 efbc 6f4e c83c b256 efbc
00000350: 5d6c 023b 0f24 1fbd 0e2c e13c d08e 46bc
00000360: 42bc b4bc cca7 37bd ee89 0a3d 77c6 9e3c
00000370: f027 b03c 8dce fd3c c461 9d3c 9f3a a8bc
00000380: 6958 80bc 6d74 32bd c6d0 30bd e6ed 0a3d
00000390: 3767 d6bc 206a 25bd e247 bf3c b808 d63b
000003a0: 7410 25bd 00d1 6a3c c391 993b 75b3 dc3c
000003b0: eb17 983b 06bf b2bc 1c08 3cbc 8872 2cbd
000003c0: 51a3 233a 72b2 61bb 26ed 86bd 2023 2e3d
000003d0: 8026 36bc 41de e63b d8ed f5bc 530b 333d
000003e0: 6303 b33c be19 56bb f64f db3c 4e86 bc3c
000003f0: d3b0 813d 3ecf aabc c383 133a 6ba5 033d
-0.010058317 0.018370606 -0.040577568 0.021394093 0.03688287 -0.03361624 -0.037791133 0.022374332
-0.014887234 0.05260169 -0.03418895 -0.02638568 -0.05318379 -0.042731874 0.0012932714 0.0022133521
-0.035284765 -0.032058757 0.011864716 0.04332895 0.029030187 -0.018205091 0.049678523 3.7666025e-05
-0.04884684 -0.009396599 0.015175155 -0.020115864 0.029417237 -0.032328848 -0.01024417 0.037640415
0.0027107827 -0.055832695 0.03838728 -0.019384637 -0.022389662 -0.031151079 0.056948528 0.02026295
-0.037541747 0.018921733 0.0075303065 0.019352002 0.05178583 0.026877671 0.010557039 -0.017506221
-0.0289895 -0.045921963 0.031651285 0.019640226 0.009575447 -0.009142217 -0.026108332 -0.064385705
0.0395723 0.03173797 -0.02391535 0.02817013 -0.014897234 0.02605496 0.013044178 -0.016959315
0.031318218 -0.011126673 0.027781123 0.009835703 0.011087477 -0.024243476 -0.03230536 0.020754106
-0.008523753 0.028412284 0.027733475 -0.044486556 -0.015266781 -0.03232563 -0.05262684 -0.043300882
-0.05799546 0.031651665 0.041055392 -0.055048324 -0.0074836076 -0.008796212 0.028019637 0.026724322
0.016524833 -0.008657862 -0.026410721 -0.027839227 0.016195823 -0.05454982 0.04950124 0.009761307
-0.0071740295 -0.010297101 -0.027120633 -0.031465963 0.026943782 0.048586704 0.032994863 -0.0027527767
0.049651526 0.00068034726 -0.030839756 -0.043838732 -0.04382454 -0.039596684 0.002374779 -0.025891986
-0.022128815 -0.053363726 0.035006136 0.0048031597 -0.020973569 -0.018347872 -0.004793876 0.010519719
0.057194695 -0.03877618 0.04369454 0.017272944 0.056851245 -0.028199976 0.05376691 -0.0136876
-0.04587509 0.056891404 0.022609735 -0.052532706 0.017346963 0.046342082 -0.047219995 0.033647496
-0.029656721 -0.012195423 0.04911837 -0.046227373 -0.03301512 0.019446868 0.030530948 -0.0044895695
0.02397523 0.008239762 -0.016141435 0.040710095 -0.04375745 -0.018368375 -0.06537098 0.02635817
0.0056892703 -0.032338765 -0.061272003 0.016829357 0.01801447 -0.0010580841 0.008157286 0.026534233
0.02150763 -0.043698765 -0.0058774017 0.06840429 -0.0049321055 0.048951387 -0.011048302 -0.002377506
-0.046027385 0.01688713 -0.03740061 -0.0048215976 -0.031197486 0.05592561 0.04465257 -0.030787949
0.026999105 0.04709543 -0.0194853 0.052434463 0.03554451 -0.03785883 -0.037168995 -0.037455875
0.013681717 0.009906552 -0.022720667 -0.040235117 -0.015243418 -0.05125131 0.061626475 -0.027494207
-0.012465019 0.039986238 0.0145754805 0.044293534 -0.031143062 0.045541283 -0.018973641 0.03617528
-0.014810987 0.011412152 -0.0065434617 0.03422372 0.011987135 0.06495361 0.022029972 -0.05396351
-0.0075415727 -0.029202046 0.024451463 -0.029216144 0.0019901015 -0.038852748 0.027486827 -0.01211901
-0.022062425 -0.044837758 0.033822946 0.019381745 0.021503419 0.03098228 0.019211657 -0.020535765
-0.015667157 -0.043568064 -0.043167852 0.033918284 -0.026172264 -0.04038441 0.023349706 0.006531801
-0.040298894 0.014332056 0.0046865656 0.02694104 0.004641523 -0.021819603 -0.011476543 -0.042101413
0.00062422926 -0.0034438637 -0.06588201 0.042513967 -0.011117578 0.0070455377 -0.03002064 0.04371197
0.0218522 -0.0032669152 0.026771527 0.02301326 0.06332555 -0.020850774 0.0005627239 0.032140177

actor.2.bias f4 [2]
00000000: d0b7 38bc 5673 053d
-0.011274293 0.032580696

critic.0.weight f4 [512, 127]
00000000: c3a0 5c3e a676 b4bc f200 fa3c e9b5 013c
00000010: a7e2 4c3d 506f 55bd f957 51bd 0a0c e3ba
00000020: 2d1b 70bd 8047 1c3d a2e7 14bb 57ad 2cbd
00000030: 8e78 d7bc 213f 1ebd 3553 643c afd0 513d
00000040: afdf 40bc 4426 2dbd 7d9a 5cbc 7fb6 f1bc
00000050: 0ae9 803d eb6e b13d 74c0 523c d24c af39
00000060: 268a 53bd 5335 293d de55 573c 6508 373d
00000070: 5132 be3d 1015 c73d b200 7ebd 4c9d 9c3d
00000080: 0c99 4ebd 8a8e 8c3c df8d 92bd 6afb 9e3d
00000090: ef4d 073d 0094 183d 6d6e a93d 3fe3 9abd
000000a0: 50a2 38bd 2519 b1bc 0790 e4bc 7e32 473d
000000b0: 6e7e 133d aebf 90bc bf91 5b3d 0077 ef3c
000000c0: fdf8 b9bd 46e2 233d 9da8 21bb f9a9 703d
000000d0: c2eb 0cbd c0b5 c4bc 73d0 c63d ffd5 673d
000000e0: f498 01be 242f 83bc d6f2 2cbc 5a9a 83bd
000000f0: 8fa9 983c f652 2c3c 1ae2 8cbd 3984 c23d
00000100: 2332 50be 51a0 a0bd c2c7 87bd 3834 41bd
00000110: ec5e 04bd dd34 4b3b e33c 10bc e861 ac3d
00000120: 94a6 2abe a331 70ba bf07 b0bb efea 543d
00000130: 122c c53d cdb8 843c 767b 7d3c 00ae 62bb
00000140: faf6 8cbd 9ca7 85bd f888 f33c 9da1 55bd
00000150: 3ffc 193e f022 1e3d 74ed a3bd c3ed 11bd
00000160: 62bc 4ebc 47f9 3fbd 593f 523d 1db2 3cbd
00000170: 321b af3d ed36 3f3d 6f03 47bc 65ca 93bc
00000180: c1f0 983c 90ed e3bc 0aa6 0abd da66 1b3d
00000190: c5c6 253d dda7 1c3b 7d6d 35bd 0bc5 2f3d
000001a0: 76ae 14bc df19 2f3d 305b 9ebd 2c13 a4bd
000001b0: a710 883d 08ca 873b b33e a23d 4b3b be3d
000001c0: 1446 0abc 5646 883d 6a39 093b c7a7 2dbc
000001d0: bea5 25bd 2eef 98bd c49a d7ba 8974 cd3d
000001e0: c7b7 9abd d76f b43c b928 86bd 667f 7bbd
000001f0: edc8 18bc edd0 0f3d ecfc 85bc 8236 6cbd
00000200: 85b5 873d 59af b2bb c430 2f3d 3c5c 82bd
00000210: 1406 9d3b 3188 9abd c8b4 983d e8ce 49bd
00000220: b82a 503d b2de 803d 1aee 7bbd 86f2 90bd
00000230: 527b f8bc 6029 a1ba 70df a73d 69ad bc3c
00000240: 473a b0bc cb27 6cbd 5848 c7bc adf5 b53d
00000250: 0a0a 3bbd e789 4e3d 253d 213d a99a d93c
00000260: 85ed aebc 2381 75bd a65a 16bc fc73 8b3d
00000270: d9a8 adbd 18bb c63d 003d 4b3d 5682 4e3d
00000280: 6370 79bc d27e 09bc 3cc0 993d 6ab1 113e
00000290: 79ec aa3d b746 f6b9 b3b3 20bd 025f 103c
000002a0: c64a 9ebd 5bb1 1a3a 6ff9 ce3d a739 2b3e
000002b0: 1f0f afbc 2e14 bf3d 1bff bcbc d3dd 163e
000002c0: 9858 903d c049 cb3d df68 5b3d cf76 0e3e
000002d0: 1da9 a6bb d670 6f3d 1fa9 8d3d c9db 653d
000002e0: 1a02 70bd fa4f 683d 59eb bebc 03b7 2f3e
000002f0: 1c67 ca3b 2ea4 1c3d afe2 91bd 1318 1a3e
00000300: f1cf b33d 4a0b 2dbd abc6 74bd 9262 013e
00000310: 8f27 9b3c b800 9b3d 3b34 853d 299f 083e
00000320: 9835 2abd 150f 29bd 8df9 c4bd e007 a83d
00000330: 664d 2bbd 84b4 ba3d 9c75 2a3d db7d 0d3e
00000340: c6b2 083b e8f9 503d a1d6 5d3d 0660 e73d
00000350: dc19 633c d7fb 07bd 75af 3bbd b411 3e3c
00000360: 696d 383d 3cef d0bc 2da9 843d bbb7 8d3c
00000370: 05a6 8f3b 6934 80bd 5e4a 2bbd 6b69 493d
00000380: 6e94 47bd baca 4b3d 73ca 563c 4859 073e
00000390: 8c85 9c3c caa7 4abc d699 87bc dba1 d03d
000003a0: 7e73 8bbd de0d c63d 7f1d b33d e2f2 3d3d
000003b0: aa99 db3c 393d 36bc 8c0f 75bd 95c0 543d
000003c0: ba80 7c3d bc8c 863d 85f5 933d 10a2 4d3d
000003d0: fe22 1d3b 2807 4dbd 5f42 76bc 96ed db3b
000003e0: 12f8 1abd 4247 5cbd a020 9a3d 3251 db3d
000003f0: a1f1 953b 986d 653d 3300 ddbd e3f6 80bd
0.215457 -0.022029232 0.030518029 0.007916906 0.05002084 -0.05210811 -0.051109288 -0.0017322314
-0.058619667 0.038154125 -0.0022721072 -0.042157497 -0.026302602 -0.038634423 0.013935854 0.051224407
-0.01177208 -0.04227282 -0.013464567 -0.029505966 0.06294449 0.08663734 0.012863267 0.00033435837
-0.05164542 0.04131062 0.013143031 0.04468574 0.09286941 0.09720814 -0.06201238 0.076471895
-0.050438926 0.017157812 -0.07155966 0.07762797 0.033033308 0.03725052 0.08273015 -0.07562875
-0.04507667 -0.021618435 -0.027900709 0.048632137 0.036009245 -0.017669525 0.05360579 0.029231548
-0.09080694 0.040010713 -0.0024667152 0.05875585 -0.034404524 -0.024012446 0.09707727 0.056600567
-0.12656003 -0.01601369 -0.0105559435 -0.064259246 0.01863554 0.010517826 -0.06879063 0.09497876
-0.20331626 -0.07843078 -0.06629898 -0.04716894 -0.032317087 0.003100685 -0.008803579 0.08417112
-0.16665107 -0.000916267 -0.005372017 0.051981863 0.09627546 0.016201401 0.01547133 -0.0034588575
-0.068830445 -0.065261096 0.029728398 -0.05215608 0.1503763 0.038607538 -0.08004275 -0.035627138
-0.012618156 -0.04686859 0.051329944 -0.0460683 0.08550109 0.04668324 -0.012146815 -0.018040845
0.018669488 -0.02782324 -0.033849753 0.037939884 0.040472765 0.0023903765 -0.04429387 0.042912524
-0.009074798 0.042749282 -0.077322364 -0.08011469 0.06643801 0.004143957 0.07922115 0.09288653
-0.0084395595 0.066540405 0.0020938762 -0.010599083 -0.040441267 -0.07467495 -0.0016449322 0.10031993
-0.07554584 0.022025986 -0.06550736 -0.061400793 -0.009325248 0.035111357 -0.016355954 -0.05766917
0.06626419 -0.005453032 0.042771116 -0.063652486 0.0047919843 -0.07545508 0.07456356 -0.049269587
0.05082199 0.06292476 -0.06150637 -0.07077508 -0.030332241 -0.0012295656 0.08196914 0.023031907
-0.021512164 -0.057655137 -0.024326488 0.088847496 -0.04566387 0.050424483 0.039364953 0.026563006
-0.021353493 -0.059937607 -0.009176886 0.06809232 -0.08479471 0.09703654 0.04961872 0.050417267
-0.015224549 -0.008392053 0.07507369 0.14227834 0.08345885 -0.00046973463 -0.039233875 0.008811714
-0.07729106 0.0005901062 0.101061694 0.16721211 -0.021369515 0.09330021 -0.023070863 0.14733057
0.07048148 0.09926176 0.05356681 0.1391251 -0.005086078 0.058457218 0.06917023 0.056117807
-0.058595754 0.056716897 -0.023305582 0.17159657 0.0061768424 0.03824251 -0.071233146 0.15048246
0.08779896 -0.042247094 -0.059759777 0.12635258 0.018939761 0.075684965 0.06504103 0.13341965
-0.041555017 -0.04127415 -0.096179105 0.08204627 -0.04182186 0.09116462 0.041616067 0.13817541
0.002085851 0.05101958 0.054159764 0.11297612 0.013861146 -0.033199158 -0.045821626 0.0116009
0.045026217 -0.0255047 0.0647758 0.017299524 0.0043838047 -0.062599964 -0.04181897 0.0491728
-0.048725538 0.049753882 0.013109791 0.13217652 0.019106649 -0.012369106 -0.016552847 0.101871215
-0.06809138 0.09670614 0.0874586 0.04637421 0.026806671 -0.011122995 -0.05982928 0.051941473
0.0616462 0.06569812 0.072245635 0.050203383 0.0023977156 -0.050055653 -0.015030473 0.006711672
-0.037834235 -0.053778894 0.07525754 0.10708846 0.0045759236 0.05601272 -0.107910536 -0.0629709

critic.0.bias f4 [512]
00000000: 323f 85ba e567 c03d 2f3c 553c b92d f43c
00000010: f3f0 92bc 9245 83bd 7206 b83d b15d 0e3d
00000020: fa7e 483d 17be 93bc af68 8abd d0e5 5b3d
00000030: e8ce 413d 1415 98bd 2f54 863d 3d79 20bc
00000040: c8d5 b1bb c2be 5c3d 110b a3bd 2130 acbd
00000050: 8f28 85bd 4e8e 713c f37c ee3a 971b 73bd
00000060: 2a30 89bd 187e 9fba 6632 e33c 1f0c 2d3d
00000070: ccbf 043d 24c8 fdbc 8372 70bd a6ac 47bc
00000080: caf2 b43d 7172 393d 71f0 6c3d b2b0 bd3d
00000090: 20bc 3a3d 2c28 363c 21d6 213d 1e20 9e3d
000000a0: bf1d aebc 8ed6 d33c 976d 8b3d 959f 6bbd
000000b0: de92 be3d 0ed7 2cbd dfff 963d 01d6 063c
000000c0: 858e 7fbd 5fff 82bd 511f 1f3b be18 f13c
000000d0: 61c4 b8bd b475 c63c 497e 253d aded 5ebd
000000e0: d354 743d 87bc 833d 3502 cb3d 25c1 c83d
000000f0: 5181 7e3d 5f48 7a3c 3faf f3bc d0ba 803d
00000100: c593 3cbd c625 b53d a902 58bd ec5c a83c
00000110: 7a99 90bd e76c f0bc 3aec 503c 61e7 8ebd
00000120: 3af4 d5bc f107 f0bb 6dd3 883d abdb fcbc
00000130: 042c 773d 8111 dabc 74e4 61bd 03b2 4d3c
00000140: d001 bf3c 8abd 2a3d 24ad 833c 5b0f 2b3d
00000150: 0fca d6ba 05b0 2d3d 1890 9c3d cde1 873c
00000160: 4417 4c3d 9042 553d bfa9 473d c862 063d
00000170: 26e4 733d d776 82bd c7fa 923c 3359 a33c
00000180: 9cb4 833c 27fa 5ebd 21eb 5c3d 8d44 5bbc
00000190: c18e 66bd 9370 8c3d 5418 ab3c 931c ecbc
000001a0: 8733 f1bc f191 1dbb 0d83 62bd 9230 a23d
000001b0: 5a2f 223d 7ba6 df3c e9b8 7d3c 27a7 b6bc
000001c0: 95b2 0f3d a8c8 593d 6360 aabd 5489 15bd
000001d0: 4d5b c1bb 860d 273d a2f0 323d 24dd f1bc
000001e0: be7b 33bd 8733 413c e6ff b3bc 12fd 81bd
000001f0: 5bbf 743d a2fa 783a b2f1 4a3d 663f 66bd
00000200: a372 3fbd 34f1 a83d 00f9 6cbd a1d8 273b
00000210: e871 d53c 30d6 04bd c2cf 9fbd c4c6 ad3d
00000220: a19e 99bd 8089 30bd f4c0 9dbd b7f8 c2bc
00000230: 33c3 f6bc 7aaa 6a3d 00f6 22ba a3b4 90bd
00000240: a500 cabc 9c11 9c3d 6cd0 92bc 5e1b e738
00000250: 221e 68bc 0afd babd 0492 6f3c 3d15 95bd
00000260: 5b37 0a3d ace6 403d 412f b4bc 273d 243d
00000270: 1311 85bb 0433 383d 1d0a 803d 6e2f 85bd
00000280: dc90 a33d b194 143d 860a 5d3d ab07 94bd
00000290: b4e1 523d f703 ac3c 1f3e 17bd 9371 543d
000002a0: c6f1 7abd 5ef9 b3bc ae66 febc 34eb 4b3d
000002b0: 8c17 38bc ac60 243d d9b8 3d3c 8813 9e3d
000002c0: 92a7 973d 5dd3 453d 7338 21bd f9b9 a6bd
000002d0: d6cf b9bc 44ed 5a3c 5951 81bd 13ea 563d
000002e0: 563b 19bd 1ca4 8d3d cfea 19bd ce2e 173d
000002f0: 2248 0cbd 688e 1ebd d606 b53d 839b d1bc
00000300: 5bee a83d 6731 83bc 14a3 763b c489 6e3d
00000310: cfca e83c d4a5 873d 8f86 92bd cf5c a63d
00000320: 6057 f03a 471e 723d bdde 49bd 23fb 91bd
00000330: 9195 373c 9480 60bc 1bd2 4abd a9a4 103c
00000340: 7909 5cbd 0d7f 603d 875f 92bd 4160 f03c
00000350: 477f 80bd 1861 f73c acdb 5ebd c7ee 70bc
00000360: edb6 08bd dc35 14bd ef79 7e3d 2758 89bd
00000370: 9404 9b3c 4270 ac3d ba30 9ebd 857b 513d
00000380: f25d 3fbd 6520 4c3d 9fa3 a1bd ad97 a33d
00000390: 7a22 893d b71c 923b 5dfa 77bd ada3 dabb
000003a0: f216 9e3d ea3b acbd 7bbf 8dbd 60d2 8abd
000003b0: afd3 9ebc ad13 37bc c39f 8b3d 0bc3 ed3c
000003c0: 4477 723d 9307 7e3d 5581 edbc f414 003c
000003d0: 2292 b83b 87c5 bb3d 58f2 63bd d49e afbb
000003e0: a49e 163d 0940 42bd 1b62 5bbd bd40 1ebd
000003f0: 7a22 42bd 4dd4 aa3d 45ac a4bd 42a6 543d
-0.0010165928 0.09394816 0.013014837 0.029806959 -0.01793716 -0.06409754 0.08985604 0.03475732
0.04894922 -0.018034978 -0.06758248 0.053685963 0.04731646 -0.07425895 0.065590255 -0.00979453
-0.005427096 0.05389286 -0.07961095 -0.08407617 -0.065018766 0.014743401 0.0018195197 -0.059352484
-0.0669864 -0.0012168316 0.027733993 0.042247888 0.032409474 -0.030979224 -0.058702957 -0.012187159
0.08835371 0.045275155 0.05784649 0.092622176 0.045589566 0.011117976 0.03951085 0.077209696
-0.021254418 0.025859144 0.06808012 -0.057525236 0.093053564 -0.04219728 0.07373022 0.008229733
-0.062391777 -0.063963644 0.002428014 0.029430743 -0.09021831 0.024226047 0.040403638 -0.054425884
0.059651207 0.06432443 0.0991253 0.098024644 0.062135044 0.015276044 -0.02974665 0.06285632
-0.04603936 0.08845095 -0.052736912 0.020552121 -0.07060523 -0.029348804 0.012751633 -0.06977726
-0.026117433 -0.0073251654 0.06680951 -0.030866465 0.06034471 -0.026619675 -0.05514951 0.012554648
0.023316294 0.041684665 0.01607377 0.04176269 -0.0016387122 0.042404193 0.07644671 0.016587162
0.049826875 0.052065432 0.048745867 0.03280905 0.05954375 -0.06370323 0.017941846 0.019939994
0.016077332 -0.054437783 0.053935174 -0.013383043 -0.056288484 0.06857409 0.020885624 -0.028822219
-0.029443515 -0.0024043287 -0.05530076 0.0791942 0.03959594 0.027301064 0.015485981 -0.022296501
0.03508242 0.053169876 -0.083191656 -0.03650792 -0.0059007765 0.04078438 0.043686517 -0.029524393
-0.04381918 0.01179207 -0.021972608 -0.063470975 0.059752803 0.00094977964 0.049546905 -0.056212805
-0.046740185 0.08249131 -0.057854652 0.0025611299 0.026055291 -0.032430828 -0.078032985 0.08485177
-0.07500959 -0.04309988 -0.077028185 -0.023800237 -0.030122375 0.057291485 -0.00062164664 -0.07065704
-0.02465851 0.07620546 -0.017921649 0.00011020036 -0.0141673405 -0.091302946 0.014622215 -0.072794415
0.033744197 0.047094986 -0.021995189 0.040097382 -0.0040608733 0.044970527 0.06251929 -0.06503187
0.07986614 0.036274616 0.053965114 -0.07228025 0.05148478 0.020997984 -0.036924478 0.051866125
-0.06126573 -0.021969493 -0.03105482 0.049784854 -0.011236083 0.040131256 0.011579716 0.07718569
0.074050084 0.048297275 -0.039360475 -0.0814094 -0.022682112 0.013362233 -0.06314344 0.052469324
-0.037410103 0.06916067 -0.037577447 0.03690987 -0.03424848 -0.038710028 0.088391945 -0.02558685
0.08248588 -0.016014768 0.0037633823 0.058236852 0.02841702 0.06623426 -0.07154571 0.081231706
0.0018336587 0.059110906 -0.049284685 -0.07127979 0.011205093 -0.01370253 -0.04951678 0.008828321
-0.05371997 0.054808665 -0.07147127 0.029342772 -0.06274276 0.030197665 -0.054408714 -0.014705366
-0.033377577 -0.036184177 0.062128004 -0.06706267 0.018923081 0.08419849 -0.077241376 0.051143188
-0.046720453 0.04983558 -0.07892536 0.07987914 0.06696029 0.0044589895 -0.0605415 -0.0066723437
0.0771922 -0.08409865 -0.069212876 -0.06778407 -0.019388048 -0.011174125 0.068175815 0.029023668
0.05919577 0.062018942 -0.028992334 0.007817496 0.0056326548 0.09168535 -0.05565104 -0.00535951
0.036772385 -0.04742435 -0.053560358 -0.038635958 -0.04739616 0.083412744 -0.0804067 0.05191637

critic.2.weight f4 [1, 512]
00000000: 51d3 14be 181f 223d 3bba 4dbd cd1f e4bc
00000010: a3a2 993d 709a e8bc e3f3 683d b384 9d3d
00000020: 5908 cfbc a4ed e4bd 5a68 0cbc 304e a73d
00000030: f7ce 3cbd c0a5 a2bd f041 4d3d e990 683d
00000040: 2925 8bbd ead5 64bd ee38 6bbd 44a5 cabc
00000050: 4f5a b9bd e387 12bd ecfd 943d ba22 973d
00000060: c8db 553d d8d7 dbbc 00fe 0abd 3244 7e3c
00000070: 6a77 bebc 1808 38bd 97bb 4e3d 81e3 37bd
00000080: 5354 ab3d 3fbb f4bc 13e8 863d ec24 cebd
00000090: c2b2 3abd e2a9 953c 2910 d1bb b428 1f3d
000000a0: 3fa4 913d 583e 393d 94fc 453d d115 a83d
000000b0: 3b55 8c3d 6d5d 00be 5bb4 b73d 113f ce3d
000000c0: 5e4f f7bc b7c7 73bd 0ebe 973d e42d 4ebd
000000d0: fe99 4cbd fc2b f7bc 2bfc 77bd 7035 99bc
000000e0: d074 5c3d c788 9bbc 8cb3 6e3d 440d 423d
000000f0: 8af9 25bd 03c3 1ebd 7724 72bc 1382 06bd
00000100: c44a a23d ca3f a5bc 0510 873d 6ff5 04bd
00000110: b9c1 e2bd 0edc 67bc 2def 673d 7aa2 51bd
00000120: 7269 19bd 1c69 fbbc 38dc 793d bb1f 20bd
00000130: 87b9 d23d 6dd7 b6bc 0e58 a5bc 6f9a d1bd
00000140: 9020 0bbd 0016 efbc e4df d3bc 0a68 28bd
00000150: 919b 4c3d 0537 9f3d 90fd 13bd 0e74 b93d
00000160: b2f1 be3d c53b 83bd 1613 9c3d 2f56 cabd
00000170: 7a68 64bd c576 783d 3433 9f3d d671 acbc
00000180: 2a59 6b3d d477 e03c 8d4f 1dbd ec18 76bc
00000190: 779a 28bd 9bac 2dbc b6e7 ecbc f67d fcbc
000001a0: b174 3fbd a4a3 a33d 0092 c0bd 6c90 bdbc
000001b0: 0db2 a63d 5adf abbd 4229 bbbc f071 ba3d
000001c0: 1e3e 873d dc8b 4dbd 77c4 10bd 94c3 cabc
000001d0: 7610 66bd 1e53 02be 9396 b7bc a804 48bd
000001e0: 6c9a 253d d307 cfbc d9c1 3ebd f2ea 9f3d
000001f0: c83d 2dbd 3dcf bbbd 3ec6 1bbd 6519 b33d
00000200: e72a 90bc f63a 1dbd f612 d33d 93d0 18bc
00000210: c294 0fbc f664 29bd 74a0 9e3c 59a7 5f3d
00000220: da50 843d 4525 d03d a86a 883d b05e 913d
00000230: 7df3 a9bd d527 653d 6d9d 10bd a7b5 513d
00000240: f150 4cbd c5a3 27bd ad3a 903c a435 29bd
00000250: 93a1 473d 8c45 37bc 1e58 e63a ce9c 71bd
00000260: 7999 0fbd 06fd 1fbd a6a5 773d f0b6 f8bc
00000270: 0f48 13bd 8665 093d fbb5 08bd f976 61bd
00000280: 2387 4fbd bf36 943d c1ca bd3c b782 fdbc
00000290: 1175 183d 1721 413d f7ae d23d 1324 9e3d
000002a0: e5cf 69bd 10d4 7c3d 9633 09be b6f3 013d
000002b0: a25b 70bd d0d2 933d c66c 593d bfec 15bd
000002c0: d7a6 7ebd 35f7 8bbd c71c 563d cb3b 14bd
000002d0: ffd5 5b3d 1b25 a13d a277 82bd 3fa4 29bd
000002e0: d111 93bd a08b 41bd d20e 7abd 69d1 be3d
000002f0: 44df 4d3d d3ea a5bd da11 a43d ee05 c33d
00000300: ddbb aabd 77c0 39bd 2cbe b03d caca c53d
00000310: 3401 ef3c f7bb b8bc 9bae 4f3d 3a73 abbd
00000320: ce6c d9bc 3c54 08be 536f 833d 98af 383d
00000330: 9b91 863d caa1 7b3d 6052 46bd 541e 57bd
00000340: 7ddc c5bc 7b5d 60bd ce2b 00bd 37f0 7a3d
00000350: 042a 94bc 0710 dfbc f7ea 49bd 7e3c 413d
00000360: cb78 553d a34a 903d cfeb b8bd 2cce 873d
00000370: 38e2 c63d 150e 323d cb3c 8b3d 713c d9bc
00000380: 2992 03bd 77b9 bc3d b25a 25bd 467e 26bd
00000390: d3b3 953d d837 943d 63f8 743d e20c d23c
000003a0: 5de7 91bc 30f6 8c3d 0d51 aabd afb2 a6bc
000003b0: f184 33bd f516 aabd 24f5 bdbd 0cb2 0a3b
000003c0: aaa8 883d 42f8 f8bc 4764 813d d4bf 9d3d
000003d0: df1f 0abd 8097 8abd 1685 21bc 3737 2ebd
000003e0: 019c ea3c 4560 f23d 73c8 50bd 2a74 abbc
000003f0: b9cc fdbc c087 60bd 053e d63d 0355 5b3d
-0.14533736 0.039580435 -0.05022643 -0.027847195 0.075017236 -0.028393954 0.056873213 0.07691326
-0.025272535 -0.11178139 -0.008569801 0.0816921 -0.046095815 -0.079417706 0.05011171 0.056778822
-0.06794197 -0.055868067 -0.05742734 -0.024737008 -0.09050428 -0.035774123 0.07274994 0.073796704
0.052211553 -0.02683632 -0.03393364 0.015519189 -0.0232503 -0.044929594 0.05047187 -0.0448947
0.08365693 -0.029874442 0.065872334 -0.10065636 -0.045580633 0.018269483 -0.0063801003 0.038857177
0.071114056 0.04522547 0.04833658 0.08207286 0.06852194 -0.12535639 0.08969947 0.10070623
-0.030189212 -0.059516635 0.07409297 -0.050336733 -0.049951546 -0.03017234 -0.06054322 -0.018702239
0.05382234 -0.018986119 0.058276698 0.047375932 -0.040521182 -0.038760196 -0.014779202 -0.032838892
0.07924417 -0.020172019 0.06594852 -0.032460626 -0.11072106 -0.014151586 0.05662458 -0.05118034
-0.037454076 -0.030689768 0.061001033 -0.03909276 0.10289293 -0.02231952 -0.02018359 -0.10234534
-0.0339666 -0.029185295 -0.025863595 -0.041114844 0.049953047 0.07774166 -0.036130488 0.09055339
0.093234435 -0.064078845 0.07620828 -0.098797195 -0.0557637 0.060660142 0.07773438 -0.021050375
0.05745808 0.027400889 -0.038405944 -0.01502059 -0.041162934 -0.010600234 -0.028919082 -0.030821782
-0.046742145 0.07990196 -0.09402847 -0.023140155 0.08139429 -0.0839221 -0.022846822 0.09103763
0.06603645 -0.05018221 -0.035343613 -0.024751462 -0.056168042 -0.12727019 -0.022410667 -0.048832566
0.04043047 -0.025272286 -0.046571586 0.07808484 -0.042295247 -0.09170387 -0.038030855 0.08745078
-0.017598582 -0.038386308 0.10306351 -0.009327072 -0.008763494 -0.04135605 0.01936362 0.054602955
0.06460734 0.101633586 0.06660968 0.07098138 -0.08298395 0.05594619 -0.035306383 0.051198628
-0.04988188 -0.040927667 0.017606104 -0.04131092 0.048738074 -0.011186015 0.0017573868 -0.05898743
-0.035058472 -0.03905966 0.06046071 -0.030360669 -0.035957392 0.033544086 -0.033376675 -0.0550451
-0.050665986 0.072370045 0.02316797 -0.030946119 0.03722102 0.047150698 0.10287278 0.07721724
-0.05708303 0.061725676 -0.13398585 0.03172656 -0.058681138 0.07217944 0.05308225 -0.03660273
-0.06217083 -0.068342604 0.052273538 -0.036189836 0.05367088 0.078684054 -0.063704744 -0.041416403
-0.071811326 -0.047252297 -0.06104929 0.093172856 0.05026175 -0.0810143 0.080112174 0.095226154
-0.08336613 -0.045349564 0.086300224 0.096578196 0.029175378 -0.022550566 0.050703626 -0.08371587
-0.02654114 -0.13313383 0.06417718 0.045089334 0.06570741 0.06143359 -0.048418403 -0.052519158
-0.024152989 -0.05477665 -0.031291775 0.061264243 -0.01808644 -0.027229322 -0.049296346 0.04717683
0.05211715 0.07045486 -0.09029352 0.06631121 0.097111166 0.04347046 0.06798705 -0.026518079
-0.03212181 0.09215062 -0.040369697 -0.040647767 0.073096894 0.07237214 0.059807193 0.025640909
-0.017810518 0.06882894 -0.083162405 -0.020348875 -0.043827955 -0.0830516 -0.092752725 0.0021163253
0.06672795 -0.030391816 0.063179545 0.07702604 -0.0337218 -0.067671776 -0.00985839 -0.042533126
0.028638842 0.11834768 -0.050972413 -0.020929415 -0.030981408 -0.05481696 0.10461048 0.05354787
