results/env01/a2c/512-nodecay-new-10000-new-18000/model.pth (torch, 532879 bytes, 7 tensors)

actor.0.weight f4 [512, 127]
000000 0f b5 5a 3d fd 46 6e 3c 3d 9b 00 3e a4 9e d8 bd
       0.053395327 0.014543292 0.12559219 -0.10577133
000010 73 37 e2 3c 72 6e fc 3c cb d3 90 bd e7 da 05 bd
       0.02761433 0.030814383 -0.07071646 -0.032679465
000020 fe fc ca bc 47 35 40 bd dc 2f a1 3d 55 a7 dd bd
       -0.02477884 -0.04692581 0.078704566 -0.10822932
000030 b8 f1 2f bd 00 4f 29 bc 39 7e a3 bd 13 fe a8 bc
       -0.04295513 -0.0103337765 -0.079830594 -0.020628965
000040 0c 23 e4 bb 65 1f c1 bc 64 59 ba bd 6e 7f 84 3d
       -0.0069621857 -0.02357454 -0.09099081 0.06469618
000050 9d 84 69 bd 06 c5 83 bd df c8 67 bd 1d 1d b5 3d
       -0.057011236 -0.064340636 -0.05658805 0.088434435
000060 bc 00 82 3d ff d6 81 bd 5f 4e 70 3d 1c f1 c5 3d
       0.06347796 -0.063398354 0.05866849 0.096651286
000070 a6 ac a4 bd 0b 3b 5e 3d 77 43 ab bd 98 21 78 3d
       -0.080407426 0.054255527 -0.08362477 0.060578912
000080 56 57 3b bd 0f 72 93 3c 59 a7 b5 bd 0f c1 86 bc
       -0.045737587 0.017998723 -0.0886981 -0.01644948
000090 6c 3f 5f 3d 32 5a d9 bc 58 42 a0 bd ee d9 ba 3c
       0.054503843 -0.026532266 -0.07825154 0.022808995
0000a0 36 dc cb ba 1b cf 5b 3d a2 db 82 bd b8 32 74 3d
       -0.0015553299 0.053664308 -0.06389548 0.05961868
0000b0 46 bd 79 3d 12 06 2e bd 93 8f 63 bc 89 a0 18 3e
       0.06097152 -0.042486258 -0.013889211 0.1490499
0000c0 5a fa ae 3c d6 b7 1f 3d 7e 5c b8 bc 12 9b af 3d
       0.021359611 0.03899368 -0.022505041 0.08574499
0000d0 e9 7e a4 bd ed d2 5c 3c 12 9d ff 3b 6d bf b3 bc
       -0.08032019 0.013478023 0.0078007067 -0.021941865
0000e0 b7 a0 9a bc d9 39 83 bd 09 08 a7 bb 52 1c 90 3d
       -0.018875463 -0.06407518 -0.0050973934 0.07036652
0000f0 aa a9 86 3c fd af 91 bd 8c 03 6b 3d f8 4c 03 bd
       0.016438324 -0.07113645 0.05737643 -0.032055825
000100 e1 8d 5e bd 33 b2 97 39 3c 47 33 bb 7d 85 8d 3d
       -0.054334525 0.00028933733 -0.0027355691 0.069102265
000110 fe 36 61 bd 7b df aa 3d 98 fb 91 bd aa 5b 85 bd
       -0.054984085 0.08343407 -0.07128066 -0.06511624
000120 5a 62 bc 3c ab 00 13 3c e6 5c 13 bd d0 65 81 bd
       0.022996116 0.008972327 -0.035977267 -0.06318247
000130 a9 7c 20 bd d9 22 a4 3d 49 f8 48 3c 5a b8 17 bd
       -0.039181385 0.08014459 0.012266227 -0.037041046
000140 32 1c e4 bc a9 66 a0 3d 7e 4b 93 bb 96 44 f3 bd
       -0.027845476 0.07832081 -0.0044950834 -0.11878316
000150 ad a9 b2 3d 8f c1 a0 bd a6 67 ab 3d 6c d3 5b bd
       0.08723769 -0.07849418 0.08369379 -0.053668424
000160 af 81 5d 39 66 a4 83 bd 69 1c 32 bd 0f ac 8a bc
       0.00021124513 -0.06427841 -0.043484125 -0.016927747
000170 ca a9 d7 3d aa 2e 34 bd d8 44 71 bd e0 0c 04 3c
       0.105304316 -0.043989815 -0.058903545 0.00805971
000180 18 77 c4 3d 4c 50 12 3d ad e4 ea 3c 1c eb a8 bd
       0.09593028 0.03572111 0.028673494 -0.082479686
000190 57 65 d6 3b 69 ee 97 bc cf de 42 3d 33 43 ba bd
       0.0065428424 -0.0185463 0.047575768 -0.090948485
0001a0 7e de 33 bd 52 de 1f 3d b1 0d ea 3c b7 e8 84 bd
       -0.043913357 0.03903038 0.028570982 -0.06489699
0001b0 0d 88 31 bd c4 7f a1 3d 98 d4 ca bc ec c0 7d bd
       -0.04334264 0.078856975 -0.024759576 -0.061951563
0001c0 e9 ee af 3d d3 de 1a 3d cd 2d 72 bc 4f 9d 2b bd
       0.0859049 0.037810158 -0.014781428 -0.041898068
0001d0 c2 88 f8 3d c7 76 4b 3d 46 93 ce bb da cd 6e bd
       0.121354595 0.04967382 -0.0063041775 -0.058301784
0001e0 0c fb d7 3d cd bd 36 3d 7b d3 e8 3b 58 a9 21 bd
       0.1054593 0.044614602 0.0071052886 -0.03946814
0001f0 76 d3 5a 3d 45 f4 68 3d 44 aa 5a 3d 5c 2c f3 bb
       0.05342432 0.05687358 0.053385034 -0.0074210595
000200 e8 8f 4f 3b f0 ac 1d 3c 99 d9 06 3e c9 4d 88 3d
       0.0031671468 0.009623751 0.13168944 0.06655461
000210 4c 35 67 3d 83 a3 69 bd 7f 9a 48 bc 07 e6 2e 3d
       0.056447312 -0.057040703 -0.012243866 0.04269984
000220 ea 4b 5b 3d 4c fa 6a 3b 59 4f c6 bb 97 e2 a0 bc
       0.053539194 0.0035854755 -0.0060519394 -0.019639296
000230 56 3a bd bd be 8a 09 bb 91 48 29 bd 9e 76 c1 3c
       -0.09239642 -0.0020987238 -0.04132897 0.023616131
000240 b8 28 a0 3c 1a 59 eb 3c d1 ec 49 3d 4a 4d 17 3e
       0.019550666 0.02872901 0.04929811 0.14775577
000250 77 e0 1e 3c 82 84 08 3d a6 7c 50 3c af 57 9d 3d
       0.009697071 0.033329494 0.012725031 0.0768274
000260 8a 25 9b 3d 3b bd 36 3a d3 24 63 bc 24 a8 80 3d
       0.075755194 0.00069709466 -0.01386376 0.0628207
000270 33 bf da 3c c6 b8 64 bd 0f 2b 0e bd 60 61 85 bd
       0.026702499 -0.055840276 -0.034709033 -0.065127134
000280 0a 2e e1 3c 2c 34 44 3b cd 3c 97 3c c3 9f 3a bd
       0.027487773 0.0029938323 0.01846161 -0.045562517
000290 cf 24 31 bd 9e d7 84 bc 9e 18 2e 3c e2 22 55 3d
       -0.043247994 -0.016216096 0.010625986 0.05203522
0002a0 79 33 c0 3c 49 65 51 bd e2 da c5 bd 9a bf 7c 3a
       0.023462044 -0.051121984 -0.09660889 0.0009641588
0002b0 fe 71 92 ba d8 3a 52 bc 9e 8f f2 bc 8d 5e b2 3b
       -0.0011172888 -0.012831412 -0.029609498 0.0054434002
0002c0 32 dc c4 3d 3c 26 ae bb e9 ef a4 bd f3 24 a4 3b
       0.096123114 -0.0053146165 -0.08053572 0.0050092875
0002d0 a5 75 7e 3d 42 bf 8d 3d 17 a7 08 be e6 75 a3 3d
       0.062123913 0.06921245 -0.1334499 0.07981472
0002e0 93 8f ca 3d 2d 8c c7 bc 49 58 a7 bd d5 95 f4 3d
       0.09890666 -0.024358833 -0.08171136 0.11942641
0002f0 91 8e 47 bd 3d 81 09 3d e1 9b f8 bc 6b d7 ab 3d
       -0.048719946 0.033570517 -0.030347766 0.08390697
000300 de b5 0d bb 52 36 11 bb 44 8c 09 3d 4f 90 a0 3d
       -0.0021623294 -0.0022157622 0.033581033 0.07840025
000310 65 70 f3 ba 09 0e 37 bd c4 45 8b 3d a3 73 76 bd
       -0.0018572925 -0.04469112 0.06800416 -0.060168874
000320 f8 92 10 3d 3b 5e 92 3d cf 19 1d bb 16 28 c5 bc
       0.03529641 0.07146879 -0.0023971682 -0.024066966
000330 7f eb 6f bd 56 6d d9 b9 a7 7c 89 3d 6f 6e 69 3b
       -0.058574196 -0.00041470927 0.06713229 0.0035618802
000340 18 1b 5f 3d 95 aa d1 bc d4 d5 e8 3b 43 8a 06 bd
       0.054469198 -0.025594035 0.0071055684 -0.0328467
000350 f4 b3 b1 bd e8 09 0f 3d 46 51 55 3d 58 7b 3c bd
       -0.086769015 0.034921557 0.05207946 -0.046016067
000360 a8 99 be bb 41 09 b8 bc 88 b3 3d 3d 6a 71 e5 bc
       -0.005816657 -0.02246535 0.046313792 -0.028008182
000370 f6 74 51 bd 3f 55 9e bd e9 2b 80 bd dc 74 82 ba
       -0.051136933 -0.07731103 -0.06258375 -0.000995304
000380 6d 3e ac bb dc 2a 79 bc c1 d3 bd 3b f0 9d 83 bd
       -0.005256465 -0.015207972 0.0057930653 -0.064266086
000390 78 1b 1d 3d 62 c9 9f bb b8 82 92 bd df fd e7 ba
       0.038356274 -0.0048763016 -0.07153839 -0.0017699561
0003a0 10 60 9e 3d 92 6a ee bb 99 89 14 3d 2a 19 96 3c
       0.07733166 -0.0072758878 0.036264036 0.018322546
0003b0 a6 ce c2 bc af 39 40 bd 23 72 d4 bd 53 07 3c 3d
       -0.023780178 -0.04693001 -0.10373332 0.045905422
0003c0 50 3e 59 bd 3b 28 60 bd 88 35 1e 3d c3 ca ba 3c
       -0.05303794 -0.054725867 0.03862527 0.022801762
0003d0 c8 96 96 3c 93 33 9a 3d 6f d7 d7 bd 0e d2 7b 3c
       0.018382445 0.07529368 -0.105391376 0.015369905
0003e0 51 22 39 bc 2b 3a 32 3c 93 1b 89 3d 0e be f9 bc
       -0.011299686 0.010878126 0.066947125 -0.030486133
0003f0 02 cc c8 3c a9 5b 1f bd 83 c6 51 bd 8d 7f f8 3c
       0.024511341 -0.038905773 -0.051214706 0.030334258

actor.0.bias f4 [512]
000000 02 81 93 3d d7 48 28 bd 30 c7 54 bd 5a 60 eb 3b
       0.07202341 -0.04108509 -0.051947773 0.007183117
000010 20 f5 a4 bd 8e 91 42 bd 1d 66 68 bd 99 8e d4 3c
       -0.080545664 -0.047502093 -0.056738008 0.025946902
000020 49 c7 ed bc e2 a9 2e bd 64 2d 54 bd 81 eb 44 bd
       -0.02902569 -0.04264248 -0.0518011 -0.048076157
000030 63 eb 15 bd 0c f4 8b 3d 73 74 e8 bb e9 50 a0 bd
       -0.036601435 0.068336576 -0.00709396 -0.078279324
000040 a7 a9 c7 3c 1e 96 4d 3d 85 10 44 bb cf 0a 1a bd
       0.024372889 0.05019199 -0.0029917073 -0.037607964
000050 72 ab 84 bd 97 eb 63 3d b6 44 03 3d b7 d4 1d 3d
       -0.06478013 0.055644598 0.03204795 0.03853294
000060 00 f1 20 3d 71 b0 76 bd a0 b1 9f bd b7 ae f1 3c
       0.039292336 -0.06022686 -0.07797551 0.029502256
000070 35 0b 5a 3d 94 49 86 bd ca 20 b0 bd 33 d4 cf bd
       0.053233344 -0.06557003 -0.08600004 -0.10147896
000080 56 70 4d bc 0a a4 36 bd 3e df 4b 3d 60 67 68 3d
       -0.01253899 -0.044590034 0.049773447 0.05673921
000090 4b 9a 78 3d 31 ff 94 3d ff bf 45 bd 6e 26 68 3d
       0.06069402 0.072752364 -0.048278805 0.056677274
0000a0 a6 61 3c bd 82 dc 92 3c 44 54 61 bd b5 a1 66 bd
       -0.045991562 0.017927412 -0.055012003 -0.05630656
0000b0 dd 9b 88 bd 61 a1 5e 3d 19 93 68 3d e6 82 94 3d
       -0.066703536 0.05435312 0.05678091 0.072515294
0000c0 98 84 26 3c 82 a6 38 bd ee ce 7d 3d e5 89 c8 3d
       0.010163449 -0.04508067 0.06196492 0.09791926
0000d0 86 2e eb 3c 0b 39 38 bc fa 42 a5 bd e0 2a 8e bd
       0.028708708 -0.011244069 -0.080694154 -0.069417715
0000e0 87 07 be 3d 81 93 58 bc eb f1 16 3d 65 55 8d 3d
       0.092787795 -0.013218761 0.036851805 0.06901053
0000f0 66 61 b5 bd a9 d7 ae 3d 2d 91 dd bc b2 20 0c 3d
       -0.08856468 0.08537228 -0.027046764 0.03421087
000100 c4 94 7a 3d 4e 94 dc 3d 58 56 39 3c 3e 8e 23 3d
       0.06117703 0.107704744 0.01131209 0.039930575
000110 0b d2 12 bd 46 7c 05 bd 16 37 73 bb 55 f9 a9 bc
       -0.035844844 -0.03258922 -0.0037111691 -0.020748774
000120 c5 e2 13 bd 0c cf 49 3d 55 db 95 bc 41 1f b5 3d
       -0.036104936 0.04926972 -0.018293062 0.08843852
000130 89 34 bb bc 69 da ab 3d 28 95 ca 3c da 93 76 bd
       -0.0228522 0.08391268 0.024729326 -0.060199596
000140 e8 2a 9e bd ff 2e 17 bb bf a4 0f 3d 66 3e b6 3c
       -0.077230275 -0.0023068783 0.035069223 0.02224655
000150 ec 27 26 bd 81 de 75 bd 0e 8d 7e bd f9 9e eb bc
       -0.040565416 -0.06002665 -0.06214624 -0.028762328
000160 00 44 46 3d 57 25 64 bd 15 26 3b 3c f4 c5 e7 bc
       0.048404694 -0.055699673 0.011422654 -0.028292634
000170 49 d9 84 3c a4 c5 4d bd 11 34 e7 bc 82 07 df 3c
       0.01621689 -0.050237313 -0.02822307 0.02722526
000180 58 19 a4 3d 7a c5 30 3d e3 8f 89 3c 3f 85 a2 bd
       0.080126464 0.04315708 0.016792243 -0.07935571
000190 25 24 62 bd 09 01 50 3d d9 22 a7 3d d1 43 b8 3d
       -0.05521025 0.050782237 0.081609435 0.0899731
0001a0 aa 48 66 3d ea 05 1b 3d 89 89 88 bc 21 64 b7 3c
       0.05622164 0.037847437 -0.016667144 0.022386612
0001b0 bd 7c 26 bb 37 75 8b 3c 69 b6 64 bc 5c 9d 90 3c
       -0.002540394 0.017023666 -0.013959506 0.01765316
0001c0 5d a5 d2 bc 1c 31 2a 3d fb e2 cd bd eb ea 97 3d
       -0.025713617 0.04155074 -0.10053059 0.07417854
0001d0 71 7c 91 bc 60 f5 8b bd 5e 13 f4 3c 49 97 36 bd
       -0.017759534 -0.06833911 0.029794391 -0.04457787
0001e0 ee 34 c5 3d cf cc 19 bd 58 78 5e bd ff 69 70 bd
       0.09629236 -0.037548836 -0.054313987 -0.058694836
0001f0 bf 0f 67 bd ea f9 49 bc d1 56 2d bc 1d eb 80 3c
       -0.0564115 -0.012327651 -0.010579781 0.01573711
000200 60 be de bc 42 ca 30 3c bb d4 6f bd 53 e7 03 bd
       -0.027190387 0.0107904095 -0.058552485 -0.03220303
000210 ff fe 95 3c 0f d6 af 3d d9 91 71 bd 20 2b 2a 3d
       0.018310068 0.0858575 -0.05897698 0.041545033
000220 57 23 09 bd 38 41 89 3d af bd 4f 3d 24 59 7b bd
       -0.03348097 0.067018926 0.050718006 -0.061364308
000230 20 e5 b8 3c 6b a2 a2 3d 9b 0a 8f bd 6b 21 83 bd
       0.022570193 0.07941135 -0.06984445 -0.06402858
000240 e5 c1 fb 3c 45 65 10 3d 07 21 3d bd 57 39 20 bb
       0.030732105 0.03525283 -0.046174075 -0.002444824
000250 95 35 58 bd 7f c1 89 bc 08 49 d2 3c 7b 84 9f bd
       -0.052785475 -0.016815899 0.02566959 -0.077889405
000260 0b ca 83 3d a9 ac 36 bd a8 c3 6a bc 54 31 21 3c
       0.06435021 -0.044598255 -0.014328875 0.009838421
000270 f4 7f 5c bd d9 42 35 bc 36 12 a9 3d 68 5e 01 3d
       -0.053832963 -0.011063301 0.082554266 0.031584173
000280 9a b2 e3 bc f0 35 96 bd e8 0b d8 bc 89 09 44 bc
       -0.027795125 -0.073345065 -0.026372865 -0.011965164
000290 74 73 8d ba 86 15 fc bc 94 f7 94 bd 18 d7 71 3c
       -0.0010791854 -0.030771982 -0.07273784 0.014760755
0002a0 86 60 25 3c 4a 20 22 3b 4d a5 98 3d 7d ed 59 3d
       0.010093814 0.0024738484 0.074534036 0.053205002
0002b0 90 e7 71 bd ef b1 5d bc eb e1 15 3d 90 c8 12 3c
       -0.059058726 -0.013531192 0.036592405 0.008958951
0002c0 40 9d 90 bd 42 0c 95 bd 48 6f 2e 3d c8 81 a7 bd
       -0.07061243 -0.072777286 0.042586595 -0.08179051
0002d0 ba a9 02 3d 4a 65 0f 3d dd 13 d9 3c 78 1b 33 bd
       0.031900145 0.035008706 0.02649873 -0.043727368
0002e0 b1 8a bf bc 86 bc 1f 3c f6 7c 5c bb d9 1a 19 3d
       -0.023381563 0.009749537 -0.0033643818 0.03737912
0002f0 9a 1e cc 3c 44 0e 8f 3c f8 d9 85 bd 48 9a 3e bc
       0.024916936 0.017462857 -0.06535715 -0.011633463
000300 03 16 fd bc 14 82 8f bd 6f cd b8 bd 32 b7 90 3d
       -0.030894285 -0.07007232 -0.09023558 0.07066192
000310 e5 37 80 3d 71 79 21 3d 90 e1 ae 3c 7c 1b aa bc
       0.06260661 0.039422456 0.021347791 -0.020765059
000320 05 cf cf bc 92 65 12 3c 62 3e 14 3c 76 eb 89 bd
       -0.02536727 0.008935349 0.009048076 -0.06734364
000330 6e 53 2b 3d c0 02 03 3b 8f 37 2e 3c f6 5c 93 bd
       0.04182761 0.0019990653 0.010633363 -0.07195465
000340 7b c6 97 bd da a7 97 bd 3e eb 56 bd 9c 33 8a 3d
       -0.07410904 -0.07405062 -0.05247044 0.06748125
000350 f2 f6 da 3c 6e 35 f1 bc a6 7a 26 3d f0 ca 53 3d
       0.02672908 -0.029444423 0.04064431 0.05170721
000360 78 f2 35 3d 34 df 1c 3d 91 79 c7 3c b0 20 e9 bc
       0.04442069 0.0382988 0.02434996 -0.02845797
000370 4e f9 5c bc 30 fb 11 bd 2f c1 bf 3d 14 f2 a2 bd
       -0.013487173 -0.03563994 0.09363019 -0.07956329
000380 f9 af 98 3d 8e 4f 20 bd 19 d0 fb bc 48 46 0b 3d
       0.07455439 -0.03913837 -0.030738877 0.034002572
000390 6d ad 51 3c 3e 7b d4 bc b3 f0 60 bd 52 a2 0c 3d
       0.012797696 -0.025937673 -0.05491705 0.03433449
0003a0 f2 5e 35 3d 1a 7e f7 bc f2 4d 18 bd 54 6c 06 3c
       0.04428 -0.030211497 -0.03718371 0.008204538
0003b0 64 da 67 bd 87 ee b1 3c 45 cc f1 3c 11 7d 8e 3d
       -0.056604758 0.021720184 0.029516349 0.06957448
0003c0 9c 78 0a bd fc 9d 82 bc 0c e9 2b bb 4a dc a0 bd
       -0.03380643 -0.015944473 -0.0026231436 -0.07854517
0003d0 e1 19 ed 3c a4 d5 85 bd be 44 91 bc 1d a5 8c 3d
       0.028943004 -0.06534889 -0.017732974 0.0686743
0003e0 f5 ed 82 bd fb 68 5e 3c 19 f8 14 bc 1b 38 a2 bc
       -0.06393043 0.013574834 -0.009092354 -0.019802144
0003f0 75 93 2c bc 0c bb b9 bc 49 0e 9d bb 24 ec 59 3c
       -0.010533203 -0.022672199 -0.0047929627 0.013300929

actor.2.weight f4 [2, 512]
000000 95 33 89 3c 8d d2 b8 3c 9e 43 7d bd 0a fc cf 3c
       0.016748229 0.022561336 -0.061832063 0.025388736
000010 5e 7e 37 3d b7 c6 7f bd bc 77 5b bd fe 93 6b 3d
       0.044798248 -0.06244537 -0.053580984 0.057514183
000020 ae aa 94 3d d4 8b c9 3d 0a e7 6d bc bd bd 74 bd
       0.07259117 0.09841123 -0.014520416 -0.05975126
000030 17 74 0b 3d 8e 5e 67 bd 7a b1 66 bd a6 5a 12 3d
       0.03404626 -0.05648666 -0.0563216 0.03573098
000040 e4 e0 cc bd c4 19 43 bd 01 f3 98 3d cc 53 16 bc
       -0.10003832 -0.047631994 0.07468224 -0.009175252
000050 d5 e7 64 bb b6 de 27 3d 8c 4a d2 bc 9e 20 cc bd
       -0.0034928222 0.040983878 -0.025670312 -0.09967159
000060 4e 28 90 3d 28 ad a2 3c 5b 2f d8 bb 33 d9 23 3c
       0.070389375 0.019857958 -0.006597442 0.010000515
000070 5b 95 1a 3d 07 44 44 bd 68 a1 76 bb e3 cd c3 bb
       0.037740093 -0.04791644 -0.0037632827 -0.0059754713
000080 a4 22 20 bd 07 42 7c 3d 9a 8a 84 3c 16 6b 50 bd
       -0.039095536 0.061586406 0.016179372 -0.050883375
000090 da 8a 83 ba ca 06 b9 3d 9f 43 cf 3c a7 09 04 bd
       -0.0010035888 0.09034498 0.025300799 -0.032235768
0000a0 b6 5d 83 3d c0 fe c1 3c 32 64 36 bc 96 93 25 3d
       0.06414358 0.023681045 -0.011132287 0.040423952
0000b0 88 1d 4b bd 57 36 b2 3d 4b 9a ed 3c 53 b1 4e 3b
       -0.04958871 0.08701771 0.029004237 0.00315388
0000c0 a9 46 48 bc eb 03 b3 bd df 48 08 bd 2f ad 7f bd
       -0.012223878 -0.08740982 -0.03327262 -0.06242102
0000d0 05 6f 7a 3c 58 e0 f1 3c b5 b0 82 bd f3 84 af 3d
       0.015285258 0.02952592 -0.063813604 0.0857028
0000e0 31 6c 09 bd 33 c6 77 bc d1 d2 c2 3c 04 6f 61 bd
       -0.033550445 -0.015122938 0.023782166 -0.055037513
0000f0 0c 2f f8 3a 8e 4f a9 bd 86 c2 93 bd 06 2d 8a bd
       0.001893492 -0.08267127 -0.07214837 -0.06746869
000100 7b 07 13 bd 03 97 9a bc f1 1a b8 bd fb 6e 22 3c
       -0.035895806 -0.018870836 -0.08989514 0.009914155
000110 9c cb 8c bb d4 ab 28 bd d9 bc 8a bd 98 f7 8a 3c
       -0.004296733 -0.041179493 -0.06774301 0.016963765
000120 34 0d 43 bd bd 6f 61 3d 77 39 22 bd 2e d9 e8 bc
       -0.047620013 0.055038203 -0.039605584 -0.028423872
000130 28 f6 97 bd a6 9c 29 3d 2e af 81 bd 17 e6 07 3d
       -0.074199975 0.041409157 -0.06332241 0.033178415
000140 52 5f d5 bc 63 7c d0 bc 7a 54 33 3d e5 12 95 bd
       -0.026046429 -0.025449937 0.043781735 -0.072789945
000150 9c cc b6 3d 56 17 79 bc 0a a7 0d bd fb 63 9f ba
       0.08925745 -0.015203318 -0.03458313 -0.0012160534
000160 8e 82 72 bc 32 0a 21 3b 71 27 e3 ba f2 4e 2f 3d
       -0.0148016345 0.0024572727 -0.001733048 0.042799897
000170 78 dd 9b 3c 6a 9b 14 3d 97 79 aa 3d 9e f0 6a 3b
       0.019026503 0.036281027 0.08323973 0.0035848985
000180 ee 8e 9f bd 22 25 7d 3d ac 3e c0 bd 47 e5 65 bc
       -0.077909335 0.06180299 -0.09386954 -0.014031715
000190 0f 04 17 bd 42 88 9c bd 90 78 8f 3c 63 fa 10 bd
       -0.036869105 -0.076431766 0.017513543 -0.035395037
0001a0 e1 2e b3 bd f5 fd 01 bd 1b a6 14 bc f9 0e a4 3d
       -0.08749176 -0.031736333 -0.009072806 0.08010668
0001b0 71 59 17 3d 18 af 35 bd 6a d5 3c bd ed 1b 7f bd
       0.036950532 -0.044356436 -0.046101965 -0.06228249
0001c0 3c ee 04 bd 02 6e 9c bd e2 c0 2c 3c 37 d5 13 3d
       -0.03245376 -0.0763817 0.010544034 0.03609201
0001d0 1a 53 85 3d a4 0f 82 3c 08 45 49 bd 09 01 a6 bd
       0.06509991 0.015876599 -0.0491381 -0.08105666
0001e0 41 45 75 bd 59 c2 9c bd 29 c0 0f 3c db 3c 99 3d
       -0.0598805 -0.076542564 0.008773842 0.074823104
0001f0 18 43 96 3d cc a9 d5 3c c5 36 55 3d 4c 13 a1 bd
       0.07337016 0.026081942 0.052054185 -0.07865009
000200 21 3a 4c bd 65 80 73 bd 2a 35 c8 bd 5d ce 8a 3d
       -0.049860124 -0.05944862 -0.09775765 0.06777642
000210 d5 d9 3c 3d ac 4c 84 3d 0c 79 c7 3b ad dc 4a 3d
       0.04610618 0.064599365 0.006087428 0.04952686
000220 51 5e 3e bd 07 61 2f bd e8 55 50 bd ce e5 4b bc
       -0.046476666 -0.04281714 -0.050863177 -0.012444926
000230 6e 9b 58 bd 7e 55 8c 3c b2 53 7d 3d 71 08 27 bc
       -0.052882604 0.01713061 0.061847396 -0.010194884
000240 3a a2 63 bc 56 15 99 bc 88 23 0f bd 0b fd e6 bc
       -0.013893658 -0.018686932 -0.034945995 -0.028196832
000250 a4 9a 7c bd 61 96 21 bc 8e 7d c9 3c 59 5a ea bb
       -0.061670914 -0.009862513 0.024596002 -0.0071518836
000260 3a e7 d3 3b 6e 7f 71 3c d4 42 3f 3d bd 18 89 bd
       0.0064667733 0.014739854 0.04669459 -0.066941716
000270 2a 01 8d bd 96 82 82 bd e1 4c 25 bd d9 ea aa bc
       -0.06884988 -0.063725635 -0.04035652 -0.020863937
000280 6b 9e be 3a 01 a3 86 bd 2c 35 a1 3c dc 1d 8b bc
       0.0014543062 -0.06574059 0.019678675 -0.016982011
000290 8d 8f 9e 3c 5f f9 d5 bc 68 38 06 bd 7d 49 a1 bd
       0.01935556 -0.026119886 -0.032768637 -0.07875345
0002a0 ec a0 43 3c 45 b9 b0 bc b9 0c 7a 3a 7e d6 1d bd
       0.011940222 -0.021572718 0.0009538639 -0.038534634
0002b0 ea 08 db bc 9d e7 da bd 36 3e 33 3d 4d bd 8e 3d
       -0.026737649 -0.10688708 0.0437605 0.069697
0002c0 ba 3c 90 3c c5 27 87 bd 49 87 0b bd c5 17 9e bc
       0.017607082 -0.06599382 -0.034064565 -0.019298444
0002d0 0e 1e b6 3c cd cd 00 3c 64 13 9a bd 49 20 3c 3d
       0.022231128 0.007861567 -0.0752323 0.045929227
0002e0 32 c6 8b bc d9 39 2b 3d 54 4e a0 bd 54 37 88 3c
       -0.01706228 0.041803215 -0.0782744 0.016627945
0002f0 b6 4e 0c bc a3 1c f0 3c cd 5f e0 b8 ed 68 d1 bc
       -0.008563688 0.02931053 -0.000106989966 -0.025562728
000300 f4 b4 f9 bc 12 45 30 bc 7f 85 90 b9 b8 8f 7d 3d
       -0.030481793 -0.010758655 -0.00027565283 0.06190464
000310 64 34 9a bd c8 d4 77 3d a6 2b 93 bc d9 98 25 3d
       -0.07529524 0.06050566 -0.01796515 0.04042897
000320 51 b6 66 bd b8 b8 e3 3c ba c5 7e 3c 40 1f aa 3d
       -0.056326214 0.027798042 0.015550071 0.08306742
000330 bd 9d 7b bd 73 7c 2e bc e2 0c a9 bd 7d 56 65 bc
       -0.061429728 -0.010649788 -0.0825441 -0.013997671
000340 3e 3b 7e 3d b1 d6 34 bd 98 1a 99 bd 9a be 32 3d
       0.062068217 -0.04415006 -0.074757755 0.043638803
000350 ff 58 83 bd c0 10 21 3c 04 16 34 3c 67 7a 16 3c
       -0.06413459 0.009830654 0.010991577 0.009184456
000360 82 c2 2d bc 03 8f 4e bd 4c ce ed 3c f5 c9 0e bd
       -0.010605456 -0.050429355 0.029029034 -0.03486057
000370 9e 9a 07 3d 47 71 37 bd c3 29 17 3d ce e4 88 3d
       0.03310644 -0.044785764 0.03690506 0.06684266
000380 bb 41 83 bd 69 7e 8d bd 9b 12 44 3d e8 fe c0 bd
       -0.064090215 -0.069088764 0.047869306 -0.094236195
000390 49 73 6f bc fa 0f 41 bd 37 61 24 3d 04 fd af 3d
       -0.0146148885 -0.047134377 0.040131774 0.08593181
0003a0 f0 68 14 bd 8b 84 3a 3d 77 b2 89 bc b6 a7 84 3c
       -0.03623289 0.04553656 -0.016808731 0.016193252
0003b0 09 d0 80 3c a5 3d b1 3c a5 c1 cf 3b 39 45 49 3c
       0.015724199 0.02163584 0.006340223 0.01228457
0003c0 81 04 8f bd 13 29 cb ba 6c 56 51 3d 1b 5c d1 bb
       -0.06983281 -0.0015499912 0.05110781 -0.0063891537
0003d0 43 c7 00 3c 84 b4 97 bd 51 7f 94 bc 5f 9c 45 3d
       0.007860008 -0.074074775 -0.018127115 0.04824483
0003e0 e2 e1 88 3d 3b 84 a8 bc 55 5a 1f bd 73 18 6d 3d
       0.06683709 -0.020570865 -0.038904507 0.057884645
0003f0 a1 db 5f 3d e5 d1 7a bd 80 09 03 bc ed 46 93 bd
       0.054652814 -0.061235327 -0.00799787 -0.071912624

actor.2.bias f4 [2]
000000 84 1c 18 3c 6f 9c 02 3b
       0.009284142 0.0019929667

critic.0.weight f4 [512, 127]
000000 22 e2 86 3c 93 0e 38 bd f2 26 26 3d 92 48 7d bc
       0.01646525 -0.044935774 0.040564485 -0.015459197
000010 d9 96 76 bd 33 77 44 bc 9e 1a b9 3d bd 8d ef bd
       -0.060202453 -0.01199131 0.0903828 -0.11696956
000020 5e 4f 02 bd 8e 4c 6a 3d 43 12 d4 ba 3a 93 1d be
       -0.03181397 0.057201914 -0.0016179759 -0.15388194
000030 be f3 3d be 34 06 db 3c c5 ae 76 3d ac c7 f3 bd
       -0.18550012 0.026736356 0.060225267 -0.11903319
000040 cd 70 65 3e 50 10 18 bd 09 a2 9c 3d e8 bb 8d be
       0.22406311 -0.03712493 0.07648093 -0.27682424
000050 65 5a 93 bd 3c 5d 2b bd 02 e8 6f bd 6e 1e 68 ba
       -0.07194976 -0.041836962 -0.05857087 -0.0008854632
000060 2e 50 0d 3e 7a 11 9b 3b 6d f0 d5 bb 86 6a 1c be
       0.13800117 0.004732308 -0.006528905 -0.1527501
000070 a5 06 22 bd 05 67 9a 3c 8e a5 0c 3d 47 cb 47 3d
       -0.039557118 0.018847952 0.034337573 0.048777845
000080 55 08 74 3e 92 45 80 bd 2f a5 d9 bb 2e 24 40 be
       0.23831303 -0.062632695 -0.006642006 -0.18763801
000090 e3 54 02 bc d0 4e 91 3d 14 a4 15 3d 64 9b f7 3c
       -0.007954809 0.070951104 0.03653343 0.030225463
0000a0 c5 75 f2 3d 90 0f be bd f6 63 8d 3d ef 18 86 be
       0.11838869 -0.09280312 0.06903832 -0.26190898
0000b0 16 9f 3b 3c 50 b2 b6 ba 18 f4 6d 3d 46 97 dc bc
       0.011451503 -0.0013938639 0.058094114 -0.026927602
0000c0 6d a4 0f 3e c5 0b e0 bc a9 78 89 3d c5 a6 a6 be
       0.14027567 -0.027349362 0.06712467 -0.3254911
0000d0 c3 fe 4b 3d f6 42 55 bc 94 a0 3e 3c 35 f4 a5 3c
       0.049803507 -0.013016453 0.0116349645 0.020258049
0000e0 ab e7 ee 3d 53 5d c0 3c 24 e9 85 bd 57 fd 4d be
       0.11665281 0.023482 -0.06538609 -0.20116173
0000f0 d4 dd 42 3e bb 95 b8 3d 09 32 19 3c 4a c7 ce bd
       0.19029933 0.09012934 0.009350308 -0.10096605
000100 6a d9 2d 3e 38 bf a9 3d d3 18 92 bd 33 7c c9 bd
       0.16977468 0.08288425 -0.07133641 -0.09838142
000110 67 bc 68 3c 21 6c 53 bd 8a 2f 9d 3b b5 0a db bd
       0.014205075 -0.05161679 0.004796927 -0.106954016
000120 c4 7f 31 3e bb f4 0b bd 72 b4 b3 3d 0f d5 f8 3d
       0.17333895 -0.03416894 0.087746516 0.12150013
000130 65 83 91 bd 40 a2 02 bd b6 c7 25 3d be 9c 33 3d
       -0.0710514 -0.031893015 0.040473662 0.043850653
000140 9c 6e 80 3d 0d 05 71 bd 8b a0 97 bd b1 bf a4 3d
       0.06271097 -0.058842707 -0.07403668 0.08044375
000150 30 05 e3 3c 2c c1 86 3d b8 06 59 3d b2 41 ff 3d
       0.027712435 0.06579813 0.052984923 0.12463702
000160 a6 b1 2d 3e 8b 5f 51 bd bd 75 4e bd d2 9f da 3d
       0.16962299 -0.051116508 -0.050405253 0.106750146
000170 5f ce e3 bc fa be 28 bd 58 9f a2 3d 7a 52 1b 3e
       -0.027808366 -0.041197754 0.07940549 0.15168181
000180 a3 dd 13 3e 5b 9f 86 bd 23 39 3c 3c 91 e2 b0 3d
       0.14440016 -0.065733634 0.011488232 0.08636964
000190 27 e5 bc 3b 5a b3 06 bd f8 f9 88 3d a1 3d cd 3d
       0.005764622 -0.032885887 0.06688303 0.100215204
0001a0 ba 64 08 3e 0c 9f c3 bc ab a1 93 3d 51 b7 7c 3d
       0.13319674 -0.02387955 0.0720857 0.06169826
0001b0 7d df 70 bd 56 2e aa 3d d9 2f 40 bd 2d 1a be 3d
       -0.058806885 0.08309619 -0.04692063 0.092823364
0001c0 ee 22 f3 3d 10 8c 76 3c f7 bf a0 bd 1d 42 46 3e
       0.11871897 0.015048042 -0.078491144 0.19361158
0001d0 49 82 73 bd 90 60 8e bd d5 52 b5 3d d5 59 ae 3c
       -0.05945042 -0.069520116 0.088536896 0.02128307
0001e0 ac 58 0d 3e 0e 27 9c 3c 24 e0 8c bd 02 89 13 3e
       0.13803357 0.019061591 -0.06878689 0.14407733
0001f0 91 38 7d be ac 8d 92 3c 01 56 b6 3d 61 2d c3 3d
       -0.2472861 0.01788982 0.08903123 0.0953014
000200 0d e7 76 bd d9 4d 2a bd 9e 3c 9a bd 72 33 45 3d
       -0.06027894 -0.041578148 -0.07531093 0.048144765
000210 81 e6 3c 3d 9f 22 c2 3d 7c fe 84 bd 18 21 6e 3d
       0.046118263 0.0947926 -0.064938515 0.05813703
000220 8b 82 3e bd dc 16 ab 3d 55 e3 2f be d8 2c 0a 3e
       -0.046511214 0.083539695 -0.17176564 0.13493669
000230 c9 10 af bd cf 20 5b bb 90 0e 7b bd 60 19 04 be
       -0.085481234 -0.0033436303 -0.061293185 -0.12900305
000240 4f 01 d5 3d c0 2c 59 3d d9 cc f1 bc 62 b8 04 bd
       0.1040064 0.053021193 -0.029516624 -0.032402404
000250 36 75 81 bd ee 7d 37 bd b8 2a dd bd 61 bf 22 be
       -0.06321184 -0.04479783 -0.107991636 -0.15893318
000260 c8 03 a3 3d f1 1e 1b bd 19 2b cf bd 1c 06 ac 3c
       0.079597056 -0.037871305 -0.10115642 0.020999007
000270 51 9a a2 3d 5a 31 48 3c 8c 40 00 3d 5b fe 92 be
       0.0793959 0.012218798 0.031311557 -0.28709683
000280 a7 3e 5a 3d f8 5d da 3c 51 91 b7 bd 72 05 84 be
       0.053282406 0.026656136 -0.08963264 -0.25785404
000290 a3 49 96 bc bf 15 37 3d 79 8f 93 3d 39 38 6c be
       -0.01834566 0.044698473 0.072050996 -0.23068322
0002a0 e9 bb 2e 3d 33 06 57 3d ea b8 15 bc 89 f1 9b be
       0.042659674 0.052496146 -0.009138325 -0.30457714
0002b0 65 1d 3a bd fd 3c 5c 3c 53 e5 3b bd 8a e1 c0 be
       -0.04543819 0.013442275 -0.045872997 -0.37672073
0002c0 3e 4c ef 3d 25 da 28 bd ca a8 81 3d bb 68 de be
       0.11684464 -0.041223664 0.06331022 -0.43439278
0002d0 ce 46 90 ba f0 c9 e0 3d bb 2d c2 b9 29 e5 8a be
       -0.001100743 0.109760165 -0.00037036635 -0.2712796
0002e0 62 ff 1e 3d 8c d7 a3 3d 37 40 c9 3c 85 ec 92 be
       0.03881777 0.08000097 0.024566753 -0.28696075
0002f0 41 65 a9 3d 33 ed 95 3d cb 3c 3c 3d 50 0c 72 be
       0.08271266 0.07320633 0.045956414 -0.2363751
000300 ea fb 0e bd 0f 45 12 bd 4b 25 bc bd 66 7e 95 be
       -0.034908213 -0.03571039 -0.091868006 -0.29197997
000310 e4 9d a4 bb 1f 6b 62 bd ca e9 02 3e b5 ed a1 be
       -0.005023705 -0.05527794 0.12784496 -0.3162667
000320 b4 da 58 bd bb e9 2b bd fc fb b6 bd c8 f9 71 be
       -0.052942947 -0.04197095 -0.08934781 -0.2363044
000330 f6 9c 58 3d f3 c6 d7 bc 9e ae 66 bd 62 4f ba bd
       0.052884065 -0.026339984 -0.05631887 -0.09097172
000340 1c fa b6 bc af fc 51 bd 93 aa f5 bc a7 b4 17 be
       -0.022336058 -0.05126637 -0.029988563 -0.14815007
000350 d4 ae 1a bd 53 45 74 bd a0 1c 4d 3d c1 94 ad 3c
       -0.037764385 -0.059636425 0.050076127 0.021189095
000360 70 53 47 bd b8 67 88 3d 10 1c 4f 3c e4 d9 d4 bd
       -0.048663557 0.06660408 0.012640968 -0.10393122
000370 87 37 c6 3c 6a 87 56 bc 47 1d 60 3c c2 6b 60 3c
       0.0241964 -0.013093809 0.013678855 0.013697566
000380 b9 74 a7 3d 7c 21 5c bd 6e d9 33 3d 8c 44 2a be
       0.0817656 -0.05374287 0.04390853 -0.16627711
000390 60 37 ac 3d 91 64 b0 3d b1 b7 fb bd 38 c7 5f bd
       0.084089994 0.086129315 -0.12290896 -0.05463335
0003a0 4e ce 4a bc 00 24 b9 3d 49 2d 75 3d 79 ef 2e 3c
       -0.012378288 0.090400696 0.05985764 0.010677212
0003b0 7c 44 3a 3d ba 34 13 bd 75 be 21 be 3d 9d 7c bd
       0.045475468 -0.035938956 -0.1579531 -0.06167339
0003c0 cd 3c 55 bd af 0a d9 bc 76 1a 3e 3d 9b 8b a9 bd
       -0.052059937 -0.026494352 0.046411954 -0.08278581
0003d0 af 60 6f 3d ea 90 8d bd 6a a6 45 be 2a 64 ad bd
       0.058441814 -0.06912406 -0.19301763 -0.084663704
0003e0 59 89 57 bd f3 89 bd 3c 5c 06 b8 bd 8c 5b c2 bd
       -0.05262122 0.023137068 -0.08985588 -0.094901174
0003f0 ca be db 3c d0 10 51 3c fc 6c 88 bd 7f 77 e2 ba
       0.026824374 0.012760356 -0.06661412 -0.0017278044

critic.0.bias f4 [512]
000000 1d d0 14 bd 8c 57 6d 3c 9b 1d b8 3b 43 6b 4e bd
       -0.036331285 0.014486205 0.0056187636 -0.05039526
000010 01 e3 71 3d ca 04 17 3a 66 de df bc 87 6e 0c bd
       0.05905438 0.00057609065 -0.027327728 -0.034285095
000020 34 ba 17 3c e9 2c 7b bd a7 af 32 bb 7b 5f aa bd
       0.009260703 -0.061322127 -0.0027265341 -0.08318993
000030 67 dd 00 3c 61 63 87 3a e7 b5 ef bb 0a 50 b2 3c
       0.007865286 0.00103293 -0.0073153856 0.021766681
000040 18 75 1b 3d e4 da 28 bd 74 c4 8e bd 87 39 d2 3d
       0.037953466 -0.041224375 -0.06971064 0.10264879
000050 4d a8 be 3b 4d 40 57 3d 05 80 92 3b 81 03 c3 3c
       0.005818403 0.052551556 0.0044708275 0.023805382
000060 be 5a 55 3d 50 31 83 3d e3 d1 37 bd be 9e 62 bd
       0.05208849 0.0640589 -0.044877898 -0.05532717
000070 66 14 88 3c a7 b6 49 3a 0a a0 95 3d 36 95 e5 bb
       0.01661129 0.0007694759 0.07305916 -0.0070063127
000080 46 ee 92 3d 5e b7 97 3d 08 67 08 ba 4d ff 47 bc
       0.07174353 0.074080214 -0.0005203341 -0.012206865
000090 6e 38 92 bd 22 31 18 bd 8f b1 6a bd 44 5f 88 bd
       -0.07139669 -0.03715623 -0.05729824 -0.066587955
0000a0 df f5 97 3d e6 10 95 bd 31 61 4e 3c 04 8c 05 3d
       0.07419943 -0.07278614 0.012596414 0.032604232
0000b0 13 b8 c4 3d 51 6f cd bc ed 38 bd bc 32 e6 8b ba
       0.09605422 -0.025077494 -0.023098433 -0.0010673462
0000c0 1b f4 05 3d 2d e7 4c bd cd e5 3b 3c 28 a4 26 3d
       0.0327035 -0.050025154 0.011468363 0.040683895
0000d0 f8 61 3a 3b f0 38 a7 3b 70 7f 92 bc 0e 2a 66 3d
       0.0028439742 0.005103223 -0.017883033 0.05619245
0000e0 4d c3 57 3d c0 33 80 bd 1a ec 12 3d 41 86 84 3c
       0.052676488 -0.062598705 0.035869695 0.016177299
0000f0 7b 7b ad bc 5d b8 9d bd c2 f3 9c bc 5c 7d 68 3d
       -0.021177044 -0.0770118 -0.019159202 0.056760177
000100 f9 22 58 bd 67 d7 a5 3c c9 71 0b 3d 52 31 4d 3d
       -0.052767728 0.020244313 0.03404406 0.050095864
000110 e8 f5 ca bc fa 04 ad bd 39 c4 b1 bd aa 2e 81 bd
       -0.02477546 -0.08448215 -0.086800046 -0.063077286
000120 dc 4d 70 3d 5d 4d e1 bc 95 8f a6 bc 6c a6 34 bd
       0.058668002 -0.02750271 -0.020332137 -0.044104025
000130 35 c3 17 bc 95 8a 68 3d 21 c2 5a bc 00 c9 53 bd
       -0.00926285 0.056772787 -0.013351948 -0.05170536
000140 36 9b 2f bd 7b 9e ac 3b b6 be 27 bd 8d 0b 6a 3c
       -0.04287263 0.005267916 -0.04095336 0.0142849805
000150 d0 e3 9a 3d aa 9b 9f bc ff d8 b0 3a ea ae 85 bb
       0.07562983 -0.019483406 0.0013492404 -0.0040796893
000160 7f 19 0a 3d 88 3e 88 bd ac 46 a8 bd c6 01 28 bd
       0.03371572 -0.06652552 -0.082166046 -0.041017316
000170 00 c6 ad 3c db 51 9f bc 54 57 a2 3d 0f d7 13 bd
       0.021212578 -0.019448211 0.07926813 -0.036093768
000180 51 2d 92 bd a4 e7 8e 3d 80 39 ab 3d c4 f1 5d bd
       -0.0713755 0.06977776 0.08360577 -0.054185644
000190 c3 cb 12 bd 75 cf b5 bd a9 75 48 3d 1f 22 93 3c
       -0.035838854 -0.0887746 0.048940334 0.017960606
0001a0 4d cc c0 bd eb fd 73 bc c3 0d 5f bc ef 1c 5b 3d
       -0.09413967 -0.014892082 -0.013614121 0.05349439
0001b0 65 2b ec 3b e4 05 35 bd 79 6e 42 3d 97 76 47 3c
       0.0072073215 -0.04419507 0.047468636 0.01217427
0001c0 3c f8 18 bd 5f 66 88 3d 67 10 cc 3d d3 ff 7e bd
       -0.03734611 0.06660151 0.09964066 -0.06225569
0001d0 56 33 bf 3c 2f 8c 3c bd 0c f8 b0 3c cd b5 00 bd
       0.023339909 -0.046032127 0.021602653 -0.03142338
0001e0 a9 ff a8 bd 99 55 04 3d 8b d2 b3 bc 7a c2 1e 3d
       -0.08251888 0.032308195 -0.02195098 0.038759686
0001f0 f0 fb 4e 3d 77 55 8c bd 35 e0 43 3d c3 66 84 3d
       0.050533235 -0.068522386 0.047821242 0.06464913
000200 5d 17 c7 bc af 0e 36 bc 8a 08 1a 3d 60 15 b9 bd
       -0.024303133 -0.011111899 0.0376058 -0.0903728
000210 d1 cd 16 bc 61 04 ef 3d 20 89 90 bd b9 f9 5c bc
       -0.009204344 0.11670757 -0.070574045 -0.013487273
000220 5e 0b 55 bd 76 73 59 bb 57 0e db 3d 01 97 37 bd
       -0.052012794 -0.0033180392 0.106960945 -0.044821743
000230 ea 56 eb 3c cb 5f ae 3c 50 16 22 3d e4 87 b1 3c
       0.028727967 0.021285912 0.03957206 0.021671243
000240 74 27 04 bd 1d 85 a1 bd d3 03 c6 3d 7b b7 92 3d
       -0.032264188 -0.078867175 0.09668698 0.07163902
000250 23 74 16 bc 4d 2f 5b bd 8f dc 7e bd a2 98 3e bc
       -0.009182963 -0.053511906 -0.06222206 -0.01163307
000260 73 7f cb 3c b8 91 93 3d f3 02 0d bd 4c b2 b1 3d
       0.024841046 0.07205528 -0.03442664 0.086765856
000270 3f 14 56 3d 54 68 1f bc e8 d9 a8 bd 07 4e be bc
       0.052265402 -0.009729464 -0.08244687 -0.023230566
000280 0d 4d 48 bd e7 00 32 bc b0 4f 5d 3d 05 b0 47 3d
       -0.048901606 -0.010864473 0.054031074 0.04875185
000290 1d 0c 7e 3d b1 b7 36 3d 3a d5 84 3d 97 07 03 bd
       0.06202327 0.044608776 0.06485982 -0.03198966
0002a0 fe ff 47 bd c8 46 e8 bc f1 b0 0d bd bb 5a 96 bd
       -0.048828118 -0.028354064 -0.034592573 -0.07341524
0002b0 ac 0a d4 3d 93 a5 5a 3c 1d 3a 8a 3d 08 fe 55 bd
       0.10353598 0.01334514 0.067493655 -0.052244216
0002c0 a1 fd 91 bc 01 f3 1e 3d 84 00 23 3d 46 c6 96 3d
       -0.017821135 0.038805965 0.039795414 0.073620364
0002d0 4a 5a 02 bd 75 2b 2a 3b 93 c2 1d bd 1f 33 6b bd
       -0.031824388 0.0025965844 -0.03851564 -0.0574218
0002e0 aa d4 56 bd da 7a a1 3c fa f4 b5 3d 89 ad 8c bb
       -0.052448906 0.0197119 0.08884616 -0.004293148
0002f0 6a a0 90 bd 35 35 13 3d c9 35 46 3c 88 d5 b7 bd
       -0.070618466 0.035939414 0.012097784 -0.08976275
000300 a9 bf 65 3d d4 ca 22 bc 18 eb 99 3d a4 f5 ac 3b
       0.056090984 -0.009936053 0.07515544 0.005278306
000310 e7 8c a3 3d 89 96 0c bd 5c 8c 36 3d 5f 05 3c 3d
       0.07985859 -0.03432325 0.04456745 0.04590356
000320 99 73 fb bb a1 7b 84 3d 02 83 11 bc 78 6b f0 3c
       -0.0076736924 0.06468893 -0.008881332 0.02934812
000330 67 79 60 bc 53 7d 63 bd 4f b1 2e 3d 78 1d 68 3d
       -0.01370082 -0.05553944 0.042649563 0.05666873
000340 97 7f 71 bd 60 cb 26 3c f9 da 18 3d f9 d0 a7 3d
       -0.05895957 0.010180324 0.037318204 0.08194155
000350 0a 82 36 bb 7a 31 54 bc cf 4c 56 bd 86 1d bc bd
       -0.0027848505 -0.012951249 -0.052319344 -0.09185319
000360 80 e3 44 bd 63 e3 b1 3d 40 dd 05 bd ca 4f 79 3d
       -0.048068523 0.08685949 -0.032681704 0.06086711
000370 26 0e c3 3c 48 3f 10 bb b9 3a cc bc 30 33 0c 3d
       0.023810457 -0.0022010375 -0.024930345 0.034228504
000380 f0 01 c4 bc 49 4c 19 bc b7 7a b1 3c 29 27 54 3d
       -0.023926705 -0.009356567 0.02166496 0.05179516
000390 e6 b4 ca bd 36 63 b7 bd 06 f0 b0 bc 10 b0 83 ba
       -0.09897785 -0.0895447 -0.021598827 -0.0010046978
0003a0 5f 21 3d 3d 69 56 80 3d c9 54 00 3c 3e 3c 9f bd
       0.046174403 0.062664814 0.007832714 -0.07775162
0003b0 43 9c 8c bd 8e f6 cb 3d 40 93 62 3d 21 da 3a bb
       -0.06865742 0.09959136 0.05531621 -0.0028511363
0003c0 ac cb 0f bb 5e e1 74 bd 45 e9 97 bd c6 a5 af 3d
       -0.0021941466 -0.05978524 -0.074175395 0.08576541
0003d0 32 cb 20 3d 3f 63 44 3c f2 aa a5 3c 3a 3c 11 3c
       0.039256282 0.011986553 0.020223115 0.008864457
0003e0 d9 79 38 3d c7 d7 0f bd ba 41 2b bc 32 d5 00 3d
       0.045038078 -0.03511789 -0.010452682 0.03145332
0003f0 5e f8 9c 3d a4 70 23 bc a3 8d 43 bd 31 21 4d bd
       0.0766456 -0.009975586 -0.047742497 -0.050080482

critic.2.weight f4 [1, 512]
000000 e9 24 df 3d 97 1d 15 be 82 c5 90 bd 16 75 bb 3d
       0.10895712 -0.14562069 -0.070689216 0.09153192
000010 c7 af 8b bd 9a 54 61 3d f1 76 58 bd db ab 25 3d
       -0.06820636 0.055012323 -0.052847806 0.040447097
000020 8d 89 79 be ca 69 1c 3e 97 17 30 3e 92 3a bf bd
       -0.24368878 0.1527473 0.17196499 -0.09337343
000030 2b 96 06 bd 8a c5 83 3c 55 f7 8c 3d 9c c7 5b bd
       -0.032858055 0.016085405 0.06883112 -0.05365716
000040 bc c6 04 39 2a d3 8b bd a1 76 8c 3d c8 40 dc 3d
       0.00012662535 -0.06827386 0.06858564 0.107545435
000050 fc a1 68 be 4f b7 28 bd 68 c3 1c 3e ec 9c b6 3d
       -0.22718042 -0.04119044 0.15308917 0.08916649
000060 3f 20 40 3d 17 75 f6 3d d3 ea 12 bd f0 ea d1 bd
       0.046905752 0.12034052 -0.035868477 -0.10249889
000070 7d 96 84 3d 60 cf 61 3d ed c5 01 bd 50 fb d8 3d
       0.06474016 0.05512941 -0.031682897 0.10594809
000080 86 33 95 bd 09 5f be bd e0 e0 5b be 43 87 08 3e
       -0.07285218 -0.0929547 -0.21472502 0.13332848
000090 0a b7 85 bd fd 93 ea 3d 8f fd 31 bd 55 ae fc 3d
       -0.065290526 0.11454008 -0.043454703 0.12337939
0000a0 12 ff 36 bd 17 5c ab bd 34 25 03 3e d3 4f c5 3d
       -0.044676848 -0.08367174 0.1280716 0.09634366
0000b0 05 0b 90 be 00 31 21 3e 2f ca 00 3e cc 2a ea 3d
       -0.28133407 0.15741348 0.12577127 0.11433944
0000c0 0c 40 d4 3d 5b e5 51 bd 4e 1d 6d bd 39 ea 04 3e
       0.103637785 -0.05124412 -0.057889275 0.12979974
0000d0 4d 72 b2 bd 34 5b 97 bd 93 10 0b 3e 5c 1b 19 be
       -0.087132074 -0.073904425 0.13580541 -0.14951843
0000e0 f4 a9 1f 3e eb 67 12 3e 52 e0 fd 3d 08 6e de bc
       0.15592176 0.14297454 0.12396301 -0.027152076
0000f0 48 72 1d 3d 70 57 81 bd 3f ba e1 3d a4 82 9e 3d
       0.038439065 -0.063155055 0.11021852 0.077397615
000100 0a 1d 19 bd f7 6b 08 bd 7d 99 b7 bd 49 48 83 3d
       -0.03738121 -0.03330609 -0.089648224 0.06410272
000110 6a 9a ad 3d 32 78 be bd 30 7c e1 bc 94 98 a0 3d
       0.08476718 -0.09300269 -0.027525038 0.07841602
000120 45 be 07 bd f0 70 19 bd 92 2f 9f bd 26 5b 1d 3e
       -0.03314044 -0.03746122 -0.07772745 0.15366802
000130 7a c1 27 bd 39 b1 d9 3d 18 86 7a 3d 19 c4 a0 3d
       -0.040955998 0.10629506 0.061163038 0.07849903
000140 0f 94 cf bd d6 8c d0 3d 37 64 6a bd 5c c7 ce bc
       -0.10135662 0.10183112 -0.05722448 -0.025241546
000150 62 bc 21 3e e8 99 35 3e 32 ac 45 bd c6 d8 6c be
       0.15794519 0.17734492 -0.04825992 -0.23129568
000160 8e 5c 71 bd 77 3b 85 bd 01 b6 68 bd 7a ad 2b 3e
       -0.058926158 -0.06505483 -0.056814197 0.16765395
000170 c5 e8 5c bd 58 f8 9e 3d 89 49 19 3d 4d 0c 9a bd
       -0.053932924 0.077622116 0.037423644 -0.075218774
000180 3c 42 87 be 52 e1 4f 3e fe e5 a6 bd a2 76 36 3d
       -0.2641772 0.20300797 -0.08149336 0.04454673
000190 58 1d 21 3e a6 d3 04 bc 90 6b 97 bd 28 bd be bd
       0.1573385 -0.008107102 -0.07393563 -0.093134224
0001a0 60 c8 27 bd 1b 3e 24 3e a6 62 6d bd d7 bd 34 bd
       -0.040962577 0.16039316 -0.057955407 -0.044126358
0001b0 22 9a e2 bd 78 25 2b 3e 16 19 15 3d 82 7a 1f 3d
       -0.11064555 0.16713512 0.036400877 0.038935192
0001c0 06 22 65 bd bc cf a7 bb ae 81 81 3d a3 d9 8c bd
       -0.05594065 -0.0051211994 0.063235626 -0.068774484
0001d0 de e5 85 bc ea da 80 be 89 0c d1 3d a2 20 41 3e
       -0.01634496 -0.25167018 0.10207469 0.18860105
0001e0 47 87 b3 bc ea d9 2e bd af 56 bb bd 32 4c 23 be
       -0.021915091 -0.042688288 -0.09147393 -0.15947035
0001f0 45 b2 82 3d 8c 56 d7 bc 99 18 49 bd 57 2e 78 bd
       0.063816585 -0.026286386 -0.049095724 -0.060591068
000200 fa c1 9a bd 1a d6 77 3d 89 ae e6 3d b7 92 2b bd
       -0.07556529 0.060506918 0.11263759 -0.041887965
000210 13 c0 9b bd b4 1e b0 3d 49 6c a3 bd d5 18 f8 bd
       -0.076049946 0.08599606 -0.07979638 -0.12114111
000220 52 80 63 3d 2e 0d 01 3d ef c8 45 3d 66 26 ae 3d
       0.055542298 0.03150671 0.04828733 0.08503418
000230 89 1b a9 bd ae 76 23 3d f6 44 ed bd 17 63 8d be
       -0.08257205 0.039908104 -0.11585419 -0.27614662
000240 be f3 1f 3d ce b3 49 bd df 1b c4 3d a9 a6 54 3d
       0.03905081 -0.04924374 0.095756285 0.051916752
000250 7d e3 ab 3d 0f 9b 7b bd bb 33 40 be 7e f3 a8 bd
       0.08392999 -0.061427172 -0.18769734 -0.082495674
000260 0d d2 da 3d 23 ba 21 bd b6 02 94 be 97 af eb 3c
       0.10684595 -0.039484154 -0.28908318 0.028770251
000270 4c 44 5c 3d eb 40 7e bd 76 cf bc 3d ab 72 55 3d
       0.05377607 -0.06207363 0.092192575 0.05211131
000280 44 ba 8d 3d 8a 53 88 be de bb 2a 3e c8 1b 70 3d
       0.06920293 -0.26626235 0.16673228 0.058620244
000290 d4 9f 2e bd e8 a5 d5 bd c9 f8 33 3e 4e fb 81 bd
       -0.042632893 -0.10432035 0.17575373 -0.06346761
0002a0 90 96 34 bd a3 b4 9c bd 15 70 1c bd 6b 07 55 bd
       -0.0440889 -0.07651641 -0.038192827 -0.052009027
0002b0 39 06 23 3e 2f aa de 3d b3 98 63 bd ee eb 98 3d
       0.15920343 0.10872304 -0.055565547 0.07466875
0002c0 13 4b 49 bd c4 31 a2 3d 87 85 ac bd 72 46 7f bd
       -0.049143862 0.07919648 -0.08423906 -0.06232304
0002d0 01 44 bd bc 9b c8 62 bd 32 6c 4c 3d 43 d7 33 bd
       -0.023103716 -0.055367094 0.04990787 -0.04390646
0002e0 e0 17 29 3e 98 eb e8 bd 16 66 8d be 58 fc 9e bd
       0.16513014 -0.11373061 -0.27616948 -0.077629745
0002f0 8b d2 a8 bd 7d 37 fa 3c 44 4d 50 3d 92 4d 5b bd
       -0.08243283 0.030544037 0.050854936 -0.053540774
000300 db b2 02 3e 64 ff 6e 3d 81 57 f4 3d 2c 4e 81 bd
       0.1276354 0.05834903 0.119307525 -0.06313738
000310 4a d2 71 bd c7 a9 4b be 5d 3c be bd ec 6b e5 3d
       -0.059038438 -0.19888984 -0.09288857 0.11202225
000320 a1 68 ad 3d 41 f7 a0 be 49 54 15 3e 82 4e 90 be
       0.08467222 -0.3143864 0.14582933 -0.28184897
000330 91 e0 4b bd 66 ab 8d bd 1e 84 52 3d c2 06 63 3d
       -0.04977471 -0.06917457 0.051395528 0.055426367
000340 29 f5 32 bd 59 9e 6f 3d f4 97 00 3e 0a 6a 88 3d
       -0.043690834 0.05850062 0.12557966 0.0666085
000350 79 44 c0 bd 41 db 82 bd 0e 8e dd 3d c7 ce 8f bd
       -0.0938806 -0.063894756 0.108181104 -0.070218615
000360 9b 5c eb bd 40 81 12 ba 7d f0 63 3d 43 57 b5 3d
       -0.114922725 -0.0005588718 0.05564927 0.088545345
000370 f9 8d 17 bd 97 41 5d bd 11 02 5a 3d a1 fd 1a 3d
       -0.03700063 -0.05401763 0.053224627 0.037839536
000380 60 ec 70 bd 83 1f a9 bd e5 02 3c 3d 8d be 00 3d
       -0.058819175 -0.082579635 0.045901198 0.031431723
000390 3b e9 67 bd c1 5a b8 bd 55 84 a1 3d 52 66 3b bd
       -0.05661891 -0.09001685 0.078865685 -0.045751877
0003a0 e1 bf 7d 3d 64 e2 16 3e 79 e6 eb 3d ea 9c 27 be
       0.061950568 0.14734799 0.115185685 -0.16368452
0003b0 69 e2 81 bd e4 c9 7a be 11 71 07 be a3 a9 87 bd
       -0.063420124 -0.24491078 -0.13226725 -0.066241525
0003c0 cf 8a 89 bd e4 91 8c 3d b3 3b ab bd b6 e2 87 3d
       -0.06715929 0.06863764 -0.08360996 0.066350386
0003d0 83 f4 3f bd 3f ea 23 3d 97 ef 31 bd 46 96 c2 ba
       -0.046864044 0.040018316 -0.04344138 -0.001484581
0003e0 20 ca 2b 3e 03 33 cd 3d e0 3e 85 3d c8 f3 71 3d
       0.16776323 0.10019495 0.06506133 0.05907038
0003f0 3b e7 6a 3d 8f 57 a4 3d b7 a0 52 3e 29 3c 48 bd
       0.057349425 0.08024513 0.2056912 -0.0488855
