results/test/no_x_256_10_0.2_64/model.pth (torch, 265615 bytes, 7 tensors)

actor.0.weight f4 [256, 126]
0.15491039 -0.013731008 0.10833228 0.060544964 -0.10137246 -0.043268155 0.12299571 0.0717072
-0.1629727 -0.0480108 0.06473355 0.020765297 -0.040550865 -0.05384964 0.08816146 -0.06625618
-0.15863608 0.040238276 0.12496299 -0.011530864 0.05258236 0.021388208 0.05515711 -0.07206297
-0.06747082 0.057350095 0.10763809 -0.025644919 -0.014091093 0.08316318 0.04036095 -0.037746303
0.040209968 0.03450823 0.021977406 0.010292417 -0.079073615 -0.06945614 0.11132474 0.071497835
0.03812823 -0.052086476 0.012826603 -7.3887946e-05 0.08327958 -0.0145757 -0.105014086 0.19249709
-0.0349544 -0.0145118125 0.04934562 -0.039305184 0.044444744 0.04488733 -0.052120615 0.09175218
-0.050434954 -0.00834033 0.05403503 -0.024240324 -0.019376067 0.003986433 -0.14884011 0.046599664
-0.061894074 0.05736442 -0.030532403 -0.1259072 0.08201935 0.095508136 -0.010019777 0.038524244
0.00064397824 -0.11593643 -0.026914176 0.010955546 -0.013331177 -0.03340719 0.009734581 0.02920089
-0.10616447 0.03544857 -0.013073519 0.017945966 0.008849666 -0.07011035 0.0013447157 -0.10411815
-0.04145218 -0.051389787 -0.04333319 -0.056233957 -0.09348963 0.0034968902 0.0010514194 -0.0831447
0.017648142 -0.009013127 -0.074300416 0.006435566 0.07956521 -0.037195228 0.0868153 0.03741722
-0.007156443 0.0776177 -0.016158018 -0.027885115 -0.0012825507 0.09103861 -0.018346762 -0.01988497
0.06502147 0.01673696 -0.07369646 0.06480271 0.08653711 0.003119305 0.052027844 0.05528954
0.037273623 0.08798123 -0.22642641 0.073529705 0.030442018 0.008657025 0.09727468 0.035287596
-0.13271907 0.11483157 0.06939187 0.07114683 -0.07271082 0.15733027 0.043606255 0.08385145
-0.096252866 -0.060761295 -0.0008115299 0.103274845 -0.100391105 0.047675487 -0.02618049 -0.00207849
-0.13479811 -0.12341512 0.0009192779 0.05916628 -0.08356608 0.05263756 -0.038043227 0.087006666
-0.15507352 -0.1254231 0.12007494 0.09573886 0.074237116 0.016840842 -0.009068746 -0.097499326
0.04216326 -0.13074362 -0.016422536 -0.08018095 -0.028797613 0.030035282 -0.03366432 0.020554166
-0.04465696 -0.072926424 -0.049479946 0.0023905057 -0.036289096 0.0016779093 -0.077492535 0.06403556
0.0039551686 -0.23189203 0.0024430314 0.014330861 0.009256818 0.08060534 -0.027536042 -0.015486467
-0.08612604 -0.16976193 0.02779083 0.09838716 -0.041055147 -0.11755361 0.012040404 0.04710128
-0.12410735 -0.14062856 -0.062339716 0.051551793 0.15277356 -0.06593962 -0.0547628 -0.07946281
-0.19235581 -0.00916974 0.02417634 0.05473161 0.022467362 -0.044125378 -0.051143557 0.08134959
-0.09558103 -0.06392549 0.06653656 0.009432357 0.036173224 -0.02892774 0.015654279 -0.068716265
-0.06528152 -0.048681047 0.02169822 -0.044053257 0.17126255 -0.15444556 -0.13281128 -0.016102491
0.007743567 -0.10281493 0.014984747 -0.06563967 0.13024004 -0.07333706 -0.024486097 0.0033799768
0.0038865977 -0.24357562 0.07444173 -0.03146315 0.042661708 -0.089558825 -0.035860628 -0.06743793
0.005674541 -0.0010319478 0.09367596 -0.024867069 0.07800408 -0.08852023 0.026131924 -0.041646745
0.05971258 -0.004066734 -0.028787639 0.086952664 -0.08681292 0.1383591 -0.08844794 0.01786768
00000000: d4a0 1e3e 06f8 60bc 50dd dd3d fffd 773d
00000010: 5d9c cfbd f339 31bd 2de5 fb3d 39db 923d
00000020: 51e2 26be f9a6 44bd 0693 843d fc1b aa3c
00000030: aa18 26bd 7191 5cbd ff8d b43d 52b1 87bd
00000040: 7f71 22be e4d0 243d 99ec ff3d f3eb 3cbc
00000050: 9a60 573d 5336 af3c 6cec 613d c095 93bd
00000060: 242e 8abd efe7 6a3d 5c71 dc3d 4b15 d2bc
00000070: 54de 66bc 7551 aa3d 8651 253d de9b 1abd
00000080: 35b3 243d 8058 0d3d f609 b43c 87a1 283c
00000090: 59f1 a1bd 053f 8ebd 3afe e33d 756d 923d
000000a0: 592c 1c3d a158 55bd ac26 523c 4af4 9ab8
000000b0: 7c8e aa3d ebce 6ebc a011 d7bd f51d 453e
000000c0: 582c 0fbd f4c2 6dbc a21e 4a3d 79fe 20bd
000000d0: b10b 363d c7db 373d 6d7c 55bd 91e8 bb3d
000000e0: e294 4ebd e1a5 08bc d653 5d3d a593 c6bc
000000f0: 8fba 9ebc a0a0 823b 8b69 18be 4adf 3e3d
00000100: a484 7dbd f4f6 6a3d 171f fabc d1ed 00be
00000110: c3f9 a73d c599 c33d fe29 24bc 99cb 1d3d
00000120: a6d0 283a 1470 edbd 1e7b dcbc e47e 333c
00000130: 026b 5abc fad5 08bd cb7d 1f3c b436 ef3c
00000140: c26c d9bd 8532 113d 5032 56bc 6b03 933c
00000150: 31fe 103c 0496 8fbd 2c41 b03a e63b d5bd
00000160: c3c9 29bd 197e 52bd 257e 31bd 9455 66bd
00000170: 7e77 bfbd 152c 653b c8cf 893a c547 aabd
00000180: d692 903c cbab 13bc d12a 98bd 71e1 d23b
00000190: 16f3 a23d 065a 18bd 38cc b13d cd42 193d
000001a0: 9880 eabb 07f6 9e3d d25d 84bc 536f e4bc
000001b0: 431b a8ba 7372 ba3d f34b 96bc cee5 a2bc
000001c0: fa29 853d f31b 893c 2bee 96bd 49b7 843d
000001d0: 5e3a b13d 416d 4c3b 261b 553d 4977 623d
000001e0: 3aac 183d 812f b43d 53dc 67be be96 963d
000001f0: 8a61 f93c 32d6 0d3c f337 c73d ba89 103d
00000200: 82e7 07be d02c eb3d 531d 8e3d 6eb5 913d
00000210: 69e9 94bd 301b 213e 799c 323d 4fba ab3d
00000220: 3920 c5bd d6e0 78bd dabc 54ba c381 d33d
00000230: da99 cdbd 5f47 433d 7878 d6bc 4737 08bb
00000240: 8408 0abe 11c1 fcbd b2fb 703a 5758 723d
00000250: b124 abbd 7b9a 573d 37d3 1bbd 8d30 b23d
00000260: 98cb 1ebe ea6e 00be dae9 f53d bc12 c43d
00000270: a109 983d cef5 893c 1495 14bc baad c7bd
00000280: 62b3 2c3d a8e1 05be 8e88 86bc e935 a4bd
00000290: f9e8 ebbc 8d0c f63c 99e3 09bd 3661 a83c
000002a0: 37ea 36bd 735a 95bd 7cab 4abd 08aa 1c3b
000002b0: e0a3 14bd 4bed db3a 68b4 9ebd 1325 833d
000002c0: 5c9a 813b 1b75 6dbe 441b 203b fdcb 6a3c
000002d0: e9a9 173c 6a14 a53d 4493 e1bc f3ba 7dbc
000002e0: d962 b0bd 12d6 2dbe 98a9 e33c 357f c93d
000002f0: 7129 28bd f2bf f0bd 1d45 453c 46ed 403d
00000300: ff2b febd ef00 10be ee57 7fbd f927 533d
00000310: ac70 1c3e 5a0b 87bd f54e 60bd 66bd a2bd
00000320: ecf8 44be ad3c 16bc 760d c63c 412e 603d
00000330: 790d b83c d0bc 34bd e87b 51bd 9d9a a63d
00000340: fdbf c3bd 5eeb 82bd 5244 883d 2c8a 1a3c
00000350: 602a 143d def9 ecbc 673d 803c 1dbb 8cbd
00000360: 51b2 85bd c765 47bd 77c0 b13c 3071 34bd
00000370: 735f 2f3e fa26 1ebe aeff 07be 5fe9 83bc
00000380: c0bd fd3b a290 d2bd 9682 753c 176e 86bd
00000390: a55d 053e be31 96bd 1197 c8bc 9a82 5d3b
000003a0: 4ab6 7e3b e36b 79be e874 983d 81df 00bd
000003b0: 0bbe 2e3d 9e6a b7bd 98e2 12bd e61c 8abd
000003c0: 80f1 b93b 6c42 87ba 2fd9 bf3d 06b6 cbbc
000003d0: 9ac0 9f3d 184a b5bd 9e12 d63c c795 2abd
000003e0: 2e95 743d 3d42 85bb 0ed4 ebbc 3d14 b23d
000003f0: f9ca b1bd 02ae 0d3e 3224 b5bd 3e5f 923c

actor.0.bias f4 [256]
-0.02983832 -0.081199795 -0.055386048 0.012085076 -0.051409166 0.06695673 -0.08986827 -0.07837562
-0.009954444 0.04766323 0.012727438 -0.07552644 0.047833353 -0.02554926 -0.0644077 0.0003204763
-0.07609693 0.09266134 -0.03437331 0.03927631 -0.06644864 0.04662315 0.0795766 0.05354278
0.07857414 -0.006866108 -0.071147084 -0.02783307 -0.026381234 0.002868673 0.029669255 -0.029498355
0.007686336 0.044806905 0.056094427 -0.04770364 -0.05338911 -0.0074076625 0.037023716 -0.08400174
-0.028516276 -0.049831964 -0.07007794 -0.060502946 -0.0012938449 -0.012848951 -0.036875267 -0.09123898
-0.01962662 -0.0201083 -0.048304472 -0.07855801 -0.002306825 0.014390941 0.02236674 -0.08021428
-0.023136454 -0.08797945 0.005328813 0.056874905 0.024751151 0.06383391 -0.01057127 -0.060608365
0.07364381 0.07681856 0.073958576 -0.011235303 -0.0009954611 -0.050548483 -0.0031286632 -0.052888446
-0.041615497 -0.059235737 0.048365723 -0.060470853 0.0068508764 0.061754882 -0.05592526 -0.011321212
-0.027673518 -0.051401448 0.076079264 -0.013951468 -0.060670376 0.07058995 -0.03297187 -0.073348165
-0.014031895 0.086969376 -0.08235074 -0.050792344 0.03958548 0.0023237737 -0.05367253 0.10744736
0.041577466 -0.01709637 0.09531151 0.06690154 -0.05749905 -0.09216072 -0.053324696 -0.079489455
0.041920394 0.08100761 -0.078672305 0.06605343 0.068978705 -0.084944084 -0.033196222 0.015068439
-0.084874935 0.07351367 -0.060918447 -0.0017453829 0.005932391 -0.07752933 -0.02080295 -0.015484723
-0.0014747804 0.010026984 -0.07515623 0.01472565 0.058001366 0.068333425 0.0022060561 -0.0842507
-0.095487304 0.05954549 0.015656007 -0.03470042 -0.019506712 0.10593378 0.017287597 -0.06620058
0.04750292 -0.046373636 0.035320774 -0.0007855463 0.09372802 -0.0029483805 -0.079087846 0.061528984
0.023128077 -0.035847552 0.030845163 -0.04842879 -0.0022050987 -0.04274181 -0.07363374 0.08160103
0.10768234 -0.05002512 0.08100331 0.031420287 0.04862315 -0.06892412 -0.0020486303 0.06491451
-0.025989547 0.065467425 -0.07033386 -0.033614725 0.069790535 0.027052693 -0.016226513 0.092245765
-0.073195934 0.07104635 0.09094697 0.01733704 -0.041206263 -0.08104076 -0.0644032 -0.008740866
0.02190979 0.06614482 -0.049102508 0.07156466 0.07118634 0.028750142 -0.07153243 0.017861871
-0.008380474 -0.0567404 -0.0081745675 -0.09373204 0.03480423 -0.050310533 -0.012675809 0.014152794
-0.018100426 -0.060396045 -0.038349405 -0.050289165 -0.09047276 0.1220728 0.021766577 0.029305277
-0.0061634197 0.041418593 -0.013353425 0.011662693 -0.07033903 0.01344021 0.0140663395 0.025964944
0.055913955 0.024595479 0.029032907 -0.068662934 0.06258792 0.022704985 0.0075706523 -0.018682819
0.03523021 -0.023896033 -0.043811835 0.031519923 -0.08496512 -0.042734016 0.060648445 -0.058414526
-0.043538332 -0.016924005 0.0459594 -0.03440279 0.054044254 0.032137495 0.0626846 -0.040285815
-0.07858842 0.041661784 0.074458495 -0.009527603 0.023444396 0.12172288 0.092525 0.038270317
-0.036050826 -0.066722326 0.048440907 -0.010668187 -0.004189147 -0.038487367 0.03925236 -0.00035974578
0.08596327 0.05976484 -0.05555776 -0.0005342232 0.024472961 -0.054842852 -0.08007345 -0.024121936
00000000: 7e6f f4bc 144c a6bd 7bdc 62bd 7c00 463c
00000010: 6b92 52bd 9c20 893d db0c b8bd 6683 a0bd
00000020: f717 23bc 853a 433d be86 503c 9bad 9abd
00000030: e8ec 433d af4c d1bc 2fe8 83bd 9a05 a839
00000040: b5d8 9bbd 3bc5 bd3d 07cb 0cbd 32e0 203d
00000050: 3916 88bd ebf7 3e3d 0ef9 a23d ad4f 5b3d
00000060: 7beb a03d 17fd e0bb 90b5 91bd 2e02 e4bc
00000070: 751d d8bc 5900 3c3b f00c f33c 89a6 f1bc
00000080: a9dd fb3b 7287 373d 45c3 653d e464 43bd
00000090: 8aae 5abd fabb f2bb 2ea6 173d 1b09 acbd
000000a0: f79a e9bc 9a1c 4cbd 0685 8fbd f0d1 77bd
000000b0: 3b96 a9ba 6884 52bc 850a 17bd 81db babd
000000c0: 01c8 a0bc 29ba a4bc e9da 45bd 06e3 a0bd
000000d0: 1a2e 17bb fbc7 6b3c 743a b73c 6247 a4bd
000000e0: a988 bdbc 922e b4bd 539d ae3b a9f5 683d
000000f0: edc2 ca3c 5abb 823d 1f33 2dbc 7a40 78bd
00000100: 91d2 963d 0d53 9d3d 9877 973d 4714 38bc
00000110: 227a 82ba ed0b 4fbd 420a 4dbb 8ea1 58bd
00000120: 0375 2abd 2ca1 72bd 231b 463d 49b0 77bd
00000130: 517d e03b b0f2 7c3d e311 65bd 9b7c 39bc
00000140: 93b3 e2bc 538a 52bd 72cf 9b3d b394 64bc
00000150: 8081 78bd 7791 903d 830d 07bd 9037 96bd
00000160: 09e6 65bc 001d b23d 81a7 a8bd a20b 50bd
00000170: 6224 223d 744a 183b bad7 5bbd 5d0d dc3d
00000180: 224d 2a3d b00d 8cbc ae32 c33d ad03 893d
00000190: 2084 6bbd c2be bcbd ff6a 5abd 5ecb a2bd
000001a0: b8b4 2b3d 51e7 a53d f21e a1bd 0547 873d
000001b0: b544 8d3d 2af7 adbd c3f8 07bd 9de1 763c
000001c0: e9d2 adbd 568e 963d 9f85 79bd 55c5 e4ba
000001d0: 8164 c23b b3c7 9ebd f36a aabc a3b3 7dbc
000001e0: 6b4d c1ba 3848 243c 82eb 99bd da43 713c
000001f0: d792 6d3d 65f2 8b3d 7b93 103b a28b acbd
00000200: d98e c3bd f9e5 733d 0741 803c 0722 0ebd
00000210: 8acc 9fbc cff3 d83d b89e 8d3c 2b94 87bd
00000220: 6c92 423d 48f2 3dbd 84ac 103d 1fed 4dba
00000230: 7af4 bf3d 9e39 41bb cff8 a1bd d105 7c3d
00000240: 1877 bd3c e2d4 12bd ffae fc3c 445d 46bd
00000250: 6b83 10bb 0912 2fbd 49cd 96bd 711e a73d
00000260: 8f88 dc3d 24e7 4cbd 10e5 a53d 8fb2 003d
00000270: 1129 473d 1728 8dbd 5042 06bb e6f1 843d
00000280: 08e8 d4bc c913 863d 330b 90bd 98af 09bd
00000290: 57ee 8e3d 9c9d dd3c 77ed 84bc 59eb bc3d
000002a0: c0e7 95bd c080 913d 6842 ba3d 6806 8e3c
000002b0: e6c7 28bd b3f8 a5bd d3e5 83bd d935 0fbc
000002c0: 297c b33c ef76 873d b61f 49bd 7e90 923d
000002d0: 25ca 913d 6b85 eb3c 987f 92bd 0f53 923c
000002e0: 414e 09bc 9f68 68bd 9fee 05bc 95f6 bfbd
000002f0: e18e 0e3d 6b12 4ebd 32ae 4fbc 1fe1 673c
00000300: 5847 94bc d861 77bd 4414 1dbd 03fc 4dbd
00000310: c849 b9bd 4e01 fa3d d24f b23c 9f11 f03c
00000320: 83f6 c9bb 8ba6 293d 53c8 5abc e114 3f3c
00000330: e90d 90bd 5434 5c3c 8176 663c 6fb4 d43c
00000340: 0806 653d 757c c93c 6bd6 ed3c 279f 8cbd
00000350: 182e 803d ceff b93c 3c13 f83b b60c 99bc
00000360: 8d4d 103d 9dc1 c3bc 0a74 33bd 091b 013d
00000370: 3102 aebd dd09 2fbd 816a 783d 1244 6fbd
00000380: 4055 32bd 36a4 8abc ec3f 3c3d f1e9 0cbd
00000390: 825d 5d3d 9ba2 033d c960 803d bd02 25bd
000003a0: f7f2 a0bd 8ca5 2a3d b27d 983d aa19 1cbc
000003b0: 760e c03c d849 f93d bf7d bd3d 56c1 1c3d
000003c0: 08aa 13bd b7a5 88bd f969 463d 9fc9 2ebc
000003d0: 1d45 89bb eea4 1dbd 15c7 203d 439c bcb9
000003e0: 830d b03d facb 743d 8990 63bd 1d0b 0cba
000003f0: 857b c83c e6a2 60bd 8dfd a3bd 5e9b c5bc

actor.2.weight f4 [2, 256]
-0.12770863 -0.08950868 0.07629131 0.11580202 0.0984133 0.13236094 0.01926017 0.13474227
-0.11334037 -0.15217969 -0.034744423 0.02543953 -0.06901282 -0.02227214 -0.06634 -0.117708325
-0.095005855 -0.07240085 0.09395665 0.102231495 -0.0697956 0.03109394 -0.13281643 -0.077985846
-0.020140488 -0.04571626 0.048483677 -0.0059796986 -0.15910701 -0.049048573 -0.029233733 0.042706627
-0.12853085 -0.116589785 -0.09404062 -0.0726649 -0.1067096 -0.076339684 0.08042973 0.028280148
-0.07819699 -0.15512055 -0.04253187 -0.0267341 0.041781306 -0.12033323 -0.10661584 0.13347998
-0.04646241 0.14278887 0.07972366 -0.027786974 -0.090427294 -0.07152975 0.11515744 0.03320368
-0.042296514 -0.051545415 -0.12522332 -0.09088405 -0.112970516 0.11086358 0.16648883 0.051031817
-0.056239218 0.12186372 -0.11515403 -0.10892645 0.077307306 0.12330696 -0.108125836 0.18330239
-0.17394093 0.0919136 0.15501274 0.21057518 0.09017807 -0.057740934 0.04395566 -0.06304791
-0.098458104 0.050615415 -0.17266119 -0.11504753 -0.11551447 -0.13325796 -0.09996622 -0.11308155
0.12831216 -0.01698253 0.015358895 0.12303588 0.120078966 0.11169329 0.045853674 -0.06305442
0.10842633 0.12553543 -0.02031558 0.02386909 -0.10311994 0.072115935 0.068043 -0.056815427
0.11502201 0.058531098 0.04959161 0.049148094 -0.12163857 -0.122570425 -0.13263422 0.08201635
0.015769111 0.14494851 -0.23646648 -0.009037273 -0.0797401 0.04094936 0.060409803 -0.1823596
0.06637041 -0.009394152 0.07855227 -0.15374579 0.08971479 0.08435603 0.028124286 -0.06551473
0.07741388 0.083561584 -0.09412253 -0.11253628 -0.05759085 -0.09242407 0.029386327 -0.11441192
-0.07360471 -0.16923513 0.103777416 0.10547974 -0.034206048 -0.10995379 0.08643932 0.015744044
0.1469672 0.092959404 0.09720893 -0.17956217 0.0185719 0.02475848 0.105649784 -0.10434071
-0.08444154 0.13086556 -0.17354935 -0.030000621 -0.12043411 0.07578732 0.15156619 -0.11170632
0.0091586225 0.015842305 -0.08053923 0.07590428 0.07572958 -0.13143131 -0.04541107 -0.15578233
0.12205691 -0.07702583 -0.06003229 -0.19532391 0.18849665 0.05965883 -0.037265677 -0.0023389957
-0.05188954 0.10037932 0.057306755 -0.1419184 -0.0479382 0.05796897 0.021607159 0.15452509
0.16983373 0.06492136 0.006417132 0.027204534 0.005020007 0.14034548 0.09652571 -0.20519342
0.16861264 -0.029625349 0.067051925 -0.09821834 0.043919545 -0.06346765 -0.14373021 -0.14732267
0.013501477 -0.13246787 -0.061248507 0.058065947 0.18198417 0.05365521 -0.16309768 0.12652364
-0.23383567 0.07706446 -0.15705541 -0.12441296 0.10075092 -0.091453105 0.14058292 0.018608712
-0.094151065 0.06986227 0.13727233 0.08903567 0.046303138 -0.016523514 -0.10213254 -0.1768549
0.06347005 -0.10236975 -0.014843389 0.127144 0.047119785 0.02137884 -0.10959853 0.0820959
-0.16443728 -0.12893339 0.044006966 -0.12690082 0.06405491 -0.1278434 -0.121353574 0.111865036
-0.007302872 -0.04172753 -0.082332455 -0.10524902 -0.09501721 -0.06521272 -0.13057484 0.13475542
-0.09141636 0.09156368 0.110117674 0.06452232 0.020044751 0.21499546 0.06667427 0.026616547
00000000: 0dc6 02be 5450 b7bd 9e3e 9c3d 9c29 ed3d
00000010: ea8c c93d a089 073e 81c7 9d3c e1f9 093e
00000020: ff1e e8bd fed4 1bbe 2b50 0ebd 9066 d03c
00000030: 9856 8dbd 1074 b6bc 44dd 87bd 1011 f1bd
00000040: 6e92 c2bd e646 94bd 586c c03d bf5e d13d
00000050: fff0 8ebd b8b8 fe3c 0801 08be 0bb7 9fbd
00000060: aafd a4bc f940 3bbd d296 463d 59f1 c3bb
00000070: f3ec 22be 28e7 48bd 957b efbc 25ed 2e3d
00000080: 979d 03be a0c6 eebd 5e98 c0bd 56d1 94bd
00000090: 908a dabd fb57 9cbd 58b8 a43d c5ab e73c
000000a0: be25 a0bd ecd7 1ebe e635 2ebd 7901 dbbc
000000b0: e022 2b3d 4571 f6bd 6859 dabd faae 083e
000000c0: 5e4f 3ebd 3f37 123e 2946 a33d 82a1 e3bc
000000d0: f231 b9bd 317e 92bd aad7 eb3d 9500 083d
000000e0: 1c3f 2dbd 4921 53bd 8b3a 00be 6b21 babd
000000f0: 165d e7bd 720c e33d 0c7c 2a3e bd06 513d
00000100: 185b 66bd b093 f93d e0d5 ebbd d514 dfbd
00000110: 4b53 9e3d 5c88 fc3d 1471 ddbd 9fb3 3b3e
00000120: 921d 32be 333d bc3d a9bb 1e3e 05a1 573e
00000130: 48af b83d c281 6cbd da0a 343d 431f 81bd
00000140: 67a4 c9bd 1c52 4f3d 18ce 30be 0a9e ebbd
00000150: da92 ecbd c674 08be 17bb ccbd 4d97 e7bd
00000160: 4364 033e f21e 8bbc e0a3 7b3c 3cfa fb3d
00000170: f6eb f53d 74bf e43d 10d1 3b3d ad22 81bd
00000180: a00e de3d 5c8c 003e dc6c a6bc 1c89 c33c
00000190: 8c30 d3bd 85b1 933d 215a 8b3d 4bb7 68bd
000001a0: a990 eb3d 4ebe 6f3d 9220 4b3d 834f 493d
000001b0: a51d f9bd 3406 fbbd 44d1 07be 30f8 a73d
000001c0: 392e 813c 626d 143e 4524 72be 1211 14bc
000001d0: c74e a3bd 84ba 273d 4570 773d 7abc 3abe
000001e0: 36ed 873d eee9 19bc 03e0 a03d 896f 1dbe
000001f0: 63bc b73d dbc2 ac3d e764 e63c 962c 86bd
00000200: 2b8b 9e3d 5622 ab3d 50c3 c0bd 6c79 e6bd
00000210: 62e4 6bbd d548 bdbd 98bb f03c cc50 eabd
00000220: 11be 96bd f94b 2dbe 4189 d43d c305 d83d
00000230: a41b 0cbd 742f e1bd 1907 b13d a7f9 803c
00000240: 927e 163e 8061 be3d 7a15 c73d 25df 37be
00000250: 1924 983c 4cd2 ca3c ea5e d83d 95b0 d5bd
00000260: b0ef acbd 9f01 063e ecb6 31be ddc3 f5bc
00000270: 29a6 f6bd 6236 9b3d 2b34 1b3e 48c6 e4bd
00000280: 0c0e 163c b9c7 813c c0f1 a4bd b473 9b3d
00000290: 1c18 9b3d ee95 06be f500 3abd 6785 1fbe
000002a0: f9f8 f93d b8bf 9dbd 6be4 75bd fe02 48be
000002b0: 4405 413e d15c 743d e5a3 18bd d649 19bb
000002c0: 208a 54bd ac93 cd3d 7dba 6a3d 0f53 11be
000002d0: d95a 44bd df70 6d3d 7f01 b13c d33b 1e3e
000002e0: e5e8 2d3e 7df5 843d ce46 d23b 0bdc de3c
000002f0: df7e a43b bab6 0f3e 45af c53d 391e 52be
00000300: cba8 2c3e dcb0 f2bc 8552 893d b226 c9bd
00000310: fbe4 333d 54fb 81bd 032e 13be c1db 16be
00000320: 4d35 5d3c a8a5 07be b7df 7abd 8fd6 6d3d
00000330: 0f5a 3a3e 91c5 5b3d 1403 27be 6a8f 013e
00000340: 9e72 6fbe f9d3 9d3d 22d3 20be 39cc febd
00000350: 8056 ce3d c44b bbbd f8f4 0f3e 4c71 983c
00000360: 46d2 c0bd f313 8f3d 1e91 0c3e 5558 b63d
00000370: 5ca8 3d3d 525c 87bc dd2a d1bd 7319 35be
00000380: 96fc 813d 3ba7 d1bd b031 73bc 0932 023e
00000390: ad00 413d ad22 af3c 3275 e0bd e521 a83d
000003a0: 3f62 28be 1d07 04be a640 343d 4af2 01be
000003b0: 382f 833d 61e9 02be 3988 f8bd 7f19 e53d
000003c0: ee4c efbb 7dea 2abd eb9d a8bd cc8c d7bd
000003d0: 6298 c2bd 3f8e 85bd 69b5 05be 53fd 093e
000003e0: 8038 bbbd bd85 bb3d 6085 e13d 4724 843d
000003f0: e434 a43c c527 5c3e 858c 883d f20a da3c

actor.2.bias f4 [2]
-0.004886865 0.051761277
00000000: ff21 a0bb a203 543d

critic.0.weight f4 [256, 126]
0.056161743 -0.09208462 0.16004327 -0.014589438 -0.053506926 -0.081747286 0.12995753 0.1268956
-0.00554422 0.023675356 0.15594284 0.04965567 -0.029909443 0.02856979 0.15843195 0.35371634
-0.020494461 -0.090090245 0.17600779 0.2044435 0.013234396 0.019884316 0.23751578 0.29576376
-0.119808145 -0.07204684 0.01160094 -0.06326086 0.012438885 -0.006709946 0.25774592 0.049752492
-0.08053642 -0.035896696 0.14609307 -0.03440452 0.06222928 -0.08841947 0.20765004 0.122556455
0.031700745 0.0029198835 0.16551317 -0.020238109 0.060120612 -0.14781897 0.22583443 -0.040014267
-0.010633442 0.10210372 0.30509388 -0.014946555 -0.081925824 -0.09652881 0.16544113 0.030368913
0.06803033 0.08680272 0.2582268 -0.21845709 -0.04669224 -0.044392478 0.090928786 -0.016342962
0.10606172 0.0762697 0.25661686 -0.30168292 -0.08318905 0.028898751 -0.29135087 0.2609817
0.10457779 0.0020102214 0.18407255 -0.047637414 0.09304442 0.040271997 -0.68157977 0.19787586
0.04697003 0.031411685 0.050113454 -0.015237013 0.030259162 -0.085076116 -0.7279798 0.24137338
-0.043392193 -0.080181874 0.09794431 0.0962682 0.08778916 0.055662937 -0.6263362 0.20373748
0.036201797 0.0152551625 0.048896734 0.23304036 0.0035918332 -0.098793425 -0.60715324 0.23839505
0.0035847619 -0.03250052 0.025595902 0.33801377 -0.04762475 -0.05069102 -0.74831945 0.2015645
0.022789082 0.060605373 0.13244481 0.3908552 0.0035430612 0.012557937 -0.56500906 0.15486754
0.10457222 0.028038682 -0.19446947 0.3796837 -0.027384907 -0.061421942 -0.24298581 0.09027519
-0.05954297 0.06840844 -0.018014478 -0.050494604 0.07371939 -0.059075687 -0.013989002 -0.043936193
-0.06752868 0.08921804 0.021007553 -0.036158655 0.07675916 0.009259797 0.044547155 0.018925548
-0.060793944 -0.07181525 0.010087318 0.058865786 0.017238481 0.102149375 0.035152216 0.08552347
0.066283345 0.012396948 0.04024549 0.050531283 0.00041273507 0.20676151 -0.040805966 -0.011778307
0.04581005 0.014786555 -0.03103847 0.022332119 0.10599551 0.15476821 -0.013243258 0.07462466
-0.03579218 0.14678122 -0.03324304 -0.014306444 -0.1459731 0.22388428 0.027380215 0.004472538
-0.15691677 0.15918165 0.011293647 0.10232185 -0.29368493 0.36411068 0.0065123565 -0.034754813
-0.31926113 0.2161502 -0.048351187 0.08143779 -0.14035802 0.33952293 -0.08141902 0.021827057
-0.34313375 0.2486043 0.09316053 -0.023756497 0.035138853 0.36596859 -0.07913319 0.026092822
-0.28551656 0.119983695 0.062780574 0.042135246 0.12332599 0.14505696 -0.021835493 -0.08323758
-0.04594239 0.27624914 0.049213592 0.03910916 0.20565896 0.049781196 0.010439373 -0.062817
-0.16291094 0.110934995 0.06470348 0.013049538 0.12553963 0.027780378 0.057543546 0.0034298347
0.04152139 0.07518657 -0.057588216 0.032872718 0.12295439 -0.16758285 -0.06590146 0.052163746
0.08803575 -0.054723468 0.05842035 0.04836372 0.115130566 -0.10247807 -0.06283672 0.089870594
0.084129214 -0.049280122 0.036338754 -0.014058978 0.21122228 -0.043037828 0.022177193 0.078484766
0.18891074 -0.042437527 0.044953372 -0.034584835 0.23055251 -0.13610238 0.05904621 -0.072319046
00000000: db09 663d dc96 bcbd 62e2 233e 8a08 6fbc
00000010: 142a 5bbd 1f6b a7bd 9613 053e ecf0 013e
00000020: 4aac b5bb d2f2 c13c 7baf 1f3e be63 4b3d
00000030: a604 f5bc 310b ea3c fc3b 223e 4f1a b53e
00000040: 00e4 a7bc 3c81 b8bd 633b 343e a359 513e
00000050: 15d5 583c 6fe4 a23c 5637 733e 596e 973e
00000060: f95d f5bd 4b8d 93bd de11 3e3c e98e 81bd
00000070: 77cc 4b3c 1bdf dbbb 46f7 833e 45c9 4b3d
00000080: 47f0 a4bd 6a08 13bd 6c99 153e c1eb 0cbd
00000090: 21e4 7e3d 4415 b5bd 36a2 543e e1fe fa3d
000000a0: a4d8 013d 845b 3f3b 497c 293e 64ca a5bc
000000b0: 0841 763d db5d 17be 2441 673e 00e6 23bd
000000c0: e337 2ebc c11b d13d 4435 9c3e 65e2 74bc
000000d0: bac8 a7bd e6b0 c5bd 6669 293e 3ac8 f83c
000000e0: 7c53 8b3d a0c5 b13d 4e36 843e 37b3 5fbe
000000f0: 5d40 3fbd e3d4 35bd df38 ba3d ade1 85bc
00000100: e336 d93d 4a33 9c3d 4963 833e 2f76 9abe
00000110: 055f aabd 13bd ec3c f12b 95be 659f 853e
00000120: e12c d63d ebbd 033b 847d 3c3e 731f 43bd
00000130: 138e be3d 40f4 243d 037c 2ebf f89f 4a3e
00000140: a563 403d 8aa9 003d c443 4d3d aaa4 79bc
00000150: 10e2 f73c 633c aebd e25c 3abf 952a 773e
00000160: 03bc 31bd 6536 a4bd 0797 c83d 4328 c53d
00000170: ceca b33d d2fe 633d 9257 20bf 8fa0 503e
00000180: 5648 143d caf0 793c f147 483d 22a2 6e3e
00000190: f664 6b3b 3554 cabd 656e 1bbf d51d 743e
000001a0: 53ee 6a3b 441f 05bd 7fae d13c 2410 ad3e
000001b0: 2b12 43bd 63a1 4fbd dd91 3fbf ed66 4e3e
000001c0: 2bb0 ba3c 573d 783d 9d9f 073e 2c1e c83e
000001d0: b432 683b cebf 4d3c 6fa4 10bf 9995 1e3e
000001e0: f629 d63d 61b1 e53c 0123 47be e765 c23e
000001f0: 5056 e0bc 9395 7bbd 46d1 78be 33e2 b83d
00000200: 54e3 73bd b919 8c3d 1993 93bc 6ed3 4ebd
00000210: 31fa 963d 59f9 71bd 2132 65bc 70f6 33bd
00000220: 7a4c 8abd f3b7 b63d 0818 ac3c 191b 14bd
00000230: e833 9d3d 67b6 173c 1477 363d c009 9b3c
00000240: 1203 79bd e013 93bd 4745 253c 401d 713d
00000250: b737 8d3c b133 d13d c5fb 0f3d ee26 af3d
00000260: 90bf 873d 921c 4b3c 74d8 243d e4f9 4e3d
00000270: 5d64 d839 4ab9 533e 2824 27bd cdf9 40bc
00000280: 52a3 3b3d 4f43 723c 6444 febc d9f1 b63c
00000290: 2d14 d93d 8f7b 1e3e 40fa 58bc d0d4 983d
000002a0: d29a 12bd d14d 163e db29 08bd 9365 6abc
000002b0: f979 15be ec41 653e 794c e03c 5e8e 923b
000002c0: caae 20be 8400 233e fd08 393c 1e8e d13d
000002d0: df5d 96be b76c ba3e 9b65 d53b 105b 0ebd
000002e0: 3276 a3be 7a56 5d3e e50b 46bd dbc8 a63d
000002f0: 03ba 0fbe f3d5 ad3e 04bf a6bd a8ce b23c
00000300: 3aaf afbe 2092 7e3e f3ca be3d fc9c c2bc
00000310: c2ed 0f3d 3c60 bb3e 9510 a2bd 9dc0 d53c
00000320: 3a2f 92be 03ba f53d 1a93 803d 0296 2c3d
00000330: 5692 fc3d d089 143e 59e0 b2bc 7778 aabd
00000340: 162e 3cbd 8770 8d3e 3194 493d ed30 203d
00000350: 4398 523e 5ee7 4b3d e709 2b3c 33a6 80bd
00000360: 20d2 26be e331 e33d 4283 843d bbcd 553c
00000370: 768d 003e ad93 e33c c8b2 6b3d 14c7 603b
00000380: 5512 2a3d 6bfb 993d 9fe1 6bbd 8ba5 063d
00000390: 83cf fb3d d79a 2bbe 58f7 86bd a7a9 553d
000003a0: 164c b43d b725 60bd 2d4a 6f3d 0919 463d
000003b0: 93c9 eb3d 06e0 d1bd 8ab0 80bd 130e b83d
000003c0: f04b ac3d f4d9 49bd f2d7 143d a157 66bc
000003d0: a74a 583e 6f48 30bd f2ac b53c 9fbc a03d
000003e0: d171 413e f9d2 2dbd 0721 383d d4a8 0dbd
000003f0: f515 6c3e 6c5e 0bbe 70da 713d 021c 94bd

critic.0.bias f4 [256]
-0.026038272 -0.031842854 0.002475496 -0.048776094 0.003761132 0.06337835 -0.017304193 -0.021697305
-0.07126991 0.04744923 0.015497923 -0.055859823 -0.07403947 0.060509335 -0.028559987 -0.028375993
0.044794448 -0.09565676 -0.05811722 0.052609693 0.0057003307 0.032751497 0.08255341 0.034267068
0.039238032 -0.045687076 0.014636058 0.067889884 -0.055197127 0.03968982 -0.06464877 0.088058636
0.023252616 -0.050853893 -0.05182929 -0.06250451 -0.026842473 -0.076042615 -0.03904216 -0.055637628
0.04697857 0.01707455 -0.02922966 0.09340814 -0.018830894 -0.02651532 0.0941771 0.084384
-0.08021089 0.004583299 0.0627459 -0.09043162 0.0052074348 -0.03327597 0.006009671 0.02196163
0.07779019 0.064380616 0.047865342 -0.0071859933 0.019303005 0.07369678 0.08871546 0.09399896
0.12299737 -0.024955617 0.017493118 0.08843734 -0.0007851865 0.0565152 0.10015723 -0.05235511
0.011930965 -0.06610769 0.014013452 -0.0063343374 -0.042345274 0.077238925 0.110449 0.011614327
-0.037452478 -0.04165905 0.10459133 0.0043054526 0.0063249064 0.07243499 0.047824007 0.015234989
0.0026751743 0.10645345 -0.0753615 0.078016706 -0.023218859 -0.07086169 0.027567178 0.038091786
0.0044900714 -0.06753223 -0.08954696 -0.04327274 -0.042070072 0.0054682316 -0.03739139 0.09935969
0.023747835 0.09686108 -0.014790817 0.025048278 -0.034033705 -0.038378276 0.07198001 0.046346705
-0.023852095 -0.015673246 0.06257112 0.1268537 -0.045105614 0.0050213495 0.01682012 0.084291205
0.0066748415 0.013457956 -0.05944074 -0.0725664 0.062956646 -0.014043995 0.09317022 0.012630443
-0.05874903 0.029035684 0.03226528 0.043405477 0.09513638 -0.047854938 0.07564375 0.021021659
-0.0876006 -0.0053896056 -0.04657494 0.09585008 0.01239984 0.013942986 0.080862075 0.037319645
0.036590505 -0.0023251527 0.0062539917 -0.07571969 -0.05478662 0.00025322835 0.014485537 0.017405873
0.018885182 0.0006197089 -0.07320555 -0.077648684 0.022167722 -0.0006832235 0.04439653 0.023733715
-0.041005813 0.05518723 -0.05641209 -0.050079953 0.0063856114 0.022863874 0.08331591 -0.027374413
0.0499367 -0.004415656 0.0039568264 0.045771174 0.022251766 0.013015319 -0.09331335 0.021695377
-0.010905499 0.025895715 0.11270446 0.004977496 0.008991315 0.005259739 -0.035792828 0.04295406
-0.020809444 0.05678885 0.057316575 0.023548635 0.0657384 0.050032176 -0.028725691 -0.013236375
0.030132223 0.06931292 0.0922941 -0.064241044 0.028554386 -0.005619793 0.09136268 0.0031450684
0.0073671453 -0.04701286 0.051046778 0.038315833 0.03354112 -0.059262007 0.04138389 0.011262625
0.09395696 -0.08641377 0.05618245 0.0582587 -0.013879949 0.06658752 -0.092051595 0.11108347
0.08674395 -0.09340587 0.055981208 -0.004965141 0.0735277 0.038164645 -0.005882735 0.02263419
-0.040992264 -0.08869874 -0.05007896 0.033524644 -0.05324448 0.013869886 0.119706474 0.09746647
-0.08168798 -0.086886294 0.003009209 -0.017578255 0.07149651 -0.008119016 -0.051355064 -0.05615605
-0.07319703 0.057299983 0.05329375 0.057629053 0.03255917 0.019237893 0.011595213 0.04706575
0.007473674 0.08943864 0.03039533 -0.09602394 0.008141299 -0.06581408 -0.034724604 0.14132182
00000000: 374e d5bc a76d 02bd ee3b 223b 71c9 47bd
00000010: 537d 763b 82cc 813d 86c1 8dbc 8cbe b1bc
00000020: f5f5 91bd 205a 423d 00eb 7d3c 45cd 64bd
00000030: 01a2 97bd a3d8 773d a2f6 e9bc c574 e8bc
00000040: 627a 373d b1e7 c3bd 520c 6ebd 437d 573d
00000050: d7c9 ba3b 6f26 063d c311 a93d a05b 0c3d
00000060: 0fb8 203d 5f22 3bbd 14cc 6f3c da09 8b3d
00000070: 6216 62bd cb91 223d 9366 84bd 1658 b43d
00000080: 457c be3c 2c4c 50bd f34a 54bd 5d02 80bd
00000090: bfe4 dbbc 3bbc 9bbd acea 1fbd 48e4 63bd
000000a0: 9a6c 403d eddf 8b3c 0a73 efbc c44c bf3d
000000b0: 3f43 9abc a836 d9bc ecdf c03d 85d1 ac3d
000000c0: 9b45 a4bd 802f 963b ec80 803d 3734 b9bd
000000d0: 21a3 aa3b 624c 08bd c6ec c43b e0e8 b33c
000000e0: 7750 9f3d fcd9 833d 730e 443d 7b78 ebbb
000000f0: 5621 9e3c 56ee 963d 73b0 b53d 8782 c03d
00000100: 0ce6 fb3d b96f ccbc ba4d 8f3c a31e b53d
00000110: f9d4 4dba 7b7c 673d 3c1f cd3d 5072 56bd
00000120: 187a 433c 7863 87bd ae98 653c 4690 cfbb
00000130: 3d72 2dbd 712f 9e3d 1633 e23d 054a 3e3c
00000140: c567 19bd aea2 2abd fb33 d63d c114 8d3b
00000150: 2941 cf3b cc58 943d 1be3 433d 2d9c 793c
00000160: fa51 2f3b 4404 da3d 2157 9abd 39c7 9f3d
00000170: 7a35 bebc ef1f 91bd 90d4 e13c 2206 1c3d
00000180: 7321 933b 564e 8abd 6664 b7bd c23e 31bd
00000190: ab51 2cbd da2e b33b b727 19bd 187d cb3d
000001a0: d28a c23c 1a5f c63d 2f55 72bc 0c32 cd3c
000001b0: ed66 0bbd 8a32 1dbd 416a 933d 0bd6 3d3d
000001c0: 7865 c3bc 2e65 80bc 4a25 803d f0e5 013e
000001d0: aac0 38bd 228a a43b 59ca 893c dea0 ac3d
000001e0: a1b8 da3b c27e 5c3c 2278 73bd b19d 94bd
000001f0: 6aef 803d c918 66bc 07d0 be3d ebef 4e3c
00000200: d3a2 70bd 3edc ed3c 9928 043d f1c9 313d
00000210: ddd6 c23d 8a03 44bd 1ceb 9a3d 9d35 ac3c
00000220: f267 b3bd 4a9b b0bb 5dc5 3ebd 0c4d c43d
00000230: b328 4b3c 1f71 643c 049b a53d 7cdc 183d
00000240: eddf 153d 9761 18bb 49ee cc3b ed12 9bbd
00000250: ef67 60bd bcc3 8439 bf54 6d3c c396 8e3c
00000260: 19b5 9a3c f673 223a cbec 95bd 4606 9fbd
00000270: 1599 b53c 5a1a 33ba 23d9 353d 356d c23c
00000280: b6f5 27bd 010c 623d 5d10 67bd a320 4dbd
00000290: 643e d13b 054d bb3c 88a1 aa3d 4e40 e0bc
000002a0: 6d8a 4c3d 35b1 90bb 44a8 813b 8e7a 3b3d
000002b0: 5649 b63c 343e 553c 121b bfbd 81ba b13c
000002c0: faac 32bc 4023 d43c 99d1 e63d 431a a33b
000002d0: 4f50 133c e359 ac3b 809b 12bd 99f0 2f3d
000002e0: 9178 aabc 6d9b 683d c9c4 6a3d 11e9 c03c
000002f0: dba1 863d 8aee 4c3d 2452 ebbc 61dd 58bc
00000300: dad7 f63c eff3 8d3d b004 bd3d cf90 83bd
00000310: e3ea e93c 3e26 b8bb 5b1c bb3d 7e1d 4e3b
00000320: 1868 f13b 8f90 40bd 6d16 513d 10f1 1c3d
00000330: 6a62 093d b8bc 72bd 2782 293d e086 383c
00000340: 826c c03d b4f9 b0bd 921f 663d ada0 6e3d
00000350: ba68 63bc 0a5f 883d 8c85 bcbd bb7f e33d
00000360: d0a6 b13d 944b bfbd 8d4c 653d 9fb2 a2bb
00000370: b195 963d 8852 1c3d f5c3 c0bb 566b b93c
00000380: 81e7 27bd afa7 b5bd 981f 4dbd 2351 093d
00000390: e216 5abd 853e 633c ab28 f53d 809c c73d
000003a0: 074c a7bd 71f1 b1bd 2636 453b 4600 90bc
000003b0: c36c 923d 9f05 05bc b059 52bd e303 66bd
000003c0: 53e8 95bd 63b3 6a3d 8c4a 5a3d 710c 6c3d
000003d0: c45c 053d c998 9d3c d9f9 3d3c 04c8 403d
000003e0: b9e5 f43b 9b2b b73d a1ff f83c 33a8 c4bd
000003f0: 1563 053c 88c9 86bd 633b 0ebd abb6 103e

critic.2.weight f4 [1, 256]
0.21309535 0.088178284 -0.17303805 0.16811457 0.12451116 -0.16520882 0.118972786 -0.14699943
0.12808707 0.08839383 0.113256395 0.22785354 0.1644027 -0.34985167 0.20844948 -0.3445289
-0.2675665 -0.21089303 -0.16122139 0.0636236 -0.20955692 -0.10510774 0.26898807 0.12156398
0.17381734 -0.3164551 -0.28863817 -0.13181688 0.2662063 0.1135278 -0.1439345 0.14255735
-0.22593082 0.15003404 0.10247413 0.18337186 -0.20206144 0.29878482 0.14189936 0.15240046
-0.3298293 -0.13705602 0.11365177 -0.173388 -0.445501 -0.35956526 -0.2410491 -0.30834973
0.117157474 0.15725642 0.27832952 -0.19735202 -0.2663935 0.12470368 -0.21572416 0.09866579
-0.41737273 -0.34042743 -0.18875667 0.16764744 0.087288365 0.16547337 -0.42014706 -0.21553905
-0.3912002 -0.17619881 -0.2764631 0.1898497 0.1573068 -0.18925133 0.1602825 -0.20755905
-0.26144177 -0.16402014 -0.20948832 0.14676158 0.22701266 0.09155171 0.12765498 0.098403186
0.21759592 -0.14562324 0.10756475 -0.122368224 -0.285835 0.15788977 -0.2274549 0.14842322
0.19629781 0.35805598 0.38797352 0.12532128 -0.33582348 -0.20577045 -0.17026854 0.12783544
-0.21259098 -0.2632905 -0.09922398 -0.3307697 -0.24891417 -0.23661005 0.14662458 0.08883418
-0.10117925 0.12259071 0.12718944 0.17545998 -0.1549795 0.13956799 0.115741864 0.16151457
0.41414952 -0.21966384 -0.21135709 -0.24215683 -0.11960205 -0.142438 -0.08176552 0.40353745
-0.31569847 0.09167925 -0.18177386 0.041311763 0.2147054 0.13312982 0.38448584 0.15031128
0.1448256 0.08271506 0.07010965 -0.14068018 0.12750967 -0.11314367 -0.122353464 0.1017047
-0.117000036 0.114496 -0.18267554 0.17409092 -0.26908 -0.21380636 -0.09834555 -0.3474141
0.1838646 0.16152698 -0.34732887 -0.22270235 -0.20899537 0.12702422 0.064836286 0.15303737
-0.191713 -0.2368974 0.41327146 -0.10418889 -0.16557558 -0.35260212 0.13757579 -0.26663345
0.4755027 0.13568659 0.12035888 -0.14357285 0.19613019 0.14013967 -0.12078308 0.09180768
0.1604524 -0.2076416 0.22722742 -0.15089673 -0.31051335 -0.3798483 -0.24297526 -0.3594519
0.30082443 -0.1719592 0.116102226 0.1663452 -0.3418219 0.1492913 0.07954302 -0.16940464
-0.5162942 -0.20172916 -0.17640008 -0.20861405 -0.20638373 0.115315944 0.12479063 -0.099517144
-0.21612354 -0.2310163 0.19378173 -0.18931992 0.19080324 0.13928217 0.12857392 0.086435415
0.105909444 0.12916745 0.14363006 0.22353594 -0.20268764 -0.19020662 -0.37936065 0.15523739
0.40273196 -0.20235701 0.16727358 -0.15153335 -0.22170843 0.08788507 -0.14080869 0.20420147
0.4034118 -0.2683213 -0.11076032 -0.45001498 -0.17813525 -0.4140063 0.1063688 0.38326403
-0.121027924 -0.35541824 -0.1769496 -0.26936173 -0.21033236 0.021103282 0.16301379 0.14281367
-0.1695174 0.17442222 -0.13825998 0.24277213 -0.08264262 0.14120576 -0.17966823 -0.20099542
-0.044472214 -0.13796347 -0.17239161 -0.24314626 -0.19994028 -0.17945015 0.13900276 0.17279759
-0.18557048 0.16232406 0.18668151 -0.13944471 0.18240446 0.35575137 -0.4434401 0.13618474
00000000: ab35 5a3e d196 b43d e330 31be 3a26 2c3e
00000010: b5ff fe3d 802c 29be 01a8 f33d 0587 16be
00000020: 4229 033e d307 b53d f8f2 e73d 7052 693e
00000030: 2e59 283e c21f b3be c873 553e 1866 b0be
00000040: 7afe 88be 58f4 57be 3817 25be 174d 823d
00000050: 1796 56be ba42 d7bd ceb8 893e 89f6 f83d
00000060: 2cfd 313e 6706 a2be 62c8 93be 01fb 06be
00000070: 314c 883e 4381 e83d 9163 13be 8efa 113e
00000080: 695a 67be 86a2 193e f5dd d13d d5c5 3b3e
00000090: 32e9 4ebe 53fa 983e 114e 113e de0e 1c3e
000000a0: 63df a8be 6a58 0cbe 42c2 e83d a08c 31be
000000b0: b518 e4be f018 b8be 93d5 76be 04e0 9dbe
000000c0: 42f0 ef3d d407 213e 3581 8e3e a616 4abe
000000d0: bb64 88be a564 ff3d cbe6 5cbe 4a11 ca3d
000000e0: e1b1 d5be 814c aebe 6e49 41be c5ab 2b3e
000000f0: 3ec4 b23d da71 293e 841d d7be 45b6 5cbe
00000100: 654b c8be 766d 34be 928c 8dbe f667 423e
00000110: 0915 213e 1acb 41be 1821 243e 5c8a 54be
00000120: b2db 85be e5f4 27be 1b84 56be ab48 163e
00000130: 0276 683e 777f bb3d fdb7 023e 9c87 c93d
00000140: 77d1 5e3e 421e 15be e84a dc3d 319c fabd
00000150: f758 92be dbad 213e f0e9 68be 42fc 173e
00000160: 4b02 493e 1d53 b73e 77a4 c63e 3954 003e
00000170: 0ef1 abbe 7db5 52be e05a 2ebe 4be7 023e
00000180: 73b1 59be 03ce 86be f135 cbbd a55a a9be
00000190: 5be3 7ebe e849 72be c124 163e b2ee b53d
000001a0: 1137 cfbd d710 fb3d f33d 023e c8ab 333e
000001b0: f2b2 1ebe e9ea 0e3e 120a ed3d 1364 253e
000001c0: 680b d43e 8fef 60be fe6d 58be f6f7 77be
000001d0: ebf1 f4bd 44db 11be ae74 a7bd 769c ce3e
000001e0: 3ba3 a1be 55c2 bb3d ed22 3abe 8636 293d
000001f0: bbdb 5b3e 2f53 083e 54db c43e 33eb 193e
00000200: 294d 143e 8366 a93d a695 8f3d 770e 10be
00000210: e591 023e deb7 e7bd 7494 fabd 8e4a d03d
00000220: b79d efbd e17c ea3d 4c0f 3bbe e444 323e
00000230: dbc4 89be 0ef0 5abe 6469 c9bd 43e0 b1be
00000240: 0047 3c3e 5467 253e 17d5 b1be 160c 64be
00000250: e202 56be a312 023e e3c8 843d d4b5 1c3e
00000260: 6a50 44be 3b95 72be 5198 d33e fc60 d5bd
00000270: a58c 29be 4488 b4be abe0 0c3e 2e84 88be
00000280: 1775 f33e 6df1 0a3e b77e f63d c304 13be
00000290: 5ad6 483e c680 0f3e 1f5d f7bd aa05 bc3d
000002a0: a24d 243e 00a0 54be 4eae 683e ac84 1abe
000002b0: 9bfb 9ebe 7a7b c2be 82ce 78be 140a b8be
000002c0: a905 9a3e 1316 30be 01c7 ed3d 6556 2a3e
000002d0: 4803 afbe d2df 183e 73e7 a23d 6978 2dbe
000002e0: db2b 04bf 1792 4ebe 39a2 34be ec9e 55be
000002f0: 4256 53be c42a ec3d 3b92 ff3d a5cf cbbd
00000300: 7d4f 5dbe 898f 6cbe b86e 463e 15dd 41be
00000310: ed61 433e fc9f 0e3e e2a8 033e 0d05 b13d
00000320: 0de7 d83d 7944 043e c213 133e 9be6 643e
00000330: 598d 4fbe 86c5 42be 8f3b c2be 8df6 1e3e
00000340: e232 ce3e ad36 4fbe c449 2b3e 8f2b 1bbe
00000350: 8907 63be 16fd b33d 2730 10be 311a 513e
00000360: fe8b ce3e 6961 89be 4fd6 e2bd 5d68 e6be
00000370: 1669 36be a2f8 d3be e3d7 d93d 2f3b c43e
00000380: 7ddd f7bd 61f9 b5be 4732 35be c8e9 89be
00000390: 5e61 57be cae0 ac3c 16ed 263e bf3d 123e
000003a0: f895 2dbe bd9b 323e 0694 0dbe 4299 783e
000003b0: 8940 a9bd 3e98 103e f3fa 37be bed1 4dbe
000003c0: 7f28 36bd 4c46 0dbe 6d87 30be 55fb 78be
000003d0: 25bd 4cbe c8c1 37be bd56 0e3e daf1 303e
000003e0: 3006 3ebe 4738 263e 7029 3f3e 98ca 0ebe
000003f0: 3cc8 3a3e 0b25 b63e 950a e3be 0374 0b3e
