results/env01/ppo/512-256-nodecay-additionalrelu-4000/model.pth (torch, 532943 bytes, 7 tensors)

actor.0.weight f4 [512, 127]
0	0xbd42c590	-0.04755169
1	0x3d066b8a	0.0328174
2	0xb9491235	-0.00019175636
3	0xbd90005d	-0.07031319
4	0x3dba97cf	0.091109864
5	0x3d1c2c35	0.038128097
6	0x3c8f5068	0.017494395
7	0xbdc8a863	-0.09797742
8	0xbd42c6ce	-0.047552876
9	0xbccda83d	-0.025104636
10	0xbddc49d9	-0.10756273
11	0x3d89f562	0.06736256
12	0xbc1e0403	-0.009644511
13	0x3c7aa83e	0.015298901
14	0xbc28e042	-0.0103073735
15	0x3d683251	0.05668861
16	0xbd98315d	-0.0743129
17	0xbbfbf5cf	-0.007689215
18	0xbc5fdbb5	-0.013663222
19	0xbd7bd963	-0.061486613
20	0x3d03a6e9	0.0321416
21	0x3c733ac3	0.014845553
22	0xbd60731c	-0.054797277
23	0xbd2bcbdb	-0.04194246
24	0x3da66474	0.08124629
25	0x3c2ce1c0	0.01055187
26	0xbd486ba2	-0.04893077
27	0x3d854002	0.06506349
28	0xbc28d7e8	-0.010305382
29	0x3d58512f	0.052811798
30	0xbddb5f9f	-0.10711598
31	0x3c84861f	0.016177235
32	0x3d958fa2	0.073027864
33	0xbbccd938	-0.0062514804
34	0xbdefb316	-0.1170408
35	0x3bcb3f28	0.006202597
36	0xbdb2d353	-0.08731713
37	0xbd9efd80	-0.07763195
38	0xbdcf0fed	-0.101104595
39	0x3d299ddd	0.041410316
40	0xbd3d7fb7	-0.046264376
41	0x3d698190	0.057008326
42	0xbdd57f37	-0.10424655
43	0x3ce22cb3	0.027609205
44	0x3d8f50d0	0.06997836
45	0xbdb0a90e	-0.086259946
46	0xbd37a64b	-0.044836324
47	0x3d4a63c3	0.049411546
48	0xbcebab1f	-0.02876812
49	0xbc058e1d	-0.008151558
50	0xbc7e18f0	-0.015508875
51	0xbd822cba	-0.06356187
52	0xbd16a190	-0.03677517
53	0x3d36828a	0.044558086
54	0x3d337d03	0.043820392
55	0xbdae40f3	-0.08508482
56	0x3ddb281f	0.10701012
57	0x3bd1276a	0.0063828724
58	0xbde2707e	-0.110566124
59	0xbd85d904	-0.06535533
60	0xbd240dec	-0.04005234
61	0x3d75b0d3	0.059983086
62	0x3c756e9a	0.014979983
63	0xbd160f1d	-0.036635507
64	0x3c413f7b	0.01179492
65	0x3c6ba62d	0.014382881
66	0x3c870d71	0.016485902
67	0xbdb79c3f	-0.089653485
68	0x3d307a28	0.043085247
69	0xbc03a19f	-0.008034139
70	0xbd4f7941	-0.050652746
71	0xbdc67d14	-0.096918255
72	0x3dacdc38	0.08440441
73	0xbcab291a	-0.020893622
74	0xbdd3a1c7	-0.10333591
75	0x3d41b069	0.04728738
76	0xbd073105	-0.033005733
77	0xbda711df	-0.081577055
78	0xbdd42a4c	-0.1035963
79	0x3d37d8e7	0.04488459
80	0x3d986fdb	0.0744321
81	0xbdd51a06	-0.10405354
82	0xbd96a99c	-0.07356569
83	0x3bea18e2	0.0071440795
84	0xbd7b7206	-0.061388038
85	0x3d073f8d	0.03301959
86	0xbdaaa1cc	-0.083316416
87	0x3989f189	0.00026310634
88	0x3d273c50	0.040829003
89	0x3d513f19	0.051085565
90	0xbd643f42	-0.05572439
91	0x3d72ee0a	0.059309043
92	0xbdb8e7e4	-0.090286046
93	0xbccda0a0	-0.025101006
94	0x3b5c0a5f	0.0033575518
95	0x3d579877	0.052635636
96	0xbd9ae541	-0.07563258
97	0xbda3734c	-0.079809755
98	0xbd112547	-0.03543594
99	0x3d91d235	0.07120172
100	0x3c4d785d	0.012540904
101	0xbdaae932	-0.0834526
102	0x3d2c88d2	0.04212267
103	0x3d9d8b46	0.0769258
104	0x3c9eb930	0.019375414
105	0xbdd2c5e1	-0.10291649
106	0xbbfa7600	-0.007643461
107	0xbd8559e2	-0.065112844
108	0xbcd586c9	-0.026065247
109	0xbd965860	-0.07341075
110	0x3d5ec1c3	0.054384004
111	0xbd61fe33	-0.055174064
112	0x3d5d39f0	0.05401033
113	0xbd8e2955	-0.06941477
114	0xbd963cbd	-0.07335804
115	0xbcffab6a	-0.031209666
116	0xbd9cc271	-0.07654274
117	0x3d445e8a	0.047941722
118	0xbcbd63e8	-0.023118928
119	0xbdb9e437	-0.09076732
120	0xbbbaadf0	-0.0056970045
121	0x3d268e62	0.04066313
122	0xbdbfb979	-0.09361548
123	0xbd247a7f	-0.040155884
124	0xbd9a52d7	-0.07535332
125	0xbda60c23	-0.08107784
126	0x3c9075c6	0.017634284
127	0x3dab5a0d	0.08366785
128	0xbd57f5b8	-0.05272457
129	0x3d17bc4f	0.03704482
130	0xbd9934f9	-0.07480807
131	0x3d8f63a8	0.0700143
132	0xbdbde7e0	-0.09272742
133	0x3ca4333e	0.020043965
134	0x3d5ab420	0.053394437
135	0x3d1ff13b	0.039048415
136	0xbc43c6ea	-0.01194928
137	0xbdd2dd52	-0.1029612
138	0x3d42befd	0.047545422
139	0x3dcf7dc2	0.10131408
140	0xbcf7ed0c	-0.0302644
141	0xbd6f03d9	-0.05835328
142	0x3d4e80cb	0.050415795
143	0x3dd2da05	0.1029549
144	0xbe07dda4	-0.13268143
145	0xbdd5d0b3	-0.10440197
146	0x3d1bdf22	0.038054593
147	0xbc330c0f	-0.010928168
148	0xbbe7d8bb	-0.007075397
149	0x3c7a7842	0.015287461
150	0xbd40128f	-0.0468927
151	0x3da5c4fa	0.08094211
152	0x3d1a4229	0.03766075
153	0xbd8330d0	-0.064057946
154	0xbd8048f0	-0.06263912
155	0xbd14ed28	-0.036358982
156	0x3d8ffb6e	0.07030378
157	0xbd4831c6	-0.048875593
158	0xbd796635	-0.060888488
159	0x3d627d53	0.0552953
160	0xbdfb5cce	-0.122735605
161	0x3d088cb0	0.033337295
162	0xbd97eab4	-0.07417813
163	0xbdd20407	-0.102546744
164	0x3c0dcf3a	0.008655364
165	0xbc06f16a	-0.008236269
166	0xbd57db57	-0.052699413
167	0x3dd47e99	0.10375709
168	0x3d27706d	0.040878702
169	0xbda34036	-0.07971232
170	0xbd43d3c5	-0.04780938
171	0x3d349494	0.044087008
172	0x3d92b832	0.07164039
173	0x3ca1b94f	0.019741682
174	0x3d8bcb38	0.0682587
175	0x3dd7fc2e	0.10546146
176	0x3d183ca0	0.03716719
177	0xbd456df2	-0.048200555
178	0x3c6a71cc	0.014309358
179	0xbcc366b7	-0.02385269
180	0x3d7bbeb1	0.061461154
181	0xbcc5e098	-0.024154946
182	0xbd4df30b	-0.050280612
183	0x3db37c93	0.08763995
184	0xbda0fe23	-0.07860973
185	0xbd8a9791	-0.0676719
186	0xbd8697c0	-0.06571913
187	0x3d23e81c	0.04001628
188	0x3d83c71f	0.06434464
189	0xbc567594	-0.013089556
190	0x3c828c3b	0.015936008
191	0xbd97d14c	-0.07412967
192	0x3ca66ecf	0.02031651
193	0xbb20855a	-0.0024493546
194	0x3d6b52be	0.057451956
195	0xbb050efd	-0.0020303123
196	0x3d188c77	0.037243333
197	0xbdc7ebb3	-0.09761753
198	0xbc0643ca	-0.008194873
199	0xbd541e06	-0.051786445
200	0xbe14b470	-0.14521956
201	0xbd5ba02c	-0.05361955
202	0xbc5980af	-0.0132753095
203	0x3c2bddee	0.010489924
204	0x3d6712fa	0.05641458
205	0xbc37df06	-0.0112226065
206	0xbcccbecb	-0.02499332
207	0xbb447543	-0.002997712
208	0xbd3e4af6	-0.046458207
209	0xba56456f	-0.00081737986
210	0x3d7da8ca	0.061928548
211	0xbdb179fe	-0.08665846
212	0xbd99c627	-0.07508498
213	0xbd334103	-0.043763172
214	0x3d84480f	0.064590566
215	0xbd3a5a20	-0.045496106
216	0xbbd6aec0	-0.0065515935
217	0x3b4aed80	0.0030964315
218	0x3ba770dc	0.0051098894
219	0xbdb594ee	-0.08866297
220	0xbd531938	-0.051537722
221	0xbcbfe957	-0.023426695
222	0x3d1e013d	0.0385754
223	0x3bbbf861	0.005736396
224	0xbd4ef0b0	-0.050522506
225	0xbdb10ff0	-0.08645618
226	0xbda9a4d3	-0.08283391
227	0xbda83cc6	-0.082147166
228	0xbd3952bb	-0.045244914
229	0xbd8c9792	-0.06864847
230	0x3cb6318e	0.022240426
231	0xbd28ac8e	-0.041180186
232	0x3c034af2	0.008013474
233	0x3d11482e	0.035469227
234	0x3c472e78	0.012157075
235	0xbd64e406	-0.055881523
236	0xbd806bb9	-0.062705465
237	0x3ce931d6	0.028466146
238	0xbd38995c	-0.04506813
239	0xbdc5fc72	-0.09667291
240	0x3d0233bc	0.03178762
241	0xbd94b4d4	-0.07261053
242	0x3dab76d1	0.08372272
243	0x3c08629b	0.008324291
244	0xbc08d91b	-0.008352543
245	0xbd2173e8	-0.039417177
246	0x3d47d82f	0.048790153
247	0x3da31aad	0.079640724
248	0xba1450cc	-0.00056577916
249	0xbd1610cf	-0.036637124
250	0x3d3efd38	0.046628207
251	0xbd1eac96	-0.03873881
252	0xbdc05233	-0.09390678
253	0xbbb7411f	-0.00559248
254	0x3daa709b	0.08322259
255	0xbc592f70	-0.013255939

actor.0.bias f4 [512]
0	0xbcb07aa5	-0.021542856
1	0xbdc2ae6a	-0.09505923
2	0xbc4a39b8	-0.012342863
3	0xbd926bd3	-0.07149472
4	0xbd7d9ac9	-0.061915193
5	0x3c5aa055	0.01334389
6	0xbba1780b	-0.0049276403
7	0xbd913110	-0.07089436
8	0x3da5f597	0.08103483
9	0x3cf4a389	0.029863136
10	0xbcd75e77	-0.026290162
11	0x3cc8ad9c	0.024496846
12	0x3af9dc0c	0.0019062771
13	0xbb82f627	-0.003996629
14	0x3dc01792	0.09379496
15	0xbd1ba557	-0.037999477
16	0xbd6f7c4f	-0.05846816
17	0x3d552bb8	0.052043647
18	0x3d8498d2	0.06474461
19	0x3bb93556	0.00565211
20	0xbd4618c5	-0.048363466
21	0x3d0c356b	0.03423063
22	0x3db60e9c	0.08889505
23	0x3c78934a	0.015171835
24	0xbb4a8d35	-0.003090692
25	0xbd41301a	-0.047165014
26	0xbdb1e48f	-0.08686172
27	0x3cd7d00b	0.02634432
28	0xbba6637b	-0.005077777
29	0xbda9714f	-0.08273565
30	0xbc7888e0	-0.015169352
31	0x3d9bf85a	0.07615729
32	0x3c25ade9	0.010112264
33	0x3d12caba	0.035837866
34	0x3c1c14c7	0.009526438
35	0xbd1f1476	-0.038837872
36	0x3d8b86ee	0.06812845
37	0x3c99a126	0.0187536
38	0xbd26944e	-0.040668778
39	0xbda3b467	-0.079933934
40	0x3de88fe9	0.11355574
41	0xbcce86e6	-0.025210809
42	0xbc8137b9	-0.015773641
43	0x3d6cb10d	0.057786036
44	0x3dc8b849	0.098007746
45	0xbd2e5832	-0.04256458
46	0xbd81fc63	-0.06346967
47	0x3d426980	0.047463894
48	0xbdafa9e6	-0.085773274
49	0xbd6871b5	-0.056749064
50	0x3d4bd4b9	0.049763415
51	0xbda15d29	-0.07879097
52	0x3d28fd28	0.041257054
53	0x3d82b71e	0.06382583
54	0x3d08c4f4	0.033390954
55	0x3d0eb90d	0.034844447
56	0x3c916368	0.017747596
57	0x3d3862ad	0.04501598
58	0x3d69e39f	0.057101842
59	0x3d16c6d6	0.03681072
60	0x3d63d07f	0.05561876
61	0xbd612e9a	-0.054976083
62	0x3da6aa1d	0.08137915
63	0xbd361ba6	-0.04445996
64	0xbd6bf4f5	-0.057606656
65	0x3cad84f5	0.021181563
66	0x3d2672d5	0.040636856
67	0xbd6c96ca	-0.05776099
68	0xbd2565c2	-0.040380247
69	0x3cd5c1d0	0.026093394
70	0xbd6a7b8f	-0.05724674
71	0x3bf6088a	0.007508342
72	0xbd0cd33f	-0.034381147
73	0xbda556a6	-0.080731675
74	0xbd79dc9f	-0.061001416
75	0xbd1b56e5	-0.037924666
76	0xbd825801	-0.06364442
77	0xbd2803a7	-0.04101911
78	0x3d4c4cc4	0.049877897
79	0xbb3d9973	-0.0028930574
80	0x3d81f3d6	0.06345336
81	0xbd25038e	-0.040286593
82	0x3d9983e8	0.07495862
83	0x3da87704	0.082258254
84	0x3cb21133	0.021736717
85	0xbcb24793	-0.021762645
86	0x3cb3956a	0.021921832
87	0xbc89212c	-0.01673945
88	0xbcfcfff1	-0.030883761
89	0x3dbf44c1	0.09339286
90	0x3dcfa60f	0.10139095
91	0x3c7a80a4	0.015289459
92	0xbc79946d	-0.015233141
93	0x3d7d69c3	0.06186844
94	0xbca65f32	-0.020309065
95	0x3cc67927	0.024227692
96	0xbb1350b9	-0.0022478534
97	0x39328514	0.00017024978
98	0xbd0787a5	-0.033088345
99	0xbca66847	-0.020313395
100	0x3dc7750b	0.09739121
101	0x3ce14810	0.027500182
102	0x3dca1766	0.09867744
103	0x3cfd7595	0.030939857
104	0x3d9daf36	0.076994345
105	0xbd9d570a	-0.07682617
106	0xbd4cc52f	-0.049992736
107	0xbd50a3de	-0.050937526
108	0x3d46585a	0.048424102
109	0xbdc5cd4d	-0.09658299
110	0xbcf577cc	-0.02996435
111	0x3db8e889	0.090287276
112	0x3bec6d18	0.0072151534
113	0xbd8510e0	-0.06497359
114	0xbdc35477	-0.09537595
115	0x3b4ed295	0.0031558622
116	0x3c6cfc26	0.014464414
117	0x3ca61c8e	0.020277288
118	0x3d3aaeb6	0.045576774
119	0xbc812838	-0.015766248
120	0xbd8231b4	-0.06357136
121	0x3dc68b8c	0.09694585
122	0xbd4c5133	-0.049882125
123	0x3c9f2cde	0.019430574
124	0xbd49f733	-0.049308013
125	0x3d0a8c61	0.033825282
126	0xbd1829d4	-0.037149265
127	0x3d0eb4ff	0.03484058
128	0x3da22004	0.07916263
129	0xbd6c1d11	-0.057644907
130	0x3d75785d	0.05992924
131	0x3d81b233	0.06332817
132	0xbcb7c954	-0.022434868
133	0xbaaae47e	-0.0013038067
134	0xbbd6c90a	-0.0065547274
135	0x3af7de72	0.0018910898
136	0x3c4bcd07	0.012439019
137	0xbb4324a4	-0.0029776478
138	0xbcd02a04	-0.02541066
139	0x3d674a45	0.056467313
140	0xbdb7e92b	-0.0898002
141	0xbcd58e0c	-0.02606871
142	0xbd33c850	-0.043892205
143	0xbd8c6827	-0.06855803
144	0x3cb0d431	0.021585556
145	0xbc1114f1	-0.0088550905
146	0x3c56956b	0.013097147
147	0x3ccfa34f	0.025346426
148	0x3d77c026	0.06048598
149	0x3d5e2550	0.054234803
150	0x3d79ed0e	0.06101709
151	0x3b856547	0.004070911
152	0x3c9a22dd	0.018815452
153	0xbd555b3c	-0.05208896
154	0xbd84f6c7	-0.064923815
155	0xbd0080c4	-0.0313728
156	0xbcfec4e1	-0.031099739
157	0x3c4e4f39	0.01259213
158	0x3d84eafd	0.06490133
159	0xbda10272	-0.078617945
160	0x3c8ca4dd	0.017168457
161	0x3b9b72b8	0.0047439
162	0x3c2ac750	0.010423496
163	0xbd678c2f	-0.056530174
164	0xbd50d157	-0.050980892
165	0x3da681ac	0.08130202
166	0x3cbd4c0d	0.023107553
167	0x3cf88765	0.030337999
168	0xbd2f1a7b	-0.042749863
169	0xbd615f61	-0.0550226
170	0x3c2139bf	0.009840428
171	0xbdaefc64	-0.085442334
172	0xbd11bddc	-0.035581455
173	0x3d365cd3	0.044522118
174	0x3d92248c	0.07135877
175	0xbd435c9b	-0.047695737
176	0xbd5d2a72	-0.053995557
177	0xbde8ccdd	-0.113671996
178	0xba437b2a	-0.00074570125
179	0x3d96ecff	0.07369422
180	0x3d466f2c	0.048445866
181	0xbbb23b5f	-0.0054392065
182	0xbc8c6924	-0.017139979
183	0x3c9a35d7	0.018824501
184	0x3d2c5e26	0.042081974
185	0x3d819fb5	0.0632929
186	0xbb78ac87	-0.0037944631
187	0xbd95ee40	-0.07320833
188	0x3c872e1a	0.016501475
189	0x3d8dc247	0.06921821
190	0xbca1b396	-0.019738954
191	0xbd213283	-0.039354812
192	0x3d885b1c	0.06658003
193	0xbc1a78d5	-0.009428223
194	0x3d96a33b	0.073553525
195	0x3d98dafb	0.07463642
196	0x3d3a6272	0.04550404
197	0xbd32178b	-0.043479484
198	0xbc8e49f1	-0.017369242
199	0x3ce63be6	0.028104734
200	0xbd1fb655	-0.038992245
201	0xbcf9c910	-0.030491382
202	0x3b9bad8f	0.0047509144
203	0x3d29696f	0.041360315
204	0xbd146dde	-0.03623759
205	0x3db25d9a	0.08709259
206	0xbd4cbc08	-0.049984008
207	0x3d7ab425	0.061206955
208	0xbd83be40	-0.06432772
209	0xbd0fa799	-0.035071943
210	0x3ca24039	0.019806014
211	0x3ceec88f	0.029148368
212	0xbb98f469	-0.004667808
213	0xbd4b7aed	-0.049677778
214	0xbcad8506	-0.021181595
215	0x3d2915f5	0.041280705
216	0x3cab0965	0.020878503
217	0xbbddf8cb	-0.006774043
218	0x3bb85db0	0.005626403
219	0x3c189200	0.009312153
220	0x3d70673d	0.058692206
221	0x3d3575f7	0.044301953
222	0xbd72043e	-0.059086077
223	0x3bd131cb	0.0063841096
224	0xbd8d819d	-0.069094874
225	0xbd6acfbf	-0.05732703
226	0xbcdfa9e5	-0.027302692
227	0x3d98347d	0.07431886
228	0x3cef9839	0.02924739
229	0xbd69e226	-0.057100438
230	0x3c8d7a29	0.017270165
231	0xbc3960c3	-0.011314574
232	0xbce1ff07	-0.027587427
233	0xbc81d98a	-0.015850801
234	0xbd0f5589	-0.034993682
235	0x3d0b3122	0.033982404
236	0xbd894abf	-0.0670371
237	0x3cd8f675	0.026484707
238	0xbd0fd892	-0.035118647
239	0x3d84b83d	0.06480453
240	0xbd61cc73	-0.05512662
241	0xbccd598a	-0.02506711
242	0x3be36180	0.006939113
243	0x3d06b22e	0.03288477
244	0x3cef0ca4	0.029180832
245	0xbd0f8444	-0.035038248
246	0xbd52fda2	-0.051511414
247	0xbd901586	-0.07035355
248	0xbcdad1fb	-0.026711455
249	0x3d24e2ee	0.04025548
250	0xbc763c27	-0.01502899
251	0x3ce42d9c	0.02785378
252	0xbcb3addc	-0.021933489
253	0xbb2c5ee9	-0.0026301688
254	0x3d16091a	0.036629774
255	0xbd0c8dc4	-0.034314886

actor.2.weight f4 [2, 512]
0	0xbd171331	-0.036883537
1	0x3cb24bd1	0.021764668
2	0x3cd2e24e	0.025742676
3	0xbd1af4df	-0.037831184
4	0xbd20e2a7	-0.039278653
5	0x3d203135	0.039109427
6	0x3cc1e267	0.023667527
7	0x3cdd3f8c	0.02700784
8	0xbba795e7	-0.0051143053
9	0xbcc96000	-0.02458191
10	0xbd1775e2	-0.036977656
11	0xbd108e7d	-0.035292137
12	0xbd2ff477	-0.04295775
13	0xbc8982c6	-0.01678599
14	0x3d1a0f71	0.037612382
15	0xbc86dcdd	-0.016462738
16	0x3c9afd2c	0.01891955
17	0x3cf06a70	0.029347628
18	0x3bc2423d	0.0059283064
19	0x3d080150	0.033204377
20	0x3bb99cf2	0.0056644613
21	0xbc2e42a7	-0.010636008
22	0x3d1fcef7	0.039015736
23	0xbd04ec7b	-0.032452088
24	0xbbd29703	-0.0064266934
25	0xbca49fa3	-0.020095652
26	0xbd020e03	-0.031751644
27	0x3ca75c90	0.02042988
28	0x3d1307cb	0.035896104
29	0xbd4ebaec	-0.05047123
30	0x3ce2be70	0.027678698
31	0xbcbd770e	-0.023128059
32	0xbcc62248	-0.024186268
33	0xbcaf6834	-0.021411993
34	0xbd22572c	-0.039633915
35	0x3d106764	0.03525485
36	0xbcd9a5e8	-0.026568368
37	0xbcbb41f3	-0.022858595
38	0x3d290bb0	0.04127091
39	0xbc34020f	-0.010986819
40	0xb9d59a27	-0.00040741378
41	0xbd4c94d1	-0.04994661
42	0x3b0ee940	0.0021806508
43	0xbcb72a22	-0.022358958
44	0x3d01a9a4	0.031655923
45	0x3d0dccc1	0.034619097
46	0xbcb01853	-0.021495974
47	0xbd07f090	-0.033188403
48	0x3cdc3e4b	0.026885172
49	0x3c99508e	0.01871517
50	0xbd2c34c2	-0.0420425
51	0x3a6685e9	0.0008793758
52	0x3afc588a	0.0019252461
53	0x3cb06767	0.021533681
54	0xbd04848a	-0.03235296
55	0x3cbb45d4	0.022860445
56	0xbaf8e07e	-0.0018987802
57	0x3d20243e	0.039097063
58	0xbd1a5b48	-0.03768471
59	0x3c1ab544	0.009442631
60	0x3cb5bb96	0.022184175
61	0x3d1d6f90	0.038436472
62	0xbd2e76ed	-0.042593885
63	0x3cdd249d	0.026994998
64	0xbd0706bb	-0.032965403
65	0x3a58697a	0.00082554633
66	0x3cc6b8e1	0.024258079
67	0x3c92b831	0.017910095
68	0x3ccdb15a	0.025108982
69	0xbcdeea64	-0.027211376
70	0xbcfc7197	-0.030815883
71	0xbc278890	-0.01022543
72	0x3c5c8ab5	0.013460805
73	0x3d0e51b7	0.034745898
74	0x3d2df10b	0.042466205
75	0x3c697ce4	0.014250968
76	0xbb89c50d	-0.0042043985
77	0xbcdb3d9a	-0.026762772
78	0xbd182bc7	-0.037151124
79	0xbcb8ee80	-0.022574663
80	0x3b8a953d	0.0042292164
81	0xbb5f53f7	-0.0034077147
82	0xbc7fe63c	-0.015618857
83	0x3b5e85bb	0.0033954221
84	0xbca11469	-0.019663053
85	0x3d1861b5	0.037202556
86	0xbd1412df	-0.03615081
87	0x3d08d9ac	0.033410713
88	0xbd33f6c6	-0.043936513
89	0x3ce725b9	0.02821623
90	0x3d1f3d1f	0.03887665
91	0x3cce7257	0.025201006
92	0xbd167ae8	-0.036738306
93	0xbcaf20cd	-0.021377945
94	0x3cdef753	0.027217543
95	0x3ccd99cf	0.025097756
96	0xbcd8558a	-0.026407976
97	0xbbf5e99f	-0.0075046564
98	0xbd1c9cb7	-0.038235392
99	0x3c8b30fe	0.016991135
100	0xbbf78c79	-0.0075545874
101	0x3c9459b2	0.018109176
102	0xbc842572	-0.016131137
103	0x3d105f2f	0.035247024
104	0x3c1b003e	0.009460507
105	0x3cabf714	0.02099184
106	0xbca0e89b	-0.019642165
107	0xbd18cf1c	-0.03730689
108	0x3b5691a0	0.0032740608
109	0xbd00430d	-0.031313945
110	0xbd1276e8	-0.03575793
111	0x3cbb0902	0.022831444
112	0x3d0f4377	0.03497645
113	0x3bbc4c08	0.0057463683
114	0xbd137dbe	-0.03600859
115	0x3b7e6ed7	0.003882339
116	0xbc7ac5e4	-0.01530597
117	0xbcdec0f1	-0.027191611
118	0x3cb7b07f	0.022423027
119	0x3c69a425	0.0142603265
120	0xbb0f3168	-0.0021849517
121	0xbca4ccd1	-0.020117195
122	0xbcae07a3	-0.021243876
123	0x3d2733ed	0.040821005
124	0x3b7ceb3a	0.0038592354
125	0xbd1c7407	-0.03819659
126	0x3c8aa1fc	0.016922943
127	0xbc7087d9	-0.014680826
128	0x3cb55087	0.022133125
129	0x3c80e66d	0.015734876
130	0x3d22816c	0.039674208
131	0xbc058aef	-0.0081508
132	0x3c7216f3	0.014775979
133	0xbd34d1d8	-0.044145435
134	0xbcad26f7	-0.021136744
135	0xbd2e2906	-0.04251959
136	0xbd308647	-0.043096807
137	0x3b209bb1	0.0024506862
138	0x3ccc7b86	0.024961244
139	0xbd2c39a9	-0.042047177
140	0xbc64d41b	-0.0139665855
141	0x3bceebd3	0.0063147335
142	0x3ce4f729	0.027949886
143	0x3c794626	0.015214479
144	0x3d353362	0.044238456
145	0x3a5e0787	0.00084697496
146	0x3cd1abe1	0.025594654
147	0xbd29632e	-0.04135435
148	0x3d0de6cd	0.034643937
149	0x3d038ba1	0.032115582
150	0xbce338db	-0.027737072
151	0x3cd65683	0.026164299
152	0xbd24257e	-0.040074818
153	0xbcace582	-0.021105532
154	0x3ccd603f	0.025070308
155	0xbb70a757	-0.0036720836
156	0xbcdc9bdd	-0.02692979
157	0x3b097c4e	0.0020978632
158	0x3c5f5a26	0.013632333
159	0xbcec0408	-0.028810516
160	0xbcc0d389	-0.023538368
161	0x3cd0fd9e	0.02551156
162	0x3ca271ae	0.019829597
163	0x3d02b557	0.03191122
164	0x3c260d96	0.010135075
165	0xbc3c8b26	-0.011507785
166	0x3d0853ba	0.033282973
167	0xbc8b3a06	-0.016995441
168	0x3d2af39a	0.041736223
169	0x3c7d14d0	0.015446857
170	0x3cb67761	0.022273721
171	0x3d266ce4	0.04063119
172	0x3ce17240	0.027520299
173	0xbd1d6f76	-0.038436376
174	0xbd122988	-0.03568414
175	0xbc89b7a9	-0.016811209
176	0x3c93205e	0.01795977
177	0x3d0c3daf	0.034238514
178	0xbce2f67a	-0.02770542
179	0x3ce561a7	0.028000666
180	0x3cfbf3f9	0.030755984
181	0xbcff9d22	-0.031202856
182	0xbbb5625f	-0.0055354084
183	0x3c38bf1b	0.011276032
184	0xba9ad3a1	-0.0011812338
185	0xbcab56f2	-0.020915482
186	0xbc758147	-0.014984435
187	0x3c71e6dc	0.014764514
188	0xbcd7a442	-0.026323441
189	0xbd2c3694	-0.042044237
190	0xbcd5dda3	-0.026106661
191	0xbcf9dfbf	-0.030502198
192	0x3d0644f3	0.0327806
193	0xbb5f904e	-0.0034113112
194	0xbd495dab	-0.049161594
195	0x3d21abcc	0.03947048
196	0xbbbac4f3	-0.0056997477
197	0x3c076623	0.008264097
198	0xbcc569bc	-0.02409827
199	0xbcd35115	-0.025795499
200	0xbc8a6e3c	-0.016898267
201	0xbb91bbbb	-0.004447428
202	0x3c81a073	0.015823578
203	0x3b69f35b	0.003569803
204	0x3a60fc5d	0.0008582527
205	0xbd2750bb	-0.040848475
206	0x3c206433	0.009789514
207	0x3be3fa44	0.006957324
208	0xbd25717e	-0.040391438
209	0x3d076c58	0.03306231
210	0x3c2a4ed1	0.010394768
211	0x3c6d13f7	0.014470092
212	0x3cfb3b04	0.03066779
213	0x3c85039a	0.016237069
214	0xbc7c3fa0	-0.015396029
215	0xbd1db5f6	-0.03850361
216	0xbcbd0904	-0.023075588
217	0xbc312426	-0.010811841
218	0x3cf0cfd6	0.029395979
219	0x3c87439b	0.016511729
220	0xbbe841db	-0.0070879287
221	0xbc0d7716	-0.008634349
222	0x3caddc08	0.021223083
223	0x3ba6c36a	0.005089213
224	0x3cbd3f45	0.023101458
225	0xbd19e324	-0.037570134
226	0x3c9a47a2	0.018832985
227	0x3be73081	0.0070553427
228	0x3b0a83ea	0.0021135756
229	0x3cf2354b	0.029566428
230	0x3c2121db	0.009834732
231	0x3d26fb87	0.04076722
232	0xbc74c77f	-0.014940142
233	0xbd14cca9	-0.03632799
234	0x3d03bb3f	0.032160994
235	0xbd23238e	-0.03982883
236	0x3c5d1e47	0.013495988
237	0xbcc4eb07	-0.024037851
238	0xbd05572e	-0.032553844
239	0xbbff5d3c	-0.007793097
240	0x3ca01ed2	0.019545946
241	0x3ca63c79	0.020292507
242	0xbca9c115	-0.020721951
243	0x3a87772f	0.0010335202
244	0xbd2773cb	-0.040881913
245	0xbc850d57	-0.016241712
246	0xbd3d8451	-0.046268765
247	0xbc9b04ce	-0.01892319
248	0x3d256472	0.040378995
249	0xbd097408	-0.03355792
250	0x3ca84f0f	0.02054551
251	0xbc073cc5	-0.008254235
252	0x3c891eed	0.01673838
253	0x3d2844d1	0.041081253
254	0x3bce30ec	0.006292453
255	0x3c71d668	0.014760591

actor.2.bias f4 [2]
0	0x3c563214	0.013073463
1	0x3d3ec8e6	0.04657831

critic.0.weight f4 [512, 127]
0	0xbe04b04e	-0.1295788
1	0xbd92386d	-0.071396686
2	0xbce0b27f	-0.027428864
3	0xbd53faf6	-0.051753007
4	0xbe67dea7	-0.22643529
5	0xbd4bc208	-0.04974559
6	0x3d852236	0.06500666
7	0xbdc1bb36	-0.09459536
8	0x3c0ae04d	0.008476329
9	0x3cc1f430	0.023676008
10	0xbca9d92f	-0.020733444
11	0xbc82fed8	-0.01599066
12	0xbde1b793	-0.11021342
13	0x3d3e66ca	0.046484746
14	0xbbe673cd	-0.0070328475
15	0xbd808397	-0.06275099
16	0xbd9a0bc4	-0.07521775
17	0xbcf951dc	-0.030434541
18	0x3c45668a	0.012048373
19	0xbd00432c	-0.03131406
20	0xbd93db83	-0.07219603
21	0x3d5b6470	0.05356258
22	0x3d8ac550	0.067759156
23	0xbc980d20	-0.018560946
24	0xbe50c31f	-0.20386933
25	0x3cf60520	0.03003174
26	0x3d8b7b44	0.068106204
27	0x3d8b7b2c	0.068106025
28	0xbe2d5192	-0.16925648
29	0xbda38404	-0.07984164
30	0x3aeae0b3	0.0017919749
31	0xbc974adc	-0.018468313
32	0xbe69e9fc	-0.22843164
33	0xbb1bd602	-0.0023778682
34	0xbb4f76b9	-0.0031656458
35	0x3d9161ff	0.070987694
36	0xbe0a0322	-0.13477758
37	0x3d8cfbdc	0.06883976
38	0xbdb06732	-0.08613433
39	0xbd10d318	-0.035357565
40	0xbdbc3d11	-0.09191335
41	0xbdca3173	-0.09872713
42	0xbcfbdd39	-0.030745136
43	0x3da1807c	0.078858346
44	0xbe3aa972	-0.18228701
45	0xbb67e7a2	-0.0035385867
46	0xbd60f969	-0.054925356
47	0x3d6fa148	0.05850342
48	0xbe185d0d	-0.14879246
49	0xbd6cfd05	-0.057858486
50	0xbcaffb3e	-0.021482106
51	0x3d83d564	0.064371854
52	0xbe80f24c	-0.25184858
53	0xbccdfedf	-0.025145946
54	0x3c6a9dcc	0.014319848
55	0x3d2bf1b7	0.041978564
56	0xbe882ae4	-0.26595223
57	0x3d7a23a7	0.061069157
58	0x3d2b3e44	0.041807428
59	0x3d58aafb	0.052897435
60	0xbe9b2549	-0.30301884
61	0x3d1ade46	0.037809633
62	0x3d75894f	0.0599454
63	0xbe1e7c60	-0.15477133
64	0xbdb51a07	-0.08842855
65	0x3d8c9e48	0.06866127
66	0x3c72e86c	0.0148259215
67	0xbce68915	-0.028141538
68	0xbe85912d	-0.26087323
69	0x3d9c54d8	0.0763337
70	0xbd3b97c2	-0.045799024
71	0xbc0d631b	-0.008629586
72	0xbd1dce31	-0.038526718
73	0x3c685276	0.0141798165
74	0xbd2cac1d	-0.042156328
75	0x3d9e0e17	0.07717531
76	0xbe95232d	-0.291284
77	0xbc0af35e	-0.008480875
78	0x3cb60ee4	0.022223897
79	0xbd310db8	-0.043225974
80	0xbdbb9ea2	-0.09161116
81	0xbca2098c	-0.019779943
82	0xbbd4494f	-0.0064784656
83	0xbd76d808	-0.060264617
84	0xbe26d882	-0.16293529
85	0xbdc9ef62	-0.09860112
86	0x3d6762e6	0.0564908
87	0x3d55a1c8	0.05215624
88	0x3d3dbb1b	0.046321016
89	0x3c911b3e	0.017713185
90	0xbd813f53	-0.06310906
91	0x3d608968	0.05481854
92	0x3d3cd27b	0.046099167
93	0xbd427ce1	-0.047482375
94	0xbd924aa6	-0.07143144
95	0x3dcda78c	0.10041723
96	0xbd476d31	-0.048688117
97	0xbdf6ad2d	-0.120447494
98	0x3d170a0b	0.036874812
99	0x3cb417d6	0.021984022
100	0xbd43dbdf	-0.047817107
101	0x3d242917	0.04007825
102	0xbd40ba87	-0.047052886
103	0x3d40bac4	0.047053114
104	0x3d8d2f5e	0.068938
105	0x3c7d009f	0.015442043
106	0xbcf225c9	-0.029559033
107	0x3dc9d4dc	0.09855053
108	0x3d0c1ec4	0.034209028
109	0x3ce20254	0.027589
110	0xbc80e321	-0.015733304
111	0xbde48432	-0.11158027
112	0xbc300d3d	-0.010745344
113	0xbb69c5cd	-0.0035670877
114	0x3d0d9ab0	0.03457135
115	0xbd2adba1	-0.04171336
116	0xbd4d9f92	-0.050201006
117	0x3d17cf8a	0.03706316
118	0x3cda144c	0.026621006
119	0xbe09506e	-0.13409588
120	0x3c88d246	0.016701829
121	0x3ccdc5a8	0.025118664
122	0xbc276b13	-0.0102184
123	0xbde14c4c	-0.110008806
124	0xbc9a0725	-0.018802235
125	0x3d5350fa	0.051590897
126	0x3cfe3b58	0.031034157
127	0xbdd0e355	-0.1019961
128	0x3de991c6	0.11404757
129	0x3c9ad5bf	0.01890075
130	0x3cfb8924	0.030705042
131	0xbd2ff0d8	-0.042954296
132	0xbc374bb0	-0.011187479
133	0x3d9068fe	0.07051276
134	0x3dafff03	0.085935615
135	0xbb67cc64	-0.003536963
136	0x3b8e1847	0.00433639
137	0xbd0e5c24	-0.03475584
138	0xbcb191cb	-0.021675965
139	0x3daaaf59	0.08334226
140	0x3da649d6	0.08119552
141	0x3bface74	0.0076540057
142	0x3bd5920e	0.006517655
143	0xbcd5d448	-0.0261022
144	0xbd07fa07	-0.03319743
145	0x3c993aca	0.01870479
146	0xbd529f17	-0.05142125
147	0x3dc70ce1	0.09719253
148	0xbd2847fb	-0.04108427
149	0xbda6f1b4	-0.0815157
150	0xba92d4a7	-0.0011202291
151	0x3e1dbba2	0.15403607
152	0xbd7443ef	-0.0596351
153	0xbba640a5	-0.005073624
154	0x3d1e95c7	0.038717058
155	0x3dc5d89b	0.09660455
156	0xbcdd8f95	-0.027046004
157	0xbd011bd1	-0.03152067
158	0x3c08c52e	0.008347793
159	0x3e3d039f	0.18458413
160	0xbd59e245	-0.053194303
161	0xbd13ee4a	-0.036115922
162	0x3d0b074a	0.0339425
163	0x3e306dce	0.17229387
164	0xbda3d228	-0.079990685
165	0xbd83a0c6	-0.064271495
166	0xbd84bf12	-0.06481756
167	0x3e138070	0.14404464
168	0x3d716080	0.05892992
169	0xbdbd4129	-0.09240944
170	0xbd619157	-0.055070248
171	0x3d96bf83	0.07360747
172	0x3ca86297	0.020554824
173	0xbdac729b	-0.08420297
174	0xbdd9b1c0	-0.10629606
175	0x3e2a8dce	0.16655657
176	0x3d1680bd	0.03674387
177	0x3d8c20ad	0.0684217
178	0xbdc33eeb	-0.09533485
179	0x3e029747	0.1275302
180	0xbd652824	-0.055946484
181	0x3d86e030	0.06585729
182	0xbc35a930	-0.011087701
183	0x3db308f8	0.08741945
184	0x3d82cd85	0.06386856
185	0xbdbdcf00	-0.09267998
186	0xbd20302a	-0.039108433
187	0xbd7c2f83	-0.06156875
188	0xbd0e3430	-0.03471774
189	0x3dc5657a	0.09638496
190	0xbd2cec78	-0.0422177
191	0xbdd9400d	-0.1060792
192	0x3d16e7ec	0.03684227
193	0xbcd8d48c	-0.026468538
194	0x3be411ba	0.006960121
195	0xbdebbe34	-0.11510888
196	0xbcba7a9a	-0.02276354
197	0xbda6441b	-0.08118459
198	0x3d4df552	0.050282784
199	0xbdb033d2	-0.08603634
200	0x3b958c04	0.0045638103
201	0xba3bba3a	-0.0007161234
202	0x3d451f0f	0.048125323
203	0xbe3fc5d5	-0.1872781
204	0x3cf4f89b	0.0299037
205	0xbc18cd76	-0.009326329
206	0x3ddbbdfe	0.107295975
207	0xbce46a6a	-0.027882773
208	0x3cd817b0	0.026378483
209	0xbb2ecbf6	-0.0026671863
210	0x3df42083	0.119202636
211	0xbd7da0de	-0.061920993
212	0x3d93ddbc	0.07220027
213	0xbdb1608e	-0.086609945
214	0x3bfc7784	0.007704677
215	0x3c38a7ff	0.011270522
216	0x3d04436d	0.032290865
217	0xbd3bc394	-0.045840815
218	0x3d9d4975	0.076800264
219	0xbde84486	-0.11341195
220	0xbd3c7629	-0.046011124
221	0xbccdfa5b	-0.025143793
222	0x3daa940d	0.0832902
223	0xbe0a2553	-0.134908
224	0x3d7f382c	0.06230943
225	0xbda4b9b4	-0.080432326
226	0x3ca22ae4	0.019795842
227	0xbe0d4e35	-0.13799365
228	0xbc3d6496	-0.011559626
229	0xbd9283da	-0.07154055
230	0xbc871c22	-0.016492907
231	0xbd6a9066	-0.057266615
232	0xbd3d4786	-0.04621079
233	0x3d684340	0.05670476
234	0xbb782cf7	-0.0037868598
235	0xbe3bc444	-0.18336588
236	0xbd9246b8	-0.07142395
237	0xbd9a5ea3	-0.07537582
238	0x3e0da912	0.13834026
239	0xbe1feffd	-0.15618892
240	0xbd70505a	-0.05867038
241	0xbd6f3a75	-0.05840536
242	0x3da7a97d	0.08186624
243	0xbd9be0d5	-0.07611243
244	0x3d777c03	0.060421
245	0xbdb479ed	-0.08812318
246	0x3df482b1	0.1193899
247	0xbe023bbe	-0.12718102
248	0xbd26f6a4	-0.04076256
249	0xbdaf6e91	-0.08566011
250	0x3e54ebba	0.20793048
251	0xbe566698	-0.20937574
252	0xbd948a8e	-0.0725299
253	0x3c1ecfeb	0.009693126
254	0xbde3042d	-0.11084781
255	0xbd9dc499	-0.07703514

critic.0.bias f4 [512]
0	0x3d637814	0.055534437
1	0x3d1ab76a	0.037772574
2	0x3cb1ce77	0.021704895
3	0xbdaf4f87	-0.085600905
4	0x3b192264	0.0023366446
5	0xbdaa3ab1	-0.08311976
6	0x3d674d13	0.056469988
7	0x3a27420f	0.0006380388
8	0x3d13bfd6	0.03607162
9	0x3d271e4f	0.04080039
10	0xbd5ca1c0	-0.053865194
11	0xbc9c5676	-0.019084197
12	0xbd185e4a	-0.037199296
13	0xbcac8e2e	-0.02106389
14	0x3da6b5f0	0.081401706
15	0x3c85bdc0	0.016325831
16	0x3c3b9897	0.0114499545
17	0xb8efbe5e	-0.00011431867
18	0xbbcf85e1	-0.0063330983
19	0x3db3b97a	0.08775611
20	0x3db2c2c6	0.08728556
21	0x3d40bd7a	0.0470557
22	0xbae04844	-0.0017111381
23	0x3d8d874a	0.0691057
24	0x396cfebf	0.00022601614
25	0xbd59d1b2	-0.053178497
26	0xbc05bf5f	-0.008163302
27	0x3d903e77	0.07043164
28	0xbda4c28e	-0.08044921
29	0xbda422d8	-0.080144584
30	0x3d004bcb	0.03132228
31	0xbd68356d	-0.056691576
32	0xbdab1a94	-0.08354679
33	0x3ccab347	0.02474369
34	0x3c26ea5a	0.01018771
35	0xbae5d041	-0.0017533378
36	0x3c8356da	0.016032625
37	0x3d0e39e1	0.034723166
38	0xbd4ba179	-0.04971454
39	0x3d0899ea	0.03334991
40	0xbd1f569d	-0.03890096
41	0x3d2b223b	0.04178069
42	0xbb8d2e65	-0.004308509
43	0xbc35cf7b	-0.0110968305
44	0xbd855ea3	-0.06512191
45	0x3d800eab	0.06252798
46	0x3d8726b3	0.06599178
47	0xbd311dbc	-0.043241248
48	0x3b8b57c0	0.004252404
49	0xbb9619d8	-0.0045807175
50	0x3d78387c	0.060600743
51	0xbd836b6d	-0.06416974
52	0xbb7d8760	-0.0038685426
53	0x3d8af89c	0.067857
54	0xbd5797f5	-0.052635152
55	0x3d640e93	0.05567796
56	0x3caebc62	0.021330062
57	0xbd649842	-0.055809267
58	0xbd80ca42	-0.062885776
59	0x3d95f9e5	0.07323054
60	0xbd2332d4	-0.039843395
61	0x3cffea15	0.031239549
62	0x3d91ee4c	0.0712553
63	0x3d4ffd38	0.050778598
64	0xbcbe0dad	-0.02319988
65	0xbd7125bc	-0.058873877
66	0x3da3577e	0.07975672
67	0x3c8f7b2f	0.017514793
68	0x3c5b4c06	0.013384825
69	0x3d9cc19c	0.076541156
70	0x3d1dbfd6	0.038513027
71	0x3d113211	0.035448138
72	0xbd419a5a	-0.04726634
73	0xbd6f87cc	-0.058479115
74	0xba6ba7d3	-0.00089895463
75	0xbd0c5592	-0.034261294
76	0x3d8fc00c	0.07019052
77	0xbc5181ad	-0.012787265
78	0xbd5d93bd	-0.054095972
79	0xbc1f690d	-0.009729636
80	0x3d486128	0.04892078
81	0x3db5e7cc	0.08882102
82	0x3d7c8694	0.06165178
83	0x3d66890e	0.05628305
84	0x3d42dc96	0.04757365
85	0xbcfa21bd	-0.030533666
86	0xbdcfd806	-0.10148625
87	0x3c5a2a5a	0.013315761
88	0xb9156719	-0.00014248154
89	0x3cb9a729	0.022662716
90	0xbd664fa8	-0.05622831
91	0xbd597870	-0.053093374
92	0xbd14d0de	-0.036332004
93	0x3d8e375b	0.06944152
94	0xbd540b8f	-0.051768836
95	0x3d2854ab	0.04109637
96	0xbcb3c34d	-0.021943713
97	0xbd8b94e5	-0.06815509
98	0xbce9e2fc	-0.028550617
99	0x3d80771b	0.062727176
100	0x3d7fb571	0.062428895
101	0x3d6030ce	0.054734044
102	0x3d0f4723	0.03497995
103	0x3cfae898	0.030628487
104	0xbcf38eaa	-0.029731113
105	0x3c281e7a	0.010261172
106	0x3c52e5b9	0.012872153
107	0x3d2f8704	0.04285337
108	0xbd9ce31c	-0.07660505
109	0x3d838776	0.064223215
110	0x3c9dbc16	0.019254725
111	0x3c61bf20	0.013778478
112	0x3d541a39	0.05178282
113	0x3d7f1958	0.06228003
114	0xbbadd73c	-0.005305199
115	0x3d04b515	0.032399256
116	0xbdd0fb33	-0.102041624
117	0x3bf3e131	0.0074426164
118	0x3d676575	0.05649324
119	0x3d610a15	0.054941256
120	0x3dbd94f4	0.09256926
121	0xbc1a91dd	-0.009434191
122	0x3da1a518	0.07892817
123	0xbd26b693	-0.04070146
124	0xbbebd756	-0.007197301
125	0xbd7cf0b5	-0.061752994
126	0x3d9edf2d	0.07757411
127	0x3cca909e	0.024727162
128	0x3be5f7a3	0.007018046
129	0xbc6e23a0	-0.014534861
130	0xbd57ae5b	-0.052656513
131	0x3d7ec198	0.062196344
132	0xbd364cba	-0.044506766
133	0xbd809395	-0.06278149
134	0x3d470ede	0.048598163
135	0xbc7ce39e	-0.015435128
136	0xbc8450b3	-0.016151762
137	0x3b13c4f7	0.002254782
138	0x3da06a5c	0.078327864
139	0x3c95885d	0.0182535
140	0xbd82d794	-0.063887745
141	0x3c8fe3d6	0.017564695
142	0x3cb8d451	0.022562178
143	0xbc197de5	-0.0093683945
144	0x3d639160	0.055558562
145	0x3daa667d	0.08320329
146	0x3d6d4364	0.057925597
147	0x3d84372f	0.06455838
148	0x3cb29eeb	0.021804294
149	0xbd527b6a	-0.051387228
150	0xbd8fc555	-0.0702006
151	0xbcf23a49	-0.029568808
152	0x3d29962f	0.04140299
153	0xbcca27cd	-0.024677182
154	0x3d76754d	0.06017046
155	0xbb0a65c3	-0.0021117784
156	0x3d077436	0.03306981
157	0xbd419f07	-0.0472708
158	0x3d33e08d	0.04391532
159	0xbd41b144	-0.047288194
160	0xbd9fd193	-0.07803645
161	0x3c756c53	0.01497944
162	0xbdb52a41	-0.0884595
163	0xbdaa0ac2	-0.08302833
164	0xbcc8a81c	-0.024494223
165	0x3dbad651	0.09122909
166	0xbd47e2a4	-0.048800126
167	0xbd65b16c	-0.056077406
168	0x3dc38461	0.09546734
169	0x3d031807	0.032005336
170	0xbc1d3735	-0.009595682
171	0xbbc9ee6b	-0.006162455
172	0x3d69a5de	0.05704295
173	0xbaf92e06	-0.0019010908
174	0xbd0ca540	-0.034337282
175	0x3d819879	0.0632791
176	0x3d949a66	0.07256012
177	0xbd8efed0	-0.069821954
178	0x3d2f7eb4	0.042845443
179	0xbd6b2ece	-0.057417683
180	0xbdc1e729	-0.094679184
181	0xbc9bb061	-0.019005002
182	0xbd7a98c0	-0.06118083
183	0xbcb45a61	-0.022015752
184	0x3d36d74d	0.04463892
185	0x3cca7712	0.02471498
186	0x3b3f41d2	0.002918352
187	0x3d749b7d	0.059718598
188	0x3cc26de1	0.023734035
189	0xbccdb08e	-0.025108602
190	0xbc98be56	-0.018645447
191	0x3daa5e34	0.08318749
192	0xbcfaec68	-0.030630305
193	0x3d0be179	0.034150574
194	0xbcfe8f14	-0.031074084
195	0xbd2c27cc	-0.04203014
196	0xbd1e1175	-0.038590867
197	0xbd856f35	-0.06515352
198	0xbdb07f1c	-0.08617994
199	0xbd104a71	-0.035227243
200	0x3d6c0618	0.057623
201	0xbccac6e5	-0.024753043
202	0x3c9784ee	0.018496003
203	0xbd7d7b0d	-0.06188493
204	0xbdb6b9e6	-0.08922176
205	0xbd57efd5	-0.052718956
206	0x3c07d91b	0.008291508
207	0x3b712860	0.0036797747
208	0x3d818a67	0.06325226
209	0x3cdc1bf8	0.026868805
210	0x3d2e9549	0.04262284
211	0xbc2955b5	-0.010335376
212	0x3d8593b2	0.06522311
213	0xbc87a180	-0.016556501
214	0xbc9f9694	-0.019480981
215	0x3d21efbf	0.03953528
216	0x3c2e4c99	0.0106383795
217	0x3da3d168	0.079989254
218	0xbd7e756b	-0.062123697
219	0xbd9e508f	-0.07730209
220	0x3c2a7610	0.010404125
221	0x3cf02159	0.029312776
222	0xbdba55d9	-0.090984054
223	0xbd364e44	-0.044508234
224	0x3d8fa84b	0.07014521
225	0xbcfcbca0	-0.030851662
226	0xbdd70862	-0.10499646
227	0x3d4f33b0	0.050586402
228	0x3d3805ea	0.044927515
229	0xbd55cdfd	-0.0521984
230	0x3d293a82	0.041315563
231	0xbd4b6882	-0.049660213
232	0x3d2e0e70	0.042494237
233	0x3ce95a16	0.02848534
234	0x3d6e9303	0.05824567
235	0xbb9b80ea	-0.0047455924
236	0x3c6e9290	0.01456131
237	0x3bf2ad8f	0.0074059437
238	0xbd87f0cf	-0.066377275
239	0xbd379764	-0.04482211
240	0x3d67cfe7	0.056594756
241	0x3d40ad90	0.047040522
242	0x3dbad031	0.091217406
243	0x3caeee4c	0.021353863
244	0x3cbcbd14	0.023039378
245	0x3d57bfec	0.052673265
246	0x3b99da6e	0.0046952283
247	0xbd66d4cc	-0.056355283
248	0xbdbff2ba	-0.09372468
249	0x3d6ffe39	0.058592055
250	0xbd4f1952	-0.050561257
251	0xbd02632f	-0.03183287
252	0xbdc3932e	-0.09549557
253	0xba013d48	-0.0004930091
254	0xbda8cd1d	-0.08242247
255	0x3d494e70	0.04914707

critic.2.weight f4 [1, 512]
0	0xbbb5708f	-0.0055370997
1	0xbd6212c1	-0.055193666
2	0xba417baf	-0.0007380796
3	0x3b638187	0.0034714655
4	0x3c237b7a	0.00997817
5	0xb9776300	-0.00023592636
6	0xbacf682c	-0.0015823892
7	0xbbf17bf8	-0.0073695146
8	0xbe112074	-0.14172536
9	0x39e099ef	0.000428393
10	0x3d913048	0.07089287
11	0xbdaebecb	-0.085324846
12	0xbda567da	-0.08076449
13	0xbc829f45	-0.015945086
14	0xbc1de580	-0.009637237
15	0x3e0d9611	0.13826777
16	0x3e1b8292	0.15186527
17	0xbd79d846	-0.06099727
18	0xbd0bf249	-0.034166608
19	0x3e24eec7	0.16106711
20	0x3d8e209e	0.06939815
21	0x3d8d25aa	0.068919495
22	0xbd3bc4b1	-0.045841876
23	0xbdbdce01	-0.09267808
24	0xbc640d80	-0.013919234
25	0xbd1184db	-0.03552709
26	0xbcd763a9	-0.026292639
27	0x3d87c5d2	0.06629528
28	0xbdeb1a24	-0.11479595
29	0xbbc6ce29	-0.0060670567
30	0xbd0e9c05	-0.03481676
31	0x3dfa08de	0.122087225
32	0xbc9016cd	-0.017588997
33	0xbc001982	-0.007818582
34	0xbe4bcc56	-0.19902167
35	0x3e131fbb	0.14367573
36	0x3d44782b	0.047966164
37	0x3cbc2969	0.022968965
38	0xbd911000	-0.0708313
39	0x3d6787c8	0.056525975
40	0xbd8e5f6a	-0.069517925
41	0x3aaa82ef	0.0013008992
42	0x3e2ef7c4	0.17086703
43	0xbc6fa5bc	-0.0146269165
44	0x3e11765c	0.14205307
45	0x3e012212	0.12610653
46	0xbe9c7640	-0.30558968
47	0xb91abcf9	-0.00014756982
48	0xbdd57d75	-0.1042432
49	0xbde1b468	-0.11020738
50	0xbcd29336	-0.025704961
51	0xbe50dc00	-0.20396423
52	0xbcc42fc3	-0.023948556
53	0xbcdaf6fb	-0.026729098
54	0xbdce71c9	-0.100802965
55	0xbd5dd2b2	-0.054156013
56	0x3c43dbc9	0.011954256
57	0xbe36a070	-0.1783464
58	0x3db48fb3	0.08816471
59	0xbd4c3cdb	-0.049862724
60	0x3d745510	0.059651434
61	0x3dcd76ef	0.100324504
62	0x3d8bb1b9	0.06821007
63	0xbd8bf78a	-0.06834324
64	0xbc8aa253	-0.016923105
65	0x3ddf5d6b	0.1090649
66	0x3e0a58a3	0.13510375
67	0x3d32693e	0.043557398
68	0xbdc167f6	-0.09443657
69	0x3e28779f	0.16451882
70	0x3dec5f5f	0.11541628
71	0xbca5590f	-0.020184068
72	0x3dbd360b	0.092388235
73	0xbbbc2fd6	-0.005743007
74	0x3e0b12a3	0.13581328
75	0x3dfebc9b	0.124383174
76	0xbd41cfba	-0.047317244
77	0x3de67c57	0.11254185
78	0x3bc07998	0.00587387
79	0x3d81e3dd	0.063422896
80	0xbbf98c25	-0.0076155835
81	0xbd3d5460	-0.046223044
82	0x3da59c72	0.0808648
83	0x3e40b82a	0.18820253
84	0xbd66a8e8	-0.056313425
85	0x3da80a85	0.082051314
86	0x3c5e555a	0.013570154
87	0x3dc7ec4e	0.097618684
88	0x3e211d83	0.15733914
89	0x3db7efd2	0.08981289
90	0xbd8d271e	-0.06892227
91	0xbca0988d	-0.019603992
92	0xbd6e6f55	-0.058211643
93	0x3db4a9ed	0.08821473
94	0x3e895462	0.2682219
95	0x3dc947b3	0.09828129
96	0x3d292d0c	0.041302726
97	0x3c458859	0.012056434
98	0x3dd9582c	0.106125206
99	0xbbef60a7	-0.007305223
100	0xbe03c1a0	-0.12866831
101	0xbdd24071	-0.102661975
102	0x3da66b17	0.081258945
103	0x3d73905c	0.059463844
104	0xbe12a35f	-0.14320134
105	0xbddec1e7	-0.10876828
106	0x3ce5a4fc	0.028032772
107	0x3d663c2f	0.05620974
108	0x3d91adda	0.07113238
109	0xbb36e879	-0.002790956
110	0x3d282cdc	0.041058406
111	0xbd9f7e80	-0.077878
112	0x3db1730e	0.08664523
113	0xbabe10ee	-0.0014500895
114	0xbe1b6b52	-0.15177658
115	0x3de5568e	0.111981496
116	0xbb141e6a	-0.0022601136
117	0xbdd3f5ff	-0.103496544
118	0xbe8d0d6e	-0.2754931
119	0x3df14b30	0.11781919
120	0xbe225310	-0.15851998
121	0xbc7d6f79	-0.015468472
122	0xbcce61a0	-0.025193036
123	0x3e05f748	0.13082612
124	0x3dd26997	0.10274046
125	0xbd8d9866	-0.06913833
126	0xbd40c866	-0.047066115
127	0x3d84aa22	0.06477763
128	0x3dbba2e2	0.09161927
129	0x3e5d6e5e	0.21624133
130	0xbd024674	-0.03180547
131	0xbd6a8734	-0.057257846
132	0x3dcfe527	0.10151129
133	0xbc1dda7e	-0.009634612
134	0x3ddc4657	0.10755604
135	0xbcd9b43e	-0.026575204
136	0xbda651bb	-0.081210576
137	0x3d64495a	0.055734016
138	0x3d1ee658	0.03879389
139	0x3cd56b3f	0.026052115
140	0x3d9bf1cf	0.07614481
141	0x3d90e088	0.07074076
142	0x3d7382fb	0.059451085
143	0x3d812f9c	0.06307909
144	0x3dbc5279	0.09195418
145	0xbcac5f71	-0.021041604
146	0xbc9aaea9	-0.018882113
147	0xbda249ea	-0.07924254
148	0xbc8658ba	-0.01639973
149	0xbe3a44e0	-0.18190336
150	0xbe52c255	-0.20581944
151	0x3db4c698	0.08826941
152	0x3dbbc76b	0.09168895
153	0x3e3026cf	0.17202304
154	0x3c25a88e	0.010110987
155	0x3d275c86	0.04085972
156	0x3dbaccc3	0.091210864
157	0xbd9c7331	-0.076391585
158	0xbdd8ab77	-0.10579579
159	0xbd90eca2	-0.07076384
160	0xbd81bbed	-0.06334672
161	0xbc422593	-0.011849779
162	0xbd91fdfa	-0.0712852
163	0xbd1771c0	-0.036973715
164	0x3b86f3ca	0.0041184174
165	0xbd15c34a	-0.036563195
166	0xbe09b870	-0.13449264
167	0x3d532ef1	0.05155844
168	0x3e7d915d	0.24762483
169	0xbe22d61e	-0.15901992
170	0x3c04bfef	0.008102401
171	0xbd2ce1a7	-0.042207386
172	0xbe83b942	-0.25727278
173	0xbe070c60	-0.13188314
174	0x3c8bedce	0.017081168
175	0x3ddd9de9	0.108211346
176	0x3dba9014	0.09109512
177	0xbd2065a4	-0.039159432
178	0x3e1bef21	0.15227939
179	0xbc932ff9	-0.017967211
180	0x3dac1a0e	0.08403407
181	0x3dda27f2	0.1065215
182	0xbe389671	-0.18026139
183	0xbc00ebd9	-0.00786873
184	0xbd3eff97	-0.04663047
185	0xbe869d14	-0.26291716
186	0xbdc4d6ca	-0.0961128
187	0xba890d1e	-0.001045618
188	0xbcd92b0b	-0.026509782
189	0xbe5082ab	-0.20362346
190	0xba7e87fe	-0.00097095955
191	0x3d0b88a6	0.034065865
192	0x3c9bebf9	0.019033419
193	0xbe8d9111	-0.2764974
194	0x3d6f1b9a	0.058375932
195	0x3b0bec02	0.0021350388
196	0x3e0d4fd5	0.13799985
197	0x3d3f49ee	0.046701364
198	0x3dc52e2c	0.09627947
199	0x3d84d46c	0.06485829
200	0xbe15fa4d	-0.14646263
201	0x3e0c241c	0.1368565
202	0x3dce547b	0.10074707
203	0x3dc14bef	0.09438311
204	0xbc4d1dec	-0.012519341
205	0x3b97588e	0.004618711
206	0x380c3442	3.342727e-05
207	0x3d003731	0.031302635
208	0xbce6ea53	-0.028187906
209	0xbb5dc11b	-0.0033837024
210	0xbcf088f9	-0.029362189
211	0xbb15c05e	-0.0022850255
212	0x3d948ad6	0.07253043
213	0x3d2702fb	0.040774327
214	0xbd4aa580	-0.04947424
215	0xbc2a4d3a	-0.010394389
216	0xbc8c14c5	-0.017099747
217	0x3d9af76d	0.07566724
218	0x3a4572cc	0.00075320597
219	0x3db1431f	0.086553805
220	0x3d13bbec	0.03606789
221	0x3e0531dd	0.13007303
222	0x3dce7a19	0.10081882
223	0xbcbceaa3	-0.023061102
224	0x3c433cec	0.01191638
225	0xbc8bce15	-0.017066041
226	0xbbd99735	-0.0066403397
227	0xbe39da36	-0.18149647
228	0x3cc67902	0.024227623
229	0x3d09571a	0.033530332
230	0xbdd87fde	-0.10571264
231	0xbd7ca229	-0.061678085
232	0xb9c4e299	-0.00037552862
233	0xbe0cd7da	-0.13754216
234	0xbdecaa27	-0.115558915
235	0xbbf2e749	-0.0074128252
236	0x3cfc2bb8	0.030782565
237	0xbdfb7a52	-0.1227919
238	0xbce9d4d1	-0.028543862
239	0x3d7cd230	0.061723888
240	0x3dbc6d59	0.09200544
241	0xbc173616	-0.009229204
242	0xbe7b1e8e	-0.24523374
243	0x3e00161f	0.12508439
244	0xbd34e539	-0.044163916
245	0x390cecf5	0.00013439714
246	0x3d767f8d	0.060180236
247	0xbaf41d83	-0.0018624518
248	0x3d273578	0.040822476
249	0x3e34aaaa	0.17643228
250	0x3dbc27fd	0.09187315
251	0xbde1f9ed	-0.11033998
252	0x3d609994	0.054833964
253	0xbcdc2a97	-0.026875777
254	0xbbd0882d	-0.0063638897
255	0x3df86dea	0.121303394
