results/env01/a2c/512-nodecay-new-11000/model.pth (torch, 532879 bytes, 7 tensors)

actor.0.weight f4 [512, 127]
00000000: 3392 64bd 14be 693d 618c d93d df4d 28bc
00000010: dfc6 21bd 81a7 3d3d b9a7 6dbd acb2 553d
00000020: 2567 c63a 092e ba3d ba22 1bbd 412a abbd
00000030: 5434 9d3d 8483 a23d afd4 68bd 1129 653d
00000040: def9 343c c9a9 0abc fd06 973d da27 913d
00000050: 61c8 173d 5e3d a23c 0359 a2bd e22a 233d
00000060: 297c 753c 1297 823c 93b0 f93c b2cc 933c
00000070: 86ec 04bd 9648 bfbd cc41 a83d 465a d03c
00000080: 04b0 66bd 1635 9bbd 54b6 4bbd c761 69bd
00000090: 6c94 00bd a0da 333b e1b4 24bb 3233 f23c
000000a0: eacc 85bd bcc2 07bd 0c5f 383d 2bc1 c43d
000000b0: ca8b f23c 82c2 16bd 4536 a5bd 0474 833d
000000c0: 7b64 8fbd 3f0c 03bd 5525 2d3d 9e19 593c
000000d0: e0b2 efbc 8a23 083d edd0 413d f86b 843d
000000e0: faed 253b 5735 b53c da00 933d d67f 31bd
000000f0: 04db d53b cad7 5f3c e760 a23d 3040 733d
00000100: 5340 c5bd 945e 713c 35e5 a43b b470 89bd
00000110: f5bd 3c3c 565d af3d 03ac 1bbd e2ba aa3c
00000120: c77c da3c b61d 323d dad6 3fbc 4fb2 90bd
00000130: 7220 5abd 216c a93d 3d6b 4cbd fe45 dbbd
00000140: 7ed8 903d c1ac 37bd d4a1 173c e08c a3bb
00000150: 0e64 20bd 9fba ef3c fc7e 25bd 37ff 8b3c
00000160: 9fbc f53c 10a4 743c 8b4b a3bc 85f5 9fbd
00000170: 8f9e 1abd 83cd 103d 499a c7ba ec98 cdbd
00000180: 637f e23d ccf8 8fbd 6026 62ba 76ea 3cbd
00000190: 42b5 8d3c d2de dabb 84cb be3c f74b c2bd
000001a0: 8616 613d 8c86 82bd a21c b1bc addd 9bbd
000001b0: 195c 483d 22b7 4b3b 203d 32bd 309e 133d
000001c0: f09d db3b 746f 943c 5e2f 8abd f3cf 133c
000001d0: 6b30 263d c6d0 5ebc 9619 aab9 3516 fdbc
000001e0: 1e8e 9bbd 7fd9 2abd fe54 c63a 91a6 8f3c
000001f0: b63f c6bc 21bb 553c 16f6 043d 4199 903c
00000200: 5895 e1bc ac75 8dbd 1e6f f03c 2866 3dbd
00000210: 86ed 2e3c d28e 3fbd 3a4b fdb9 e2b4 b63c
00000220: 42d3 9dbb dc4f 423c fe78 2c3d 1a00 d9bc
00000230: 923c aebd eb0f ab3b 9393 bd3c dd9a 103d
00000240: 77ce 163d 2372 463c 44d3 a33d c007 023d
00000250: ddae e5bb 1f72 95bd cee7 e7bc c12e 5c3c
00000260: 01a5 80bd 0543 353d 8296 5d3d 18e2 4fbd
00000270: 2555 473d 685f 0fbd ef0f 01bc 80e0 54bd
00000280: fdab 30bd c60f 263d 3973 c1bc 1c83 a83d
00000290: 6e2d a5ba 9c3b 5cbd 6001 913d 2c58 f2bc
000002a0: f3d4 0f3d 4391 87bb 51fd 0dbd 45cf 92bd
000002b0: 14c3 9f3d 9dae d33c cb15 2e3d 9e28 dc3c
000002c0: c56d 7d3d 7619 79bd 2dfb 583c 0bac bdbd
000002d0: e52a c13d 1f7b 4abd 5648 f6bc 24ae 15bc
000002e0: 598c 0cbd 3752 8e3a f54c 5c3c bd35 613d
000002f0: 3fa6 843c f25f 773c 5413 c73d d99a 85bd
00000300: 203a c2bd 2db2 6f3a a37c aabd 972c 683c
00000310: fa05 9bbd c0f4 48bd 37d8 673d 61cc 1f3d
00000320: 179e 833d bd75 9dbd 1227 593b 190f 2bbd
00000330: 8329 173d 7f2b 8a3d d4f4 22bd 651d a0bd
00000340: a405 9dbc c953 90bd ffb7 01bd d7ab 5dbc
00000350: b3c4 1abd 7f4f b23d 9d50 16bd aa83 82bb
00000360: 7f38 bf3d 7f6c 8d3d 317b 84bd c6a1 64bc
00000370: 12e4 d8bb 0e49 173c f143 d2bc b57c 5c3d
00000380: 4e82 02bd f907 77bd 7561 ca3c 56a0 e33c
00000390: 26d4 663c 9993 f4bc 42b3 45bd 2c1f 763d
000003a0: 8941 32bd 7d6d 233c e70f f63c 8ea5 ca3c
000003b0: 00bc cb3c 092f babc 917f aa3d 35a6 2e3d
000003c0: c82a 063d 420a 983b 861a 333c a4e0 8ebd
000003d0: 6034 093b 1e73 283d cc55 8b3d 1c55 20bd
000003e0: d960 84bd 923a 8c3d c801 373d 0d76 093d
000003f0: ed6a 0bbd 0d9c ff3c 7fb2 d1bb 8d21 6d3d
-0.05580349 0.05706604 0.10622478 -0.010272472 -0.0394963 0.046302322 -0.05802128 0.052172348
0.0015136941 0.09090812 -0.037874915 -0.08357669 0.076759964 0.07935241 -0.056843456 0.055947367
0.011045901 -0.0084633315 0.0737438 0.07087679 0.03705633 0.019804653 -0.07927134 0.039835818
0.014983215 0.015941177 0.030479705 0.018041942 -0.03245213 -0.093400165 0.08215675 0.02543367
-0.056320205 -0.07578485 -0.04973443 -0.056978013 -0.031391546 0.0027443543 -0.0025132226 0.029565427
-0.06533225 -0.033144698 0.04501252 0.09607156 0.029607672 -0.03680659 -0.08066992 0.064186126
-0.07001587 -0.0319941 0.04227193 0.0132507365 -0.029260099 0.033237018 0.047318388 0.06465906
0.0025318847 0.022120161 0.07177897 -0.043334804 0.006526353 0.013662288 0.07928639 0.059387386
-0.096314095 0.014732022 0.0050322064 -0.067109495 0.011519899 0.08562724 -0.03800584 0.020841066
0.026670827 0.043485366 -0.011708939 -0.0706526 -0.0532536 0.08272577 -0.049906958 -0.10706709
0.070725426 -0.044842485 0.009254891 -0.004991159 -0.03915792 0.029263793 -0.040404305 0.01708947
0.029997168 0.014931694 -0.019933483 -0.07810501 -0.03774887 0.03535224 -0.0015228476 -0.10038933
0.11059453 -0.07029876 -0.0008626934 -0.046122037 0.017298345 -0.0066793943 0.023290403 -0.094871454
0.05495312 -0.06373319 -0.021620099 -0.07610641 0.048915956 0.0031084497 -0.043515325 0.03603953
0.006702177 0.018119551 -0.06747316 0.009021747 0.04057352 -0.01359958 -0.0003244399 -0.030894378
-0.07595466 -0.041711327 0.0015131531 0.01753548 -0.024200302 0.013045103 0.03246125 0.017651202
-0.027537033 -0.0690721 0.02934986 -0.046240002 0.010676747 -0.046767063 -0.0004831197 0.022303049
-0.0048164437 0.01185986 0.042107575 -0.026489306 -0.085076466 0.0052204034 0.023141658 0.03530394
0.036817994 0.012112173 0.0799928 0.031745672 -0.0070093707 -0.072971575 -0.028308775 0.013438881
-0.06281472 0.044253368 0.054098614 -0.05075273 0.048665185 -0.035003096 -0.007877334 -0.051971912
-0.04313277 0.040542386 -0.023614513 0.08228132 -0.001260204 -0.053767785 0.070803404 -0.02958306
0.035115194 -0.0041371896 -0.03466541 -0.0716844 0.0780088 0.025840098 0.042501252 0.026874837
0.061872263 -0.060815297 0.013243479 -0.0926133 0.094320096 -0.049433824 -0.03006379 -0.009135757
-0.034313533 0.0010858242 0.013446082 0.05498289 0.016192554 0.015098559 0.097204834 -0.065236755
-0.09483743 0.0009143677 -0.08324554 0.014170787 -0.07569499 -0.049061537 0.056602683 0.03901327
0.064266376 -0.076884724 0.003313486 -0.041762445 0.036904823 0.067465775 -0.039784268 -0.078181066
-0.019167729 -0.07047231 -0.031669613 -0.013529739 -0.037785243 0.08706569 -0.036697973 -0.0039829807
0.09336948 0.069054596 -0.064688094 -0.013954585 -0.006618985 0.009233726 -0.025667163 0.053829867
-0.03186255 -0.060310338 0.024704674 0.027786415 0.014088666 -0.029855536 -0.048266657 0.06008832
-0.04351953 0.0099748345 0.03003688 0.024737146 0.024869919 -0.022727506 0.083251126 0.042638976
0.032755643 0.0046398947 0.010931617 -0.069764405 0.002093576 0.04112541 0.06803474 -0.039143667
-0.06463785 0.06847109 0.044679433 0.033559848 -0.03403752 0.03120234 -0.006399452 0.057893325

actor.0.bias f4 [512]
00000000: b2cb d7bc 6e58 3ebc 2026 5cbd 43cc 93bd
00000010: e6bf 263d 6605 28bd bbb2 c03c 6abc c7bd
00000020: 2cba eebc 517e 36bd 521b d83b ff9e 8e3c
00000030: fedc 1b3d bda0 073d 1db8 2cbd 2962 113c
00000040: b319 6eba 99f5 e4bb d8c4 523d ce9c 4a3d
00000050: 58fc 5e3d d995 7f3b abf1 633c 1cc5 25bd
00000060: e900 b83b d260 08bd 49a2 9e3d 93e8 6c3d
00000070: 87ba b1bd 2baa 753d 9966 ac3d 3e45 c0bd
00000080: b5f8 cd3c 927b 923d 63b4 d63c 1956 52bd
00000090: 5a11 4bbb acc0 253d b085 46bd 7280 b03d
000000a0: 74e1 a13c 6c3e 543c f1b6 14bd 3283 a03d
000000b0: 4367 b9bd 7544 53bc b612 4c3d e98c a0bd
000000c0: 6cd5 843d 8ba4 d8bb a014 86bd 9bd9 4abd
000000d0: 6901 1f3d 53b0 173d d886 973d 30e5 79bd
000000e0: 8f26 71bd 3acb 093d 8481 11bd ee42 673d
000000f0: c684 9b3c 4c94 7a3d 252f 2b3c 3694 da3c
00000100: 5568 9abd d382 9dbd aeef 183c 3740 15bd
00000110: 07b3 6f3c 0802 cd3c 56b7 1abd 6f7e 373d
00000120: 1514 32bd d5a6 be3d 4bf4 173d cfb4 4f3d
00000130: e93d 663d 06a8 5bbd ff06 e0bc 70dc 823d
00000140: 2c51 87bd 1133 a13d 8c9b 923d 56da 94bd
00000150: d53f 8a3d 5441 2cbd 7db5 2dbd 833a 50bd
00000160: 1a6a 643d ab4f b6bb 2c2f 56bd 0469 883d
00000170: 8729 513c bf4b a6bd 8d9a adbd ac5d 493d
00000180: 1eac 24bd e810 c2bc cb1f b6bc 87bb a83d
00000190: 71a1 51bd 8560 e1bc 2805 77bd 7596 b93d
000001a0: 440b 97bd ef6b 02bb 9441 6abc ac28 60bc
000001b0: bdad 9e3d a7bd bc3d 6890 88bd e421 c4bc
000001c0: f1e4 da3c cd14 c7ba f463 bc3c aaa9 94bd
000001d0: d6c9 383d a6c7 ae3d 9f7d 983c 6caa 65bd
000001e0: 96c9 973d 8ccb ddbc b119 46bd 57c3 953d
000001f0: a2cb 04bd 2c9a 9fbd c76e 94bd eda0 ac3c
00000200: 79a1 953c 9c3f a2bd 8450 213d e2b3 ea3b
00000210: cfe5 1f3c 2ee1 a9bd cd2c 8fbd 20ea a13d
00000220: 358a 5abd ed01 353d 7538 dabc a9ae ccbb
00000230: 7b7f 4cbd ce1b aebd df35 283d f511 983d
00000240: 1fbb 383d 88bf f03b ce6d 87bd 3674 25bd
00000250: b7f0 8fbc 8521 91bc 5724 a2bc 4733 36bb
00000260: cdd8 acbd 729c 59bd 8007 833c 5a7d 0abc
00000270: 67c8 79b9 3554 30ba 079a 2e3b bb14 71bb
00000280: cb2c 12bd 2b2c 3abd 7e5f af3a 40e0 adbd
00000290: 4dc1 b43d be43 933d 49b4 6dbb 70b4 a63d
000002a0: 9b0c b3bd 8142 c13d e9c5 e63c 71da af3d
000002b0: 673c 2e3d f20a e73b 82d5 9c3c ebe3 773c
000002c0: f79e 66bd ae46 24bd 44d0 c43d 2968 a83a
000002d0: 5f4c 353d 4a11 a73d 44bd 3abd a072 a8bd
000002e0: 1e2d 483d fb23 663d b524 b3bc 336f 683c
000002f0: 9998 fbbc 06ed 543d 82ea a7bd 8425 503d
00000300: 6396 87bd 11bd 053d 20ce 773c 5336 20bd
00000310: 3ad5 cbbc b93e 51bc 4f63 483c 76ab 333d
00000320: 3df3 8abd 06eb f83c 90aa 95bb 3212 9a3c
00000330: 90ce 47bd 2f65 80bd 8a8c 84bd b36d 13bb
00000340: 8fb6 763d 41cc d53c 38fb 883d ac05 503d
00000350: 32c3 a339 70d8 8bbd bcdc adbc c4b0 79bd
00000360: 5418 53bd c1b0 99bd 56d1 c33c 4314 4a3d
00000370: 5613 e3bc 257b a53c af1f 27bc 3216 dc3c
00000380: fea2 a5bd b904 80bd 9f1c 22bd 6581 78bd
00000390: ad19 683c f991 87bd 8a18 3f3a feb5 28bd
000003a0: 1255 973d 6d8d 753c c704 7d3c 1cfd b13d
000003b0: 3db4 8dbd 47b6 c63c 7c5f 4cbd 9c52 cd3c
000003c0: 52d1 4b3d b13a b03d fb07 2c3d df95 87bd
000003d0: d5f1 683d a5a4 c33c 46c6 6bbd 4584 9d3d
000003e0: 6844 323d c2c8 40bc b3ba 8c3c 67da 9b3d
000003f0: 58c1 813d b379 91bd 739c d23d ddeb 80ba
-0.026342247 -0.011617763 -0.053747296 -0.07216694 0.040710352 -0.041020773 0.023522725 -0.09752734
-0.029141508 -0.04455406 0.0065950537 0.0174098 0.03805255 0.033112276 -0.04216777 0.008873501
-0.0009082809 -0.0069872853 0.051457256 0.049465947 0.054439873 0.0038999228 0.013912599 -0.04047118
0.005615343 -0.03329546 0.07745797 0.057838988 -0.086781554 0.059976738 0.084180064 -0.09388207
0.025143007 0.071524754 0.026209062 -0.05135164 -0.0030985684 0.04046695 -0.048467338 0.08618249
0.019760825 0.012954336 -0.03630728 0.078375235 -0.09052899 -0.012894739 0.04982253 -0.078393765
0.064860195 -0.006611412 -0.06546903 -0.04952393 0.038819704 0.03703339 0.07398766 -0.061009586
-0.058874663 0.033641078 -0.035523906 0.056460313 0.01898421 0.061176583 0.010448252 0.026682
-0.07539431 -0.07690968 0.009334488 -0.036438193 0.014630086 0.025025383 -0.0377725 0.04479831
-0.043476183 0.093091644 0.03709821 0.050709542 0.056211386 -0.053627037 -0.027347086 0.06389701
-0.06607279 0.07871068 0.071585745 -0.07268207 0.06750456 -0.04205449 -0.04240941 -0.05083705
0.05576525 -0.0055636964 -0.05229108 0.06660655 0.012766249 -0.08119916 -0.08476744 0.049161598
-0.040203206 -0.023689702 -0.022231957 0.08238893 -0.051179353 -0.027511844 -0.06030765 0.090619005
-0.073751956 -0.001990076 -0.014297862 -0.013681572 0.07747982 0.09215861 -0.06668168 -0.023941942
0.026720496 -0.0015188694 0.02299688 -0.07258923 0.04511436 0.08534174 0.018614588 -0.05607073
0.07411496 -0.027074598 -0.048364345 0.07312649 -0.032420762 -0.07793078 -0.072476916 0.02107283
0.018265473 -0.07922289 0.039383426 0.007162557 0.0097593805 -0.08294903 -0.06990967 0.07905984
-0.05335446 0.04419129 -0.026638249 -0.006246407 -0.049926262 -0.08501397 0.041067 0.074253
0.045100328 0.007347051 -0.066127405 -0.04039403 -0.017570836 -0.017716179 -0.019792719 -0.002780156
-0.08439789 -0.053127714 0.015994787 -0.008452738 -0.00023821146 -0.0006726415 0.00266421 -0.0036786038
-0.03568725 -0.045452278 0.0013379899 -0.08490038 0.08825932 0.07190655 -0.0036270788 0.081398845
-0.08742639 0.09436513 0.028170543 0.08586586 0.042538073 0.0070508653 0.019144777 0.0151300235
-0.056303944 -0.040106468 0.09610036 0.0012848425 0.044262286 0.081575945 -0.045590654 -0.08224988
0.048871152 0.056186657 -0.02186809 0.014186668 -0.030712413 0.051983856 -0.08199026 0.050817028
-0.06620481 0.03265101 0.015124828 -0.039114308 -0.024881948 -0.012771302 0.012230708 0.04386469
-0.06784675 0.030385505 -0.004567452 0.018807504 -0.048780978 -0.06269299 -0.06472118 -0.0022495806
0.060232695 0.026098372 0.06688541 0.05078666 0.00031235215 -0.068283916 -0.021223418 -0.060959592
-0.051536873 -0.07504416 0.02390353 0.04933573 -0.027719181 0.020200321 -0.010200425 0.026866052
-0.08087729 -0.06250901 -0.039578076 -0.060670275 0.014166278 -0.06619639 0.00072897284 -0.041189186
0.07389273 0.014987332 0.015443034 0.08690855 -0.06919143 0.024256838 -0.04989575 0.025063805
0.04976017 0.086049445 0.0419998 -0.066203825 0.056871254 0.02388222 -0.057562135 0.07691244
0.04352227 -0.011766614 0.017178869 0.07610016 0.063357055 -0.071032904 0.102837466 -0.0009835918

actor.2.weight f4 [2, 512]
00000000: bc98 083d 7de5 0a3d c361 fbbc b3ad 6e3d
00000010: 6222 af3c ee85 bc3b ae3e c53c c0aa 043d
00000020: 99d8 0d3d e01d 8a3d 7c1d eabc 0bb8 32bc
00000030: 53a3 00bd bd84 d03c 83e5 d53c 15ad 7abc
00000040: 5709 40bd 2fd3 d53b 3ebd a03b a831 8fbb
00000050: ffe7 17bd e6f4 cc3c 5cae a1bc 3bcf 783d
00000060: 9dbd 01bd 8b3c 043d ce46 203c 792e 543d
00000070: 46e8 123d 5f77 cfbc 61bb eebb 3596 afbc
00000080: 5712 4cbc b39c 2ebd fbfa 09bd 760d b5bd
00000090: e6d3 ad3c 5c38 15bd def5 b6bc 9095 babc
000000a0: f17e 94ba f2cd f2b9 951b 62bd f0f7 153d
000000b0: 24d1 313d 7211 453d 00e3 0fbb 1047 453d
000000c0: f748 1bbd 871c d8bc d214 3f3b d403 6e3d
000000d0: 44c8 2f3d 365b 813d 0fd2 f0bb 8234 e1bc
000000e0: be05 873d e2ec 663c 1b65 99bb d5eb 1fbd
000000f0: 5831 37bd a270 9c3c dfd6 5fbc dd3b 13bc
00000100: 264e 113d 713d 123d 7252 023c 3225 bfbc
00000110: 2890 8a3d 468f a93c 8121 3d3c f1a7 acbb
00000120: 55a8 213d 8995 6dbd dc66 a23c 0d53 aabc
00000130: ab90 25bc aedd 32bd 0bfb fd3c ff21 da3c
00000140: d811 573c 30b7 eb3b 0518 873d adc7 4c3d
00000150: c108 72bc 3ead 9d3a 63b4 d3bc 6e8c 693c
00000160: b0f1 2d3d 3fe7 cc3c f058 363d 9580 8ebd
00000170: 0414 523d 71e2 2c3d 9c70 40bd ec26 f3bc
00000180: d0b2 5d3d 2442 f6bb 0e9c 10bd a064 2cbd
00000190: ab29 823d 4814 acbc 6d00 0dbd 4201 5cbb
000001a0: 6229 db3c acdd 0d3c cc0e 813c 7ff8 74bd
000001b0: 1876 6cbd b1a4 973d 9ed4 1c3d 6245 983a
000001c0: d6a7 543d b4f9 eb3b 96aa 223d bba0 9abd
000001d0: 4f73 2f3c 689c 65bb 8adc e93c e521 3cbc
000001e0: 06b8 153c 237c f63c c16e 3fbd e69c 253c
000001f0: c20a 08bd 711b 8ebd 2166 b23c f0c9 073c
00000200: 82f3 51bc 3d25 173c 19cd 353d 0d12 9bbd
00000210: 13d9 86bd b64a 5a3b ab9a 563d 9e37 1abd
00000220: 9629 16bd 978c 35bd acff 9d3d c4ca 5ebd
00000230: cc39 893d ee67 f63c 4e18 60bd 65d5 b1bc
00000240: 00a6 ec3c d99f 043b 1371 233d 7d09 853c
00000250: d973 b13c 0392 b7bc 5fc7 21bd 1b37 773c
00000260: 09b1 4d3c 752a 8fbc bcf7 30bd 491d 463d
00000270: 9ef1 4ebd a8c1 8f3d 4ca2 443c 1c68 aebc
00000280: 96e0 8d3c d426 23bd 64ad 253c 2869 af3c
00000290: 8743 413d 1c65 853d 51a4 df3c f56d 803d
000002a0: 1611 69bc 9051 bebd f5a9 62bd 5b6b 70bd
000002b0: c756 3fbd 1b2c 5a3d 64f6 783d 043f 2b3c
000002c0: a786 5dbd d5df 2bbd c0c4 31bd ed41 03bd
000002d0: ee6b 95bd cd9a 83bd 02d3 6dbd 6b74 803d
000002e0: 3ba4 803d 6e20 d5bc edb7 1fbd d4a6 d33c
000002f0: cb12 a1bb 23ad f43c 17a2 423d 49be 393d
00000300: 6e0e 73bd a8f9 4c3d 1003 093d 8edf 8d3b
00000310: a201 943b 4c0c 83bc a9f7 bb3c 528c 1b3d
00000320: d09f 13bd 2375 4f3d 337a ac3c d339 7c3c
00000330: c4ab 1f3d 1dd7 8f3c 6af2 e03c ee83 dabc
00000340: ffcc 943d 26b7 e7bc 5e4f a63c 1eed dfbc
00000350: 063c ccbc cb81 e63c 80c0 d1bd 68ed 7f3c
00000360: 7048 2a3c 3364 f53c e9e3 f7bc 8bc8 a13c
00000370: 695f 2e3b 25fa 8c3b 0995 23bd 9ede efbc
00000380: 3154 0dbd d064 8e3d c45d d03c 4be1 ab3d
00000390: 198d 13bc 8c50 44bd eb99 253d 1b53 cf3c
000003a0: 9304 893d d509 67bd 14b6 ef3c 70f7 57bd
000003b0: 4943 1c3d 1a25 89bc db7f 5abd 60ce 80bd
000003c0: 0318 983d 1218 cf3c 8bf3 09bc 2c43 f4bc
000003d0: 4f2c 93bd 1bfb 0a3d 25f0 d73c 9746 d7bc
000003e0: 4e00 d2bb b376 5b3d 0c83 7fbd a314 36bd
000003f0: 1a10 bfbc 74ba 833c 1cd1 7fbd 3ea0 1dbd
0.033348784 0.033910263 -0.030686265 0.05827112 0.0213787 0.0057532704 0.02407774 0.032389402
0.03463039 0.067439795 -0.028578512 -0.010908137 -0.031405758 0.02545392 0.026110416 -0.015300055
-0.046883907 0.006525419 0.004905372 -0.004369933 -0.037086483 0.02501912 -0.019736461 0.060744505
-0.03167497 0.0322843 0.009782506 0.051802132 0.035866044 -0.025325475 -0.007285521 -0.021433929
-0.012455544 -0.04262991 -0.03368662 -0.08840458 0.021219205 -0.0364307 -0.022334035 -0.022776395
-0.0011329335 -0.00046311278 -0.055202086 0.036613405 0.043412343 0.04811234 -0.002195537 0.048163474
-0.03791138 -0.02638079 0.0029156697 0.05810912 0.042915598 0.06316225 -0.0073492597 -0.027490858
0.06592892 0.014094563 -0.004681242 -0.039043266 -0.044724792 0.019096676 -0.013662069 -0.0089864405
0.03547492 0.035703126 0.007954227 -0.023333166 0.06765777 0.0206982 0.0115436325 -0.0052690436
0.039467175 -0.058003936 0.019824438 -0.020791555 -0.010105292 -0.04366844 0.031003496 0.026627539
0.013126813 0.0071934685 0.06596378 0.049995113 -0.014772595 0.001202978 -0.025842851 0.014254672
0.04246682 0.02501261 0.04451841 -0.06958119 0.05128862 0.04220814 -0.046982393 -0.029681645
0.054125607 -0.007515209 -0.035305075 -0.04208815 0.06355604 -0.021005765 -0.034424234 -0.0033570086
0.026753131 0.008658808 0.015754126 -0.059807297 -0.05772981 0.07404459 0.038288705 0.0011617357
0.051917873 0.007201398 0.039713465 -0.07550188 0.010708644 -0.0035035852 0.028547544 -0.01148269
0.009138113 0.03008849 -0.046736483 0.010108208 -0.033213384 -0.06938828 0.021777214 0.008287892
-0.012814404 0.009225187 0.04438505 -0.07571802 -0.06584372 0.0033308691 0.052393597 -0.037650697
-0.036660753 -0.04432353 0.07714781 -0.05439259 0.06700477 0.030078854 -0.05471068 -0.0217082
0.028887749 0.0020236878 0.039902758 0.016239876 0.021661686 -0.022408491 -0.039496776 0.015088822
0.0125544155 -0.0174763 -0.043205008 0.048367772 -0.050523393 0.07019359 0.012001585 -0.021289878
0.017319005 -0.03983195 0.01011214 0.021412447 0.04718354 0.06513426 0.027300032 0.06270973
-0.014225265 -0.092929006 -0.055337865 -0.058696132 -0.046713617 0.05326472 0.06078185 0.010452036
-0.054083493 -0.04196151 -0.043400526 -0.032045294 -0.072959766 -0.0642601 -0.05806256 0.06272205
0.062813245 -0.02601644 -0.038993765 0.025836386 -0.0049155704 0.029867714 0.047517862 0.045347486
-0.059339933 0.05004278 0.033450186 0.0043296283 0.004516796 -0.015997075 0.022945242 0.037975617
-0.03604108 0.05064882 0.021054363 0.015394646 0.038982168 0.017558629 0.027459342 -0.026674237
0.072656624 -0.028285574 0.020301517 -0.027334746 -0.024930965 0.028138062 -0.102417946 0.015620567
0.010393247 0.029955005 -0.030260043 0.019748947 0.0026607162 0.0043022805 -0.039937053 -0.029280957
-0.03450412 0.06952822 0.025435336 0.083925806 -0.009005808 -0.047928378 0.04042999 0.025308182
0.066903256 -0.05640586 0.029261626 -0.05272621 0.038150106 -0.016741324 -0.05334459 -0.06289363
0.07426455 0.025280032 -0.008419882 -0.029817186 -0.071861856 0.03393088 0.026359627 -0.026278777
-0.0064087277 0.053579997 -0.062380835 -0.044453274 -0.023323108 0.016080119 -0.06245528 -0.038482897

actor.2.bias f4 [2]
00000000: 33b2 a1bc 966f 333d
-0.019738292 0.04380759

critic.0.weight f4 [512, 127]
00000000: c3fd e4bd 66d6 1bbb 4011 1cbd 0253 39bc
00000010: bccc 903d 2a03 343d e2a7 e43b 7270 3c3d
00000020: 8128 df3d d48a 54bb acee 83bc 71ce ad3d
00000030: 7632 373d 00ef 903b 967e 173d 378e af3d
00000040: 6fe3 023d 674a d2bd 32ba 2c3d bce2 9c3d
00000050: 3aef 93bb 31f8 89bc 285c 33bd d434 043e
00000060: 9ea4 2a3e eafe 91bc 5599 143d a603 e1bb
00000070: 3670 6abe 2e6c 213d 5fce 943d 67b0 8b3a
00000080: c9d0 213e bb4b 9dbd e877 b6bc f973 0a3e
00000090: 3305 5fbe 73d9 6d3d ca6e 9d3d 6ea2 66bc
000000a0: 4f38 1b3e 531c c9bc d0f2 e13b 6b3f 823d
000000b0: c535 c3bc d978 45bd b63d 973d 11a2 a83d
000000c0: a00a 3f3e 10b1 99bd be16 6f3d b6eb ae3d
000000d0: faf3 e13c dc1b 82bd c226 8dbd 917f a73b
000000e0: 6f83 343d 22b8 8d37 9cdf bc3c 047c a1bd
000000f0: 76c3 b3bd fa25 d53d adea dfbc a6cb 2b3d
00000100: ecba 9a3d b0e1 51bd db69 37bd 2cb2 46be
00000110: e1c1 823d 6331 d93b 1aaa f2bc cfbf 88bd
00000120: d51e a03d 1640 b6bd 9ec8 f8bc 8eee 50be
00000130: b387 05bc cef8 dd3d 22c6 ab3d a543 933c
00000140: a05c 273e 8358 553d c83c 9abc a6a7 7dbe
00000150: 0ed2 0c3e 3c68 6d3d a6ca 9dbc ade0 873d
00000160: 92a7 243d aba8 54bc 19e9 17bd d068 5dbe
00000170: 4b6a 903d 0357 773d e90a 903d dd38 d73d
00000180: 2985 d23d 248b 833b 9e62 a1bc e0ce 96bd
00000190: f87e 113e c8ba cfbc 5fca e3bc 9698 52bd
000001a0: 881c 3e3d 1ee7 3e3d 993d 733b f695 20be
000001b0: 9ccb ab3d 5049 92bd 11a3 213d f610 973d
000001c0: fdf8 c53d 44bf 33bd 63d0 993c f04c dcbd
000001d0: 696f a73d d159 ab3d 5ee0 2abc 422b 40bd
000001e0: c238 6d3d e88a 34bd 9d34 7c3d 3599 7c3d
000001f0: 516b 1a3e 0796 51bd dd1f 0a3c a4e1 5f3a
00000200: 6ca4 873c 2df2 70bd 5924 b63d 4f40 533d
00000210: 0a16 b8bd 78df db3c 3292 6b3d 1c75 ea3c
00000220: 1aeb d43c 29e7 93ba 2641 173d b8fc b43a
00000230: e838 083d 07c7 18bd 8b96 843b fc69 903d
00000240: d08b 95bc 169b 173d 0197 f43d c651 4c3e
00000250: 1071 98bd 32df 4bbd b1eb 973d f7bf c23d
00000260: 8bfd aebd 4531 4dbd 14db b3ba d26b 8a3d
00000270: a729 0dbd 7726 48bc 8c15 8e3d 8d88 43bd
00000280: 559b 48bd de82 ca3d 0988 1c3e bfa7 dd3d
00000290: 0f14 9cbd b564 20bd a012 003e 1774 22bc
000002a0: 09d4 aabd 29b1 9c3d 94fc 5a3d af2c 78bd
000002b0: 1fdc 9dbd 79ee 3f3c a5dd 803d b81a 80bd
000002c0: 3585 d2bc 6b5d 5a3d d25f f43d 9522 903d
000002d0: 9c93 85ba 7a13 8c39 81aa 28bd d462 6dbc
000002e0: 1354 ef3b ee66 b33c 9bf0 9c3d 872b 4f3b
000002f0: 5bf7 f0bc 0ace 3fbd cbc4 99bd 4775 6c3d
00000300: 292b 8e3d 02a3 b73d 2d42 1dbe 7f89 fc3d
00000310: e5bb bc3d b578 a9bb 1a02 5ebe 5559 ad3d
00000320: 1ece 73bd 1524 a7bc 6479 e5bd 645c 593d
00000330: 9f75 c238 24f1 c33c dc09 90be 90b3 4c3e
00000340: c0fe c73d 0061 a23c 7293 72bb 1ba7 483e
00000350: 17a0 af3d 7cec 083d 6b15 e4bd 3152 ef3d
00000360: fd48 e9bc aea3 9a3d a50b 1abe edd3 253d
00000370: 6af4 9abd 7017 51bd a8cd 14be 897e 073d
00000380: a671 08bd 9b5e 84bd 70cd 49be 7f6d 103e
00000390: d664 68bd 4dff 903d 56a1 86be d544 0f3e
000003a0: 1e7a 723c ef2a f3bc 5186 88be 9d7c 123e
000003b0: 7db8 c53d 6be9 1a3d b64d c8bd 80b3 153e
000003c0: d956 5f3d fbe6 38bd ef2e 21be 8e74 243e
000003d0: b0d3 5f3d 5139 833c 527f 8a3c d422 e33c
000003e0: b8e6 8c3d 13a5 efbc 8ebd 903c 7dc6 cc3c
000003f0: 51bd b7bc 770d ae3d b46d 9f3d 6163 efbc
-0.11181214 -0.0023778914 -0.03810239 -0.0113112945 0.070703 0.04394833 0.006978021 0.046005674
0.108963974 -0.003243138 -0.016105019 0.08486641 0.044725858 0.0044230223 0.036985956 0.08572047
0.03195518 -0.10268097 0.042169757 0.07660434 -0.004514602 -0.01684198 -0.04378906 0.12910777
0.16664359 -0.017821748 0.03627904 -0.00686689 -0.22894368 0.03940981 0.07265925 0.001065743
0.15802301 -0.0768046 -0.022273973 0.13520803 -0.21779327 0.058068704 0.07687147 -0.014076812
0.15158199 -0.024549639 0.0068954006 0.06359752 -0.02382935 -0.048210952 0.07384817 0.08234037
0.18656397 -0.07504475 0.058371298 0.08541052 0.027582157 -0.0635297 -0.06892158 0.0051116426
0.044070657 1.6894253e-05 0.023055844 -0.07884982 -0.087775156 0.10407634 -0.027333582 0.04194226
0.07555184 -0.051240623 -0.044778686 -0.19403905 0.06384636 0.006628202 -0.029622126 -0.066772096
0.07818381 -0.08898942 -0.0303691 -0.20403501 -0.008150029 0.10838471 0.083874 0.017976591
0.16343927 0.052086364 -0.01882781 -0.24770984 0.13752005 0.057960734 -0.01926167 0.066346504
0.04019887 -0.012979667 -0.037087534 -0.21622014 0.07051524 0.060385715 0.07033331 0.10508893
0.102793045 0.0040143896 -0.019700345 -0.07363677 0.14208591 -0.025357619 -0.027806459 -0.05141505
0.04641393 0.04660713 0.0037115572 -0.15682206 0.08388445 -0.071428895 0.039462153 0.07376282
0.09666631 -0.043883577 0.018776124 -0.10756862 0.08175547 0.083667405 -0.01042947 -0.046916254
0.057915457 -0.044077784 0.061573613 0.061669547 0.1508 -0.051168468 0.008430448 0.0008540398
0.016557895 -0.058824707 0.088936515 0.051575 -0.089885786 0.026839957 0.05751247 0.028620295
0.025991011 -0.0011284101 0.036927365 0.0013808226 0.033257395 -0.037299182 0.0040462664 0.07051465
-0.018255144 0.037013136 0.11942864 0.19953069 -0.0744344 -0.049773403 0.074180014 0.09509271
-0.08544453 -0.050095815 -0.0013721907 0.06758846 -0.03446355 -0.012216202 0.069377035 -0.047737647
-0.04897626 0.09888242 0.15286268 0.10823011 -0.076210134 -0.03915854 0.12507105 -0.009915373
-0.08341224 0.07650978 0.053463534 -0.06058949 -0.077080004 0.011714571 0.06292275 -0.06255096
-0.025698284 0.053311747 0.11932339 0.07037846 -0.0010191086 0.00026717392 -0.04117823 -0.0144888945
0.0073037236 0.021899667 0.07663079 0.0031611638 -0.029414823 -0.046827354 -0.075082384 0.057729032
0.06941826 0.08966638 -0.15357275 0.12330913 0.092155255 -0.00517186 -0.21680489 0.08464304
-0.05952274 -0.020402947 -0.11204794 0.053066626 9.2725495e-05 0.023918696 -0.28132522 0.19990373
0.097653866 0.019821644 -0.0037014154 0.19594996 0.085754566 0.033428654 -0.11136898 0.11685599
-0.028477186 0.07550751 -0.15043505 0.04048531 -0.075661495 -0.051047742 -0.14531577 0.033079658
-0.03331151 -0.06463357 -0.19707274 0.1410427 -0.05673679 0.07079945 -0.26294965 0.13991101
0.014799623 -0.029683558 -0.26664975 0.14305349 0.09654329 0.03782026 -0.09780447 0.14619255
0.054526184 -0.045142155 -0.1574056 0.16060087 0.05464524 0.016018542 0.016906414 0.027726568
0.068799436 -0.029253518 0.017668512 0.02499699 -0.02242914 0.08498662 0.07784596 -0.029222192

critic.0.bias f4 [512]
00000000: a407 7d3d 13ed dd3d fbc0 343d d922 613b
00000010: a28c 92bc 413e a0bc 15a7 503d 1c8c d53c
00000020: 7d58 b23b b05c eebc 8991 a7bd e235 46bd
00000030: f100 a83d 0293 ea3c c863 cb3c e841 393d
00000040: 2035 b93d 83b1 4b3d 982f 303c caf2 86bd
00000050: 1808 62bc 85f0 4d3d b6d0 5bbd f5a5 0abc
00000060: f5ac 3b3d 1202 30bd ce1d 15bd 92eb 7cbd
00000070: ff8e 813d 9b6b b13c f556 b83d 0f37 e93d
00000080: 6c6b 12bd 85ad a1bd cdca 7b3d ae86 3fbd
00000090: 3c77 22bd 3cf5 2c3d 1d6f a93d 3fe8 b83c
000000a0: d031 d5bb 2ab6 1b3a ff43 04bd f994 77bc
000000b0: d490 703d d676 31bb 5d7e a63d 044c 623d
000000c0: 2528 343d 377e 293d 6725 4ebd e4db 343d
000000d0: be04 d23c ea18 acbb 8ab5 8abd 0753 853d
000000e0: c311 96bc f2ac 76bd 1a61 b93c dfc8 8f3d
000000f0: 8246 12bc 7aeb da3d dafe fd3c 150f 05bc
00000100: 5568 72bd 5b65 e2bc a48c 29bd 1efd 01bc
00000110: 0fed 793c 4be6 52bd 0a0f 45bd 4dfb 81bd
00000120: fd56 c83d f1bd 623d 19fb fd3c 84c4 df3c
00000130: cab4 f63b ee5b b23d ae71 17bd d3e1 c43c
00000140: a26c c2bb f938 693d ce55 2a3d fb2f 91bd
00000150: 535b 0ebc b0da 603d 1cec 2c3d 0e8a 78bd
00000160: 4bba 523d 5337 8f3d 55d4 93bc 3ff3 7f3d
00000170: d544 453c c686 33bc 64fb a3bd 7486 de3d
00000180: 0380 8c3d b2e0 9bbd b97c 52bd e874 6fbd
00000190: 581d bc3d 377f ea3b 3305 9c3d 4022 cc3d
000001a0: efa4 503d 8306 a23d 3fea 953d ed7b c2bc
000001b0: abd8 863d 4395 da3d 4b31 863d fa88 503d
000001c0: 79de 03bd f21a 40bd 1e66 953c 8e74 15bd
000001d0: 2c51 94bd bbeb 913d 037e a73c ea08 463d
000001e0: 6440 4bbd 5ddf f1bc ccef 85bc acce 853a
000001f0: ac25 f83c 3815 eb3c d77c d5bd 6572 57bd
00000200: 0492 903d e5b6 4f3a 9a5d a3bd cf54 933c
00000210: 1ca8 863d 60d7 6bbd 43ff 6fbd f7a3 b4bd
00000220: 1853 293d 49b2 ec3b 7211 d9ba 4ec1 1f3d
00000230: d051 70bd 5a1b 6bbd 8132 16bd f052 b53c
00000240: f935 b83c 9d59 c9bc 2ffe 0ebd d172 ca3d
00000250: c1c4 123a 14eb 70bc 5b4e 42bd fae7 01bc
00000260: 3366 00bd 9039 81bd d208 27bd d9f3 9e3c
00000270: 1984 ab3c f765 92bd 184b 6d3c 9e92 af3d
00000280: 63e8 5d3b 6427 1d3a f281 e8bc c00b 99bc
00000290: 793f 6cbd 5327 09bd 1771 49bd 7c08 d5bc
000002a0: f1d1 0a3d 88c0 663d af54 a53c 916e e13d
000002b0: 27e1 b5bc 582e 7cbd b303 b0bd 438a 96bd
000002c0: e6de 453d b854 803d 44b5 a93c 1ef6 a8bc
000002d0: cf3a 14bc b471 14bd 2cec f6bc 64de e0bc
000002e0: 8f56 843d 5383 6b3d 4a23 8dbd 38a6 393c
000002f0: 787c 32bd 6ab1 33bc b45d 84bd e028 dc3c
00000300: 5842 1fbd bb0b 97bc 1e28 103d 371f 0ebd
00000310: f641 2a3c 4274 1dbd bc12 81bd cf02 c9bc
00000320: 61d7 40bd ebd0 0fbd e610 c9bb a98a 77bd
00000330: 4f25 1e3c 0cfc 923d 1050 45bd a0e7 d83b
00000340: f123 9cbb 1727 1abd d8fe 993d 38c1 89bd
00000350: 785d 8abd c483 a3bc 2e27 20bd 8358 a83d
00000360: 8435 c73d 8daa 9b3d ad41 8c3d 781c 4a3c
00000370: c13c 48bd 1186 d73d 9056 bdbd be40 d43a
00000380: 1b5b 223b 3511 073d d9e4 83bd f63e a83d
00000390: e754 4e3d 8f1a 723d f1d1 7fbb 8670 f4bb
000003a0: 0ee0 01bc 5fad 603d 1229 0e3c bf0d a83d
000003b0: 9b7e 90bb 4fbb 2bbd 40c4 75bd 4205 fabc
000003c0: ba3d 61bd eb00 16bb 61f3 b1bc 3577 96bc
000003d0: 0050 84bd 8727 eb3c c0a4 3dbd 8916 123c
000003e0: 535a 863d 3794 29bd 5701 a63d 96f9 8ebd
000003f0: 2079 c23d b467 553c e64c b83c 0a5f 89bd
0.061774865 0.10836234 0.044129353 0.0034353046 -0.017889325 -0.019560935 0.05094059 0.026067786
0.0054426775 -0.029096931 -0.081820555 -0.04839123 0.082033046 0.028634552 0.024827853 0.04522887
0.09043336 0.049729835 0.010753535 -0.06589277 -0.013795875 0.050278205 -0.05366584 -0.008462419
0.04581924 -0.042970724 -0.036405377 -0.061748095 0.063261025 0.021657756 0.09000961 0.11387455
-0.035746977 -0.07894424 0.061472703 -0.0467593 -0.039664492 0.04222606 0.08273146 0.022571681
-0.0065061823 0.00059399253 -0.03229141 -0.015111201 0.05873187 -0.0027078888 0.08129571 0.055248275
0.043983597 0.041380133 -0.05032864 0.044155017 0.025637027 -0.0052519934 -0.06772907 0.06509977
-0.018319016 -0.060223527 0.02262931 0.07020735 -0.008927943 0.10689445 0.031005312 -0.008121272
-0.05918153 -0.02763622 -0.04139389 -0.007933883 0.015254273 -0.051489156 -0.048110045 -0.0634676
0.09782217 0.055356923 0.031003522 0.027315386 0.007528876 0.087089404 -0.036973648 0.024033463
-0.00593336 0.0569391 0.041585736 -0.0708923 -0.008688766 0.054896057 0.04221736 -0.060678534
0.051447194 0.06992974 -0.018045584 0.062487837 0.012040337 -0.010957425 -0.08006933 0.10865489
0.06860354 -0.076112166 -0.051388476 -0.0584611 0.091852844 0.0071562785 0.07618179 0.0996747
0.050938543 0.07911398 0.073200695 -0.023740733 0.06584295 0.10673001 0.06552371 0.05091188
-0.03219459 -0.046900697 0.01823717 -0.03648811 -0.07242045 0.0712504 0.02044583 0.048348345
-0.049621955 -0.029525453 -0.016349696 0.0010208688 0.0302914 0.028696641 -0.10424202 -0.05259933
0.070591 0.0007923677 -0.079768375 0.017984776 0.06575033 -0.057578444 -0.058593046 -0.08820336
0.04133901 0.0072234017 -0.0016560985 0.03900271 -0.058671772 -0.05739913 -0.036669258 0.022134274
0.022486674 -0.024578864 -0.034910377 0.09885181 0.00055987766 -0.0147044845 -0.047438007 -0.007928843
-0.031347465 -0.06309807 -0.040779896 0.019403385 0.020937013 -0.071483545 0.014483236 0.08572887
0.0033860437 0.00059949444 -0.028382275 -0.01868236 -0.05767772 -0.033484768 -0.049180117 -0.026005022
0.033891622 0.056335956 0.020181982 0.11007417 -0.022202088 -0.061567634 -0.085944556 -0.0735059
0.048308276 0.06266159 0.020716317 -0.02062517 -0.009047224 -0.03624125 -0.030141912 -0.027449794
0.06461822 0.057498287 -0.068914965 0.011331134 -0.043575734 -0.010967592 -0.06463185 0.02687496
-0.03888163 -0.01843821 0.03519451 -0.034697738 0.010391703 -0.03844095 -0.063024014 -0.024537472
-0.0470804 -0.03511135 -0.0061360477 -0.06043497 0.00965245 0.071769804 -0.048172057 0.0066194087
-0.0047650267 -0.037634935 0.07519311 -0.06726307 -0.06756109 -0.019960292 -0.039099865 0.08220007
0.09727004 0.07600889 0.06848464 0.012335889 -0.048886064 0.10523618 -0.09245026 0.0016193611
0.0024773541 0.032975394 -0.064401336 0.08215134 0.050373938 0.05910736 -0.0039035047 -0.007459703
-0.007926954 0.05485284 0.008676784 0.08205747 -0.004409624 -0.04192668 -0.06000161 -0.030520085
-0.054990508 -0.002288873 -0.021722497 -0.01836739 -0.06460571 0.028705372 -0.046299696 0.008916506
0.06560197 -0.041401114 0.08105724 -0.069811985 0.09495759 0.013025213 0.022497606 -0.067075804

critic.2.weight f4 [1, 512]
00000000: e4ed d43d 3031 263e a92c 1c3d 5102 86bc
00000010: 7bc8 8bbd 14f0 8ebc 3e81 a73c baa8 723d
00000020: d06d 73bd e997 83bc eb63 20bd dea3 db3c
00000030: 4221 463d 2e49 62bd 4787 92bd eee7 6dbe
00000040: 5afc a23d 588a 813d d818 95bd f29d e6bd
00000050: 5e9d 62bd d59c 7bbd ba3f 0a3e e738 0e3d
00000060: f803 acbd f5af f63c 1fe5 413d 6550 a63c
00000070: 9733 45bd 6622 e13d e744 113e ecc2 b03d
00000080: e700 3cbd ac12 27be 1a55 6ebd f3be 00be
00000090: f8b4 d43d 9916 8bbd 044e f13d 1670 6bbd
000000a0: a638 a23c b25a 84be 38fc 423d ca03 c23c
000000b0: 59dc 933d c1ce 99bc 7b3b d2bc f306 36bd
000000c0: 1aba 903d 1451 803d d569 9fbc d674 eb3d
000000d0: 1d8e 96bc 0de8 323d 237c 1fbd c2ae 3a3d
000000e0: f07e 1b3e 7626 77bd 9fc4 ac3d c199 dabd
000000f0: ce9c 2bbd 21ec ad3d 50c1 2abd 3e63 7dbd
00000100: dc1a a8bd a68d f0bc 32ef a0bd 8cd8 d3bc
00000110: ea4b 6bbe f116 b1bd 2936 20bd e708 28bd
00000120: 8d7c 833d e8d3 1f3c 8461 87bd 8581 5d3d
00000130: ca65 683d 7a46 0b3e 533c b7bc ab44 bb3d
00000140: 5efe 9c3d b49a 6abd 7d9e f9bb 624e d5bd
00000150: 1a66 59bc 6dc0 d9bd 4eea 0e3e 41d5 54bd
00000160: bd5a 823d b84c 2bbd 0171 acbd 2dd6 c7bd
00000170: 1e21 99bd 309d 0ebe b5a7 fa3c 7449 8a3d
00000180: 0238 8dbd 9df0 5abd 8aeb 93bd 0496 fabc
00000190: 31d7 0bbe 6ce8 43bd 06b8 153d f157 4cbe
000001a0: 3bea 29bd 4122 4cbd c1c3 adbd 2a7b fc3d
000001b0: 1118 adbc 6e05 ce3d 249f b4bd 2544 48bd
000001c0: a585 94bd 7c8a e03d 610d e0bc 8350 c33d
000001d0: 6296 173e f17a ed3d f7f6 1fbd 5ac5 21be
000001e0: a0b6 0d3e 160d efbc b31c 90bd 3307 82be
000001f0: 81c8 48bd 74b0 5ebd a25d 07bd d424 3bbd
00000200: aa04 19bd 1c07 b0bd 2ff4 7e3d 9f02 be3d
00000210: 792e adbd ac0c 1c3e cd87 0b3e cd77 88bd
00000220: 87a5 9e3d a541 773d fb93 a5bd d0fa 033d
00000230: a14e bd3c 947e 093e a5bb f1bc 6a94 70bd
00000240: 74c4 853c 19f8 5e3d 36e7 a6bc 134b 0d3e
00000250: ff8d 613d faa6 bf3d 56f9 4bbd 4633 8a3d
00000260: 69e4 6cbe 6a33 e6bd d6bd debc 19c9 d8bc
00000270: f83b 963d 62db 95bd 5101 92bd 0f54 673d
00000280: 0f69 503d e111 8b3d c7d5 3abd 3ccd 933d
00000290: e29b a4bd 1fe0 9f3d 13a2 443c d9e3 703d
000002a0: 5219 7f3d 5ce6 62bd 6a4a 883d 842e 7f3d
000002b0: 135b eb3d ecbd 81bd 0a02 1cbd a8c2 96bd
000002c0: 6ff8 1a3e fee3 383d 9d47 01be 1166 cebd
000002d0: f788 d9bd be35 be3d 6696 f23c 04c7 8c3d
000002e0: fe4d e0bc 7593 47bd 440b 47bd f1c2 59bd
000002f0: c55f 78bd 3efa 15be 21c7 62bd 4da7 6dbe
00000300: 4922 783d 823a 81bd b035 35be e795 973d
00000310: da9f 203e 3828 243e 7b57 883c 4f59 71be
00000320: 6c01 dd3d 17d0 f8bc a853 d2bd e209 17bd
00000330: 7b28 c7bd 8826 a23d e606 68bd 2d29 49bd
00000340: cf5c 493d 54bb 30bd a38b 0d3e 70e2 8e3d
00000350: 8005 a2bd 68e8 bebd 5160 5ebe 57a5 02bd
00000360: fd15 133e d688 273d 80b6 2fbd bf99 db3b
00000370: f51b b93d 50b8 8e3d 0df1 c3bc 2427 08bd
00000380: ffe4 333d 58b6 023d 34e1 bf3d 1daf fd3d
00000390: fe8c 4e3d 6d83 013d 68d6 8fbe 410b 79bd
000003a0: 05c2 42bd 5e54 82bc c574 22bd 84cd a43d
000003b0: c346 5dbd 3b4f 5cbe 2baa 983d 5ef3 123d
000003c0: 13f4 1abd 92ab 33bd d5e2 63bd bcc1 b33d
000003d0: 1a92 0c3d e013 1abd 1714 1a3d 60fb 86bd
000003e0: 603d 3dbd 2592 95bd f455 2b3d 998c f23d
000003f0: 6803 e33c 8676 383d 7e70 04be b67d 57bd
0.103969365 0.16229701 0.03812853 -0.016358526 -0.06825348 -0.017448463 0.02044737 0.05924294
-0.059430897 -0.016063647 -0.03915779 0.026811536 0.04837156 -0.05524557 -0.07154708 -0.23233005
0.079582885 0.06325215 -0.07280129 -0.112605944 -0.05532586 -0.061428864 0.13500872 0.034722235
-0.083991945 0.0301132 0.047337648 0.020302007 -0.048144903 0.10992889 0.1418644 0.086309284
-0.045899298 -0.16315717 -0.058186628 -0.12572841 0.103860795 -0.067914195 0.117824584 -0.05747994
0.019802403 -0.25850445 0.047603816 0.023683447 0.07219762 -0.018775346 -0.025663128 -0.04444022
0.07066746 0.062654644 -0.019459644 0.11496894 -0.018378312 0.043678332 -0.038936745 0.04557682
0.15185142 -0.060339414 0.0843594 -0.106738575 -0.041897587 0.08492304 -0.041688263 -0.061862223
-0.08208248 -0.029364418 -0.07858123 -0.025860094 -0.22978178 -0.08646954 -0.03911415 -0.041024115
0.064202406 0.009755112 -0.066103965 0.054078598 0.0567377 0.13601103 -0.022367632 0.09143957
0.07665704 -0.057276443 -0.00761777 -0.10415341 -0.013268972 -0.106324054 0.13956568 -0.051961187
0.06364963 -0.04182121 -0.08419991 -0.09757648 -0.0747702 -0.1392715 0.030597547 0.06752291
-0.06895448 -0.053452123 -0.0722266 -0.030589111 -0.13656308 -0.047829077 0.03655245 -0.19955422
-0.041483145 -0.049837355 -0.08484603 0.12328179 -0.02112964 0.100596294 -0.08819416 -0.048893113
-0.07252053 0.10963914 -0.02735013 0.09536841 0.1480346 0.11595715 -0.039053883 -0.1579794
0.13839197 -0.029181045 -0.07036724 -0.25396118 -0.04901934 -0.054367498 -0.03304828 -0.04568942
-0.037357964 -0.08595106 0.06224459 0.09277844 -0.084561296 0.15239209 0.13626023 -0.06663475
0.077464156 0.060365338 -0.08084866 0.032221615 0.023108782 0.13427192 -0.029508421 -0.05873529
0.016329028 0.054435823 -0.020373922 0.1379817 0.05506706 0.0935802 -0.049798332 0.06748061
-0.23134007 -0.11240275 -0.02719013 -0.026463078 0.07335657 -0.073172346 -0.07129157 0.05647665
0.05088144 0.067905195 -0.04561403 0.0721688 -0.08037545 0.078064196 0.012001532 0.058811042
0.062280007 -0.05539547 0.06654818 0.06230022 0.114919804 -0.06335053 -0.038087882 -0.073613465
0.15133832 0.045139305 -0.12624975 -0.10078061 -0.10621827 0.09287594 0.029612731 0.06873897
-0.02738094 -0.04872461 -0.048594728 -0.053164426 -0.060638208 -0.14646241 -0.055365685 -0.23208351
0.060579572 -0.063099876 -0.17696261 0.074016385 0.15685979 0.16030967 0.016643276 -0.23569225
0.10791287 -0.030372662 -0.102698624 -0.03687466 -0.09724518 0.079175055 -0.056647204 -0.049111534
0.049160775 -0.0431474 0.13822798 0.06976783 -0.07911205 -0.09321672 -0.2171643 -0.03189596
0.14363857 0.04090198 -0.042898655 0.0067016776 0.090385355 0.069687486 -0.023918653 -0.033240452
0.04391956 0.031912178 0.09369126 0.12386916 0.05042743 0.031619478 -0.28093266 -0.06080175
-0.047548313 -0.01590937 -0.03966214 0.080470115 -0.05402256 -0.21514599 0.07454332 0.035876624
-0.037830424 -0.043864794 -0.055636246 0.08777186 0.03431902 -0.03761661 0.037616815 -0.06590915
-0.04620111 -0.073032655 0.04183002 0.11843223 0.027711585 0.045034908 -0.12933537 -0.05261012
