results/env01/a2c/512-nodecay-new-10000-new-15000/model.pth (torch, 532879 bytes, 7 tensors)

actor.0.weight f4 [512, 127]
0	0x3d6250d9	0.055252884
1	0x3c5b3ab0	0.013380691
2	0x3df7f1ee	0.12106691
3	0xbdd21f2c	-0.10259852
4	0x3ce362a6	0.027757
5	0x3cf664bc	0.03007733
6	0xbd8e634d	-0.06952534
7	0xbce96540	-0.028490663
8	0xbcd044a1	-0.02542335
9	0xbd43a50e	-0.04776483
10	0x3da3c945	0.079973735
11	0xbdd1668f	-0.102246396
12	0xbd29c747	-0.04144981
13	0xbc56b48a	-0.013104567
14	0xbda3df8e	-0.08001624
15	0xbc91f4aa	-0.01781686
16	0xbbfc8d4a	-0.0077072727
17	0xbcc38113	-0.023865258
18	0xbdb62e4f	-0.088955514
19	0x3d8a7de8	0.06762296
20	0xbd60ce92	-0.0548845
21	0xbd86fdb9	-0.065913625
22	0xbd678663	-0.056524646
23	0x3db81c79	0.08989806
24	0x3d5aef35	0.05345078
25	0xbd77c2e9	-0.060488615
26	0x3d7a0e15	0.061048586
27	0x3dc526fc	0.09626576
28	0xbd98ec83	-0.07466986
29	0x3d5c72f9	0.053820584
30	0xbda9f6e3	-0.08299043
31	0x3d7ea6cb	0.062170785
32	0xbd5a9828	-0.053367764
33	0x3ca42824	0.020038672
34	0xbdb30861	-0.087418325
35	0xbc26f08b	-0.010189186
36	0x3d3bc423	0.045841347
37	0xbcddf4ed	-0.027094329
38	0xbd9d26dd	-0.07673428
39	0x3cbdeb1e	0.023183402
40	0xbb0813dd	-0.0020763793
41	0x3d610470	0.054935873
42	0xbd82ffe9	-0.06396467
43	0x3d7bf870	0.061516225
44	0x3d58c416	0.052921377
45	0xbd25d951	-0.040490452
46	0xbc32af91	-0.010906116
47	0x3e1759a2	0.14780286
48	0x3cea7d77	0.02862428
49	0x3d2121b2	0.039338775
50	0xbcb32e2d	-0.021872604
51	0x3dabf99d	0.08397219
52	0xbda10b4f	-0.07863485
53	0x3c7ba60d	0.015359414
54	0x3c2f64fb	0.010705228
55	0xbca3be84	-0.019988306
56	0xbc1d8572	-0.009614335
57	0xbd87b33d	-0.06625984
58	0xbbbdece0	-0.00579606
59	0x3d8fad86	0.07015519
60	0x3c93001b	0.017944386
61	0xbd8ffcb7	-0.070306234
62	0x3d745fd7	0.059661712
63	0xbd0af5b9	-0.033925746
64	0xbd6c95c1	-0.057760004
65	0x3b48a32f	0.0030614843
66	0xbaa059ff	-0.0012233852
67	0x3d8c218e	0.068423375
68	0xbd4f2672	-0.050573774
69	0x3dab5717	0.083662204
70	0xbd8e96bf	-0.06962346
71	0xbd872c5e	-0.06600259
72	0x3c8cd11a	0.017189551
73	0x3c4126c2	0.011789026
74	0xbd0c1cec	-0.03420727
75	0xbd7bcf3a	-0.061476924
76	0xbd259e03	-0.040433895
77	0x3da5f30c	0.08102998
78	0x3c62b3fc	0.013836857
79	0xbd1e4e15	-0.038648684
80	0xbd0d39df	-0.03447902
81	0x3da83b4e	0.082144365
82	0xbb32adef	-0.0027264317
83	0xbde7beaa	-0.11315663
84	0x3dac9968	0.084276974
85	0xbda0cc60	-0.078514814
86	0x3dacb13e	0.08432244
87	0xbd4d178e	-0.05007129
88	0x3a11b20a	0.0005557841
89	0xbd83ba60	-0.064320326
90	0xbd30b488	-0.043140918
91	0xbc36daa7	-0.011160529
92	0x3dce48a9	0.100724526
93	0xbd32f277	-0.043688264
94	0xbd6ed997	-0.05831298
95	0x3c02b12f	0.007976814
96	0x3dc87cd9	0.09789438
97	0x3d14825f	0.036257144
98	0x3ced6605	0.02897931
99	0xbd9658db	-0.073411666
100	0x3bc4ec18	0.00600959
101	0xbca19e71	-0.019728871
102	0x3d41d178	0.047318906
103	0xbdb8494d	-0.08998356
104	0xbd3106e4	-0.043219462
105	0x3d22022b	0.03955285
106	0x3cec27ee	0.028827634
107	0xbd7181cd	-0.05896168
108	0xbd29a72e	-0.0414192
109	0x3d9fa762	0.077955976
110	0xbccd49f8	-0.025059685
111	0xbd80e637	-0.0629391
112	0x3da81fb3	0.08209171
113	0x3d232b1f	0.039836045
114	0xbc5cbcbe	-0.013472734
115	0xbd14481a	-0.036201574
116	0x3df743b9	0.12073464
117	0x3d49e4c5	0.049290437
118	0xbbcdb338	-0.006277468
119	0xbd7567c8	-0.059913427
120	0x3dd32e1e	0.103115305
121	0x3d3e66ee	0.04648488
122	0x3c09c72b	0.008409302
123	0xbd1e88f3	-0.038704824
124	0x3d4a47ef	0.049385007
125	0x3d6e9646	0.05824878
126	0x3d5f8ea9	0.05457941
127	0xbc4e2f7e	-0.012584565
128	0x3c1573bd	0.009121832
129	0x3c445904	0.011984114
130	0x3e076c8b	0.13225
131	0x3d84682d	0.064651825
132	0x3d6c583d	0.057701338
133	0xbd6ae398	-0.057345957
134	0xbc7b21e2	-0.0153279025
135	0x3d2d2027	0.04226699
136	0x3d6418ca	0.055687703
137	0x3b82a7d2	0.003987291
138	0xbc0214ed	-0.007939559
139	0xbcc6d468	-0.024271205
140	0xbdb5315b	-0.088473044
141	0xba5e58d8	-0.00084818667
142	0xbd2e9f73	-0.04263253
143	0x3cc17d78	0.023619398
144	0x3caad884	0.020855196
145	0x3cec978d	0.028880859
146	0x3d4499cb	0.04799823
147	0x3e11e319	0.14246787
148	0x3c60038c	0.013672721
149	0x3d101239	0.03517363
150	0x3c726b7f	0.014796137
151	0x3da2e251	0.07953323
152	0x3d998aca	0.07497175
153	0x393e8c8b	0.00018172168
154	0xbc376294	-0.011192936
155	0x3d5d4a0e	0.054025702
156	0x3cea9d2c	0.028639399
157	0xbd62f8a8	-0.05541292
158	0xbd0c519a	-0.03425751
159	0xbd801389	-0.06253726
160	0x3cdfdce4	0.027327009
161	0x3b4e135f	0.0031444652
162	0x3c82ef1c	0.015983157
163	0xbd33a631	-0.043859664
164	0xbd25d92c	-0.040490314
165	0xbc8cc20b	-0.01718237
166	0x3c769e12	0.015052335
167	0x3d51d208	0.051225692
168	0x3cb8a2ed	0.022538627
169	0xbd4f41be	-0.050599806
170	0xbdc62024	-0.09674099
171	0x3bc82c80	0.0061088204
172	0xbb08ec1f	-0.0020892692
173	0xbc7f880f	-0.015596404
174	0xbcb766e3	-0.022387927
175	0x37f2b9d1	2.8935176e-05
176	0x3dc506ce	0.096204385
177	0xbb9db6e2	-0.004813061
178	0xbd9b7bab	-0.07591947
179	0x3b21d3a3	0.0024692796
180	0x3d75b6bc	0.059988722
181	0x3d87b6b0	0.06626642
182	0xbdfdadb1	-0.12386645
183	0x3d9244a2	0.07141997
184	0x3dcaccd6	0.099023506
185	0xbcc2abbe	-0.023763534
186	0xbda181a2	-0.078860536
187	0x3df11734	0.11772004
188	0xbd4a48d4	-0.04938586
189	0x3d017f02	0.031615265
190	0xbc907138	-0.017632112
191	0x3da456c8	0.08024365
192	0xbb812220	-0.0039408356
193	0xbb343f0e	-0.0027503404
194	0x3d172aec	0.036906168
195	0x3d9955f0	0.074870944
196	0xbb04d6a0	-0.0020269528
197	0xbd3d561f	-0.04622471
198	0x3da80f98	0.08206099
199	0xbd74ce5d	-0.059767116
200	0x3d0603a7	0.032718327
201	0x3d907722	0.07053973
202	0xbab84252	-0.0014057851
203	0xbca88ecd	-0.020575905
204	0xbd75b330	-0.05998534
205	0xbafb11a1	-0.0019155034
206	0x3d93c647	0.07215553
207	0x3bcc57c3	0.006236048
208	0x3d5b78f6	0.053582154
209	0xbcd3ca68	-0.02585335
210	0x3b607aab	0.0034252803
211	0xbced2061	-0.028946104
212	0xbdafdff0	-0.085876346
213	0x3d0fce38	0.035108775
214	0x3d51c093	0.051209044
215	0xbd3a1ae7	-0.045435812
216	0xbbb24034	-0.0054397825
217	0xbcb4d604	-0.022074707
218	0x3d2d3dfc	0.04229544
219	0xbcb5f022	-0.02220923
220	0xbd4fd356	-0.050738655
221	0xbd9dcb4c	-0.077047914
222	0xbd8437a2	-0.064559236
223	0xbb84e086	-0.0040550856
224	0xbb7caa0b	-0.0038553502
225	0xbc64af8a	-0.013957867
226	0xb9cbc5cc	-0.00038866547
227	0xbd84c144	-0.06482175
228	0x3d27ca18	0.040964216
229	0xbb5ce5e0	-0.0033706352
230	0xbd9eefa8	-0.077605546
231	0xbae7fe2b	-0.0017699649
232	0x3da0532c	0.07828364
233	0xbbd01389	-0.006349985
234	0x3d0893a2	0.03334392
235	0x3c7edde0	0.015555829
236	0xbcb1e568	-0.021715835
237	0xbd3a844b	-0.04553632
238	0xbde94f2b	-0.11392053
239	0x3d4a654e	0.049413018
240	0xbd56a656	-0.052404724
241	0xbd5c483f	-0.053779837
242	0x3d15756b	0.03648893
243	0x3caf570e	0.021403816
244	0x3ca26554	0.019823708
245	0x3d9c5516	0.07633416
246	0xbde36b30	-0.11104429
247	0x3c9d41a5	0.01919634
248	0xbc36e3cf	-0.011162712
249	0x3c3d6555	0.011559804
250	0x3d8cc07f	0.06872653
251	0xbce76697	-0.02824716
252	0x3cc49474	0.02399657
253	0xbd1fd5f6	-0.03902241
254	0xbd5652b1	-0.052324954
255	0x3d04263c	0.032263026

actor.0.bias f4 [512]
0	0x3d957a80	0.07298756
1	0xbd268843	-0.040657293
2	0xbd551bfb	-0.052028637
3	0x3c344d3b	0.011004741
4	0xbda53574	-0.08066836
5	0xbd4796d3	-0.04872782
6	0xbd6c0ce7	-0.057629492
7	0x3cd8dfbb	0.02647387
8	0xbcea3777	-0.0285909
9	0xbd2de7f9	-0.042457554
10	0xbd61eb94	-0.055156305
11	0xbd469655	-0.04848321
12	0xbcfc0c30	-0.03076753
13	0x3d8a43a8	0.06751186
14	0xbc062a9e	-0.008188872
15	0xbda08aff	-0.078390114
16	0x3cc269d8	0.02373211
17	0x3d5822d8	0.052767605
18	0xbad7f73f	-0.0016476883
19	0xbd1b538c	-0.037921473
20	0xbd853bec	-0.0650557
21	0x3d7485e9	0.05969802
22	0x3d049386	0.03236725
23	0x3d17e70f	0.03708559
24	0x3d23bb98	0.039973825
25	0xbd74b171	-0.059739534
26	0xbd9df181	-0.07712079
27	0x3ced09b0	0.028935283
28	0x3d5b051a	0.053471662
29	0xbd8b5ded	-0.06805024
30	0xbda98569	-0.08277399
31	0xbdcc7b5a	-0.09984465
32	0xbc5f43e0	-0.0136270225
33	0xbd338779	-0.04383037
34	0x3d4ebd49	0.050473485
35	0x3d62dff3	0.055389356
36	0x3d6df383	0.05809356
37	0x3d99af02	0.07504083
38	0xbd42f618	-0.047597975
39	0x3d7b73ff	0.06138992
40	0xbd3c0bdf	-0.04590976
41	0x3c9291e1	0.017891826
42	0xbd627d13	-0.05529506
43	0xbd5b80d1	-0.053589646
44	0xbd8d0b8a	-0.068869665
45	0x3d60def2	0.054900117
46	0x3d6e5531	0.058186714
47	0x3d9c7a64	0.07640532
48	0x3c556d8f	0.013026609
49	0xbd3863e6	-0.045017146
50	0x3d7d72b0	0.061876953
51	0x3dc91db8	0.098201215
52	0x3d00db24	0.03145899
53	0xbc296045	-0.010337894
54	0xbdb55081	-0.088532455
55	0xbd8c8188	-0.068606436
56	0x3dbb96ca	0.0915962
57	0xbc2a1560	-0.010381073
58	0x3d169b44	0.036769167
59	0x3d873bec	0.06603226
60	0xbdb55c50	-0.08855498
61	0x3dad1e75	0.08453075
62	0xbcd37562	-0.025812808
63	0x3d041a3e	0.03225159
64	0x3d74ac83	0.059734832
65	0x3dddbd2c	0.10827097
66	0x3c3bf9b7	0.011473111
67	0x3d30561d	0.043050874
68	0xbd1ac64f	-0.037786778
69	0xbd07334b	-0.0330079
70	0xbb865913	-0.004099974
71	0xbca6c5d1	-0.020357998
72	0xbd17c96e	-0.037057333
73	0x3d470e35	0.048597533
74	0xbc966d09	-0.018362539
75	0x3daeea18	0.085407436
76	0xbcc3be80	-0.023894548
77	0x3dadb90a	0.08482559
78	0x3cbdba6e	0.023160186
79	0xbd6961ac	-0.056977913
80	0xbd9e2ae8	-0.077230275
81	0x3b496196	0.0030728332
82	0x3d0c344b	0.034229558
83	0x3cabe800	0.02098465
84	0xbd1bf38c	-0.03807406
85	0xbd7959d1	-0.06087667
86	0xbd7d3c73	-0.061825227
87	0xbcd7141c	-0.026254706
88	0x3d4759b4	0.048669532
89	0xbd7217c6	-0.059104703
90	0x3c2342b4	0.009964634
91	0xbce5f67a	-0.02807163
92	0x3cab7935	0.02093182
93	0xbd425c9a	-0.047451593
94	0xbce05ce6	-0.027388047
95	0x3d02efae	0.031966858
96	0x3da44995	0.08021847
97	0x3d39414e	0.045228295
98	0x3c7e3018	0.015514396
99	0xbda35264	-0.07974699
100	0xbd6b26ac	-0.057409927
101	0x3d56ab57	0.052409496
102	0x3d9befe7	0.07614117
103	0x3db9a334	0.09064332
104	0x3d63d7c2	0.055625685
105	0x3d1a03a0	0.037601113
106	0xbc95561d	-0.018229539
107	0x3cc2a40a	0.02375986
108	0xbacd04a9	-0.0015641648
109	0x3c957afa	0.018247116
110	0xbc322596	-0.010873219
111	0x3c909578	0.017649397
112	0xbccd1c6e	-0.02503797
113	0x3d2498fc	0.04018496
114	0xbdc52b92	-0.09627451
115	0x3da2c53d	0.079477765
116	0xbc941d38	-0.018080339
117	0xbd8ab1a3	-0.06772163
118	0x3ceeef5a	0.029166866
119	0xbd392294	-0.045198992
120	0x3dc7df1f	0.09759354
121	0xbd253ecf	-0.040343102
122	0xbd5dd6f4	-0.054160073
123	0xbd6cba53	-0.05779488
124	0xbd683578	-0.056691617
125	0xbc1fdfec	-0.009757977
126	0xbc3cf4b8	-0.011532955
127	0x3c7542e5	0.014969562
128	0xbcf4da2a	-0.029889185
129	0x3c258520	0.01010254
130	0xbd71406b	-0.058899324
131	0xbd01583d	-0.03157829
132	0x3c9da4f2	0.019243691
133	0x3dae642d	0.08515201
134	0xbd673996	-0.056451403
135	0x3d28e5a1	0.041234616
136	0xbd17942d	-0.037006546
137	0x3d8b79d8	0.06810349
138	0x3d55cc79	0.052196953
139	0xbd7cd498	-0.061726183
140	0x3c9e2328	0.019303873
141	0x3dae2247	0.08502632
142	0xbd8d07fe	-0.0688629
143	0xbd7d5ddb	-0.061857086
144	0x3d00741c	0.03136073
145	0x3cfef692	0.031123433
146	0xbd3af9b1	-0.04564828
147	0xb9bca694	-0.00035982265
148	0xbd5bbc35	-0.053646285
149	0xbcbe7bee	-0.023252454
150	0x3cc6e964	0.024281211
151	0xbd9800de	-0.074220404
152	0x3d8ad298	0.06778449
153	0xbd1141f7	-0.0354633
154	0xbc84e95a	-0.016224552
155	0x3c079d80	0.008277297
156	0xbd5bef5a	-0.05369506
157	0xbc2bee3f	-0.010493814
158	0x3dac8f86	0.084258124
159	0x3cf78b5b	0.030217817
160	0xbcad3191	-0.0211418
161	0xbd9e6263	-0.077336095
162	0xbcb249c4	-0.02176369
163	0xbc416555	-0.011803945
164	0x3a2152ad	0.0006153982
165	0xbcfb0ae6	-0.030644845
166	0xbd9ac77a	-0.075575784
167	0x3c512b0f	0.012766614
168	0x3c256086	0.010093814
169	0x3aee24de	0.0018168946
170	0x3da39a7e	0.079884514
171	0x3d66bcf2	0.056332536
172	0xbd75b0dd	-0.059983123
173	0xbc69e1f2	-0.014275061
174	0x3d19127b	0.03737114
175	0x3c283ac0	0.010267913
176	0xbd95f7f6	-0.073226854
177	0xbd98d886	-0.074631736
178	0x3d27fa6f	0.041010316
179	0xbda16835	-0.07881204
180	0x3cec887d	0.028873676
181	0x3d18b04a	0.037277497
182	0x3cb8d221	0.022561135
183	0xbd3803dd	-0.04492556
184	0xbc9cf1eb	-0.019158324
185	0x3c67a32e	0.014138026
186	0xbbc1d6e2	-0.0059155086
187	0x3d21c575	0.03949495
188	0x3cbcabc9	0.023031132
189	0x3c912729	0.017718868
190	0xbd6e9352	-0.058245964
191	0xbc41a4ee	-0.011819107
192	0xbd053a7b	-0.032526474
193	0xbd84cb7b	-0.06484123
194	0xbdad9a4e	-0.08476697
195	0x3d9564a7	0.072945885
196	0x3d784bb8	0.060619086
197	0x3d25a234	0.040437892
198	0x3c8ae722	0.016955916
199	0xbca6bad9	-0.020352768
200	0xbcd3b291	-0.025841983
201	0x3c0f13da	0.00873276
202	0x3c210945	0.00982887
203	0xbd8bb2fc	-0.06821248
204	0x3d26dd6e	0.040738516
205	0x38e95784	0.00011126607
206	0x3c2105f5	0.00982808
207	0xbd91262f	-0.07087361
208	0xbd91e71f	-0.07124161
209	0xbd8a8ed3	-0.06765523
210	0xbd54aa97	-0.0519205
211	0x3d8bbf80	0.06823635
212	0x3cc57b6d	0.024106706
213	0xbcf1356e	-0.029444423
214	0x3d29dbe0	0.041469455
215	0x3d4d46c2	0.050116308
216	0x3d2912fc	0.04127787
217	0x3d1df9f9	0.03856847
218	0x3ccece57	0.025244875
219	0xbce20bb5	-0.027593473
220	0xbbfcba3b	-0.00771263
221	0xbd0f3dfe	-0.03497123
222	0x3dbf359c	0.09336397
223	0xbda12c16	-0.07869737
224	0x3d9e1ce5	0.07720355
225	0xbd2b9f42	-0.041899927
226	0xbcfc2e5c	-0.030783825
227	0x3d02f2a0	0.031969666
228	0x3c6659e5	0.014059518
229	0xbcd159a6	-0.025555443
230	0xbd50892e	-0.050912075
231	0x3d0e208a	0.034699
232	0x3d259c55	0.040432293
233	0xbcf29889	-0.02961375
234	0xbd17ad02	-0.037030227
235	0x3c03a46c	0.008034807
236	0xbd6bf26d	-0.057604242
237	0x3cb1c7ad	0.021701658
238	0x3d04ca78	0.03241965
239	0x3d903ccf	0.07042848
240	0xbd028d9e	-0.031873338
241	0xbc836325	-0.016038487
242	0xbb1f5e4d	-0.0024317682
243	0xbda4ead7	-0.08052605
244	0x3cf07fac	0.029357754
245	0xbd86aee7	-0.06576329
246	0xbc91c528	-0.017794207
247	0x3d8f049e	0.069833025
248	0xbd85714d	-0.06515751
249	0x3c3d6f13	0.011562127
250	0xbc24c302	-0.010056259
251	0xbcbfb35b	-0.023400953
252	0xbc00a40a	-0.00785161
253	0xbcc4fd1a	-0.02404647
254	0xbb3f89e4	-0.0029226476
255	0x3c890be8	0.01672931

actor.2.weight f4 [2, 512]
0	0x3c530fcc	0.012882184
1	0x3cb906c5	0.022586236
2	0xbd702bf8	-0.058635682
3	0x3ccc28d8	0.02492182
4	0x3d328bbe	0.0435903
5	0xbd65324d	-0.055956174
6	0xbd5cbd39	-0.053891394
7	0x3d5eb775	0.054374177
8	0x3d90fd3a	0.07079549
9	0x3dc511b3	0.096225165
10	0xbc7afb70	-0.015318736
11	0xbd713e83	-0.058897506
12	0x3d060529	0.032719765
13	0xbd521a82	-0.05129481
14	0xbd673b5a	-0.056453086
15	0x3d09d23c	0.03364776
16	0xbdbeb546	-0.09311919
17	0xbd4b4df6	-0.049634896
18	0x3d9776ff	0.073957436
19	0xbc03c60e	-0.008042825
20	0xbbfa8069	-0.007644702
21	0x3d3c41ff	0.045961376
22	0xbca9066c	-0.020632945
23	0xbdc4bbcd	-0.09606133
24	0x3d8a31d0	0.06747782
25	0x3c9d84b0	0.01922831
26	0xbbd8e26f	-0.00661879
27	0x3c0e2522	0.008675845
28	0x3d1068d3	0.03525622
29	0xbd38b2bb	-0.045092326
30	0xbbae3127	-0.005315918
31	0xbb248920	-0.0025106147
32	0xbd128d55	-0.035779316
33	0x3d6bc491	0.057560507
34	0x3c5b7b37	0.013396076
35	0xbd2597f2	-0.04042811
36	0xbade209d	-0.0016946975
37	0x3dadcb3b	0.08486029
38	0x3cc9ae99	0.024619387
39	0xbd085cba	-0.033291556
40	0x3d8348df	0.064103834
41	0x3cc1d638	0.023661718
42	0xbc44e205	-0.012016778
43	0x3d263ddd	0.04058634
44	0xbd21910a	-0.03944496
45	0x3da6f308	0.08151823
46	0x3cf57fb2	0.029968116
47	0x3bbe777e	0.0058125844
48	0xbc625acc	-0.013815593
49	0xbda737b6	-0.08164923
50	0xbd1348d3	-0.035958122
51	0xbd784fcd	-0.06062298
52	0x3c79e9ca	0.015253494
53	0x3cd9e2ef	0.026597468
54	0xbd5e61fe	-0.05429267
55	0x3da6d1ed	0.08145509
56	0xbd09b8bb	-0.03362344
57	0xbc78e249	-0.015190669
58	0x3cc3ac64	0.023885913
59	0xbd3bb0a4	-0.045822755
60	0x3be0d9fc	0.0068619233
61	0xbda22e87	-0.07919031
62	0xbd956677	-0.07294934
63	0xbd83b7d7	-0.06431549
64	0xbcffaba4	-0.031209774
65	0xbc99b1d2	-0.01876155
66	0xbdac5527	-0.08414679
67	0x3ab162d4	0.0013533481
68	0x382951cb	4.0368916e-05
69	0xbd299d67	-0.041409876
70	0xbd8298b4	-0.06376782
71	0x3c9e3e33	0.019316768
72	0xbd3afa05	-0.045648593
73	0x3d60b83e	0.054863207
74	0xbd1f460c	-0.03888516
75	0xbcd0aec6	-0.025473963
76	0xbd8d5a17	-0.06901949
77	0x3d1e4dca	0.038648404
78	0xbd6c0b6a	-0.057628073
79	0x3d041334	0.032244876
80	0xbcd55f52	-0.026046429
81	0xbd032c10	-0.032024443
82	0x3d2446ee	0.040106706
83	0xbd8fc951	-0.0702082
84	0x3dade405	0.08490757
85	0xbc68bec7	-0.014205641
86	0xbd148689	-0.036261115
87	0xbb17be54	-0.0023154216
88	0xbc672932	-0.014108943
89	0x3c19b5f9	0.009381765
90	0x3b290df0	0.002579566
91	0x3d23916b	0.039933603
92	0x3cc174b2	0.023615215
93	0x3d0d718c	0.034532115
94	0x3da349df	0.07973074
95	0x3b69e28f	0.0035688018
96	0xbd9a72e8	-0.07541448
97	0x3d6f9936	0.058495723
98	0xbdb38dfd	-0.087673165
99	0xbc6033b0	-0.013684198
100	0xbd03800a	-0.03210453
101	0xbd8cd130	-0.06875837
102	0x3cab0f85	0.020881424
103	0xbd10dcd2	-0.03536684
104	0xbda8b31b	-0.08237287
105	0xbcfb0ebb	-0.030646672
106	0xbbf6c153	-0.0075303703
107	0x3da1fb80	0.07909298
108	0x3d0de49a	0.03464184
109	0xbd334bfb	-0.043773632
110	0xbd432770	-0.047645032
111	0xbd76fd8c	-0.060300395
112	0xbcedafb8	-0.029014453
113	0xbd883bde	-0.06652044
114	0x3c6c91b6	0.014439037
115	0x3d2bca6d	0.041941095
116	0x3d78e228	0.060762554
117	0x3c91a045	0.017776618
118	0xbd3428ff	-0.04398441
119	0xbd9e09ac	-0.077166885
120	0xbd64f7e0	-0.055900455
121	0xbd9d2771	-0.076735385
122	0x3c3ba5da	0.011453116
123	0x3d9111a3	0.07083442
124	0x3d8e9b81	0.06963254
125	0x3cc06829	0.023487167
126	0x3d47e556	0.048802696
127	0xbd99bd09	-0.07506759
128	0xbd4b3574	-0.049611524
129	0xbd6787a7	-0.056525853
130	0xbdbd6052	-0.09246887
131	0x3d82a101	0.06378365
132	0x3d2dd4ee	0.042439394
133	0x3d802600	0.06257248
134	0x3c0cd1a7	0.008594907
135	0x3d3d2554	0.046178177
136	0xbd26fe41	-0.04076982
137	0xbd2867ee	-0.04111474
138	0xbd4ffbea	-0.050777353
139	0xbc8773ba	-0.016534675
140	0xbd3b1b6a	-0.04568044
141	0x3c9bef38	0.019034967
142	0x3d78d6a2	0.060751565
143	0xbc3d0d50	-0.0115388185
144	0xbc733385	-0.014843826
145	0xbc9a8447	-0.018861903
146	0xbcf50806	-0.029911052
147	0xbcd6cdf8	-0.02622126
148	0xbd75aab2	-0.05997724
149	0xbbcb466c	-0.0062034633
150	0x3cb6cb48	0.022313729
151	0xbbc9d2d4	-0.006159166
152	0x3bda8bc2	0.0066694925
153	0x3cc54d74	0.024084784
154	0x3d351284	0.04420711
155	0xbd7f95bf	-0.06239867
156	0xbd89a104	-0.067201644
157	0xbd87101b	-0.06594869
158	0xbd244c3d	-0.04011177
159	0xbc75773d	-0.014982042
160	0x3bc9abd2	0.006154516
161	0xbd84b7e2	-0.06480385
162	0x3ca62c0b	0.020284673
163	0xbc933a44	-0.01797212
164	0x3c911ec9	0.017714875
165	0xbcdfe692	-0.027331624
166	0xbd0928f9	-0.03348634
167	0xbd8fb159	-0.07016248
168	0x3c43a0ec	0.011940222
169	0xbc9db5d8	-0.019251749
170	0x3bf08b8f	0.0073408554
171	0xbd19ea3b	-0.037576895
172	0xbcef1984	-0.029186971
173	0xbdcd100f	-0.100128286
174	0x3d2bcf61	0.04194582
175	0x3d883c77	0.06652158
176	0x3c3a0da1	0.011355788
177	0xbd82f401	-0.06394196
178	0xbd0b5b33	-0.03402252
179	0xbca60418	-0.020265624
180	0x3cab457a	0.020907152
181	0x3bb98c18	0.0056624524
182	0xbd838ac6	-0.06422953
183	0x3d2f632d	0.04281919
184	0xbca0ac9b	-0.019613555
185	0x3d3a414e	0.045472436
186	0xbd9d0b4b	-0.076681696
187	0x3c93f157	0.018059416
188	0xbbd9880f	-0.006638534
189	0x3cf1e2de	0.029527124
190	0xb98c6a25	-0.00026781965
191	0xbcc7a20d	-0.024369264
192	0xbccbc068	-0.02487202
193	0xbc87f52d	-0.016596401
194	0xbbfeae0f	-0.0077722142
195	0x3d701fc2	0.058624037
196	0xbd9810fd	-0.07425115
197	0x3d6d0d16	0.057873808
198	0xbc877b5e	-0.016538318
199	0x3d1aac81	0.03776217
200	0xbd5c61a3	-0.05380405
201	0x3d008e78	0.03138587
202	0x3c908a32	0.017644022
203	0x3da28257	0.079350166
204	0xbd62f47a	-0.055408932
205	0xbc0bf6f0	-0.008542761
206	0xbd9e49e6	-0.07728939
207	0xbc42d7a9	-0.011892238
208	0x3d836c36	0.06417124
209	0xbd36bd90	-0.044614375
210	0xbd949ffd	-0.07257078
211	0x3d26db4c	0.04073648
212	0xbd75cbcc	-0.06000881
213	0x3c2110c0	0.009830654
214	0x3bff154c	0.007784521
215	0x3c3a40ed	0.011368019
216	0xbc04f9dc	-0.008116212
217	0xbd40d707	-0.047080066
218	0x3ceb68e3	0.028736537
219	0xbd09f644	-0.033682123
220	0x3d006491	0.031345908
221	0xbd32f4ba	-0.04369042
222	0x3cfbdf1d	0.030746037
223	0x3d829534	0.063761145
224	0xbd87e27d	-0.06634996
225	0xbd899a27	-0.06718855
226	0x3d3d9d3b	0.046292525
227	0xbdb8cefa	-0.09023853
228	0xbc55f70d	-0.01305939
229	0xbd29fe38	-0.041502208
230	0x3d223383	0.039599907
231	0x3dab9e92	0.08379854
232	0xbd0237be	-0.03179144
233	0x3d33e9a4	0.04392399
234	0xbc8a5e93	-0.0168908
235	0x3cacb214	0.021081008
236	0x3c7757d5	0.015096624
237	0x3c82a74f	0.01594892
238	0x3bb7d06a	0.0056095617
239	0x3c2fd3bc	0.010731634
240	0xbd8c1312	-0.06839575
241	0xbb805455	-0.003916303
242	0x3d432214	0.04763992
243	0xbb8976f3	-0.004195088
244	0x3c0e1997	0.008673093
245	0xbd94db12	-0.07268347
246	0xbc9986e4	-0.018741079
247	0x3d39c675	0.04535528
248	0x3d8d9c70	0.06914604
249	0xbc90c075	-0.017669896
250	0xbd198f50	-0.03749019
251	0x3d854ab5	0.0650839
252	0x3d4fb238	0.050707072
253	0xbd5f3725	-0.05449595
254	0xbc080014	-0.0083008
255	0xbd9068c3	-0.07051232

actor.2.bias f4 [2]
0	0x3c216506	0.009850746
1	0x3abaf4d3	0.0014263637

critic.0.weight f4 [512, 127]
0	0x3c99c302	0.018769745
1	0xbd5dc7d0	-0.054145634
2	0x3d26c66f	0.040716585
3	0x3b947d49	0.0045315367
4	0xbd65d1d4	-0.05610831
5	0xbc70e37b	-0.014702673
6	0x3db9e89c	0.0907757
7	0xbdcde2f9	-0.10053057
8	0xbd036286	-0.03207638
9	0x3d5e847b	0.054325562
10	0xba4decf1	-0.00078554364
11	0xbe02d4aa	-0.12776437
12	0xbe39a46f	-0.18129133
13	0x3cc4ea84	0.024037607
14	0x3d77b7af	0.06047791
15	0xbddf6afe	-0.10909079
16	0x3e5be890	0.21475434
17	0xbd1eb661	-0.03874815
18	0x3d9ea19f	0.077456705
19	0xbe7853eb	-0.24250762
20	0xbd8afcd9	-0.06786508
21	0xbd3844c3	-0.04498745
22	0xbd70d5eb	-0.058797758
23	0x3a011a6e	0.0004924898
24	0x3e0ab7a3	0.13546614
25	0x3b88e3b0	0.004177533
26	0xbbb4214b	-0.005497133
27	0xbdfca9c0	-0.12337065
28	0xbd0547b7	-0.032539096
29	0x3c7f2c98	0.015574597
30	0x3d09516f	0.033524927
31	0x3d4dc78a	0.050239123
32	0x3e6b02d7	0.22950302
33	0xbd7f479c	-0.06232415
34	0xbba41de4	-0.005008446
35	0xbe2f1117	-0.17096363
36	0xbb9e23d0	-0.0048260465
37	0x3d8db077	0.069184236
38	0x3d127624	0.0357572
39	0x3cf351f6	0.029702168
40	0x3de40540	0.11133814
41	0xbdbba650	-0.09162581
42	0x3d920009	0.07128913
43	0xbe7891ff	-0.24274443
44	0x3c3db252	0.011578159
45	0xbb496290	-0.0030728914
46	0x3d6b0ed9	0.057387207
47	0xbce03ec5	-0.02737368
48	0x3e091894	0.13388282
49	0xbcd87c86	-0.026426565
50	0x3d8d0db8	0.06887382
51	0xbe97201c	-0.29516685
52	0x3d4aa2fc	0.04947184
53	0xbc76599c	-0.015036013
54	0x3c315309	0.01082302
55	0x3cb73662	0.022364799
56	0x3de40d4d	0.111353494
57	0x3cbe9412	0.023263965
58	0xbd82f81a	-0.06394978
59	0xbe44df65	-0.19225843
60	0x3e45d22c	0.19318455
61	0x3db62071	0.088929065
62	0x3c12ac1a	0.008952165
63	0xbdcf1fe4	-0.101135045
64	0x3e2b9065	0.16754301
65	0x3da9f8ac	0.082993835
66	0xbd8eb244	-0.06967595
67	0xbdce9042	-0.10086109
68	0x3c95e14e	0.01829591
69	0xbd5546d7	-0.05206951
70	0x3b9323d4	0.004490355
71	0xbddeeeae	-0.10885368
72	0x3e304aa8	0.17215979
73	0xbd09e784	-0.033668056
74	0x3db7903b	0.08963057
75	0x3def77e9	0.11692793
76	0xbd8895aa	-0.06669171
77	0xbd0313b4	-0.032001212
78	0x3d242fad	0.04008453
79	0x3d33ee74	0.04392858
80	0x3d6df945	0.05809905
81	0xbd6f117c	-0.058366284
82	0xbd933663	-0.07188108
83	0x3da0241f	0.078193896
84	0x3ce3e7a5	0.027820418
85	0x3d86bd43	0.065790676
86	0x3d574887	0.0525594
87	0x3dfad334	0.12247315
88	0x3e289e29	0.16466583
89	0xbd4c8a91	-0.049936835
90	0xbd4508f6	-0.04810425
91	0x3ddfa508	0.10920149
92	0xbcbe5d07	-0.023237718
93	0xbd2c6e51	-0.042097393
94	0x3da12b9e	0.078696474
95	0x3e177e4e	0.14794275
96	0x3e0f4336	0.13990483
97	0xbd83e38c	-0.064398855
98	0x3c59de7b	0.013297672
99	0x3dae078c	0.08497533
100	0x3c4a06c3	0.012330714
101	0xbd081b07	-0.0332289
102	0x3d8834dd	0.06650708
103	0x3dcacdce	0.099025354
104	0x3e01f632	0.12691572
105	0xbcbe5416	-0.023233455
106	0x3d95a108	0.07306105
107	0x3d67e7c5	0.056617517
108	0xbd508855	-0.050911266
109	0x3daac026	0.08337431
110	0xbd4088a0	-0.047005296
111	0x3db4b9dc	0.08824512
112	0x3de577d3	0.11204495
113	0x3c8604f2	0.01635978
114	0xbd9efdf0	-0.077632785
115	0x3e3da118	0.18518484
116	0xbd4c106e	-0.049820356
117	0xbd8cc7f7	-0.06874078
118	0x3db5aa48	0.08870369
119	0x3c516663	0.012780759
120	0x3e0c3844	0.13693339
121	0x3ca9393a	0.02065717
122	0xbd8b331b	-0.06796857
123	0x3e0b25f5	0.13588698
124	0xbe71bb88	-0.23606694
125	0x3c984c06	0.018590938
126	0x3db6b9b8	0.08922142
127	0x3dc82689	0.09772975
128	0xbda5df0a	-0.08099182
129	0xbd2cd875	-0.042198617
130	0xbd6f3b15	-0.058405954
131	0x3d37b23c	0.044847712
132	0x3d3fb8dc	0.046807155
133	0x3dbf396c	0.09337124
134	0xbd50ebbc	-0.051006064
135	0x3d540d06	0.051770233
136	0xbd3942e2	-0.0452298
137	0x3da73968	0.08165246
138	0xbe222116	-0.15832934
139	0x3df41a52	0.11919083
140	0xbda764b3	-0.08173504
141	0xbb601073	-0.0034189492
142	0xbd584fdb	-0.05281053
143	0xbddc3fa0	-0.10754323
144	0x3dd38f0e	0.1033002
145	0x3d50a380	0.050937176
146	0xbcd09c81	-0.025465252
147	0xbd342ce5	-0.043988127
148	0xbd7396f4	-0.059470132
149	0xbd38d4e6	-0.04512491
150	0xbdd5276d	-0.104079105
151	0xbe0b41b7	-0.13599287
152	0x3da3e45c	0.080025405
153	0xbd225de2	-0.039640315
154	0xbdd057ba	-0.101729825
155	0x3c80e494	0.015733995
156	0x3da8c9ab	0.0824159
157	0x3c3fd945	0.011709516
158	0x3ceef197	0.029167933
159	0xbe78544b	-0.24250905
160	0x3d60bb1d	0.054865945
161	0x3ccc010e	0.024902847
162	0xbdb0c6fb	-0.086317025
163	0xbe66a2ad	-0.22522993
164	0xbc951c2a	-0.018201906
165	0x3d2fda0d	0.04293256
166	0x3d99aab8	0.07503265
167	0xbe4b0a3a	-0.1982812
168	0x3d307d69	0.04308835
169	0x3d4f2afd	0.050578106
170	0xbb803847	-0.003912959
171	0xbe879211	-0.26478627
172	0xbd395123	-0.045243394
173	0x3c3cecf3	0.0115311025
174	0xbd0c6ff2	-0.034286447
175	0xbeadfe86	-0.33983248
176	0x3dec4a9b	0.11537667
177	0xbd2fef34	-0.04295273
178	0x3d852224	0.065006524
179	0xbec22833	-0.37921295
180	0x39f3da1d	0.0004651108
181	0x3dded8c0	0.108811855
182	0x3bc9ffe5	0.006164538
183	0xbe89c7e3	-0.26910314
184	0x3d2129e8	0.039346606
185	0x3da28d80	0.07937145
186	0x3cde13b3	0.027109003
187	0xbe782608	-0.24233258
188	0x3dac3307	0.0840817
189	0x3d94efa0	0.07272267
190	0x3d3f5b08	0.046717674
191	0xbe765447	-0.24055587
192	0xbd05c77c	-0.032660946
193	0xbd109f8f	-0.035308417
194	0xbdb1ac38	-0.08675426
195	0xbe8f9ca9	-0.2804921
196	0xbb825113	-0.00397695
197	0xbd6266e7	-0.055273917
198	0x3e02926f	0.12751172
199	0xbe8fca10	-0.2808385
200	0xbd52fd81	-0.05151129
201	0xbd299feb	-0.041412275
202	0xbdb3e70f	-0.08784305
203	0xbe79dd1e	-0.24400756
204	0x3d61274e	0.054969124
205	0xbcd23100	-0.02565813
206	0xbd7532f7	-0.059863057
207	0xbdada3db	-0.084785186
208	0xbca00f60	-0.019538581
209	0xbd4f9d59	-0.050687168
210	0xbd015416	-0.03157433
211	0xbe140702	-0.14455798
212	0xbd115de1	-0.03548992
213	0xbd7014f6	-0.05861374
214	0x3d4600e9	0.04834071
215	0x3cad79f3	0.021176314
216	0xbd3c6850	-0.045997918
217	0x3d89ae70	0.067227244
218	0x3c19e721	0.009393484
219	0xbd9f8fdb	-0.0779111
220	0x3cd658df	0.026165424
221	0xbc3f40ca	-0.011673162
222	0x3c902f31	0.017600628
223	0x3c3fd1d9	0.011707746
224	0x3daae943	0.083452724
225	0xbd59bc1d	-0.053157914
226	0x3d1ed288	0.038774997
227	0xbe1a1fa3	-0.15051131
228	0x3db147b2	0.08656253
229	0x3db463e6	0.088081166
230	0xbdeabbfa	-0.11461635
231	0xbd45bcdd	-0.048275817
232	0xbc3e1698	-0.011602066
233	0x3dba38d7	0.090928726
234	0x3d4da8f5	0.050209958
235	0x3c620900	0.013796091
236	0x3d4776f9	0.048697446
237	0xbd08be5c	-0.033384666
238	0xbe13bc34	-0.14427263
239	0xbd409d3a	-0.047024943
240	0xbd54bef8	-0.051939934
241	0xbcd45ae8	-0.025922254
242	0x3d225ae5	0.039637465
243	0xbd9cccae	-0.07656227
244	0x3d7a7181	0.061143402
245	0xbd888603	-0.06666186
246	0xbe2fed8d	-0.17180462
247	0xbd96243d	-0.07331131
248	0xbd594034	-0.053039744
249	0x3cc06b38	0.023488626
250	0xbdbdec1b	-0.09273549
251	0xbda9f496	-0.08298604
252	0x3ced0df6	0.028937321
253	0x3c75924c	0.014988493
254	0xbd83ec96	-0.064416096
255	0xbb39399c	-0.0028263098

critic.0.bias f4 [512]
0	0xbd15b515	-0.036549646
1	0x3c860b34	0.016362764
2	0x3be52375	0.006992752
3	0xbd586fa1	-0.052840833
4	0x3d77a16c	0.06045668
5	0x392e192b	0.00016603309
6	0xbcd593a9	-0.026071386
7	0xbd0da3dc	-0.034580097
8	0x3c0b9178	0.008518569
9	0xbd804aef	-0.062642924
10	0xbb82184f	-0.003970183
11	0xbda7c764	-0.081923276
12	0x3c246c37	0.010035566
13	0x3a876361	0.00103293
14	0xbc0327f1	-0.008005128
15	0x3cb846f8	0.022494778
16	0x3d1b7518	0.037953466
17	0xbd259962	-0.04042948
18	0xbd90a383	-0.070624374
19	0x3dd140ef	0.10217463
20	0x3b9143ee	0.0044331467
21	0x3d56fb93	0.052486014
22	0x3b82e56a	0.0039946334
23	0x3cbcfcf1	0.02306983
24	0x3d53f58e	0.05174785
25	0x3d8316da	0.06400843
26	0xbd378035	-0.044800002
27	0xbd5ddf42	-0.054167993
28	0x3c88a9ba	0.016682494
29	0x39be1e63	0.00036262264
30	0x3d969d05	0.07354168
31	0xbbf73c39	-0.007545021
32	0x3d954cc6	0.07290034
33	0x3d9bd4d3	0.076089524
34	0xb9d51b62	-0.00040646928
35	0xbc4e9565	-0.012608861
36	0xbd8fd2f4	-0.07022658
37	0xbd1ecaa8	-0.038767487
38	0xbd68a9c4	-0.056802526
39	0xbd8aaa3b	-0.0677075
40	0x3d99881c	0.07496664
41	0xbd9286ff	-0.07154655
42	0x3c4011b0	0.011722967
43	0x3d0348a5	0.0320517
44	0x3dc02021	0.09381128
45	0xbccde1eb	-0.02513214
46	0xbcc8d9db	-0.024517944
47	0xbaf54f4f	-0.0018715652
48	0x3cfdc0c3	0.030975705
49	0xbd48a0dc	-0.048981532
50	0x3c50d7c8	0.012746759
51	0x3d2354c6	0.039875768
52	0x3b7c1d47	0.00384696
53	0x3bc81385	0.0061058425
54	0xbc98ed12	-0.018667731
55	0x3d6a1fae	0.05715912
56	0x3d55e610	0.052221358
57	0xbd80faca	-0.06297834
58	0x3d0b2a86	0.0339761
59	0x3c8f110a	0.01746418
60	0xbcafa393	-0.021440303
61	0xbd9d0a98	-0.07668036
62	0xbcae3df2	-0.021269772
63	0x3d633e39	0.055479262
64	0xbd556542	-0.05209852
65	0x3ca9caa1	0.020726504
66	0x3d119343	0.03554083
67	0x3d45ab12	0.04825885
68	0xbcd6f11f	-0.026238022
69	0xbdaafd49	-0.083490916
70	0xbdb0d5d4	-0.086345345
71	0xbd7c59f9	-0.061609242
72	0x3d73e720	0.05954659
73	0xbcccb62e	-0.024989214
74	0xbc9ef88f	-0.019405631
75	0xbd3851ad	-0.044999767
76	0xbc02c096	-0.007980486
77	0x3d63f48d	0.055653144
78	0xbc6b3a8c	-0.01435722
79	0xbd55e6cf	-0.05222207
80	0xbd2ae171	-0.041718904
81	0x3ba4c68a	0.0050285505
82	0xbd1ff426	-0.039051197
83	0x3c80fd15	0.015745679
84	0x3d99a704	0.07502559
85	0xbc9b8200	-0.018982887
86	0x3b01326b	0.001971389
87	0xbb8ddcfb	-0.0043293214
88	0x3d0e759b	0.034780126
89	0xbd852751	-0.0650164
90	0xbda70623	-0.08155467
91	0xbd28b8fd	-0.041192044
92	0x3cb52316	0.022111457
93	0xbca37953	-0.019955313
94	0x3da1d661	0.07902218
95	0xbd10e6eb	-0.03537647
96	0xbd94c381	-0.07263852
97	0x3d8ae070	0.06781089
98	0x3dada157	0.08478039
99	0xbd5f4f9d	-0.054519285
100	0xbd14e6d6	-0.036352955
101	0xbdb08489	-0.08619029
102	0x3d4b011a	0.049561597
103	0x3c9fe325	0.01951749
104	0xbdbe0106	-0.09277539
105	0xbc8a95b7	-0.016917093
106	0xbc552b14	-0.013010759
107	0x3d5c90ce	0.053849034
108	0x3bf7f714	0.007567296
109	0xbd399c87	-0.04531529
110	0x3d416dc1	0.04722381
111	0x3c4311f3	0.011906135
112	0xbd16bcfa	-0.036801316
113	0x3d8e4f71	0.06948746
114	0x3dcaaf00	0.0989666
115	0xbd7a9075	-0.06117292
116	0x3cc1cda4	0.023657627
117	0xbd3b2650	-0.045690835
118	0x3caef846	0.02135862
119	0xbd0a0ab8	-0.03370163
120	0xbda9d0a4	-0.08291748
121	0x3d09d04e	0.03364592
122	0xbcac5cae	-0.021040287
123	0x3d210361	0.039309863
124	0x3d4c9c16	0.049953543
125	0xbd8ac97c	-0.06776711
126	0x3d476ea6	0.048689507
127	0x3d86e2b7	0.06586211
128	0xbcbc2450	-0.022966534
129	0xbc3d2cff	-0.011546372
130	0x3d17b5a4	0.03703846
131	0xbdb5daf7	-0.08879655
132	0xbc162812	-0.009164827
133	0x3dedef4c	0.11617908
134	0xbd8ef3b2	-0.06980075
135	0xbc786fb2	-0.015163349
136	0xbd56b903	-0.052422535
137	0xbb66d910	-0.0035224594
138	0x3dda5301	0.10660363
139	0xbd43190e	-0.047631316
140	0x3cf1ffe0	0.029540956
141	0x3cac0bbf	0.021001695
142	0x3d28764d	0.041128445
143	0x3ca4fabf	0.020139096
144	0xbd054b4b	-0.032542508
145	0xbda2f517	-0.079569034
146	0x3dc4defe	0.09612845
147	0x3d91ed98	0.071253955
148	0xbc1111a1	-0.008854301
149	0xbd562b8d	-0.052287627
150	0xbd7bb1a7	-0.06144872
151	0xbc30b8a9	-0.010786214
152	0x3cc5a958	0.024128601
153	0x3d945321	0.07242418
154	0xbd0f594e	-0.034997277
155	0x3db17ce8	0.08666402
156	0x3d546b8e	0.051860385
157	0xbc0a4d61	-0.0084413
158	0xbda8d3e8	-0.08243543
159	0xbcc55dc1	-0.024092557
160	0xbd501962	-0.050805457
161	0xbc4f04a5	-0.012635385
162	0x3d5b3dce	0.05352574
163	0x3d45f112	0.048325606
164	0x3d801eb9	0.0625586
165	0x3d3bd3d9	0.04585633
166	0x3d83eded	0.06441865
167	0xbd00d18b	-0.031449836
168	0xbd41b491	-0.047291342
169	0xbcdd61b0	-0.02702412
170	0xbd0c8b62	-0.034312613
171	0xbd93c1ea	-0.072147205
172	0x3dd1f539	0.10251851
173	0x3c3be24b	0.011467527
174	0x3d8997de	0.067184195
175	0xbd5807b3	-0.052741718
176	0xbc8a8743	-0.016910201
177	0x3d1b4c72	0.0379147
178	0x3d25d32a	0.040484585
179	0x3d94e796	0.07270734
180	0xbcee3a3b	-0.0290805
181	0x3b1ec603	0.002422691
182	0xbd1ee16b	-0.038789194
183	0xbd6e0a8a	-0.05811552
184	0xbd5b2549	-0.053502355
185	0x3cb17905	0.021664152
186	0x3db0013f	0.08593988
187	0xba92613d	-0.0011167895
188	0xbd8e5e21	-0.069515474
189	0x3d133535	0.035939414
190	0x3c3fe356	0.011711916
191	0xbdb8686c	-0.09004292
192	0x3d67fa53	0.056635212
193	0xbc279aca	-0.010229776
194	0x3d97c310	0.07410252
195	0x3bea1848	0.007144008
196	0x3da4ae7d	0.080410935
197	0xbd141d53	-0.03616078
198	0x3d3ce379	0.046115372
199	0x3d38ede8	0.04514876
200	0xbc1682c9	-0.009186455
201	0x3d805c8e	0.062676534
202	0xbc1ca8c6	-0.009561723
203	0x3cdd0a6d	0.02698251
204	0xbc5601b6	-0.013061931
205	0xbd608d64	-0.05482234
206	0x3d2d1cb1	0.04226369
207	0x3d642aa1	0.055704717
208	0xbd6efc8a	-0.05834631
209	0x3c1fc1ce	0.0097507965
210	0x3d09720b	0.033556025
211	0x3da6dcc1	0.08147574
212	0xbab419b5	-0.0013740571
213	0xbc4f7749	-0.012662717
214	0xbd57fa99	-0.052729223
215	0xbdb937b9	-0.090438314
216	0xbd3ed1b3	-0.046586704
217	0x3db1e363	0.08685949
218	0xbd078cf4	-0.033093408
219	0x3d7716ac	0.060324356
220	0x3cbb78ea	0.022884805
221	0xbadc0425	-0.0016785903
222	0xbccf7e3b	-0.025328746
223	0x3d0e245e	0.03470265
224	0xbcaf3e75	-0.021392087
225	0xbbf91e2e	-0.0076024747
226	0x3cae9cc2	0.021314982
227	0x3d538d3a	0.051648356
228	0xbdcb9bc2	-0.09941818
229	0xbdb5244c	-0.08844814
230	0xbcb524e0	-0.02211231
231	0x39f37318	0.00046434323
232	0x3d384606	0.044988655
233	0x3d7c962e	0.06166666
234	0x3be84037	0.007087733
235	0xbd992b05	-0.074789084
236	0xbd898e0d	-0.06716547
237	0x3dcbc2fe	0.09949301
238	0x3d65c64c	0.056097314
239	0xba98b1c2	-0.0011649656
240	0xbaa06868	-0.0012238147
241	0xbd7a2122	-0.061066754
242	0xbd8e699b	-0.069537364
243	0x3daea8a5	0.0852826
244	0x3d26a62f	0.04068583
245	0x3c3fe809	0.011713036
246	0x3ca3eb59	0.020009683
247	0x3c113c3a	0.008864457
248	0x3d347a1f	0.044061776
249	0xbd137d3d	-0.03600811
250	0xbc32bebb	-0.0109097315
251	0x3cfe1cb4	0.031019546
252	0x3d9c1906	0.0762196
253	0xbc2ddc50	-0.010611609
254	0xbd4c13bd	-0.04982351
255	0xbd4a6d74	-0.04942079

critic.2.weight f4 [1, 512]
0	0x3dd78655	0.10523669
1	0xbe124eb0	-0.1428783
2	0xbd851731	-0.06498564
3	0x3db3b362	0.08774449
4	0xbd82d0d6	-0.063874885
5	0x3d64b8ac	0.05584018
6	0xbd4988d8	-0.04920277
7	0x3d273fb7	0.040832248
8	0xbe66c222	-0.22534993
9	0x3e179560	0.14803076
10	0x3e1e998c	0.15488261
11	0xbdb662b6	-0.08905546
12	0xbcfe1576	-0.031016093
13	0x3c83c58a	0.016085405
14	0x3d8611b8	0.06546348
15	0xbd543d69	-0.051816378
16	0x3904c6bc	0.00012662535
17	0xbd8bd8f5	-0.06828491
18	0x3d8864d1	0.06659854
19	0x3dd86d46	0.10567717
20	0xbe5c1bac	-0.21494931
21	0xbd225604	-0.039632812
22	0x3e16aaa8	0.14713538
23	0x3db1a385	0.08673767
24	0x3d3fe150	0.046845734
25	0x3df6605f	0.120301
26	0xbd0faf6f	-0.035079416
27	0xbdcce993	-0.10005488
28	0x3d80d4eb	0.06290611
29	0x3d63798f	0.05553585
30	0xbd073588	-0.033010036
31	0x3dd3588c	0.10319623
32	0xbd8c96c1	-0.068646915
33	0xbdb8f97b	-0.090319596
34	0xbe3bbf64	-0.18334728
35	0x3e03880f	0.12844871
36	0xbd7831fa	-0.060594536
37	0x3de53b43	0.11192944
38	0xbd29d794	-0.041465357
39	0x3dec3488	0.11533457
40	0xbd1f2e7d	-0.038862694
41	0xbda547d8	-0.08070344
42	0x3dfe7964	0.12425497
43	0x3dc65c32	0.096855536
44	0xbe823db9	-0.25437716
45	0x3e1bbe24	0.15209252
46	0x3df16a2f	0.11787831
47	0x3dd7d5fe	0.10538863
48	0x3dc2fbf1	0.0952071
49	0xbd454deb	-0.04817001
50	0xbd630d90	-0.055432856
51	0x3df814b8	0.12113327
52	0xbda8af24	-0.082365304
53	0xbd91bafa	-0.07115741
54	0x3e04f685	0.12984665
55	0xbdf6d3f9	-0.12052149
56	0x3e1a0650	0.1504147
57	0x3e08cefe	0.13360211
58	0x3dc678e7	0.09691029
59	0xbcd87e86	-0.026427519
60	0x3d219261	0.03944624
61	0xbd719bf0	-0.058986604
62	0x3dbdde6c	0.09270939
63	0x3d9c2926	0.07625036
64	0xbd0eca3b	-0.03486083
65	0xbcfa94e3	-0.030588573
66	0xbdb2629d	-0.08710215
67	0x3d6ee23e	0.05832123
68	0x3da51baa	0.08061917
69	0xbdbbb86f	-0.09166037
70	0xbcc479fd	-0.02398395
71	0x3d99961b	0.074993335
72	0xbcfce827	-0.030872418
73	0xbd1ab82e	-0.037773304
74	0xbd994456	-0.07483737
75	0x3e11170b	0.14168946
76	0xbd1af63a	-0.037832476
77	0x3dd44887	0.10365396
78	0x3d73c45b	0.05951343
79	0x3da347a3	0.07972648
80	0xbdc671fb	-0.09689709
81	0x3dcdb728	0.100447
82	0xbd629632	-0.05531902
83	0xbca14867	-0.019687844
84	0x3e14fb56	0.14549002
85	0x3e2a1158	0.16608179
86	0xbd3898ad	-0.045067478
87	0xbe60226a	-0.21888128
88	0xbd6850c9	-0.056717668
89	0xbd826346	-0.06366591
90	0xbd6494fe	-0.055806153
91	0x3e1e10cb	0.15436094
92	0xbd4d8fe6	-0.05018606
93	0x3da01541	0.07816554
94	0x3d1c1dee	0.03811448
95	0xbd939298	-0.07205695
96	0xbe7e1712	-0.24813488
97	0x3e402342	0.1876345
98	0xbd9b2db0	-0.075770736
99	0x3d369827	0.044578698
100	0x3e192abc	0.14957708
101	0xbc29764b	-0.010343145
102	0xbd8fc085	-0.07019142
103	0xbdba619e	-0.0910065
104	0xbd1377c8	-0.036002904
105	0x3e0a80c1	0.13525678
106	0xbd425233	-0.047441673
107	0xbd34809e	-0.04406797
108	0xbdc62594	-0.09675136
109	0x3e264f2f	0.16241144
110	0x3d17c75e	0.037055366
111	0x3d22d5be	0.03975462
112	0xbd57ade0	-0.052656054
113	0xbba58833	-0.0050516366
114	0x3d809957	0.06279247
115	0xbd811772	-0.063033
116	0xbc91cd39	-0.017798053
117	0xbe6e1866	-0.23251495
118	0x3dcc2fe2	0.099700704
119	0x3e2d85d3	0.16945581
120	0xbc689224	-0.014194999
121	0xbd1df3a5	-0.038562436
122	0xbdb31414	-0.08744064
123	0xbe08f515	-0.13374741
124	0x3d785723	0.060629975
125	0xbcc18715	-0.023623982
126	0xbd31fe4c	-0.043455407
127	0xbd63ea8e	-0.05564361
128	0xbd924017	-0.071411304
129	0x3d79af2d	0.060958076
130	0x3dd0292b	0.10164102
131	0xbd230ce3	-0.03980721
132	0xbd96df7b	-0.07366844
133	0x3db1f233	0.08688774
134	0xbd9e461a	-0.077282146
135	0xbdb4bf84	-0.08825591
136	0x3d6749af	0.056466755
137	0x3d06b004	0.032882705
138	0x3d49ff36	0.049315654
139	0x3d7049e6	0.058664225
140	0xbda2b04d	-0.07943783
141	0x3d278d4b	0.04090623
142	0xbde622e0	-0.11237121
143	0xbe85a0e8	-0.26099324
144	0x3d2456aa	0.04012171
145	0xbd47b77c	-0.04875897
146	0x3dc5dcb5	0.09661237
147	0x3d5568ab	0.052101772
148	0x3d8aeeca	0.06783827
149	0xbd76a9fc	-0.060220703
150	0xbe2e6c46	-0.1703349
151	0xbda18a04	-0.078876525
152	0x3dd41d17	0.10357111
153	0xbd11667d	-0.03549813
154	0xbe8aa53d	-0.27079192
155	0x3cf28ba9	0.02960761
156	0x3d5e470b	0.05426697
157	0xbd78fe2d	-0.060789276
158	0x3db4be7f	0.08825397
159	0x3d4f8794	0.050666407
160	0x3d5504ab	0.052006405
161	0xbe7b91e9	-0.24567379
162	0x3e1fd3f2	0.15608194
163	0x3d73cc2a	0.059520878
164	0xbd23f982	-0.04003287
165	0xbdc8fae2	-0.09813477
166	0x3e1df2c6	0.15424642
167	0xbd6ddda5	-0.058072705
168	0xbd2ca468	-0.042148978
169	0xbd9b17d5	-0.07572905
170	0xbd1944e6	-0.037419222
171	0xbd439b39	-0.047755454
172	0x3e1d0c6a	0.15336767
173	0x3dc6423b	0.09680601
174	0xbd55fa59	-0.052240703
175	0x3d9a1f9e	0.07525562
176	0xbd389c85	-0.045071144
177	0x3d9be107	0.0761128
178	0xbda4154f	-0.08011877
179	0xbd6183e9	-0.05505744
180	0xbcb65800	-0.022258759
181	0xbd58735c	-0.05284439
182	0x3d4ece24	0.05048956
183	0xbd30c56c	-0.043157026
184	0x3e1c9ae9	0.15293469
185	0xbde5f170	-0.11227691
186	0xbe81d47d	-0.25357428
187	0xbd9278ba	-0.07151933
188	0xbda133c6	-0.07871203
189	0x3cfa377d	0.030544037
190	0x3d55b911	0.052178446
191	0xbd57f1f2	-0.05272097
192	0x3dea3254	0.114353806
193	0x3d69cc6c	0.057079718
194	0x3deb13af	0.11478364
195	0xbd761609	-0.060079608
196	0xbd664947	-0.056222226
197	0xbe304ea9	-0.17217506
198	0xbdb97fe7	-0.090575986
199	0x3ddf3be2	0.109000936
200	0x3daa2233	0.08307304
201	0xbe970bdc	-0.29501235
202	0x3e103cd0	0.14085698
203	0xbe8449a1	-0.25837424
204	0xbd4474f2	-0.04796309
205	0xbd8b76b6	-0.06809752
206	0x3d56a700	0.052405357
207	0x3d526efa	0.051375367
208	0xbd296790	-0.04135853
209	0x3d715712	0.058920927
210	0x3d999e4e	0.07500897
211	0x3d8a7971	0.06761444
212	0xbdb51278	-0.08841413
213	0xbd7a53e8	-0.061115175
214	0x3dda1af9	0.10649676
215	0xbd87da43	-0.06633427
216	0xbdddbf01	-0.10827447
217	0xba128140	-0.0005588718
218	0x3d6553f5	0.05598827
219	0x3db6deef	0.0892924
220	0xbd0600bc	-0.032715544
221	0xbd53cbc1	-0.051707987
222	0x3d5d9447	0.054096486
223	0x3d1a2620	0.037634015
224	0xbd6acae7	-0.05732241
225	0xbda73a36	-0.081654
226	0x3d413c92	0.047176905
227	0x3d040e9d	0.0322405
228	0xbd6acc22	-0.057323582
229	0xbdb34a3d	-0.08754394
230	0x3da2d351	0.07950462
231	0xbd36c512	-0.044621535
232	0x3d7429f6	0.05961033
233	0x3e124a5c	0.14286178
234	0x3debde66	0.115170285
235	0xbe147db4	-0.14501077
236	0xbd6f4c17	-0.058422174
237	0xbe658a80	-0.22416115
238	0xbdfcfd86	-0.12353043
239	0xbd8593dc	-0.065223426
240	0xbd83db2a	-0.064382866
241	0x3d873b5e	0.0660312
242	0xbd9fc368	-0.07800943
243	0x3d861c1b	0.065483294
244	0xbd38b3b5	-0.045093257
245	0x3d26a3a7	0.040683415
246	0xbd1ad7ca	-0.03780345
247	0xbac29646	-0.001484581
248	0x3e20f953	0.1572011
249	0x3dc7a94e	0.09749089
250	0x3d8649fa	0.06557079
251	0x3d7113ec	0.05885689
252	0x3d6d6179	0.057954285
253	0x3d9da4f2	0.076974764
254	0x3e3f120a	0.18659225
255	0xbd36225e	-0.04446637
