results/velocity/a2c/model.onnx (onnx, 275580 bytes, 4 tensors)

dense.0.weight f4 [1024, 64]
00000000: b86a 2e3e 69c2 c3bd a4a5 9d3c a1c3 6fbc
00000010: f8e2 a03c eea1 4b3d b114 0ebe d01e 4a3d
00000020: 5095 b33d 8e8b cebd 9c83 d3bd 4631 933c
00000030: 9c42 353d 6469 e93d 5c97 6d3d e061 cebc
00000040: 22d2 b5bd 8dd8 9abd aadb 41bd 9e8c 2c3d
00000050: 57f4 97bc 2543 8d3d 009d ed3d d535 acbd
00000060: 4e6e e03d 4af8 623d 2ad2 b63c 4764 f7bd
00000070: 3904 033d 4dee 95bd 0c30 5e3c 0410 8d3d
00000080: 4c5c 2b3e ab5a 893d c72f ddbd 212b 3f3d
00000090: 5b5b 1a3e 214a ec3d cfaa a9bd 20ff 163d
000000a0: 82a4 1a3d 8134 c83d b028 243d 879c 0bbd
000000b0: 3dd0 ca3d 89cc 603d daaa dcbd adcd 09bd
000000c0: a32d d03d eab0 35bd fcdc 0cbe 99bf d23d
000000d0: e073 ffbd 8868 91bd b86c ea3d 918d 253d
000000e0: 1080 423d e3f0 a23d efd6 0ebd f8f0 97bd
000000f0: 0fe3 54bd 170f 603c f82c 3cbd d1b3 98bd
00000100: 7234 183e 143a 98bd dde2 5cbd 5855 6e3d
00000110: e124 9dbd 6afd 003e 0729 873c fc40 c3bc
00000120: e506 50bd 11d5 a43d 874a 82bd 5250 17bd
00000130: c801 3b3d 2fd0 46bd 281c 04be c011 573d
00000140: 1498 d2bd 7861 ed3d 8972 883d 5a3f cdbc
00000150: 9a9a 87bc b940 4cbd 03cf d93d 7a7f 3a3d
00000160: 6931 8fbd 8148 5abd dfdd 9a3b 2cc9 2c3d
00000170: f52f 2e3e 056a ce3c c61e 4b3d ca8c bfbd
00000180: baa6 723e a413 003e 6dff b33d a1c2 0bbe
00000190: 2d37 e9bc 4c52 243e 32fd ccbd 8a3d 16be
000001a0: a480 3d3d 70c7 823d e761 15be d739 9f3d
000001b0: d724 013e 60eb e93d ac55 673d 06bc 63bb
000001c0: 10b0 a3bb d6e5 c5bd 7316 56bd d796 c63d
000001d0: 9100 db3d eadb a5bd c457 f9bd 5fa1 e1bd
000001e0: 1a46 be3d f02a ac3b 4d73 c63d 5d73 d5bd
000001f0: 7813 e5bb ed62 b9bd 0340 163d b54b 5bbc
00000200: 7bb2 8bbd b604 0ebe 5f97 aebd 0e57 efbd
00000210: 9b8f b9bd 87d4 13be fe8e bbbd 60e6 a3bd
00000220: 0a62 393c c5eb cabd d57f 9fbd 54f6 8ebd
00000230: ba60 90bd 31ad 6fbd 8f1e 95bd 6ba6 cd3c
00000240: efbf 88bd 7237 3dbc e1be d23d 2e13 743d
00000250: 6e4e 813d 70fc 16bd c44d bf3d 4eb5 0e3d
00000260: 92c3 1dbd 1c3e 813d f71b 1d3d 25bf 5dbb
00000270: 3f66 efbd e458 973d 1c19 8fbd cfaa 0ebe
00000280: 036d 30bd 8672 b2bc 6272 d03d f0ef c33d
00000290: 8e73 83bd 92eb c0bc 258a 9b3d d619 893d
000002a0: 3c73 f6bd 2f11 a7bd 82e2 083d 681c 7e3d
000002b0: 1837 ae3d ec4d 903d 158f 483d 6304 b1bd
000002c0: c710 933d 9980 dd3c 39a8 113d e081 2d3c
000002d0: 8d34 47bd 114e 04be 11bf 8dbd 581e ab3b
000002e0: a640 c1bd c438 03be eab6 9e3b f10a 1abe
000002f0: d2e8 0ebe 8e5e 4cbb 6b95 38bb 105b ad3d
00000300: 32d8 dcbd 978d a43c d7ef cd3d b7c7 67bc
00000310: a435 a4bc 9436 733c fd54 923d 2cfc 8abd
00000320: 309e ba3d 0570 5cbd d5a2 a5bd 8d84 a53d
00000330: 3d48 543d 2292 44bd 7c99 943d d3d9 98bc
00000340: f958 213c 286e da3d c3e3 f9bd aff2 d43d
00000350: e45b de3d aeee a83c 9e50 ad3c 4923 f1bc
00000360: 5e0e ee3b 6577 0ebb c062 933d 3024 3b3c
00000370: b9d4 12bd 2d61 22bd dc66 10bc d703 b93c
00000380: ea18 263c 9fcd a9bd 0b76 09be 7756 0f3d
00000390: f7db 4bbd 97bc 5cbd e67d 16bc 8f7c 43bc
000003a0: 3aea 843c 06f6 efbd 13e8 dcbd 18a1 003c
000003b0: 3a78 ab3d 2ddf 853d 03f0 d33c a924 0abd
000003c0: f645 d83c e45f 0c3d 43d4 9f3c 652d c6bd
000003d0: 654e 983c 4ab1 65bc efd1 8f3d 6ff9 f53d
000003e0: 58a7 a8bd 8876 ad3d 92f7 953c 2f21 dc3d
000003f0: fb73 fe3d 79b9 943d 6783 fc3c aae5 cb3d
0.17032897 -0.09558565 0.019244023 -0.014634044 0.019639477 0.049714975 -0.1387508 0.04934579
0.087687135 -0.10085212 -0.10327837 0.017967831 0.044252977 0.11397055 0.058005676 -0.025193155
-0.0887797 -0.07560835 -0.04732863 0.04212629 -0.018549128 0.068975724 0.11602211 -0.08408705
0.10958539 0.05541257 0.02231701 -0.12079673 0.03198645 -0.07320843 0.01356126 0.0688782
0.16734427 0.06706747 -0.108001284 0.04667199 0.15073912 0.115375765 -0.08284532 0.0368644
0.037754543 0.09775639 0.040077865 -0.034084823 0.099029996 0.05488256 -0.10774775 -0.033643413
0.101649545 -0.04435817 -0.13756174 0.102904506 -0.12473273 -0.07100016 0.11446518 0.04041821
0.04748541 0.07956102 -0.034872945 -0.07419008 -0.051974352 0.013675473 -0.045941323 -0.07456172
0.14863756 -0.074329525 -0.05392729 0.05818686 -0.0767305 0.1259667 0.016499056 -0.023834698
-0.050787825 0.08048452 -0.06361871 -0.036941834 0.045655996 -0.048538383 -0.12901366 0.052507162
-0.10282913 0.11590856 0.06662471 -0.025054622 -0.016553212 -0.04986641 0.106351875 0.045531727
-0.06991846 -0.0532918 0.004726156 0.04218404 0.17010482 0.025197038 0.049589895 -0.09353025
0.23696414 0.12507492 0.08788953 -0.13648464 -0.028468693 0.16047019 -0.10009231 -0.14671913
0.04626526 0.06385696 -0.14588128 0.07774704 0.1261171 0.11421847 0.056478187 -0.0034749522
-0.0049953535 -0.09662978 -0.052267503 0.09696739 0.106934674 -0.08098586 -0.12174943 -0.11017107
0.092907146 0.005254142 0.09689961 -0.104223944 -0.0069908462 -0.09052072 0.03668214 -0.013384749
-0.06821152 -0.13868985 -0.085249655 -0.11686526 -0.09060594 -0.14436541 -0.09158133 -0.08002925
0.011314878 -0.09908251 -0.07788054 -0.06980577 -0.07049699 -0.058514778 -0.07281219 0.025103768
-0.066772334 -0.011548864 0.102903135 0.059588604 0.063137874 -0.036861837 0.093410045 0.034840874
-0.03851659 0.063106745 0.038356747 -0.0033835855 -0.11689424 0.073900014 -0.06987211 -0.13932346
-0.04307271 -0.021783125 0.10178067 0.09567249 -0.06418525 -0.023549829 0.07594708 0.06694381
-0.12033698 -0.081575744 0.03341914 0.06203881 0.08506602 0.070461124 0.04896458 -0.08643415
0.071809344 0.02703886 0.03556082 0.010590047 -0.0486341 -0.12920405 -0.06921209 0.005222123
-0.09436159 -0.12814623 0.0048435824 -0.15043236 -0.13956001 -0.0031184289 -0.0028165232 0.084646344
-0.107834235 0.020087047 0.100555114 -0.014146737 -0.02004511 0.014844555 0.071451165 -0.06786379
0.09112203 -0.053817768 -0.08087698 0.08081923 0.051826704 -0.047990926 0.07255837 -0.018658554
0.009847873 0.10665542 -0.12201645 0.10397851 0.108573705 0.020621624 0.021156605 -0.02943577
0.0072648963 -0.0021738645 0.071965694 0.011422202 -0.0358474 -0.039643455 -0.008813586 0.022584839
0.010137776 -0.08291172 -0.13423936 0.03499457 -0.04977032 -0.05389079 -0.00918529 -0.011931553
0.01622497 -0.11716847 -0.10786452 0.007850908 0.08372541 0.06536708 0.025871282 -0.033726368
0.026400547 0.034271136 0.019510394 -0.09676627 0.018592069 -0.01401932 0.070224635 0.12010466
-0.08235043 0.08469874 0.018306527 0.10748517 0.12424465 0.072619386 0.030824376 0.09955914

dense.0.bias f4 [1024]
00000000: 4f77 5fbd 82d0 9bbc aceb c6bd c478 a5bd
00000010: 065d 80bd 525d 253d fcd0 983c 9f20 4a3d
00000020: 01c9 9bbd 5361 f4bd 66af f0bc ecc1 5b3c
00000030: b2e1 953d 8940 fc3d a540 5dbc 5fc0 7fbd
00000040: da4a 433d 7559 f93b 5b52 dcbc c12c 8f3d
00000050: 8164 98bd 5a9a e3bd 29c8 9abd d06b 92bd
00000060: f927 bb3d b890 47bc d092 a6bd 57a6 9fbd
00000070: fc44 b43c c6c2 acba e35c b73d e897 9f3d
00000080: e606 e2bd bb58 333d 354b 5a3b fc3e c0bd
00000090: b4f6 ffbc da80 713c 14fa c3bd b34a 853d
000000a0: 77dd 413d 9da1 3f3d 04b1 aabd 125d 023e
000000b0: 76a0 133d 04bb 863c afdc a43d f929 fcbd
000000c0: 2699 9c3d dbb2 e9bd 7a24 533d d3f4 d1bc
000000d0: 3509 b0bc 4d53 38bd 5f8b 7c3d 0e2f 4bbb
000000e0: 74e3 d13d 705f 8cbd 0bb2 db3c 4bbd 143d
000000f0: ade3 b7bd 5d45 5f3d 9700 833c 4f8b aebd
00000100: 4020 30bc bab3 27bd 6a7a c53d 2903 863d
00000110: d2f3 22bd 4204 7c3d 4ef8 ab3b cb62 c33d
00000120: c292 e5bd e6b0 d7bc cf89 abbc e87e 873d
00000130: c6ff c33c 61df ecbd 366d e23d ca60 2abd
00000140: 2085 e03d 86b1 8dbc dc72 003d 2c6d 01be
00000150: 8b9f 86bd e8f3 fd3d 1fd8 cabd 4612 d4bc
00000160: 6bff e3bc ea05 9b3d ab24 21bc b7f2 7fbd
00000170: 8c1c 00be 3f74 9b3d 8955 e8bd 5d52 b73d
00000180: e1e9 84bd e2e1 a1bd 8891 2abd fef4 823c
00000190: 16f2 b43d 2af8 db3d b109 39bd 0996 c1bc
000001a0: e037 86bd 87d3 6a3c fd8a c03d c562 903d
000001b0: fbd7 533d 6b91 fb3c 63c3 3bbc bd11 a63d
000001c0: 20dc f53d 33f0 5cbd a5a9 92bd 4894 d2bd
000001d0: f78b a7bc c4d8 d83b 1420 2c3d 1e22 99bd
000001e0: 7bbb 0bbe e9cc 9bbc 0c55 01be 45b1 133d
000001f0: c5a1 65bd 31d2 cebd e440 b1bd 5c3f 713d
00000200: d9fb ddbd 5f01 96bd 62a4 7ebd 8cf4 16bd
00000210: 65ba bdbd 64d6 773d b216 d43d 3b9f e2bd
00000220: 03ee f9bd d8d7 bebd 79d6 a5bd 4b58 543d
00000230: 7050 5a3d d444 353d e56d e3bc bc3d bdbd
00000240: 7374 f33d 1ebd 923d c4a8 8b3d 0d6a 31bd
00000250: 3106 5ebd 8213 893d 1984 4c3d 5655 c3bd
00000260: d1eb 993b 3d79 d23d ac7f 62bd 04cd e6bd
00000270: 61c0 553d ccc3 ff3d 1275 89bc 59c2 a23d
00000280: 8d18 3c3c 80fb f4bd 241d 35bd 97f1 d6bd
00000290: d7a9 d6bd 10c1 72bb 86da f7bd d2b1 25bb
000002a0: 2ed1 563d 8031 d9bc e524 06be 08dd d93d
000002b0: 12dd 59bd 753e eebd 86b5 babd efd4 d8bd
000002c0: 82b2 0abd 0c97 f238 dfb3 aa3d 3a47 45bc
000002d0: f17f 3fbd 6bda 143d 8c98 b2bc bb5f 3bbd
000002e0: 4bbb da3c 4c00 a73d 2c3d 19bc cf7a 0f3e
000002f0: 6862 673d 134c 40bd 5909 b2bd ba70 f63d
00000300: e06b 633c 95ac 8cbd 0d32 bd3d 7c02 e03c
00000310: 0aba 46bd b722 853d 2113 f2bd 9b18 c0bd
00000320: 927f 87bd 1fa5 c13c 2241 97bc 9391 b5bd
00000330: 7ab5 c4bc 5c0b c43d 5920 d33d a0ef c03d
00000340: 6927 c33c 5472 cf3d 2fb3 d3bd ae3f 64bd
00000350: 509a 163c 1cfe 153d 4f95 36bd 09c8 3bbd
00000360: c429 423d 6b05 a3bd acca 4a3c 176a babd
00000370: 5b3c b3bc 8f74 05be 7201 09bb 7560 81bd
00000380: 0221 35bd 230b b93d e3f4 1abe 997f c5bd
00000390: 723c d6bd 84c2 6c3d 106f 6dbc 4734 04be
000003a0: ce40 823b 1de1 c73c 01ed ea3d 4405 93bc
000003b0: f0b6 383d 51eb 8f3d 86b6 e63d f9ca 1e3d
000003c0: 70b9 e2bb 9e30 b7bd 4703 adbd 3221 86bd
000003d0: f5e1 f1bd 903e d93d 6ba8 14bd 8c90 32bb
000003e0: 912a dabd f529 0a3d 3190 7e3d f238 68bd
000003f0: c271 4f3d 390c 553d 272e 05bd 5cbc bfbd
-0.05455714 -0.019020323 -0.097129196 -0.08079675 -0.06267743 0.0403722 0.018654339 0.049347516
-0.07606698 -0.119326256 -0.029380511 0.013412934 0.073184386 0.123169966 -0.013504182 -0.06243932
0.047678806 0.007609541 -0.026894739 0.06990958 -0.074410446 -0.111134246 -0.07557709 -0.0714947
0.091384836 -0.0121805 -0.08133471 -0.07795399 0.02200555 -0.0013180606 0.089532636 0.07792646
-0.11036472 0.04378579 0.0033308987 -0.09387013 -0.031245567 0.014740193 -0.09569183 0.06508388
0.047330346 0.046784986 -0.08334544 0.12730816 0.0360417 0.016446598 0.080499046 -0.12312693
0.07646398 -0.11411067 0.05154846 -0.025629437 -0.021488765 -0.045001317 0.061656352 -0.0031003389
0.10248461 -0.06854141 0.026818296 0.036313336 -0.089789726 0.05450951 0.015991492 -0.08522665
-0.0107498765 -0.040942885 0.09642489 0.065435715 -0.039783306 0.061527498 0.005248106 0.09540328
-0.112096325 -0.026329469 -0.020939736 0.06616002 0.023925673 -0.11566044 0.110559866 -0.04159621
0.109628916 -0.017296564 0.03135954 -0.12639302 -0.06573399 0.12400037 -0.09904503 -0.02588762
-0.027831754 0.075694874 -0.0098354025 -0.06248733 -0.1251089 0.075905316 -0.113444395 0.089512564
-0.06489921 -0.07904412 -0.041642696 0.015985962 0.08835237 0.10740693 -0.045175258 -0.023631113
-0.06553626 0.014332659 0.0940151 0.07050089 0.051719647 0.03070899 -0.011460158 0.08108852
0.12004876 -0.05394001 -0.071612634 -0.10282189 -0.020452483 0.0066176374 0.04202278 -0.074772105
-0.13645737 -0.019018607 -0.12630099 0.03605773 -0.05606248 -0.100986846 -0.08654955 0.058898315
-0.10839052 -0.0732448 -0.062168486 -0.03685431 -0.092640676 0.060507193 0.10355891 -0.11065527
-0.122036 -0.09318513 -0.08097548 0.051842015 0.053299367 0.044255093 -0.027762363 -0.092402905
0.11887445 0.071649775 0.06819299 -0.04331403 -0.054205123 0.06693174 0.049930666 -0.09537761
0.004697301 0.102770306 -0.05529754 -0.112695724 0.05218542 0.12488517 -0.016779456 0.07947225
0.011480463 -0.11962032 -0.044217244 -0.10495298 -0.10481613 -0.0037041344 -0.12102227 -0.002528299
0.052445583 -0.026512861 -0.13100012 0.106378615 -0.053189345 -0.116330065 -0.09116654 -0.10587489
-0.033861645 0.00011567594 0.08335089 -0.0120409075 -0.046752874 0.036341112 -0.021801256 -0.045745593
0.026700636 0.081543535 -0.009352963 0.14011692 0.056490332 -0.04694755 -0.08693189 0.1203322
0.0138807 -0.06868855 0.09238062 0.027344935 -0.048517264 0.06500762 -0.11820055 -0.09379693
-0.06616129 0.023638306 -0.018463675 -0.08865657 -0.024012316 0.09572479 0.10308904 0.09420705
0.023822503 0.10129228 -0.10336911 -0.055724792 0.009192064 0.03661929 -0.044575986 -0.045845065
0.047403112 -0.07960018 0.012377422 -0.09102266 -0.021879366 -0.13032745 -0.0020905402 -0.06317226
-0.04422093 0.09035327 -0.1513248 -0.09643478 -0.10460748 0.057802692 -0.014491811 -0.12910567
0.0039750105 0.024399335 0.11470986 -0.017946847 0.045096338 0.07027305 0.11265282 0.03876779
-0.0069190785 -0.0894482 -0.08447891 -0.065493 -0.11810676 0.10607636 -0.03629343 -0.0027246801
-0.1065265 0.03373142 0.06214923 -0.056694932 0.050645597 0.05201361 -0.032514717 -0.093620986

dense.2.weight f4 [2, 1024]
00000000: a8d2 eebd 12c8 c4bd 87b0 c63a 5d36 bb3c
00000010: c176 cb3b ccf9 573d e0e5 e6bd 4ee3 d0bc
00000020: c64a 85bd 34cf 513d e82e c13c 9212 303d
00000030: 1ccd bd3c b45e 2abd f713 a83c 3458 b0bc
00000040: fc2c 483d 760a 3d3c 24b1 8abd 3537 873d
00000050: f855 6bba 993e 0e3d 3d0f d4bd 135c f33c
00000060: 67a0 6f3a 4fda f03c 2b68 dfbc 7b12 763d
00000070: 71c5 c43c db21 563d 269f 613d 40cc 87bd
00000080: f9c5 143d 400a 1e3d d955 4abd 5980 a13c
00000090: a898 6c3d ecfa 3f3d 5883 cfbb 6431 093c
000000a0: 8278 58bd 7085 1e3d 14e4 ad3d 3d25 b43d
000000b0: 4196 c3bd c6a2 053c 7d6a 6abd aa9b d83c
000000c0: 7701 f03c 8a0c 8c3d 5586 b5bc 0367 c7bd
000000d0: e98f 20bd d2b9 8cbc 26b6 afbc 3c8f 72bd
000000e0: 5188 053d dd98 803c fe76 313d 92b8 0a3d
000000f0: 8833 fd3c ae14 b53c 2e85 973d a71b cdbd
00000100: fcff a0bb 237b 3c3b 8d8c 8e3c 07a4 c03c
00000110: f6c2 c23d ac39 fabb f3f9 383d afdd 273c
00000120: ae4b fd3c 5f01 8a3d ac7c 47bd bccb 84bd
00000130: 09d5 4c3c ec69 63bd e3ee c0bc 960d 973c
00000140: 8cee fa3c c821 343d c847 9d3c b9b4 f73c
00000150: e3ca a7bc 4a5f c4bc 2c96 d5bd 3d7d 9dbc
00000160: 908b 6e3c aa38 24ba f3f3 1d3d 3353 9a3d
00000170: 3043 3dbd 381c 0abd 2c53 90bd 26af 80bd
00000180: b2d2 023d a087 033e 02c4 a4bd 3985 853d
00000190: 7494 40bd 95c6 d0bd 9b77 c63c 88fa ccbd
000001a0: 7fdc 133b eb72 d7bc 6c62 5abd 9945 69bc
000001b0: 4929 d33b 0c3c 6b3d e1d1 5dbc dbe5 b3bd
000001c0: 6fb2 8d3d 0fd8 5c3c 5e30 fabd f7e3 eabc
000001d0: a87c 1c3d f297 86bd ebf1 a3bd 5232 46bc
000001e0: fb0d 793d e376 bab9 7c2f 003d 5088 aebd
000001f0: 41c2 2d3c 9002 9ebd 91f1 953d 7090 143d
00000200: 2fb9 39bd 0218 f93b 2885 f33c bff5 9abd
00000210: 27e3 debc 0f4f 48bd 4892 443c b98b 3e3c
00000220: 1235 f33c 6395 743d 0faf 103d 8ba2 bebd
00000230: c730 1a3d 991d bc3c 8cff 3a3c 7091 29bb
00000240: f27e 1ebe d403 94bc 3731 953c b3c6 3abd
00000250: a693 f93c 813d 3dbc 434a 3dbc fa28 07be
00000260: d912 77bc 3761 2a3d 33d1 2f3d dcfe 143d
00000270: 6f34 da3c d519 60bd 6903 673d d117 673d
00000280: fd9a 85bd e1ab acbc abf3 ac3c aba9 3cbc
00000290: c59f c3bd 9a22 58bc d05e 1f3c f2c9 adbc
000002a0: 7f2d bebd f131 633c 65f0 8bbc e939 e4bd
000002b0: 281e 55bd bc0b 463c 09f7 ea3c 6f6b 89bd
000002c0: 70bb a1bd 8759 093c 28ca a6bc b0b6 de3c
000002d0: 11e0 1b3d 76a3 a63d 70cc 253d befd f43c
000002e0: 5ced a23d a58f 29bc 68d1 af3c 9f84 4bbd
000002f0: 9c5a 6cbd be23 83bd c042 54bc c013 183d
00000300: c476 e9bc 7f4a b73d 21b7 be3d 62c7 353d
00000310: d6c4 b23b 521f bf3d 8bab 4e3d 9478 aebd
00000320: 263f c13c e1e9 0f3d c2c2 b63d 2799 873b
00000330: f26f ce3d d5a8 13bd 097b 063c b013 6e3d
00000340: 3b56 dfbb 1432 8f3d e675 79bd 593c 9b3d
00000350: 7dd8 bfbd b224 67bc 6cf2 133d 5c2a f5bc
00000360: 1a9b a13b d854 323c 2065 3ebc 733e 4b3c
00000370: a00c d23c f18c 93bb 9858 393d 6793 78bc
00000380: 5ee7 d7bd 4436 2a3d 97d5 0abd 7c61 b53c
00000390: 45a1 ba3d f956 a2bc 00ee 973c dbb9 cf3c
000003a0: 2ea7 30bc 2f2e ec3a 1b16 73bd b6c6 923c
000003b0: 57f4 8dbd 6119 74bd a6b2 283d 9f12 1abd
000003c0: 93eb 59bb d395 2b3d f95f e03c a8c2 d53c
000003d0: d05c f83c 79b2 593d 1baa a53d 3d26 483d
000003e0: 5de4 363c aee5 d3bd 4b96 7e3d b2b9 d0bc
000003f0: 99df 06bd f109 47bd 9090 873d ba0b 3a3d
-0.11661273 -0.09608473 0.001515881 0.02285307 0.006209225 0.05272846 -0.11274314 -0.025499012
-0.065084025 0.051222995 0.023581937 0.04298646 0.023169093 -0.041594222 0.020517332 -0.021526434
0.048871025 0.011538139 -0.06772068 0.06602327 -0.0008977349 0.034727667 -0.10354469 0.02970699
0.0009141028 0.029400973 -0.02727135 0.060076218 0.024019929 0.05227838 0.055083416 -0.066307545
0.036321614 0.038583994 -0.049398277 0.019714521 0.05776277 0.046870157 -0.006332796 0.008373592
-0.0528493 0.038701475 0.08490768 0.08796165 -0.09550143 0.008156484 -0.05723046 0.026441414
0.029297573 0.06838329 -0.022158781 -0.09736445 -0.039199743 -0.01717845 -0.02144916 -0.05921863
0.032600705 0.01569789 0.04332637 0.033867426 0.030908361 0.022104587 0.07398449 -0.1001504
-0.004913328 0.0028759919 0.017401004 0.023515714 0.09509842 -0.0076362696 0.045160245 0.010245725
0.030919876 0.06738543 -0.04870288 -0.06484172 0.012501963 -0.055520937 -0.02355141 0.018439095
0.030631326 0.04397753 0.019199267 0.030237542 -0.020482486 -0.023971219 -0.10429034 -0.019224757
0.0145596415 -0.0006264547 0.038562726 0.075354 -0.046206653 -0.033718318 -0.07047114 -0.06283407
0.031939216 0.12844706 -0.08045198 0.06519551 -0.047016576 -0.101941265 0.024226954 -0.100087225
0.0022561846 -0.026299914 -0.05331652 -0.014237785 0.0064441306 0.057430312 -0.013538809 -0.08784076
0.06918799 0.013479247 -0.122162566 -0.028673155 0.03820482 -0.0657195 -0.080051266 -0.012096958
0.06080435 -0.00035565262 0.031295285 -0.08522093 0.010605396 -0.077153325 0.07321466 0.03627056
-0.04534262 0.007601739 0.02972658 -0.075664036 -0.027207924 -0.04890352 0.011997767 0.011629992
0.029688392 0.05971278 0.0353232 -0.09308346 0.037644174 0.022963332 0.011413466 -0.002587404
-0.15478113 -0.018068232 0.018211944 -0.04559965 0.030465912 -0.011550308 -0.01155335 -0.13199225
-0.015080177 0.041596618 0.042924117 0.036375865 0.02663633 -0.054712135 0.056399737 0.056419197
-0.06523702 -0.021078052 0.021112284 -0.011515061 -0.09551958 -0.013191843 0.009727195 -0.02121446
-0.092860214 0.013866887 -0.017082402 -0.11143858 -0.052030712 0.012087759 0.028682249 -0.067099445
-0.07897079 0.008383161 -0.020360067 0.027186722 0.038055483 0.081366464 0.04047817 0.02990615
0.07955429 -0.010349189 0.021462157 -0.049687024 -0.0577036 -0.06403302 -0.012955368 0.03712821
-0.028499015 0.08949756 0.09312273 0.0443796 0.0054555936 0.09332146 0.050456565 -0.08519092
0.023589682 0.035135154 0.08923866 0.00413813 0.100799456 -0.036049683 0.008208045 0.058124244
-0.0068156994 0.069919735 -0.060903452 0.0757987 -0.09367464 -0.01410787 0.036119863 -0.029927425
0.0049318196 0.010884486 -0.01162079 0.012405026 0.025640786 -0.0045028855 0.045250505 -0.015171862
-0.10542177 0.041555658 -0.0338951 0.02214121 0.09112791 -0.019816862 0.018546104 0.025357177
-0.010782046 0.0018019135 -0.059347253 0.017917018 -0.0693137 -0.059594516 0.041185997 -0.037615415
-0.0033251985 0.04189093 0.027389513 0.026093796 0.030317694 0.05314872 0.08089086 0.048864592
0.0111628445 -0.10346542 0.06215505 -0.025479171 -0.032928083 -0.048593465 0.0661937 0.04542134

dense.2.bias f4 [2]
00000000: 893f c63c b7ff 943c
0.024200218 0.01818834
