results/env01/ppo/512-512-nodecay-2000/model.pth (torch, 532879 bytes, 7 tensors)

actor.0.weight f4 [512, 127]
0	0x3c9178d9	0.01775782
1	0x3d440e60	0.04786527
2	0x3bf1cca9	0.0073791337
3	0x3d03f8bb	0.03221963
4	0xbdb820ce	-0.08990632
5	0xbd11871b	-0.035529237
6	0xbd29c218	-0.041444868
7	0x3de9fd58	0.114252746
8	0xbd564356	-0.05231031
9	0xbdb7d779	-0.08976645
10	0x3c3bfd27	0.01147393
11	0xbd151f34	-0.03640671
12	0xbd02059c	-0.03174363
13	0x3da0342e	0.078224525
14	0x3d777828	0.060417324
15	0x3d18ad7b	0.03727482
16	0x3cc799fb	0.024365416
17	0xbcca75e2	-0.024714414
18	0xbdb2c042	-0.087280765
19	0x3d204d11	0.039135996
20	0xbc716baa	-0.014735142
21	0xbd6ef0ea	-0.058335222
22	0xbd9fd29c	-0.078038424
23	0x3db8b06e	0.09018026
24	0x3d87bf18	0.06628245
25	0xbd4f7c35	-0.050655562
26	0xbd55275c	-0.05203949
27	0x3d26c413	0.040714335
28	0xbd7dbb47	-0.06194618
29	0x3cc2eaf8	0.023793682
30	0x3d1fcc70	0.039013326
31	0x3e090b05	0.1338311
32	0x3c16f4e5	0.009213661
33	0xbda8acbb	-0.08236071
34	0xbd307c20	-0.043087125
35	0xbcab245e	-0.020891365
36	0xbd11b0bf	-0.03556895
37	0x3db69741	0.08915568
38	0x3dc2ea9d	0.09517405
39	0xbd0c0f80	-0.03419447
40	0x3d801592	0.06254114
41	0xbc0042df	-0.007828443
42	0xbd8a30d7	-0.06747597
43	0xbca8ce1d	-0.020606095
44	0xbc02019c	-0.007934954
45	0xbd038e88	-0.03211835
46	0x3b5b317b	0.003344624
47	0x3dd680de	0.10473798
48	0xbc9ca1b7	-0.01912008
49	0xbd7f4e95	-0.0623308
50	0x3c152638	0.00910335
51	0x3be2ee7e	0.006925403
52	0xbc45c9e3	-0.012072059
53	0xbcd1bd7d	-0.02560305
54	0x3baa746a	0.005201866
55	0x3d17107e	0.036880963
56	0xbc1f103e	-0.009708462
57	0x3d145091	0.036209647
58	0xbd3cf325	-0.04613032
59	0xbc7c30e4	-0.015392516
60	0x3dc6908d	0.096955396
61	0xbd010c13	-0.031505655
62	0x3cc92a6d	0.024556363
63	0x3da46efe	0.080289826
64	0x3d6631ca	0.056199826
65	0xbc3ec401	-0.011643411
66	0x3d63acc2	0.055584677
67	0xbacf90f6	-0.0015836048
68	0xbd5d9d0d	-0.054104853
69	0x3d9a1875	0.07524196
70	0xbbd2462e	-0.0064170575
71	0x3b4383d1	0.0029833207
72	0x3dc03184	0.09384444
73	0xbd265bfc	-0.040615067
74	0xbd30b7ef	-0.043144163
75	0x3bab400b	0.0052261404
76	0xbcccd5a9	-0.025004225
77	0x3ca919e6	0.020642232
78	0x3c3d93a9	0.011570849
79	0x3dbd1e26	0.09234266
80	0xbd7ded26	-0.06199374
81	0xbd3d4403	-0.04620744
82	0xbd443325	-0.047900338
83	0xbdf021a0	-0.117251635
84	0x3d2d0864	0.04224433
85	0x3d625273	0.05525441
86	0xbc2dc10e	-0.01060511
87	0xbd25d515	-0.040486414
88	0x3e04dd57	0.1297506
89	0x3da1ce9a	0.07900734
90	0x3d59d4c5	0.05318143
91	0xbe16ce9a	-0.1472725
92	0xbd2329ca	-0.039834775
93	0xbc7d86a3	-0.015473994
94	0x3c521d8d	0.012824428
95	0x3cb6f8f5	0.022335509
96	0x3c5dc1af	0.013534947
97	0x3c0e210c	0.008674871
98	0xbc5b7322	-0.013394149
99	0xbd5fb27b	-0.05461357
100	0x3d4830bf	0.048874613
101	0x3d6bc809	0.057563815
102	0x3d1217ce	0.035667233
103	0x3d806a66	0.06270294
104	0xbab1eff0	-0.0013575535
105	0xbd826aeb	-0.06368049
106	0xbd84d116	-0.064851925
107	0x3bb6eebe	0.0055826595
108	0xbd2464a1	-0.04013503
109	0x3c5f7d54	0.01364072
110	0xbd7f6ef7	-0.062361684
111	0xbc9367ac	-0.01799377
112	0x3d8e316d	0.06943021
113	0x3d0d9a81	0.034571175
114	0x3ccd4413	0.025056874
115	0xbda9b6ea	-0.08286841
116	0x3d8e7b77	0.06957143
117	0x3d71557a	0.058919407
118	0x3d0a68eb	0.033791464
119	0x3da0a105	0.07843212
120	0x3dc26c0e	0.09493266
121	0xbd94e82b	-0.07270845
122	0xbb49842d	-0.003074895
123	0xbd8ac533	-0.06775894
124	0xbd2e9f18	-0.042632192
125	0xbd8f0017	-0.06982439
126	0xbd671b2f	-0.05642241
127	0x3d7416bd	0.059591997
128	0xbdb4d856	-0.08830325
129	0x3e1a5f69	0.15075459
130	0x3d14cbcf	0.03632718
131	0x3e0d3865	0.13791044
132	0x3d2e7c42	0.04259897
133	0x3cbad1f4	0.022805192
134	0xbd9d4d0c	-0.07680711
135	0x3c96d61a	0.018412638
136	0xbc625c6b	-0.0138159795
137	0xbc824cf1	-0.01590583
138	0xbd99fc69	-0.075188465
139	0x3d0d4b55	0.03449567
140	0x3a60a794	0.0008569893
141	0xbcf1b6cf	-0.029506115
142	0x3db5ddbb	0.08880182
143	0xbd6bea06	-0.05759623
144	0xbcea18ba	-0.028576244
145	0xbcf8c5d6	-0.030367773
146	0x3bc89537	0.0061213034
147	0xbd333904	-0.043755546
148	0x3d16b371	0.036792222
149	0x3d2492c7	0.04017904
150	0x3da2859b	0.079356395
151	0xbc7be50b	-0.015374432
152	0xbce1194e	-0.027477887
153	0x3b69f20a	0.0035697245
154	0x3dbc0097	0.091798
155	0xbd189234	-0.037248805
156	0x3d8a2f2d	0.06747279
157	0x3d808f09	0.06277282
158	0x3dc28934	0.09498826
159	0x3d972402	0.07379915
160	0x3c8ffef4	0.017577626
161	0x3d0e0076	0.03466841
162	0x3c0ff5c9	0.008786627
163	0x3ca39f17	0.01997332
164	0xbde11743	-0.10990765
165	0xbb590745	-0.0033115905
166	0xbd209632	-0.039205737
167	0xbcba28bb	-0.0227245
168	0xbd551a1d	-0.052026857
169	0xbd385673	-0.04500432
170	0x3df8d1f8	0.12149423
171	0xbd2861bc	-0.04110883
172	0xbc80e231	-0.015732856
173	0xbbbf4e8c	-0.005838221
174	0x3defd889	0.11711223
175	0xbd9a0eee	-0.07522379
176	0xbc994550	-0.018709809
177	0x3c16eabd	0.009211239
178	0x3c80d297	0.015725417
179	0xbd9da295	-0.07697026
180	0xbcff610f	-0.03117421
181	0xbd823ae6	-0.0635889
182	0x3dd1fb43	0.102530025
183	0xbd78205c	-0.060577735
184	0xbc85b6ff	-0.01632261
185	0xbd9a2647	-0.07526832
186	0x3db15452	0.08658661
187	0x3d102cf5	0.035199124
188	0x3d05ac3f	0.03263497
189	0xbd1c7bed	-0.038204122
190	0x3decf032	0.11569251
191	0x3c6d96d5	0.014501293
192	0xbc2394ae	-0.0099841785
193	0x3d564bb7	0.0523183
194	0xbd75bfb1	-0.059997264
195	0x3d85065f	0.06495356
196	0x3c5e08b8	0.013551883
197	0x3d9f2916	0.077715084
198	0xbdbf9124	-0.09353855
199	0x3d0c068e	0.03418594
200	0x3af3f0c5	0.0018611184
201	0xbc16535e	-0.00917515
202	0xbdfddf90	-0.12396157
203	0x3de11352	0.10990013
204	0xbdc67729	-0.09690697
205	0x3d3b6a35	0.045755584
206	0xbcc68a44	-0.024235852
207	0x3ca30a72	0.019902442
208	0xba41c3c5	-0.00073915377
209	0x3c830684	0.015994318
210	0xbe3e562c	-0.1858756
211	0x3deb05d7	0.11475723
212	0x3d2e3ea3	0.042540204
213	0xbc803aad	-0.015652979
214	0xbdb28bca	-0.08718069
215	0x3da977ae	0.0827478
216	0xbc6bb8d9	-0.014387333
217	0x3da4f6dd	0.08054898
218	0xbd757ed0	-0.05993539
219	0x3dc20c85	0.09475044
220	0x3d403f81	0.046935562
221	0xbd08410c	-0.03326516
222	0xbda4d0bf	-0.08047628
223	0x3d85d05f	0.06533884
224	0xbd4034b7	-0.046925273
225	0x3d035523	0.032063615
226	0xbd3b26d2	-0.04569132
227	0x3c4dcdf2	0.012561308
228	0xbc9acfbb	-0.018897882
229	0xbc786424	-0.015160594
230	0x3d5ea7f6	0.0543594
231	0x3e0e8543	0.13918023
232	0xbdb211ae	-0.086947784
233	0x3daf0871	0.08546532
234	0x3cdbb6c9	0.026820557
235	0x3dc5c53d	0.09656761
236	0x3d90bedc	0.070676535
237	0x3c9d8749	0.019229548
238	0xbd0cfcb5	-0.034420688
239	0x3e2c093a	0.16800395
240	0xbcf84446	-0.030305993
241	0x3cdd8d9c	0.027045064
242	0x3d1f675b	0.038916927
243	0xbb4310eb	-0.0029764723
244	0xbd28d9b1	-0.04122323
245	0x3d694e3f	0.056959387
246	0x3d38eb6d	0.045146395
247	0x3d460342	0.04834295
248	0xbd6f2f25	-0.05839457
249	0xbd4952c2	-0.04915119
250	0x3d22ed16	0.039776884
251	0xbb2ac604	-0.0026057968
252	0x3d11b511	0.03557307
253	0xbc5b0f68	-0.013370372
254	0xbd934234	-0.071903616
255	0xbc8fe48c	-0.017565034

actor.0.bias f4 [512]
0	0xbd50255e	-0.050816886
1	0xbd4bbedd	-0.04974257
2	0xbd519d0e	-0.05117517
3	0xbd486341	-0.04892278
4	0xbd6ae870	-0.057350576
5	0xbd815747	-0.06315475
6	0xbcd6a0bb	-0.02619969
7	0x3c06c36d	0.008225304
8	0xbb34ce2f	-0.0027588715
9	0x3d3dc4ee	0.046330385
10	0xbc58dfb1	-0.013236926
11	0xbd370da1	-0.044690732
12	0x3de19a02	0.11015703
13	0xbda864e8	-0.08222371
14	0xbd77b3ce	-0.06047421
15	0x3ca7245d	0.020403082
16	0x3d76fed4	0.060301617
17	0xbc51df60	-0.012809604
18	0x3d241370	0.0400576
19	0x3d5ad5da	0.0534266
20	0x3d3528ec	0.04422848
21	0x3d90497b	0.07045265
22	0x3c6fb97d	0.014631626
23	0x3d689f70	0.056792676
24	0xbd50d21b	-0.050981622
25	0x3c105d2a	0.008811275
26	0x3d8c1004	0.06838992
27	0x3d9968b3	0.07490673
28	0xbd29f115	-0.04148968
29	0xbcc72913	-0.024311578
30	0xbd25e708	-0.04050353
31	0x3d92b336	0.07163088
32	0xbcd96a43	-0.026539927
33	0x3d0e916f	0.034806665
34	0xbdb633c9	-0.08896596
35	0xbcb4dd78	-0.02207826
36	0xbd235b28	-0.039881855
37	0xbcacb106	-0.021080505
38	0xbd34c475	-0.04413267
39	0x3c91eb77	0.017812474
40	0xbd369858	-0.04457888
41	0xbc21d519	-0.009877467
42	0xbd6f0476	-0.058353864
43	0x3d33127c	0.0437188
44	0xbd033a9e	-0.032038324
45	0x3d4f1ed1	0.0505665
46	0xbcf3f375	-0.029779175
47	0xbd33fafa	-0.04394052
48	0xbdcbabf1	-0.099449046
49	0xbcacd20f	-0.021096257
50	0xbd8a2fb7	-0.06747382
51	0x3d661e85	0.05618145
52	0x3d6a9a1d	0.05727588
53	0x3b7227e3	0.0036950044
54	0x3b94b5ee	0.0045382893
55	0xbd63f693	-0.055655073
56	0x3c88c1fa	0.016694058
57	0x3da3ffa7	0.08007746
58	0xbd40a5a8	-0.047032982
59	0xbc04f6f1	-0.008115516
60	0xbd16e697	-0.036841
61	0x3c79c528	0.01524476
62	0xbd892c51	-0.06697906
63	0x3d02ef8e	0.03196674
64	0x3d9e921e	0.077427134
65	0xbd4ebac6	-0.05047109
66	0x3d9c3316	0.07626931
67	0x3d77ef56	0.060530983
68	0x3d72ee2b	0.059309166
69	0xbd944df2	-0.072414294
70	0xbd2032ea	-0.039111055
71	0x3d849825	0.06474332
72	0x3b908c54	0.0044112597
73	0x3d10500d	0.035232592
74	0x3d3b8002	0.045776375
75	0xbc5245ca	-0.012834022
76	0x3ce9e1d9	0.028550075
77	0xbda2090e	-0.07911883
78	0xbc1b7fcf	-0.009490921
79	0x3d601eb6	0.05471679
80	0x3d8b6e11	0.06808103
81	0xbd7e33cf	-0.062061127
82	0xbda2af20	-0.07943559
83	0x3d3d534f	0.046222027
84	0xbd307e14	-0.043088987
85	0xbd904b2c	-0.07045588
86	0xbcc91035	-0.02454386
87	0x3d83b446	0.06430869
88	0xbd879028	-0.066192925
89	0x3d88d09d	0.06680415
90	0x3cad07d4	0.021121897
91	0x3d1772bd	0.036974657
92	0xbd4733e0	-0.048633456
93	0xbca58194	-0.02020339
94	0x3d06c42d	0.03290193
95	0x3cdc6250	0.026902348
96	0xbd72449d	-0.059147466
97	0x3c5a8a33	0.013338613
98	0x3d9c588c	0.076340765
99	0x3db3921b	0.08768102
100	0xbd75abab	-0.05997817
101	0xbc8da2cb	-0.01728954
102	0xbd2f0c2c	-0.042736217
103	0xbd460bde	-0.04835116
104	0xbd9c6658	-0.07636708
105	0xbcbb0c72	-0.022833083
106	0x3d77ea40	0.060526133
107	0x3d16be2f	0.036802467
108	0xbd7d23ac	-0.061801597
109	0x3db9cbea	0.09072097
110	0x3dae3262	0.085057035
111	0xbde0ac2a	-0.10970338
112	0xbd713a16	-0.058893286
113	0xbd2dda54	-0.042444542
114	0x3d7d5ffd	0.06185912
115	0x3d7794aa	0.06044451
116	0x3da96419	0.08271045
117	0x3d2e7a0d	0.042596865
118	0x3db731f4	0.08945075
119	0xbd189775	-0.037253816
120	0x3d03ea10	0.03220564
121	0xbc18a147	-0.009315795
122	0x3d8881cf	0.06665384
123	0xbd8982e0	-0.067144156
124	0x3d2eda19	0.042688463
125	0xbd0a3eac	-0.033751175
126	0x3d94ddf9	0.072689004
127	0x3daab82e	0.08335911
128	0x3da95376	0.08267872
129	0x3cb5277d	0.022113556
130	0x3d66299e	0.056192033
131	0xbd02a953	-0.03189976
132	0x3d41e162	0.047334082
133	0x3d52adfa	0.05143545
134	0x3d31138a	0.043231525
135	0x3c534a40	0.012896121
136	0xbd3732aa	-0.04472605
137	0xbd3f662e	-0.046728306
138	0x3d5d8234	0.05407925
139	0x3d55d8b3	0.052208614
140	0xbd608300	-0.05481243
141	0x3d4dd42e	0.05025118
142	0xbbc83e29	-0.0061109257
143	0xbd6ea93d	-0.058266867
144	0xbd4e52cf	-0.05037194
145	0xbd43c736	-0.047797404
146	0xbd2ec143	-0.042664777
147	0x3da85588	0.08219439
148	0x3caac5dc	0.0208463
149	0xbd6e632b	-0.058200043
150	0x3d9e884e	0.07740842
151	0x3d653188	0.05595544
152	0x3d4a2291	0.04934937
153	0xbc854d76	-0.016272288
154	0xbd123bd5	-0.03570159
155	0x3d807e08	0.062740386
156	0xbbca80a7	-0.0061798873
157	0xbd47564d	-0.048666287
158	0x3d6a4f00	0.057204247
159	0xbcd98471	-0.02655241
160	0xbdd4c310	-0.10388768
161	0xbdadc23a	-0.084843114
162	0xbd9d4c94	-0.07680622
163	0x3d802185	0.06256393
164	0x3d942ab5	0.07234708
165	0xbca5172b	-0.020152649
166	0xbd9d280a	-0.076736525
167	0xbce7cab9	-0.028294908
168	0x3dc78245	0.09741644
169	0xbcb39729	-0.021922665
170	0xbd92812e	-0.07153545
171	0x3daf4811	0.085586675
172	0xbd9f7cd0	-0.07787478
173	0x3d061668	0.032736212
174	0xbda36dcc	-0.079799265
175	0xbbb9a69a	-0.0056656124
176	0xbcc6e056	-0.024276894
177	0xbd9e3655	-0.07725207
178	0x3ab72d46	0.0013975285
179	0x3c3a6290	0.011376038
180	0x3d86a853	0.06575074
181	0x3d87fccc	0.06640014
182	0xbd575642	-0.052572496
183	0xbd815159	-0.06314344
184	0xbcd301b7	-0.025757654
185	0xbc5114c5	-0.0127612995
186	0x3c207bda	0.0097951535
187	0xbdbe220e	-0.09283839
188	0xbb18b559	-0.002330145
189	0x3ccd022a	0.025025446
190	0x3d8bc637	0.06824916
191	0x3c882a37	0.016621692
192	0x3cb026e1	0.021502914
193	0x3d4f0ea7	0.050551083
194	0xbd247fea	-0.04016105
195	0x3db5e322	0.08881213
196	0xbd93f6d2	-0.072248116
197	0xbce2e580	-0.027697325
198	0x3d483f4a	0.048888482
199	0xbb598a17	-0.003319388
200	0xbc7c9b90	-0.015417948
201	0x3d1e5865	0.03865852
202	0x3b1a6c8d	0.0023563236
203	0x3abb7944	0.0014303108
204	0xbd82f74f	-0.063948266
205	0xbdd4b394	-0.10385814
206	0xbb09ccae	-0.002102654
207	0xbda57c39	-0.08080334
208	0xbd846a69	-0.064656086
209	0xbdc20364	-0.09473303
210	0x3d413e9c	0.04717885
211	0xbd96868a	-0.0734988
212	0xbd966da1	-0.07345129
213	0xbd732202	-0.059358604
214	0x3bd7f3bb	0.0065903342
215	0xbd95b324	-0.07309559
216	0xbd5addf6	-0.053434335
217	0xbccefd29	-0.0252672
218	0x3c991a9f	0.018689452
219	0xbdb6b050	-0.08920348
220	0xbda3b258	-0.07993001
221	0x3d9206ec	0.071302265
222	0x3dd96240	0.10614443
223	0x3d95fefe	0.073240265
224	0x3c3f98bf	0.011694132
225	0xbdd58173	-0.10425081
226	0x3acb42fe	0.0015507636
227	0xbd2eba12	-0.04265792
228	0x3c87f62b	0.016596874
229	0x3dba1f34	0.09087983
230	0x3c3c5c1b	0.011496569
231	0xbd5e8167	-0.054322626
232	0xbd91488f	-0.070939176
233	0xbd2d1048	-0.042251855
234	0x3d0f8733	0.035041045
235	0xbb939987	-0.004504386
236	0x3d90b74b	0.0706621
237	0xbd1a94fc	-0.03773974
238	0xbdc9c57f	-0.098521225
239	0xbd94c854	-0.07264772
240	0x3d8f8891	0.0700847
241	0xbd1f1438	-0.03883764
242	0xbd043ad3	-0.03228266
243	0x3cb5857e	0.02215838
244	0xbd788ecf	-0.060683068
245	0x3d730154	0.05932744
246	0x3d05788b	0.03258566
247	0x3c4ff701	0.012693168
248	0x3d9f955b	0.07792159
249	0x3d8a7cfe	0.067621216
250	0xbca016bc	-0.01954209
251	0xbd5dca8a	-0.054148234
252	0xbcd55091	-0.026039394
253	0x3d1093fd	0.035297383
254	0x3d9ef932	0.07762374
255	0xba17e131	-0.0005793749

actor.2.weight f4 [2, 512]
0	0x3d24c741	0.040229086
1	0x3dc787d9	0.09742708
2	0xbc1dd3d3	-0.009633022
3	0x3d2d9471	0.042377893
4	0xbd2d2cda	-0.042279102
5	0x3d86bded	0.06579194
6	0xbd63c64d	-0.055609036
7	0x3d0afc29	0.033931885
8	0xbd00c4fc	-0.03143786
9	0xbd82d1ff	-0.0638771
10	0xbd0b2612	-0.033971854
11	0xbcbb6d21	-0.022879185
12	0xbdb438e0	-0.087999105
13	0x3d6dc3b1	0.058047954
14	0xbc0302f1	-0.007996307
15	0x3c6d7d73	0.014495241
16	0xbda520a4	-0.08062866
17	0xbcc20c6a	-0.02368756
18	0x3d7bdaf0	0.061488092
19	0x3c2de8cc	0.010614585
20	0x3d12002b	0.03564469
21	0xbd289c61	-0.04116476
22	0x3c14bb0b	0.009077798
23	0xbd81bc23	-0.06334712
24	0xbd19ebc0	-0.037578344
25	0x3ced1146	0.0289389
26	0xbdace195	-0.08441464
27	0xbd77f8c0	-0.06053996
28	0xbd83052b	-0.0639747
29	0xbda3196f	-0.079638354
30	0xbd057416	-0.03258141
31	0x3d4c18ec	0.049828455
32	0x3cfe3162	0.031029407
33	0xbd8e9928	-0.06962806
34	0x3d5ca1fd	0.05386542
35	0x3d0c10a5	0.03419556
36	0xbcf1004a	-0.029419083
37	0x3b37b864	0.002803349
38	0xbc221b6f	-0.009894236
39	0xbd6420c9	-0.05569533
40	0x3d861c59	0.06548376
41	0xbcc041a5	-0.023468802
42	0x3d9fe2bb	0.07806917
43	0xbce9a456	-0.028520744
44	0x3b0297de	0.0019926946
45	0xbcd27a5e	-0.025693115
46	0x3d006e97	0.031355467
47	0x3bfff489	0.0078111333
48	0xbd2f3b38	-0.042781085
49	0xbd0ce95f	-0.034402248
50	0x3d17e834	0.03708668
51	0xbd0076c4	-0.031363264
52	0xbca40a0e	-0.020024326
53	0xbb562dee	-0.0032681185
54	0x3d38c96b	0.045113962
55	0x3d375378	0.044757336
56	0xbd001e1f	-0.031278726
57	0x3d401ee6	0.046904467
58	0xbcfc4057	-0.030792398
59	0xbb40ca78	-0.0029417556
60	0xbd764850	-0.060127556
61	0xbd903a68	-0.0704239
62	0x3cd527ac	0.026019894
63	0xbd657906	-0.05602362
64	0x3d1ed3c0	0.03877616
65	0xbdaec3c5	-0.08533434
66	0x3c9d9c9c	0.019239716
67	0xbb167c00	-0.0022962093
68	0xbdbf35ba	-0.093364194
69	0x3dbdec5b	0.09273597
70	0x3d738a82	0.059458263
71	0x3d0c3a87	0.034235504
72	0xbd8ce211	-0.06879056
73	0x3c6a5482	0.014302375
74	0xbcca9d10	-0.024733096
75	0xbc7371ca	-0.014858672
76	0x3c12b2ec	0.008953791
77	0x3d569ac4	0.05239369
78	0xbd697d40	-0.057004213
79	0x3db5591f	0.08854889
80	0x3c55220e	0.013008608
81	0xbccedd07	-0.025251878
82	0x3d29a920	0.041421056
83	0x3ca0b108	0.019615665
84	0xbb59d2fc	-0.0033237329
85	0xbc331d85	-0.010932331
86	0xbc1d9f52	-0.009620504
87	0x3d74324d	0.059618283
88	0xbd1912c2	-0.037371404
89	0x3b780a51	0.0037847946
90	0x3da56d7a	0.080775216
91	0xbd0f0ba1	-0.0349232
92	0x3cf5dda9	0.030012922
93	0x3d1fa70b	0.038977664
94	0xbc949562	-0.018137638
95	0x3d7b5be2	0.061366923
96	0x3cabc5c3	0.020968324
97	0x3c8b5fb8	0.017013416
98	0xbd6b04e0	-0.057377696
99	0xbcaf7576	-0.021418314
100	0xbd0b063b	-0.03394149
101	0xbc85211b	-0.016251137
102	0x3d342c36	0.043987475
103	0x3d6802ab	0.05664317
104	0xbd08d2cf	-0.033404168
105	0xbc666046	-0.014061039
106	0xbc1459a8	-0.009054579
107	0xbb9ccfbb	-0.0047855056
108	0xbc4c725c	-0.012478437
109	0x3cccde09	0.025008218
110	0xbde7b40a	-0.113136366
111	0xbc0e6dbc	-0.008693155
112	0xbd35cd9d	-0.04438554
113	0x3ba88bc3	0.005143614
114	0xbd56ec28	-0.05247131
115	0x3d24b99b	0.04021607
116	0x3d7ba4c3	0.061436426
117	0x3c95f2f0	0.018304318
118	0xbdd1d6f9	-0.10246081
119	0x3da67709	0.08128173
120	0xbba882d3	-0.0051425486
121	0xbd5a74a5	-0.053333897
122	0xbad2aa94	-0.0016072565
123	0xbd9ebf2d	-0.07751308
124	0x3dc118ea	0.0942858
125	0xbdb3d1d1	-0.08780254
126	0x3c94e316	0.01817469
127	0xbd870c9d	-0.06594203
128	0xbd06791c	-0.032830343
129	0x3d1e3ad4	0.03863032
130	0xbc7e6dee	-0.015529139
131	0x3c0be88f	0.008539333
132	0x3d86f6e2	0.06590058
133	0xbd7b4d1d	-0.061352838
134	0x3d0433da	0.032276012
135	0xbccf1d7c	-0.025282614
136	0xbcb9408a	-0.022613782
137	0xbcae317f	-0.021263836
138	0xb9c44aff	-0.0003743991
139	0xbbd3c335	-0.0064624795
140	0xbda9a463	-0.082833074
141	0xbd542b66	-0.0517992
142	0x3d43b4cb	0.04777984
143	0xbcb05f26	-0.021529745
144	0xbda2032a	-0.0791076
145	0xbb186da1	-0.0023258703
146	0xbc79d6a9	-0.015248933
147	0xbd9b2d9c	-0.07577059
148	0x3c3aa1d1	0.011391119
149	0xbcdefcf3	-0.027220225
150	0x3c22b585	0.009930973
151	0x3d26c437	0.04071447
152	0xbc652add	-0.01398727
153	0x3d67c486	0.056583904
154	0xbd1971e8	-0.037462145
155	0x3cb9f50c	0.022699855
156	0xbd1cb2ac	-0.038256332
157	0xbd8f81bd	-0.070071675
158	0x3c3cfe23	0.0115352
159	0xbd841190	-0.06448662
160	0x3c17abba	0.009257251
161	0x3c5e832d	0.013581079
162	0xbd867ef3	-0.065671824
163	0xbd5dcb52	-0.05414898
164	0x3d0b529c	0.03401433
165	0x3b28d487	0.0025761442
166	0xbda21bf7	-0.0791549
167	0x3d3c2bb7	0.045940127
168	0xbd67c5d6	-0.056585155
169	0xbce1ff3c	-0.027587526
170	0x3c842ae7	0.016133739
171	0x3d979fa9	0.074035
172	0x3c100736	0.008790782
173	0x3d160e9f	0.036635038
174	0x3d099eb9	0.033598635
175	0x3d1e2e06	0.03861811
176	0x3d7dd384	0.061969295
177	0xbdc43d29	-0.09581978
178	0xbd6c3e32	-0.0576765
179	0xbd14ada2	-0.0362984
180	0x3cecab45	0.028890261
181	0xbbac0e60	-0.005250737
182	0x3d80b1f8	0.06283945
183	0x3bf63b44	0.007514389
184	0xbdd28cb0	-0.1028074
185	0xbcecffbc	-0.028930537
186	0x3d3ae4d8	0.0456284
187	0x3c863124	0.016380854
188	0xbaa0d971	-0.0012271834
189	0xbd7ed55d	-0.062215198
190	0xbd084745	-0.033271093
191	0x3d7524d2	0.059849568
192	0xbd173838	-0.03691885
193	0x3d687cc9	0.05675963
194	0xbdab8389	-0.08374698
195	0xbd09c5af	-0.03363579
196	0xbd8fd54e	-0.070231065
197	0xbcd246f3	-0.025668597
198	0xbd28b278	-0.041185826
199	0xbd16ca9c	-0.036814317
200	0x3c455c9c	0.012046006
201	0x3cd0f5f9	0.025507914
202	0x3d98adca	0.07455023
203	0xbcdea2bc	-0.027177207
204	0x3bef8880	0.0073099732
205	0xbd279216	-0.040910803
206	0x3c98a16a	0.018631656
207	0x3d4bc22e	0.04974573
208	0x3c4b83d1	0.012421564
209	0x3cb9cd63	0.022680944
210	0xba107187	-0.0005510081
211	0xbd4f9fcd	-0.050689507
212	0x3d642f95	0.05570944
213	0xbcba8041	-0.022766234
214	0x3d3e71b7	0.046495166
215	0x3d8ed4b9	0.069741674
216	0xbd1f3a32	-0.03887386
217	0xbd2287b8	-0.039680213
218	0xbd864a6f	-0.06557166
219	0x3cbde72a	0.023181517
220	0x3da749e9	0.08168394
221	0x3cc75bc5	0.024335751
222	0xbc5d8f14	-0.013522882
223	0xbd3b7fd4	-0.045776203
224	0xbd1e52d3	-0.038653206
225	0xbcd16a52	-0.025563393
226	0x3aeb2d5d	0.0017942596
227	0xbda4aff8	-0.08041376
228	0xb861ef97	-5.3867316e-05
229	0xbd5fba70	-0.05462116
230	0x3d5a6333	0.05331726
231	0xbd7af337	-0.061267104
232	0x3c83e426	0.0161
233	0xbcac066c	-0.020999156
234	0x3d83c651	0.0643431
235	0x3d01f117	0.03172406
236	0x3d00b323	0.031420838
237	0xbd32f9ed	-0.04369538
238	0xbd010031	-0.031494323
239	0xbd9a972a	-0.075483635
240	0x3d2ac5c7	0.04169252
241	0x3d30a106	0.043122314
242	0xbd325e27	-0.043546822
243	0xbd28eb05	-0.041239757
244	0xbd76a1d9	-0.060212944
245	0x3d7a3cea	0.06109325
246	0xbd088e82	-0.03333903
247	0x3c567d6b	0.013091425
248	0x3d292283	0.04129268
249	0x3935c604	0.00017335272
250	0xbc96a573	-0.01838944
251	0xbd2ced32	-0.042218395
252	0x3d52dbaa	0.05147902
253	0xbd0952da	-0.03352628
254	0xbde5d05d	-0.11221383
255	0x3c166e5f	0.009181588

actor.2.bias f4 [2]
0	0xbaf4c5d0	-0.0018674675
1	0xbcf4bc3d	-0.029874915

critic.0.weight f4 [512, 127]
0	0x3e2335c7	0.15938483
1	0xbd297b38	-0.041377276
2	0x3d0d9962	0.034570105
3	0xbbc6354b	-0.0060488335
4	0xbd382460	-0.044956565
5	0x3c24accb	0.010050963
6	0x3d2f894c	0.042855546
7	0xbe35164b	-0.17684285
8	0xbe261a57	-0.16220985
9	0x3dbcabfe	0.092124924
10	0xbd5f1b20	-0.054469228
11	0xbd53df01	-0.051726345
12	0x3c33616f	0.010948523
13	0x3d83755f	0.06418871
14	0x3de0af4f	0.109709375
15	0xbe8251e9	-0.25453117
16	0xbe47f077	-0.19525324
17	0x3da9f6d5	0.082990326
18	0x3d071bc2	0.032985456
19	0xbd0eb826	-0.034843586
20	0x3ca36413	0.01994518
21	0xbd77f36b	-0.060534876
22	0xbd1c6167	-0.038178828
23	0xbd5c1098	-0.053726763
24	0xbd95f8cd	-0.073228456
25	0x3db9c708	0.09071165
26	0x3dbbee94	0.091763645
27	0x3cb479a0	0.022030652
28	0x3df9d1a5	0.1219819
29	0xbced155d	-0.02894085
30	0xbc5088b4	-0.012727905
31	0xbc21b9cd	-0.0098709585
32	0x3d0e8d44	0.03480269
33	0x3d5f9712	0.05458743
34	0xbd4181ad	-0.04724281
35	0x3e150c52	0.14555481
36	0x3dfa6373	0.12226
37	0xbe08231f	-0.13294648
38	0x3d7346e8	0.059393793
39	0xbc2e006e	-0.01062022
40	0xbd9dd453	-0.07706513
41	0x3dc9d080	0.09854221
42	0xbc98c3f2	-0.018648122
43	0x3c5e75f4	0.013577927
44	0x3e51a286	0.20472154
45	0xbda9e0c0	-0.08294821
46	0xbdbab234	-0.09116021
47	0xbe7d9674	-0.24764425
48	0x3b85a8f2	0.0040789777
49	0x3e0fc49b	0.14039843
50	0x3dd66693	0.10468783
51	0x3d17c6bd	0.037054766
52	0x3e6362fd	0.2220573
53	0xbdfaaa55	-0.122395195
54	0x3ba19213	0.0049307435
55	0xbe9edc72	-0.3102756
56	0x3e0294cc	0.12752074
57	0x3b4c5661	0.0031179416
58	0x3c26d6ff	0.010183095
59	0xbc1c53d0	-0.009541467
60	0x3e78c318	0.24293172
61	0x3c1ae870	0.0094548315
62	0xbd68d1f7	-0.056840863
63	0xbdf62a82	-0.120198265
64	0x3d945a81	0.07243825
65	0xbd282518	-0.041051
66	0x3c95c5f7	0.018282874
67	0xbcd3a134	-0.025833704
68	0x3ddfdde4	0.10930994
69	0xbd5f6bfb	-0.054546338
70	0xbc49deb5	-0.012321164
71	0xbd170519	-0.036870096
72	0xbdbd80ad	-0.092530586
73	0xbb05b559	-0.002040228
74	0xbc0c6799	-0.0085696215
75	0x3db76e8a	0.089566305
76	0x3e1dadd5	0.15398343
77	0xbda9f8e8	-0.08299428
78	0xbbdf8f0c	-0.0068224724
79	0xbc0b4026	-0.008499181
80	0xbe3218d7	-0.17392288
81	0x3d41307d	0.047165383
82	0x3cf36fc0	0.029716372
83	0x3d8f16f7	0.06986802
84	0x3e443c3e	0.19163606
85	0xbd392ad9	-0.04520688
86	0x3d153a2e	0.036432438
87	0x3c5512ee	0.0130050015
88	0xbe82c9de	-0.25544637
89	0xbd2c29d0	-0.042032063
90	0x3d55e71b	0.052222352
91	0x3dd1c79a	0.10243149
92	0x3c5ee82d	0.01360516
93	0xbd90f5b6	-0.07078116
94	0xbd70b457	-0.058765735
95	0x3e3c43c7	0.1838523
96	0xbe7477db	-0.23873846
97	0x3bdfe6d9	0.006832939
98	0x3dab7be6	0.08373241
99	0x3e34bd7f	0.17650412
100	0xbc90dd64	-0.017683692
101	0xbd791f7a	-0.060821034
102	0x3d7db464	0.061939612
103	0x3df67c6e	0.12035452
104	0xbe269455	-0.16267522
105	0x3c12ae04	0.008952621
106	0x3bb2779b	0.005446387
107	0x3deaf0df	0.11471724
108	0x3da3f49a	0.080056384
109	0x3b84f3d5	0.0040573874
110	0x3cb97c85	0.022642383
111	0x3e33254d	0.17494698
112	0xbe9d38cd	-0.30707398
113	0xbd01a6f6	-0.031653367
114	0xbd0192ea	-0.03163425
115	0x3de412db	0.11136409
116	0x3d9ef4d5	0.07761542
117	0x3d98864c	0.0744749
118	0x3db2ea1b	0.08736058
119	0x3e6c54ef	0.23079275
120	0xbe892b90	-0.26791048
121	0x3d752d40	0.059857607
122	0x3dceaf00	0.10091972
123	0x3dfeafe5	0.12435893
124	0xbdd7b1bb	-0.10531946
125	0x3d28d84e	0.04122191
126	0xbb9bf429	-0.004759331
127	0xbe9f4f32	-0.3111511
128	0x3d017869	0.031608973
129	0xbda1bfc8	-0.078979075
130	0x3c719192	0.014744179
131	0x3e0b5e25	0.13610132
132	0xbd6b2600	-0.057409286
133	0x3da88a92	0.08229555
134	0x3de16154	0.11004892
135	0x3d70f13a	0.0588238
136	0x3d814b1e	0.063131556
137	0xbd1f71bb	-0.03892682
138	0x3cafccd8	0.021459982
139	0x3d5ba2a9	0.05362192
140	0x3d381bd9	0.044948433
141	0x3d021630	0.03175944
142	0x3d3302c8	0.043703824
143	0x3beb7b3d	0.007186322
144	0x3cd44b1e	0.025914725
145	0x3bbd1e50	0.005771436
146	0xbab61661	-0.0013892167
147	0xb856c089	-5.120089e-05
148	0x3d8ab1c1	0.06772185
149	0x3d1fa7e8	0.038978487
150	0x3c4cd793	0.012502569
151	0x3d97ed62	0.07418324
152	0x3d129b2f	0.035792526
153	0xbd28a51f	-0.041173097
154	0x3ceb59f1	0.02872941
155	0x3ce2b41f	0.027673779
156	0xbc6fd101	-0.014637233
157	0x3daa03e1	0.08301521
158	0xbd5fa5a2	-0.05460132
159	0x3d9dd344	0.07706311
160	0xbd10f7b6	-0.035392486
161	0xbd165649	-0.03670338
162	0x3e069cc8	0.13145745
163	0xbe02ee3f	-0.12786196
164	0xbd09a736	-0.03360673
165	0xbc360444	-0.011109415
166	0xbde0d109	-0.1097737
167	0x3e27658a	0.16347328
168	0xbcdfc0da	-0.027313638
169	0xbd0907e7	-0.033454802
170	0x3c3d8764	0.011567924
171	0xbd2a8ffc	-0.04164122
172	0xbd6f4b86	-0.058421634
173	0x3d798659	0.06091914
174	0x3c932917	0.01796393
175	0x3e0ea605	0.13930519
176	0xbbc71bc1	-0.0060763066
177	0xbd397434	-0.045276836
178	0xbd4166e0	-0.04721725
179	0xbde992a3	-0.11404922
180	0xbd0e85af	-0.03479546
181	0xbaedbdc3	-0.0018138218
182	0xbd485bc5	-0.048915643
183	0x3e373d27	0.17894422
184	0x3c388c88	0.011263974
185	0xbda14940	-0.078752995
186	0x3d16bf23	0.036803376
187	0xbc439f61	-0.011939854
188	0xbbe76a76	-0.0070622517
189	0x3d44ebf6	0.048076592
190	0xbdb1a8ec	-0.086747974
191	0x3e38c1bf	0.18042658
192	0xbcd11647	-0.025523318
193	0xbd7188d4	-0.05896838
194	0x3e022a3a	0.1271142
195	0xbd9b78f3	-0.075914286
196	0xbdd24f2a	-0.102690056
197	0x3c39440a	0.011307726
198	0xbe32ab23	-0.17448096
199	0x3dd803c5	0.10547594
200	0xbd4f9558	-0.050679535
201	0x3d9a22ac	0.075261444
202	0x3daaa691	0.08332551
203	0xbe248e21	-0.16069843
204	0xbd8f4e4d	-0.069973566
205	0x3cab3b0b	0.020902177
206	0xbdba153b	-0.09086081
207	0x3c29e468	0.010369398
208	0xbd515e9a	-0.05111561
209	0x3cf97d7a	0.03045534
210	0x3e079cd0	0.13243413
211	0xbd7de513	-0.06198604
212	0xbac86fd1	-0.0015292113
213	0xbcb7c0bd	-0.022430772
214	0xbce36d13	-0.027761972
215	0xbb085a52	-0.0020805788
216	0x3d502cc5	0.050823946
217	0xbd6e7aec	-0.058222696
218	0x3c1b548c	0.009480607
219	0x3cabf512	0.020990882
220	0xbd599b68	-0.053126723
221	0x3c12b763	0.008954856
222	0x3d9cd601	0.076580055
223	0x3cb302ff	0.021852015
224	0x3d265f5f	0.040618297
225	0x3d85a717	0.065260105
226	0x3d81a06f	0.063294284
227	0xbc9bd281	-0.019021275
228	0xbd9d5b65	-0.07683448
229	0x3c0cc03f	0.008590757
230	0x3dc76c33	0.09737434
231	0xbd056547	-0.03256729
232	0x3d0f4e71	0.034986917
233	0xbcbcfe16	-0.023070376
234	0x3c01077a	0.007875318
235	0xbd72bba8	-0.059260994
236	0xbd2e65fc	-0.04257773
237	0x3bfd6b94	0.0077337716
238	0x3d3b09de	0.045663707
239	0x3e05867b	0.13039581
240	0x3c3542b0	0.011063263
241	0x3d6565d6	0.05600532
242	0xbd7640cc	-0.06012039
243	0xbd829f59	-0.063780494
244	0xbd290d6f	-0.041272577
245	0x3dac9d81	0.08428479
246	0x3da489f0	0.08034122
247	0xbca1d123	-0.019753044
248	0x3ca43d12	0.020048652
249	0xbcd80029	-0.026367264
250	0x3d77f407	0.060535457
251	0xbdae5191	-0.08511651
252	0xbd602f05	-0.05473234
253	0xbd1faba6	-0.038982056
254	0x3da157dd	0.07878087
255	0xbd3f15ae	-0.046651535

critic.0.bias f4 [512]
0	0xbbd81467	-0.006594229
1	0xbd85c937	-0.06532519
2	0xbcaec800	-0.021335602
3	0x3d36800d	0.044555712
4	0x3d837e9f	0.064206354
5	0x3b846e35	0.004041458
6	0x3d46854c	0.048466966
7	0xbc55e52c	-0.013055127
8	0xbc9dc626	-0.019259524
9	0x3d186c95	0.037212927
10	0xbcc42143	-0.023941642
11	0x3d32e2bc	0.043673262
12	0x3cf2e888	0.029651895
13	0x3d8e4f4e	0.0694872
14	0x3d6af044	0.05735804
15	0xbbfc1de4	-0.007693993
16	0x3b629bcd	0.0034577728
17	0x3d95d354	0.07315698
18	0x3d9c423d	0.076298214
19	0x3c368283	0.011139515
20	0x3d8ee9c3	0.0697818
21	0x3ca4ce4e	0.020117905
22	0x3da6bfeb	0.08142074
23	0x3dd1d6e9	0.10246069
24	0xbd6454f5	-0.055745084
25	0xbd0459a5	-0.032312054
26	0x3c1e49d0	0.009661153
27	0xbcca9998	-0.024731442
28	0xbc046837	-0.008081487
29	0x3d9976fc	0.074933976
30	0x3d765754	0.060141876
31	0xbad4cc7f	-0.0016235261
32	0x3db53b3b	0.08849188
33	0x3d8b10f5	0.06790344
34	0x3c106f18	0.008815549
35	0x3ca47069	0.020073133
36	0x3c865ad3	0.01640073
37	0x3c024789	0.007951626
38	0x3dadc30f	0.0848447
39	0x3d59af15	0.053145487
40	0x3bc97abf	0.0061486657
41	0xbca93b81	-0.020658256
42	0x3da4cbea	0.08046706
43	0x3d027dc4	0.03185822
44	0x3d9a6e48	0.07540566
45	0x3d0b8ba4	0.03406872
46	0xbdb380b5	-0.08764783
47	0x3cb0621e	0.02153116
48	0xbd4eeea1	-0.050520543
49	0x3bf8efa3	0.0075969263
50	0x3c5d9bd3	0.013525921
51	0xbd217f04	-0.039427772
52	0xbd3a404d	-0.04547148
53	0xbbb38b34	-0.005479241
54	0xbda419d0	-0.08012736
55	0xbd38a99e	-0.045083635
56	0xbd8487ef	-0.0647124
57	0x3d8622ea	0.06549628
58	0x3c51045b	0.012757386
59	0x3c0342ca	0.008011529
60	0x3da74080	0.08166599
61	0x3ce90e16	0.0284491
62	0x3d1fd27b	0.03901909
63	0xbd8efcc7	-0.06981807
64	0x3befd95f	0.007319614
65	0xbcc9b6d8	-0.02462332
66	0x3c1f93de	0.009739844
67	0x3cd46876	0.025928717
68	0xba849853	-0.0010116197
69	0x3d1e3ea0	0.038633943
70	0x3dde0d16	0.1084234
71	0xbd35a23a	-0.044344164
72	0xbd8a3240	-0.06747866
73	0xbdb713db	-0.08939334
74	0xbd123af9	-0.035700772
75	0x3d3235db	0.04350839
76	0xbc221315	-0.009892245
77	0xbd0f075f	-0.03491914
78	0xbdaf4b7e	-0.08559321
79	0xbcdf40ee	-0.02725264
80	0xbc9d1dad	-0.01917919
81	0x3c2c2fc8	0.010509439
82	0xbd6735f9	-0.056447957
83	0x3d85d00d	0.06533823
84	0xbc1c61ba	-0.009544784
85	0x3d6553d4	0.055988148
86	0x3d822f5b	0.063566886
87	0xbd2a139e	-0.041522615
88	0x3c37b20b	0.011211882
89	0x3c990665	0.018679807
90	0xbd23e2a1	-0.040011052
91	0xbca3146b	-0.019907197
92	0xbce17a9b	-0.027524283
93	0xbd192eee	-0.03739827
94	0xbc27d3f5	-0.010243406
95	0xbda6e04b	-0.08148249
96	0x3dc96729	0.09834129
97	0x3ce331a8	0.027733639
98	0xbc0edc96	-0.008719584
99	0x3c0747f0	0.008256897
100	0x3c2b1453	0.010441857
101	0x3d9b6779	0.07588095
102	0xbc9fad33	-0.019491768
103	0x3c390502	0.011292698
104	0xbd4656d1	-0.04842264
105	0x3d86f8c3	0.06590416
106	0xbb052b5c	-0.0020320034
107	0xbd12e84a	-0.03586606
108	0xbd62bbc9	-0.055354867
109	0xbd72b73f	-0.05925679
110	0x3ca53e29	0.020171242
111	0xbd80aa57	-0.0628249
112	0xbd8c1cba	-0.06841417
113	0xbcca371d	-0.024684483
114	0xba261195	-0.00063350174
115	0xbd8d243b	-0.06891676
116	0xbda696b3	-0.08134212
117	0x3db3486d	0.087540485
118	0xbb8cd303	-0.0042976155
119	0x3c638c41	0.01388842
120	0x3d968c09	0.07350928
121	0x3ca3344e	0.019922402
122	0xbda0c681	-0.078503616
123	0xbd92238a	-0.07135685
124	0xbcc609dc	-0.024174623
125	0xbc423f13	-0.011855858
126	0x3ce30cfb	0.02771615
127	0x3c369b2c	0.011145394
128	0xbd9d6622	-0.07685496
129	0x3db5a283	0.08868887
130	0x3db59fb1	0.08868349
131	0x3d88a43d	0.06671951
132	0xbcc7b190	-0.02437666
133	0xbd95cd43	-0.07314541
134	0x3d85b083	0.065278076
135	0xbd20523e	-0.039140932
136	0x3cdf3e44	0.02725137
137	0xbc7d1331	-0.01544647
138	0xbdca969f	-0.0989201
139	0x3d999c1e	0.0750048
140	0xbd71a5ad	-0.05899589
141	0x39f862d4	0.0004737588
142	0x3c16fde4	0.009215806
143	0x3d08e764	0.033423796
144	0xbd023968	-0.031793028
145	0x3cb2e7b9	0.02183901
146	0xbd1023cc	-0.03519039
147	0x3c916f08	0.01775314
148	0x3db1fe90	0.08691132
149	0x3dbd19f8	0.09233469
150	0x3d79c1dc	0.060975894
151	0x3d836fee	0.06417833
152	0x3b370191	0.0027924518
153	0x3d3b2145	0.045686025
154	0x3d65a578	0.056066006
155	0xbd8db993	-0.06920161
156	0xbd875a38	-0.06609005
157	0x3d5844f2	0.052800126
158	0x3d45c241	0.048280958
159	0xbd98b4c6	-0.07456355
160	0xbcde024b	-0.027100703
161	0x3cc644fd	0.024202818
162	0x3de0dd81	0.109797485
163	0xbd718d99	-0.05897293
164	0x3c9d74e9	0.019220786
165	0xbcce60eb	-0.025192698
166	0xbd9586d9	-0.07301111
167	0xbd2adb5e	-0.04171311
168	0xbd98a441	-0.07453204
169	0xbd87cd2b	-0.066309296
170	0x3d10e35e	0.035373084
171	0x3c626320	0.013817579
172	0xb7ec64bb	-2.8180299e-05
173	0xbd06c017	-0.032898035
174	0x3d9284a2	0.07154204
175	0xbcb6d3ed	-0.022317851
176	0xbd5e3b99	-0.054256056
177	0x3a832b04	0.0010007326
178	0x3cb857eb	0.02250286
179	0xbd8d5794	-0.0690147
180	0x3d2ee483	0.042698395
181	0x3d5cc8ea	0.053902544
182	0x3d889a65	0.066700734
183	0x3d6d2c2d	0.057903457
184	0x3c62f70d	0.013852847
185	0xbd08b47d	-0.033375252
186	0xbd8eaa79	-0.06966109
187	0x3d99307c	0.07479951
188	0xbc6b55aa	-0.014363686
189	0xbd51ee8d	-0.05125289
190	0x3d6dd6fb	0.05806635
191	0x3d02dbe0	0.03194797
192	0x3d92d055	0.071686424
193	0xbd97e1c4	-0.07416108
194	0x3d187ae4	0.037226573
195	0xbdbe8b2e	-0.0930389
196	0x3dfcedea	0.12350066
197	0x3d4293a0	0.047504067
198	0x3d81e359	0.06342191
199	0xbd76c569	-0.06024686
200	0xbd04bc6c	-0.032406256
201	0xbd61914e	-0.055070214
202	0xbca48334	-0.020082094
203	0xbd8abc18	-0.06774157
204	0x3d842462	0.06452252
205	0xbd5e1001	-0.05421448
206	0xbd7387fd	-0.05945586
207	0x3ddb1508	0.10697371
208	0xbda9aff4	-0.082855135
209	0x3d0ebdad	0.034848858
210	0x3d477d2b	0.048703354
211	0x3c94e44a	0.018175263
212	0xbdc5e4cd	-0.09662781
213	0x3d68e3e5	0.056857962
214	0x3ced50e0	0.028969228
215	0xbd025476	-0.03181883
216	0x3d5d8fb9	0.054092143
217	0x3a5987f5	0.0008298152
218	0x3d93c08c	0.0721446
219	0xbd27668c	-0.04086928
220	0x3d9ffd18	0.07811946
221	0xbd166aea	-0.036723055
222	0xbc9b461f	-0.018954335
223	0xbcb45002	-0.022010807
224	0x3cc74502	0.024324898
225	0x3d8716a2	0.06596114
226	0x3cd0591e	0.02543312
227	0x3d235b4b	0.039881986
228	0x3c8390a9	0.01606019
229	0x3d75dd74	0.060025647
230	0x3d95bbde	0.073112234
231	0x3c65c780	0.014024615
232	0xbd65ce5d	-0.056105006
233	0x3d81032d	0.06299434
234	0x3d37f866	0.044914626
235	0x3d4c71b1	0.049913112
236	0x3c93d877	0.018047554
237	0xbd37bf2e	-0.044860058
238	0xbdb56bcb	-0.088584505
239	0x3d2615e1	0.04054821
240	0xbd4cbe23	-0.049986016
241	0xbd39781d	-0.045280565
242	0x3d6a256e	0.057164602
243	0x3da90d2e	0.08254467
244	0x3d0a7a28	0.033807904
245	0xbd75621d	-0.05990802
246	0xbd30f70e	-0.04320436
247	0x3d460a8a	0.048349895
248	0x3c9c6d98	0.019095227
249	0x3d767a6f	0.060175356
250	0xbdc84f07	-0.09780698
251	0x3d0aec10	0.033916533
252	0x3c8715cb	0.016489884
253	0x3da0b1b2	0.07846393
254	0xbd4a408c	-0.049377963
255	0x3bae015e	0.0053102216

critic.2.weight f4 [1, 512]
0	0x3de53042	0.11190845
1	0xbda13e0d	-0.07873163
2	0x3dce45df	0.100719206
3	0xbdb2c723	-0.087293886
4	0xbd3eb632	-0.046560474
5	0x3dfcdb7f	0.12346553
6	0xbda9b9c7	-0.08287387
7	0xbd3f90d1	-0.046768967
8	0xbdaf57f0	-0.085616946
9	0x3e0f84db	0.14015524
10	0xbcd0b770	-0.025478095
11	0xbd350e58	-0.044203132
12	0xbc834ddd	-0.016028339
13	0x3dcbf1c9	0.09958226
14	0xbca185f3	-0.019717192
15	0x3e16a756	0.14712271
16	0xbd28bd72	-0.041196294
17	0x3e10d92c	0.14145344
18	0xbd22ac98	-0.03971538
19	0xbd70344f	-0.058643635
20	0xbe35b746	-0.17745695
21	0x3cc6a287	0.024247421
22	0x3cf3dfa8	0.029769734
23	0x3d937c7d	0.07201479
24	0x3d33c065	0.043884654
25	0x3de85906	0.11345105
26	0xbcfc7f52	-0.03082243
27	0x3d0be6df	0.034155723
28	0x3e00e93f	0.12588976
29	0x3e0b0321	0.13575412
30	0xbdb8a9c7	-0.090167575
31	0xbcd036fb	-0.025416842
32	0x3d7ba4d6	0.061436497
33	0xbe590d41	-0.21196462
34	0xbe10f7b6	-0.14156994
35	0xbbbe1ac8	-0.0058015324
36	0xbda8be41	-0.08239413
37	0xbdce7a10	-0.10081875
38	0x3dac288f	0.084061734
39	0xbd38bf7f	-0.0451045
40	0x3e0aae78	0.13543117
41	0xbdcbe3d0	-0.09955561
42	0x3ddb1381	0.106970794
43	0xbd20b9d2	-0.039239712
44	0x3db5449c	0.08850977
45	0x3dbba334	0.09161988
46	0xbc866b94	-0.01640872
47	0x3e014dc3	0.1262732
48	0x3d815d4f	0.06316625
49	0x3dafdeb8	0.08587402
50	0xbc1b0bab	-0.009463231
51	0xbe0e71ef	-0.1391065
52	0xbe1d60b2	-0.15368918
53	0x3d871a1e	0.06596778
54	0x3de49cb2	0.111627
55	0xbc183a8d	-0.009291303
56	0xbd2595e8	-0.040426165
57	0x3cfb5b7c	0.030683272
58	0x3d28545b	0.041096073
59	0x3d3711ef	0.044694837
60	0x3dad7f5e	0.08471559
61	0x3dd71b54	0.10503259
62	0x3d8db900	0.069200516
63	0xbc71fcfa	-0.014769787
64	0xbd436026	-0.047699116
65	0x3d1a0df9	0.03761098
66	0x3cd1748d	0.025568271
67	0xbca5ac36	-0.020223718
68	0x3e03007a	0.1279315
69	0x3e10f2df	0.14155148
70	0x3d9e0450	0.07715666
71	0x3e011428	0.12605345
72	0x3dc3abdd	0.09554265
73	0xbcf2c446	-0.029634606
74	0xbd4a0c52	-0.049328156
75	0x3d8445f2	0.064586535
76	0x3d9e6737	0.077345304
77	0xbe234b6b	-0.15946738
78	0x3c9307ad	0.017947996
79	0x3d0989fd	0.03357886
80	0x3daeabe6	0.08528881
81	0xbd3e4e0f	-0.04646116
82	0x3db16d1a	0.086633876
83	0xbd04e80e	-0.032447867
84	0x3d1d0f61	0.038344745
85	0xbcf31e28	-0.029677466
86	0xbc8bd3bd	-0.017068738
87	0xbd55e26a	-0.05221788
88	0x3d11b676	0.0355744
89	0x3d41bb22	0.047297604
90	0xbc980fa3	-0.018562144
91	0xbda203b7	-0.07910865
92	0x3d970658	0.07374257
93	0xbdb3ea46	-0.087849185
94	0xbde901d2	-0.113773
95	0xbb2178b3	-0.0024638593
96	0x3d0a1965	0.033715624
97	0xbcb8d419	-0.022562074
98	0x3da0ab80	0.07845211
99	0xbd88c049	-0.066773005
100	0x3d00b29b	0.03142033
101	0x3dbe2930	0.092852
102	0xbbc523aa	-0.0060162144
103	0x3d5a75f5	0.05333515
104	0xbd0ba30f	-0.03409105
105	0xbd1558ef	-0.036461767
106	0x3df9141b	0.12162038
107	0xbd5dd1e1	-0.054155234
108	0xbca83226	-0.020531725
109	0xbd4b89d6	-0.049691997
110	0x3db354a5	0.08756379
111	0xbc8e2a00	-0.017354012
112	0x3dc32417	0.09528368
113	0x3d36b7d0	0.04460889
114	0x3dab762c	0.08372149
115	0xbda364d4	-0.07978216
116	0xbcc2619b	-0.023728183
117	0x3db195c5	0.086711444
118	0xbd2da72c	-0.042395756
119	0xbdd7e7a1	-0.105422266
120	0x3d81c38b	0.06336125
121	0xbdbc83a1	-0.09204794
122	0xbcb498b2	-0.022045467
123	0xbb1e84f2	-0.0024188128
124	0xbd1ce9cd	-0.038308907
125	0x3df12c98	0.11776084
126	0x3d4f1272	0.0505547
127	0x3d3f5cae	0.046719246
128	0xbdfb4174	-0.122683436
129	0xbd8de81e	-0.069290385
130	0x3de5962c	0.11210284
131	0xbe107b16	-0.14109454
132	0xbc2c8864	-0.010530565
133	0xbcc92751	-0.02455488
134	0x3def8191	0.11694635
135	0x3cfd10c8	0.030891791
136	0xbc9dca32	-0.019261453
137	0xbd329e10	-0.04360777
138	0x3ca8c252	0.020600472
139	0x3dbed6a0	0.0931828
140	0x3de4d9de	0.11174367
141	0xbd05d31a	-0.032672025
142	0x3da6525d	0.08121178
143	0xbcf65ad4	-0.030072607
144	0xbd12b80f	-0.035820063
145	0x3c86df69	0.016463952
146	0x3da1d285	0.079014815
147	0xbc90080e	-0.017581966
148	0x3dbae69d	0.09126017
149	0x3dc9eeda	0.098600104
150	0x3d64f095	0.0558935
151	0x3d461770	0.048362195
152	0x3d8e6bb3	0.06954136
153	0xbc471232	-0.012150334
154	0xbcf5d32d	-0.030007923
155	0x3db8c7a6	0.09022455
156	0xbd806fba	-0.0627131
157	0xbdc6613b	-0.09686514
158	0x3e324199	0.17407836
159	0x3d7cf983	0.06176139
160	0xbe1d7cdd	-0.15379663
161	0xbc693db9	-0.014235907
162	0x3d8ac73a	0.06776281
163	0xbcf4fdee	-0.02990624
164	0x3da8bb21	0.08238817
165	0xbe02237f	-0.12708853
166	0xbcd08e8f	-0.025458602
167	0x3df5cdde	0.12002157
168	0xbc5cb138	-0.013469987
169	0xbd2bd637	-0.041952338
170	0xbbafeb78	-0.0053686462
171	0xbceaac78	-0.028646693
172	0x3d2f7823	0.04283918
173	0xbc86c01f	-0.016449032
174	0xbcdcf6d0	-0.026973158
175	0x3d7052b6	0.05867263
176	0x3e1824d3	0.14857797
177	0xbe03b3b2	-0.12861517
178	0x3df9780c	0.121811
179	0xbc477b85	-0.012175445
180	0x3db54015	0.08850113
181	0x3ce13ee8	0.027495816
182	0xbde6c817	-0.11268633
183	0x3da184a1	0.07886625
184	0x3cbe1e3c	0.023207776
185	0x3dc353ab	0.09537443
186	0x3d98f443	0.07468464
187	0x3d570c62	0.052502044
188	0x3d82b5eb	0.06382354
189	0x3e0947c2	0.1340628
190	0x3d0e7798	0.034782022
191	0x3c8f5a53	0.017499125
192	0xb9e2f3f0	-0.00043287827
193	0xbd936765	-0.07197455
194	0xbe25364a	-0.16133991
195	0xbaa15347	-0.0012308144
196	0x3d695e90	0.056974947
197	0xbd2fdac7	-0.04293325
198	0xbd587f67	-0.052855875
199	0x3daaa744	0.08332685
200	0x3e0549f2	0.13016489
201	0xbe1023f0	-0.14076209
202	0x3dbf94b8	0.09354538
203	0x3bab5dfc	0.0052297097
204	0xbdae544d	-0.08512173
205	0xbbac0f48	-0.005250845
206	0x3deab58e	0.1146041
207	0x3db9014a	0.09033449
208	0x3da2a76f	0.07942092
209	0xbc9619ad	-0.01832279
210	0x3d68cee6	0.05683794
211	0xbe197689	-0.14986624
212	0xbd0d3001	-0.03446961
213	0xbd5fd30e	-0.054644637
214	0xbe0395b8	-0.12850082
215	0xbc002204	-0.00782061
216	0xbca537f5	-0.020168284
217	0xbd4f9fca	-0.050689496
218	0x3da62874	0.081131846
219	0x3c652b66	0.013987398
220	0x3dc61ab0	0.09673059
221	0x3d8c54a6	0.06852083
222	0xbdffa915	-0.12483422
223	0xbdc15ff1	-0.094421275
224	0xbc78afd5	-0.01517864
225	0xbcbd70d1	-0.023125084
226	0x3df5011c	0.11963102
227	0x3dd2966f	0.10282599
228	0x3de7be89	0.113156386
229	0xbcd7a430	-0.026323408
230	0xbce9aa42	-0.028523568
231	0x3da185fa	0.07886882
232	0xbdf2f684	-0.118634254
233	0x3db9c910	0.09071553
234	0x3d6a1c04	0.057155624
235	0xbd3cc811	-0.046089236
236	0x3e2279af	0.15866731
237	0xbbe8ba02	-0.007102252
238	0xbcc2cb15	-0.023778478
239	0xbc6362e2	-0.013878556
240	0xbc008a23	-0.007845434
241	0x3db5c1a0	0.08874822
242	0xbd0ac164	-0.033875838
243	0x3dd77c5b	0.10521766
244	0xbc9d63c8	-0.019212618
245	0xbc9a5dab	-0.018843492
246	0xbcdb1776	-0.026744585
247	0xbd2cf66a	-0.042227186
248	0xbcbfbabc	-0.023404472
249	0x3de65cb1	0.11248148
250	0x3a96ba77	0.0011499663
251	0xbcd29bfc	-0.025709145
252	0xbdc7199a	-0.0972168
253	0xbcde99c0	-0.027172923
254	0xbdff00d7	-0.12451332
255	0x3dfeb1b6	0.124362394
