results/env-1,1/preprocessed_a2c/512-nodecay-500/model.pth (torch, 532879 bytes, 7 tensors)

actor.0.weight f4 [512, 127]
0.019734534 0.020688437 0.025320098 -0.008901697 0.046392255 -0.009664887 0.016770978 0.019439483
-0.05665035 0.0068953484 0.090880804 -0.036548097 0.056779925 0.06616152 0.0799784 0.08426329
-0.08070565 0.011499112 0.082096495 -0.030634277 0.07278192 0.04926376 -0.0562328 0.018757217
0.079783246 0.055334706 -0.0136417225 0.015602938 -0.08373554 -0.07960886 -0.0764818 0.009430749
-0.044952564 -0.025481218 0.020112948 -0.00488779 0.01946577 -0.042932894 -0.016906867 0.08179442
0.043785293 0.00064332475 0.01764548 -0.029364195 0.047416817 -0.017632982 0.03960037 -0.016858334
-0.043712165 0.0031945093 0.012003066 -0.01255306 0.06603078 -0.046165016 -0.034962308 0.008738086
-0.046164714 0.060309738 -0.011426931 -0.045037482 -0.08265526 0.07236089 -0.0678033 0.04214519
0.08598749 -0.037553437 -0.07771364 0.082458325 0.050569102 -0.05329252 -0.007870443 -0.042633098
0.08833651 -0.0357246 -0.02238883 0.05327921 0.047246028 -0.07377426 0.085827194 -0.083046384
-0.045473978 -0.05694867 0.001914349 0.08546658 0.085442595 0.067335136 -0.06796558 -0.015017175
0.05661613 -0.027139978 0.060822107 0.06705504 0.068871535 -0.07603555 -0.016874298 -0.082786396
0.03182254 -0.02132334 0.044107735 -0.06205605 0.0882369 -0.013210745 -0.04693835 -0.06561588
0.043631036 -0.03240484 -0.07732876 0.05835313 0.07954266 0.051456597 0.030312901 -0.06292656
0.009976906 -0.04476327 -0.07850825 0.052278604 -0.009205236 -0.027676197 -0.0016392192 -0.046395425
0.04413692 -0.071513966 -0.07873237 -0.05670752 -0.07026465 -0.06763077 -0.020910395 -0.009778882
-0.056244437 -0.075873755 0.053014282 -0.0037256833 0.042433918 -0.045846254 -0.08928477 -0.022888938
-0.07388873 0.0798355 -0.05547419 -0.046259753 0.017649405 0.01025293 -0.07104983 0.041365433
0.0846852 -0.0049665025 -0.023694027 0.013006133 0.033716384 -0.06482712 -0.06829408 -0.08456912
0.057730768 -0.03245524 -0.08022008 0.021931378 0.016416524 0.05535849 -0.019624235 0.03616294
-0.014760769 -0.04369575 -0.07835749 -0.07911613 0.0059593352 -0.06104015 0.08224129 0.06836042
-0.04162216 0.008463142 0.022205468 0.008473218 -0.004007494 0.04013628 0.028205762 0.055289783
0.0794345 0.026222697 -0.0286417 0.083931535 -0.07693182 0.0011051261 -0.044113163 0.031789344
0.019332126 -0.017667525 0.03011573 0.09167191 0.015427626 0.07030629 0.055720143 0.033655874
0.05417702 -0.059967242 0.013715586 0.019507708 0.07363139 0.055853345 0.062456112 -0.040730976
-0.039709754 -0.066689044 -0.0047573727 -0.0065829963 -0.03129007 -0.05444069 -0.023943868 0.049902126
-0.0488278 -0.02882767 0.038483605 0.03426613 0.03975017 -0.08781708 -0.046479892 -0.073359564
0.052347004 0.049599305 0.04406002 -0.068933375 -0.071281545 0.023025503 -0.055046104 -0.0039723576
-0.005271318 -0.029949868 -0.048571225 -0.075456105 -0.07456373 -0.07768074 -0.050809316 -0.06938348
-0.0058151293 0.07336247 -0.02251105 -0.02505191 0.0723605 0.06091607 -0.070468806 0.044640604
0.02332087 0.0075685494 -0.038831703 0.002383624 0.08310328 -0.03580925 0.06858153 0.023916697
0.042335045 -0.029703435 0.02199334 -0.007715757 0.05553982 -0.011147619 -0.014738081 -0.09182399
00000000: 51aa a13c cc7a a93c 186c cf3c 6cd8 11bc
00000010: ce05 3e3d 7959 1ebc 4a63 893c 8d3f 9f3c
00000020: 330a 68bd 60f2 e13b b71f ba3d 75b3 15bd
00000030: 1192 683d b17f 873d b7cb a33d 3b92 ac3d
00000040: 0149 a5bd c566 3c3c 3522 a83d bcf4 fabc
00000050: b00e 953d ccc8 493d 5d54 66bd bca8 993c
00000060: 6665 a33d a5a6 623d 8881 5fbc 77a3 7f3c
00000070: 8a7d abbd f809 a3bd 7da2 9cbd 6e83 1a3c
00000080: 2e20 38bd fdbd d0bc e9c3 a43c c129 a0bb
00000090: ae76 9f3c 67da 2fbd 4580 8abc d583 a73d
000000a0: 3558 333d cba4 283a 418d 903c 2e8d f0bc
000000b0: 2338 423d 0b73 90bc ff33 223d 7d1a 8abc
000000c0: 870b 33bd f95a 513b 82a8 443c 5aab 4dbc
000000d0: 253b 873d 8717 3dbd a334 0fbd 302a 0f3c
000000e0: 3617 3dbd 5807 773d 0638 3bbc 3979 38bd
000000f0: 2947 a9bd f231 943d 75dc 8abd 6fa0 2c3d
00000100: 361a b03d a2d1 19bd 5428 9fbd e9df a83d
00000110: 8c21 4f3d 4249 5abd 08f3 00bc 0ba0 2ebd
00000120: c6e9 b43d f553 12bd c868 b7bc 4d3b 5a3d
00000130: 0d85 413d f616 97bd 2bc6 af3d 3914 aabd
00000140: ec42 3abd 0243 69bd e5ea fa3a 1a09 af3d
00000150: 87fc ae3d 01e7 893d 8a31 8bbd 990a 76bc
00000160: 51e6 673d a954 debc 9a20 793d 2754 893d
00000170: 850c 8d3d 87b8 9bbd f83b 8abc ea8b a9bd
00000180: 5a58 023d 49ae aebc 50aa 343d 7c2e 7ebd
00000190: 8cb5 b43d e171 58bc 6d42 40bd 9e61 86bd
000001a0: 75b6 323d f0ba 04bd 8a5e 9ebd b103 6f3d
000001b0: 43e7 a23d 27c4 523d c352 f83c a4df 80bd
000001c0: 2d76 233c b159 37bd efc8 a0bd 1722 563d
000001d0: 8fd1 16bc 31b9 e2bc 12db d6ba 2109 3ebd
000001e0: eac8 343d ea75 92bd 703e a1bd 2546 68bd
000001f0: eae6 8fbd 0082 8abd 474c abbc 9b37 20bc
00000200: 9160 66bd b363 9bbd 8125 593d 982a 74bb
00000210: 30cf 2d3d 48c9 3bbd efda b6bd 9581 bbbc
00000220: f952 97bd cb80 a33d e738 63bd de7a 3dbd
00000230: 7c95 903c e8fb 273c 9382 91bd cd6e 293d
00000240: 6f6f ad3d 0bbe a2bb fa19 c2bc ad17 553c
00000250: 311a 0a3d 15c4 84bd c4dd 8bbd 9332 adbd
00000260: 1977 6c3d c9ef 04bd 6d4a a4bd 6fa9 b33c
00000270: f27b 863c 96bf 623d 01c3 a0bc 971f 143d
00000280: 27d7 71bc 51fa 32bd e479 a0bd a307 a2bd
00000290: 8746 c33b 3c05 7abd 1f6e a83d 8c00 8c3d
000002a0: ff7b 2abd fea8 0a3c 3ee8 b53c 41d3 0a3c
000002b0: 4c51 83bb f165 243d c50f e73c 8a77 623d
000002c0: 8eae a23d fbd0 d63c 00a2 eabc 4ce4 ab3d
000002d0: 6e8e 9dbd e1d9 903a 01b0 34bd 8b35 023d
000002e0: 685e 9e3c 7cbb 90bc 43b5 f63c 7bbe bb3d
000002f0: 27c4 7c3c bffc 8f3d ce3a 643d beda 093d
00000300: b9e8 5d3d 36a0 75bd 56b7 603c a1ce 9f3c
00000310: 0ecc 963d 7ac6 643d fbd1 7f3d 86d5 26bd
00000320: b2a6 22bd 4494 88bd bce3 9bbb 2db6 d7bb
00000330: 042a 00bd 33fd 5ebd ee25 c4bc 2c66 4c3d
00000340: a9ff 47bd 0128 ecbc fca0 1d3d a45a 0c3d
00000350: 13d1 223d 71d9 b3bd b361 3ebd 8a3d 96bd
00000360: d069 563d a428 4b3d 4878 343d f12c 8dbd
00000370: 0ffc 91bd fb9f bc3c 0678 61bd 8d2a 82bb
00000380: 05bb acbb 6d59 f5bc 9ff2 46bd bb88 9abd
00000390: deb4 98bd 1417 9fbd 6e1d 50bd ed18 8ebd
000003a0: d78c bebb 103f 963d 1869 b8bc aa39 cdbc
000003b0: be31 943d 2183 793d f351 90bd 11d9 363d
000003c0: 690b bf3c 9801 f83b fe0d 1fbd 9336 1c3b
000003d0: 0d32 aa3d b8ac 12bd 7974 8c3d f3ec c33c
000003e0: 8367 2d3d 9e54 f3bc 612b b43c 76d4 fcbb
000003f0: b97d 633d 81a4 36bc fe77 71bc 370e bcbd

actor.0.bias f4 [512]
-0.0652138 0.03285949 0.030324733 -0.05180745 0.039802384 0.016649688 -0.0407192 -0.08327267
-0.0875959 0.031107746 0.038355235 -0.055880535 -0.047013756 -0.0012777124 -0.07408969 0.049137693
-0.0008164104 -0.04242387 -0.022612695 -0.07923049 -0.059490517 -0.010417653 -0.08262921 -0.023538398
0.073479585 0.07212614 0.03028007 -0.040488042 0.046701893 -0.07176307 0.009935704 0.033033084
-0.057253342 0.08149336 0.03424851 -0.007886035 0.053772494 0.03956562 0.054561812 -0.06207621
0.06923733 -0.07261022 0.07915033 0.07109564 0.039103363 0.06077376 -0.06437827 0.046456654
-0.07724969 -0.0837373 -0.057093896 0.02730274 0.07548702 -0.059585985 0.024597023 -0.06819812
0.060287595 0.008083084 0.050260738 -0.008812743 0.00321278 0.087959036 0.042841062 -0.036021665
0.03422698 0.08016881 0.04048139 -0.045424532 -0.04665966 0.09083257 -0.07536281 0.015562902
-0.07201266 0.044356897 -0.039834335 0.0074070888 -0.021450814 0.008064413 -0.044755097 0.019145625
0.091463536 -0.009320255 0.063812435 0.06920119 0.0258539 0.06966707 -0.031901225 -0.016391749
-0.06416134 0.028291758 0.083713956 0.043056145 -0.036064386 -0.050310645 0.03467964 -2.340356e-05
-0.047684554 -0.028673558 -0.061229028 -0.07973496 0.06654282 0.033808254 0.037272222 0.06531422
-0.068392016 0.0250728 0.0021658246 -0.03925234 -0.044727582 -0.07281689 -0.0699747 -0.009087927
0.07119698 -0.0878912 0.06912845 0.027085003 -0.028131252 -0.013024627 0.05070327 -0.065817535
-0.061034225 0.059677433 -0.056412663 -0.02853463 -0.08648259 0.061487533 -0.049749244 0.08358335
-0.08161811 0.07905871 0.03341478 0.0685998 -0.06949001 -0.03900403 -0.0154809095 0.011716918
-0.056280497 -0.017488038 0.08921665 -0.072438054 0.011741352 -0.026134573 0.09223675 -0.0020004252
0.032878477 -0.023993097 -0.027901413 -0.08100979 -0.05506441 -0.06163463 -0.058551326 -0.09240144
0.028095553 -0.0014925216 0.085148335 0.02740499 0.012460767 -0.06609684 -0.07709205 0.07891901
0.042466927 -0.014342628 0.049768012 -0.015996868 0.053705998 -0.027211463 -0.076064244 -0.05128866
0.0010321159 0.037312403 -0.055440545 0.02507643 -0.0107395705 0.024422208 0.05573239 0.08271678
0.030744737 0.07055024 0.07579204 -0.07953599 0.06744021 -0.048235327 0.020095168 0.0018754676
-0.0015016464 0.040657457 -0.0349832 -0.044321906 0.029391246 -0.027304543 -0.060805723 -0.044739973
0.00905056 -0.024766387 0.06257931 0.08594379 0.012876144 0.0531893 -0.006931147 -0.042077426
-0.042519018 0.02620714 0.07781704 -0.071832485 0.027646411 0.06913402 -0.08126651 -0.046974815
-0.07463387 -0.076623976 0.03491932 0.068762176 -0.05332329 -0.08933217 -0.080830514 0.06834657
0.02485286 -0.0065667974 0.020266032 -0.043242928 -0.013712572 0.017751222 0.042516608 0.07355299
-0.030427607 -0.013375859 0.06650685 -0.07488522 0.04116325 -0.058331475 -0.013933457 -0.060368266
-0.06062518 0.052338757 -0.04252132 0.08660714 0.033482194 0.013880712 -0.07263024 0.0011454129
-0.06827217 0.046785843 0.051829107 0.06449801 0.085442275 0.048914332 -0.0016266588 0.07624905
-0.056016166 -0.0542297 0.004682516 0.033996735 -0.024518885 0.05866666 -0.065323904 0.06765896
00000000: d08e 85bd ac97 063d 936b f83c 0c34 54bd
00000010: d307 233d ed64 883c 2dc9 26bd dd8a aabd
00000020: 7b65 b3bd acd5 fe3c 611a 1d3d fde2 64bd
00000030: 7f91 40bd ea78 a7ba 56bc 97bd 9b44 493d
00000040: 6004 56ba a7c4 2dbd 423e b9bc 9843 a2bd
00000050: 54ac 73bd ceae 2abc 8139 a9bd 99d3 c0bc
00000060: 777c 963d dfb6 933d e90d f83c cad6 25bd
00000070: 7c4a 3f3d 84f8 92bd 5dc9 223c b34d 073d
00000080: 7b82 6abd fee5 a63d 2a48 0c3d 6e34 01bc
00000090: 8c40 5c3d 8f0f 223d 357c 5f3d a043 7ebd
000000a0: 4dcc 8d3d abb4 94bd 9119 a23d 979a 913d
000000b0: d92a 203d e8ed 783d c1d8 83bd 5549 3e3d
000000c0: 1635 9ebd 767e abbd 4adb 69bd ffa9 df3c
000000d0: f098 9a3d 6f10 74bd b27f c93c 75ab 8bbd
000000e0: 20f0 763d e96e 043c 34de 4d3d 5363 10bc
000000f0: 818d 523b de23 b43d 1c7a 2f3d 748b 13bd
00000100: 9731 0c3d 8c2f a43d d0cf 253d 130f 3abd
00000110: 331e 3fbd 6d06 ba3d d157 9abd 8bfb 7e3c
00000120: 607b 93bd 94af 353d 5429 23bd 2ab7 f23b
00000130: 9eb9 afbc 9a20 043c 1f51 37bd 49d7 9c3c
00000140: 3c51 bb3d fcb3 18bc 18b0 823d 5ab9 8d3d
00000150: 8fcb d33c 9cad 8e3d dcaa 02bd fd47 86bc
00000160: 0567 83bd 1ec4 e73c 3972 ab3d a45b 303d
00000170: 40b8 13bd 8912 4ebd 3d0c 0e3d c352 c4b7
00000180: e150 43bd cfe4 eabc 4acb 7abd 154c a3bd
00000190: 9a47 883d 867a 0a3d c2aa 183d 76c3 853d
000001a0: 1d11 8cbd 7965 cd3c 82f0 0d3b 10c7 20bd
000001b0: 4534 37bd 0621 95bd e54e 8fbd 87e5 14bc
000001c0: b9cf 913d 4d00 b4bd 3793 8d3d 5ee1 dd3c
000001d0: 8373 e6bc 3f65 55bc 3bae 4f3d 58cb 86bd
000001e0: 06ff 79bd 5370 743d f710 67bd 75c1 e9bc
000001f0: c91d b1bd 5ada 7b3d ddc5 4bbd bf2d ab3d
00000200: 6527 a7bd 88e9 a13d f0dd 083d 0d7e 8c3d
00000210: c750 8ebd b1c2 1fbd a4a3 7dbc 51f8 3f3c
00000220: 6186 66bd 1343 8fbc 38b7 b63d 675a 94bd
00000230: cd5e 403c 2c18 d6bc 9fe6 bc3d 9119 03bb
00000240: 95ab 063d 2c8d c4bc 8191 e4bc 76e8 a5bd
00000250: 388b 61bd 9874 7cbd 84d3 6fbd f73c bdbd
00000260: a528 e63c b7a0 c3ba 4062 ae3d 6e80 e03c
00000270: 3f28 4c3c c85d 87bd 70e2 9dbd 4aa0 a13d
00000280: cdf1 2d3d 58fd 6abc 8bd9 4b3d dd0b 83bc
00000290: d2fa 5b3d 93ea debc 92c7 9bbd 0f14 52bd
000002a0: 1048 873a e4d4 183d a015 63bd 166d cd3c
000002b0: 06f5 2fbc 1511 c83c a647 643d 6a67 a93d
000002c0: 63dc fb3c a57c 903d db38 9b3d c4e3 a2bd
000002d0: 181e 8a3d 6892 45bd 9f9e a43c 40d2 f53a
000002e0: e4d2 c4ba 6f88 263d 8b4a 0fbd e38a 35bd
000002f0: e9c5 f03c c7ad dfbc 6c0f 79bd 4341 37bd
00000300: cd48 143c e1e2 cabc 9529 803d 4c03 b03d
00000310: 76f6 523c 06dd 593d ad1e e3bb 6159 2cbd
00000320: 6c28 2ebd 5bb0 d63c 8a5e 9f3d e91c 93bd
00000330: ba7a e23c 2396 8d3d 0e6f a6bd aa68 40bd
00000340: a4d9 98bd 08ed 9cbd 9007 0f3d 2fd3 8c3d
00000350: 8669 5abd c9f3 b6bd 788a a5bd 49f9 8b3d
00000360: 3a98 cb3c 4a2e d7bb f304 a63c 7f1f 31bd
00000370: b2aa 60bc 036b 913c e525 2e3d f3a2 963d
00000380: 5143 f9bc 6b26 5bbc be34 883d 6c5d 99bd
00000390: cc9a 283d fcec 6ebd 2849 64bc b744 77bd
000003a0: 1c52 78bd 2a61 563d d62a 2ebd 165f b13d
000003b0: a024 093d ed6b 633c 2abf 94bd ae21 963a
000003c0: 48d2 8bbd 83a2 3f3d c24a 543d 8817 843d
000003d0: 5cfc ae3d 655a 483d 9d35 d5ba 7628 9c3d
000003e0: 3571 65bd f61f 5ebd cb6f 993b 2940 0b3d
000003f0: d4db c8bc 744c 703d 8ac8 85bd c890 8a3d

actor.2.weight f4 [2, 512]
0.008163678 0.00018289906 -0.01750989 -0.016407236 0.016556455 0.025469176 0.03900954 0.0042958716
0.017024899 -0.03546031 0.02363024 -0.014916979 0.024670789 -0.022827934 0.037719257 0.04075809
0.005993049 -0.013745727 -0.03094786 -0.024161858 -0.018999707 -0.021527303 -0.033862147 -0.029608203
-0.0380304 0.017873788 -0.04320537 -0.025533807 -0.028213246 -0.023763675 0.013248679 0.039466843
0.01817161 0.0024634083 -0.013648297 -0.020099403 0.018769577 -0.03532516 -0.025748927 0.006368146
-0.00077385694 -0.006148539 0.023983687 -0.004457565 -0.0006662568 0.028230477 0.0013065004 -0.029274864
-0.038770914 -0.022824453 0.03423752 -0.029241266 -0.008646151 0.021131082 0.024960179 0.011660517
-0.0075739967 0.046087146 -0.01399233 -0.043342773 0.012027404 0.004635634 0.01337611 -0.008995498
-0.039446104 -0.024284493 0.035763755 -0.013229644 -0.014512262 -0.043620244 -0.023757903 0.033183564
-0.020410178 0.019158436 -0.02595893 -0.0026049518 0.042114228 0.034245275 -0.043070555 -0.015929306
0.031171717 -0.02888049 0.03274368 -0.0035547672 0.04708576 0.03219875 -0.03354802 0.03468631
0.0022840686 0.0014430389 0.034668617 -0.040926635 -0.02790859 0.02362922 -0.013440979 0.017298622
0.018246235 0.025281515 0.029402502 -0.025697516 -0.011043547 -0.030158268 0.018438581 -0.00019570913
0.039931607 -0.01187925 -0.01416794 -0.002311588 -0.022998177 -0.019693872 0.035440195 -0.008807308
-0.039919 -0.0096138 -0.016332095 0.031973403 -0.023734858 -0.019997735 0.0084054675 -0.015431947
-0.0049652336 -0.028360581 -0.031794205 -0.0065167984 -0.01287706 0.004495974 -0.03587134 -0.024875501
0.0060122004 0.013983978 -0.027167706 0.012698968 -0.0241954 -0.025030125 -0.012141698 0.013898955
0.03839581 -0.008166213 -0.022580674 0.038600497 0.01839648 0.0017125771 -0.040438194 -0.021260906
-0.018584412 -0.01082392 0.004547027 -0.039764047 0.018117458 -0.00564976 -0.036565486 -0.032924954
0.03880233 -0.025762534 0.005317159 -0.026711732 -0.012611465 0.026181227 -0.0010270458 -0.0072715743
0.039283827 -0.014635832 -0.038870018 0.018834224 0.038574297 0.03336181 -0.033786375 0.016058277
0.040976614 -0.017531814 0.043090645 0.02334707 -0.010278312 0.044666037 0.012358542 0.0046948637
-0.025581714 0.010186491 -0.012015174 -0.018476555 0.007158471 0.030818978 -0.0021239012 -0.027677404
-0.005840698 -0.027144017 0.013383544 -0.015650667 -0.03193651 0.017299252 0.010842369 -0.033429645
0.020342318 -0.022411408 0.04009694 0.025569702 -0.032835588 -0.013217909 -0.040466435 -0.01079028
0.0055103446 -0.041903213 0.0134043675 0.042336885 0.032541253 -0.022820368 0.041466244 -0.029716633
0.042093284 -0.0041698893 -0.02419343 -0.035813533 -0.01752282 -0.0018753877 0.012989628 -0.015204343
-0.028489487 0.03957156 0.0071831276 0.008062844 0.010158941 0.03645301 0.021018252 -0.041792125
0.015546943 -0.028320113 0.04102759 0.014630643 0.033275347 -0.025663637 0.005756936 -0.011385597
0.0015668124 0.0031481697 0.04111901 -0.00019072238 0.0062701497 -0.033839107 -0.028590979 0.027308209
-0.023539433 0.004120009 -0.010467707 -0.045080587 0.0071679004 -0.028591463 -0.03508221 0.011584971
-0.035203494 0.006366017 -0.037172846 0.04584302 -7.593682e-05 0.04430353 0.037719782 -0.03230275
00000000: f3c0 053c 98c8 3f39 e770 8fbc 7868 86bc
00000010: 67a1 873c bca4 d03c 78c8 1f3d 62c4 8c3b
00000020: cd77 8b3c d43e 11bd 3494 c13c 5866 74bc
00000030: 651a ca3c a601 bbbc 827f 1a3d f4f1 263d
00000040: 5761 c43b c235 61bc 5e86 fdbc 17ef c5bc
00000050: 46a5 9bbc 075a b0bc 09b3 0abd e78c f2bc
00000060: c4c5 1bbd 0d6c 923c 1df8 30bd 462c d1bc
00000070: 771f e7bc 0aac c2bc fd10 593c fca7 213d
00000080: a1dc 943c 2271 213b 1b9d 5fbc 81a7 a4bc
00000090: a8c2 993c 1db1 10bd 6aef d2bc e1ab d03b
000000a0: a9dc 4aba af79 c9bb 7079 c43c c410 92bb
000000b0: bda7 2eba 9a43 e73c e13e ab3a d7d1 efbc
000000c0: 40ce 1ebd 59fa babc a43c 0c3d 618b efbc
000000d0: 96a8 0dbc 171b ad3c 4a79 cc3c c10b 3f3c
000000e0: 4a2f f8bb e0c5 3c3d 1640 65bc 3188 31bd
000000f0: 970e 453c 84e6 973b 7927 5b3c da61 13bc
00000100: 3d92 21bd 46f0 c6bc 047d 123d 26c1 58bc
00000110: d7c4 6dbc 24ab 32bd ef9f c2bc 7deb 073d
00000120: 3f33 a7bc 27f2 9c3c d2a7 d4bc d7b7 2abb
00000130: f87f 2c3d c644 0c3d c06a 30bd 2d7e 82bc
00000140: d45b ff3c c796 ecbc 3d1e 063d 19f7 68bb
00000150: ffdc 403d d6e2 033d a669 09bd 3b13 0e3d
00000160: 50b0 153b 5a24 bd3a ae00 0e3d b0a2 27bd
00000170: 8ea0 e4bc 1192 c13c 8d37 5cbc d7b5 8d3c
00000180: 2179 953c 2e1b cf3c 84dd f03c 9983 d2bc
00000190: feef 34bc 790e f7bc 820c 973c 4537 4db9
000001a0: 538f 233d 30a1 42bc a620 68bc 037e 17bb
000001b0: ac66 bcbc 0b55 a1bc bd29 113d 874c 10bc
000001c0: 1b82 23bd 3383 1dbc e3ca 85bc 8bf6 023d
000001d0: 9b6f c2bc 4ad2 a3bc 16b7 093c 47d6 7cbc
000001e0: 66b3 a2bb 7354 e8bc a43a 02bd de8a d5bb
000001f0: 4efa 52bc f752 933b d4ed 12bd b5c7 cbbc
00000200: fe01 c53b 0e1d 653c cf8e debc 550f 503c
00000210: 6e35 c6bc fa0b cdbc f9ed 46bc 71b8 633c
00000220: ed44 1d3d 94cb 05bc 1bfb b8bc 8e1b 1e3d
00000230: 37b4 963c 8d78 e03a 85a2 25bd 5a2b aebc
00000240: 563e 98bc d056 31bc 3aff 943b a0df 22bd
00000250: 106b 943c 9f21 b9bb b1c5 15bd 51dc 06bd
00000260: 31ef 1e3d f30b d3bc 903b ae3b 90d2 dabc
00000270: 51a0 4ebc 037a d63c f09d 86ba 6346 eebb
00000280: 14e8 203d 21cb 6fbc 2b36 1fbd 3b4a 9a3c
00000290: 1500 1e3d 65a6 083d 9563 0abd a68c 833c
000002a0: 18d7 273d e19e 8fbc d17f 303d 5b42 bf3c
000002b0: 5d66 28bc bcf3 363d 7b7b 4a3c 5fd7 993b
000002c0: be90 d1bc 3de5 263c 4bdb 44bc 255c 97bc
000002d0: 9b91 ea3b 1578 fc3c 2631 0bbb b9bb e2bc
000002e0: 5363 bfbb 215d debc a746 5b3c d435 80bc
000002f0: dccf 02bd 29b7 8d3c 31a4 313c 86ed 08bd
00000300: efa4 a63c 2198 b7bc b03c 243d 8d77 d13c
00000310: 9c7e 06bd ee8f 58bc 22c0 25bd b7c9 30bc
00000320: 1f90 b43b b4a2 2bbd fe9d 5b3c 7169 2d3d
00000330: fa49 053d c8f1 babc 82d8 293d 4c70 f3bc
00000340: 026a 2c3d 91a3 88bb 4d31 c6bc 36b1 12bd
00000350: 048c 8fbc 92cf f5ba 73d2 543c a31b 79bc
00000360: c962 e9bc ca15 223d 7160 eb3b 051a 043c
00000370: b071 263c c04f 153d 782e ac3c 382e 2bbd
00000380: 9bb8 7e3c 95ff e7bc 8c0c 283d 5db5 6f3c
00000390: bb4b 083d 8c3c d2bc aea4 bc3b a88a 3abc
000003a0: 805d cd3a 8651 4e3b 686c 283d a6fc 47b9
000003b0: d475 cd3b e09a 0abd a137 eabc 77b5 df3c
000003c0: c5d5 c0bc 2401 873b bf80 2bbc 6ca6 38bd
000003d0: b5e0 ea3b a538 eabc 5db2 0fbd e4ce 3d3c
000003e0: 8a31 10bd 059a d03b 8e42 18bd e4c5 3b3d
000003f0: 4540 9fb8 9e77 353d 0f80 1a3d e34f 04bd

actor.2.bias f4 [2]
-0.02614017 -0.026655015
00000000: e923 d6bc 9e5b dabc

critic.0.weight f4 [512, 127]
-0.06893237 -0.067558795 0.042018116 -0.07713403 0.04208331 0.05689107 0.013841457 -0.058561645
0.046257827 -0.009695283 0.053168938 -0.0011467001 -0.062919065 -0.037576865 -0.00014715637 -0.017319689
-0.0012114306 -0.014158386 -0.011963886 0.020463742 -0.07361288 -0.055328883 -0.03785426 -0.027177794
-0.031259898 -0.010700548 0.01977064 0.03076949 -0.05330652 0.07081009 -0.023085034 -0.029676205
0.021588601 0.059581317 0.083872296 0.07411887 0.0718223 -0.026934503 0.05831121 -0.0756603
-0.021085156 0.07225331 0.055723503 0.0024569838 -0.05077798 -0.022721315 -0.019736376 0.0080654
0.09010881 -0.07721631 -0.042200617 0.040244903 0.049896915 -0.052446708 0.015254589 0.04671412
-0.083325125 0.04212657 -0.03883078 -0.044317264 -0.07560596 -0.04896792 0.07337114 -0.016581586
-0.067315236 -0.06656149 -0.07456573 -0.07412806 0.027152758 -0.08362672 0.085147955 -0.0063779997
-0.044568792 -0.06804998 0.06833669 -0.012372007 0.039493993 -0.033729758 0.05558409 0.09499562
-0.018113475 0.026114868 -0.06554017 0.0034367433 0.020647613 -0.01698109 0.07753308 0.05350714
0.019711891 -0.033686183 0.06346559 -0.0611183 0.032009434 -0.07872967 0.059911303 -0.018714093
-0.072026 0.040396802 -0.07036344 -0.06501315 -0.004037218 -0.067204036 -0.00017160673 0.023041906
0.055027205 -0.06972823 0.08532979 0.018400162 -0.035636667 0.07126643 -0.012104267 -0.019094428
0.034907475 0.052408747 -0.07842455 -0.07600722 -0.0574596 -0.016300395 -0.03908366 0.0863056
0.013138982 -0.09026404 -0.0834063 -0.07239161 -0.015849385 -0.048700232 -0.042680003 0.048551694
0.05855104 -0.053893518 -0.047713358 0.01807838 0.077361114 0.07488646 0.056265734 0.05678233
0.06859128 -0.04540113 0.06211238 -0.076696925 -0.041229263 -0.011258485 0.06842485 0.02994402
0.059786286 -0.0797159 -0.08459013 0.009166291 -0.0013488062 0.06470174 0.033204228 0.05239323
0.022458877 -0.06837381 -0.032813165 -0.004317543 -0.012917856 -0.049737155 0.02126732 0.029693358
-0.011755286 0.024069088 -0.025243182 -0.041110225 -0.03125943 0.075136185 0.06716786 -0.078016885
-0.07107998 -0.037102498 -0.05436126 0.061419856 0.025569413 -3.7244536e-07 -0.059381522 0.0691699
0.07158691 -0.021972513 0.035754297 -0.02154532 0.058257427 -0.012391623 0.01691848 -0.03617905
-0.07603069 -0.039197613 0.0915479 0.08131118 -0.006705083 -0.07683109 -0.007482201 -0.011883706
0.0628124 -0.05952134 -0.069194034 -0.0603956 0.06781104 -0.012957092 -0.031606525 0.05324506
0.07347585 0.034752358 -0.013038814 0.014163331 -0.05305479 0.03904872 -0.030111361 -0.003693853
-0.074650854 0.057294838 0.034243684 0.0344631 -0.03347682 0.080492884 0.027567022 0.057424013
0.032795798 -0.032597672 -0.07800229 0.035266463 -0.05649444 0.030956 0.022839107 -0.06245014
-0.0851419 0.08452021 -0.013906743 -0.0052359854 -0.047174968 0.008469893 0.09295812 -0.011670908
-0.019749034 -0.059708133 0.020654952 0.05917146 -0.051444553 0.05325807 0.06447175 -0.09035761
-0.08663493 -0.05310073 -0.023266315 0.06335854 -0.020959519 -0.071778424 0.00016479487 -0.05582889
-0.019403186 -0.08090127 0.057086214 0.039667442 0.024370661 -0.03263489 -0.086598165 -0.07217947
00000000: 6a2c 8dbd 445c 8abd 301b 2c3d 72f8 9dbd
00000010: 8d5f 2c3d 9c06 693d 47c7 623c 56de 6fbd
00000020: d978 3d3d f7d8 1ebc acc7 593d df4c 96ba
00000030: b6db 80bd 33ea 19bd fd4d 1ab9 05e2 8dbc
00000040: dec8 9eba 93f8 67bc 2d04 44bc 94a3 a73c
00000050: 5ac2 96bd 8aa0 62bd 120d 1bbd f7a3 debc
00000060: 610a 00bd 5a51 2fbc 0af6 a13c 4c10 fc3c
00000070: f057 5abd e104 913d d31c bdbc 831b f3bc
00000080: 94da b03c 8a0b 743d 3dc5 ab3d a2cb 973d
00000090: 9217 933d bfa5 dcbc bcd7 6e3d caf3 9abd
000000a0: c7ba acbc 8bf9 933d 543e 643d 5905 213b
000000b0: 92fc 4fbd 0d22 babc 2eae a1bc bd24 043c
000000c0: f88a b83d 9623 9ebd 8eda 2cbd d7d7 243d
000000d0: b560 4c3d 5cd2 56bd 62ee 793c 4e57 3f3d
000000e0: 5da6 aabd e98c 2c3d 060d 1fbd 0586 35bd
000000f0: 4cd7 9abd 9692 48bd 9c43 963d 1bd6 87bc
00000100: 92dc 89bd 6451 88bd ebb5 98bd 74d0 97bd
00000110: 766f de3c 7c44 abbd 0d62 ae3d 8afe d0bb
00000120: c48d 36bd ca5d 8bbd 1bf4 8b3d f5b3 4abc
00000130: 74c4 213d 3728 0abd 25ac 633d 108d c23d
00000140: b662 94bc d9ee d53c ed39 86bd fc3a 613b
00000150: 2f25 a93c ed1b 8bbc aac9 9e3d 4e2a 5b3d
00000160: d57a a13c 86fa 09bd 3ffa 813d 2f57 7abd
00000170: 531c 033d 053d a1bd 8e65 753d 4c4e 99bc
00000180: 5e82 93bd 1e77 253d b51a 90bd 9d25 85bd
00000190: a44a 84bb 45a2 89bd 55f1 33b9 61c2 bc3c
000001a0: 3564 613d adcd 8ebd 63c1 ae3d f0bb 963c
000001b0: c1f7 11bd 22f4 913d fa50 46bc eb6b 9cbc
000001c0: 24fb 0e3d 8eaa 563d 0d9d a0bd aca9 9bbd
000001d0: c25a 6bbd 6888 85bc 3016 20bd fec0 b03d
000001e0: e244 573c 5adc b8bd ecd0 aabd 0d42 94bd
000001f0: 92d6 81bc e579 47bd 3ad1 2ebd 24de 463d
00000200: 37d3 6f3d 73bf 5cbd 156f 43bd 1c19 943c
00000210: 816f 9e3d 135e 993d e676 663d 9794 683d
00000220: 9679 8c3d 89f6 39bd 8d69 7e3d 4713 9dbd
00000230: 04e0 28bd 8275 38bc 5422 8c3d 294d f53c
00000240: 77e2 743d 1742 a3bd 973d adbd 362e 163c
00000250: 6dca b0ba 5982 843d 2801 083d 499a 563d
00000260: aefb b73c 9107 8cbd 1967 06bd 2d7a 8dbb
00000270: 6aa5 53bc 30b9 4bbd cd38 ae3c 7c3f f33c
00000280: 3e99 40bc 892c c53c caca cebc 3263 28bd
00000290: e309 00bd 00e1 993d 4e8f 893d 51c7 9fbd
000002a0: 6192 91bd caf8 17bd eaa9 5ebd 6393 7b3d
000002b0: f276 d13c 80f4 c7b4 0a3a 73bd f3a8 8d3d
000002c0: 289c 923d b3ff b3bc 1973 123d d07f b0bc
000002d0: 579f 6e3d 3c06 4bbc a098 8a3c 7c30 14bd
000002e0: fab5 9bbd ad8d 20bd 777d bb3d 7a86 a63d
000002f0: 50b6 dbbb 9e59 9dbd 402d f5bb e0b3 42bc
00000300: caa3 803d a6cc 73bd 9ab5 8dbd 6061 77bd
00000310: 84e0 8a3d fc49 54bc d875 01bd 7e17 5a3d
00000320: 827a 963d 7d58 0e3d c0a0 55bc 510d 683c
00000330: fb4f 59bd 8df1 1f3d 1aac f6bc 9214 72bb
00000340: 8ce2 98bd fead 6a3d 1b43 0c3d 2e29 0d3d
00000350: fd1e 09bd 74d9 a43d 3cd4 e13c 7135 6b3d
00000360: e354 063d 2385 05bd aabf 9fbd 9173 103d
00000370: b766 67bd 7097 fd3c 1419 bb3c b8cb 7fbd
00000380: e05e aebd ef18 ad3d 1cd9 63bc a192 abbb
00000390: 8a3a 41bd 4ec5 0a3c d460 be3d 5637 3fbc
000003a0: bac8 a1bc 8490 74bd 9334 a93c c65d 723d
000003b0: 86b7 52bd 2225 5a3d c409 843d 690d b9bd
000003c0: a76d b1bd 2780 59bd 0099 bebc 1fc2 813d
000003d0: 4cb3 abbc 9100 93bd c9cc 2c39 d6ac 64bd
000003e0: 6ef3 9ebc 91af a5bd 3cd3 693d 547a 223d
000003f0: fba4 c73c 2aac 05bd 615a b1bd d4d2 93bd

critic.0.bias f4 [512]
-0.046364874 -0.022609178 0.008755432 0.019336155 0.07434747 -0.038071804 0.037261456 0.06416329
-0.038293555 0.055147287 -0.026207224 0.072662786 0.013181026 0.020545892 -0.018384919 -0.007573582
0.010903521 -0.051820666 -0.024584474 -0.011949476 -0.029131845 -0.009080037 0.027882988 -0.073743336
-0.0040435297 -0.018190542 0.069042005 -0.04237133 0.0853096 0.023818994 0.038660165 -0.054664794
0.0020620571 0.0048763277 -0.06537024 0.04999806 0.04376681 -0.04307515 -0.032727644 0.017198099
0.03850698 -0.054495197 0.046674766 -0.087848194 -0.004737784 0.054020952 0.06375237 0.0061771623
0.0304337 -0.028909124 -0.029906482 0.074157216 -0.03722866 0.081676446 -0.0638594 0.032419704
-0.0466823 0.046138488 0.024691693 0.082403086 -0.043118443 -0.08325236 0.052017283 0.010062137
0.00038398648 -0.03691406 0.020601314 0.029626569 0.012922383 0.030282501 -0.0020074653 -0.0346264
-0.059430625 0.064333245 0.07369054 -0.07547267 0.019870425 0.009042029 0.06275636 -0.027623264
-0.08033196 -0.016090425 -0.070388824 0.053164534 -0.091682784 0.032877434 -0.054297645 -0.06350967
0.07970386 0.03060686 0.05716783 -0.006447837 -0.011553858 0.07630446 0.020393727 -0.032168046
0.04263019 0.02686929 0.054689772 0.084392495 -0.005604926 -0.077428974 -0.030666364 -0.00030674238
0.0838228 0.09125101 0.018935509 -0.07098853 0.09519814 0.017074153 0.019795774 0.082580745
0.004953921 0.049754642 0.020638483 -0.049029015 0.01971103 -0.04754768 0.08244923 0.028658688
-0.050556548 0.024450772 -0.08105173 0.018102264 -0.04408811 0.061063305 -0.041009955 0.0796396
-0.068075255 0.017170649 -0.038214277 -0.0057510654 -0.019257803 -0.004289295 -0.014166324 0.025711166
-0.08518074 0.057347257 0.050838567 0.07974273 0.031331047 -0.055290483 -0.011134914 -0.0041942364
0.049111746 -0.051684964 -0.026044348 -0.07298238 -0.08788917 -0.09057924 0.03938561 -0.021778552
0.073369436 0.026540287 -0.03461243 0.022616608 0.004217887 0.0132902255 0.06910581 0.047160093
-0.044176336 0.06339623 0.057133425 0.09349446 -0.074688226 0.079172224 0.048680745 0.07333072
-0.024101231 0.080762275 -0.012821506 0.07358177 0.0045113736 0.09030117 -0.05043921 -0.06325636
0.08097479 -0.08488998 0.0857659 -0.059983592 0.022695018 0.05586221 0.013096044 -0.00475123
0.020208152 0.09038915 0.008687638 0.05603536 -0.089421585 -0.032433793 -9.9965946e-05 0.071123816
-0.0661617 -0.035545498 -0.028304635 0.037064854 -0.01819151 0.033838164 -0.04388523 0.030879835
-0.051586356 -0.004612774 0.08922114 0.009962393 -0.025852524 0.069610305 -0.08393438 0.012825314
0.04030543 -0.074235104 -0.084335655 -0.05657271 0.067900024 -0.027790524 -0.006557354 -0.06514313
0.09195145 0.020955823 -0.07595785 -0.051955223 -0.0016355918 0.057909843 0.007935431 -0.011693005
-0.022652183 0.08756914 0.07637172 0.08586172 0.064045995 -0.053200293 0.027478656 -0.023577727
0.041980427 0.07275511 0.054078527 0.031047978 0.02764074 -0.018678663 -0.014306035 0.04768499
-0.06768807 0.035481006 0.023701862 -0.08747154 0.031127235 0.08415929 0.054789722 0.07835052
0.066683434 -0.085197166 -0.032157123 -0.010181463 0.04700749 0.009759191 -0.01887164 -0.06599273
00000000: 18e9 3dbd e236 b9bc f272 0f3c db66 9e3c
00000010: 7d43 983d 2ef1 1bbd 789f 183d 0b68 833d
00000020: b4d9 1cbd 1fe2 613d 88b0 d6bc 3ad0 943d
00000030: 3bf5 573c dc4f a83c f89b 96bc d02b f8bb
00000040: afa4 323c e841 54bd 6165 c9bc bcc7 43bc
00000050: e8a5 eebc 6fc4 14bc dd6a e43c bf06 97bd
00000060: 967f 84bb 5504 95bc e565 8d3d 8f8d 2dbd
00000070: cdb6 ae3d 0d20 c33c 1f5a 1e3d 31e8 5fbd
00000080: 9423 073b 9ac9 9f3b d5e0 85bd c4ca 4c3d
00000090: d444 333d 926f 30bd 6c0d 06bd 07e3 8c3c
000000a0: 7fb9 1d3d 5b36 5fbd 0a2e 3f3d c1e9 b3bd
000000b0: 6a3f 9bbb 1345 5d3d 9a90 823d cb69 ca3b
000000c0: 1850 f93c d4d2 ecbc 70fe f4bc bddf 973d
000000d0: 147d 18bd fb45 a73d b8c8 82bd 86ca 043d
000000e0: f035 3fbd b6fb 3c3d 3c46 ca3c f3c2 a83d
000000f0: f79c 30bd 3780 aabd 1310 553d a9db 243c
00000100: cb51 c939 3333 17bd 16c4 a83c 6bb3 f23c
00000110: 67b8 533c 0213 f83c ae8f 03bb 69d4 0dbd
00000120: 876d 73bd 26c1 833d 11eb 963d 6a91 9abd
00000130: 4dc7 a23c 0525 143c 6886 803d 2f4a e2bc
00000140: 1585 a4bd 11d0 83bc 0428 90bd 0ec3 593d
00000150: 2fc4 bbbd 7daa 063d 3567 5ebd 5c11 82bd
00000160: c73b a33d 3dbb fa3c d128 6a3d 6148 d3bb
00000170: 654c 3dbc 8345 9c3d bf10 a73c a4c2 03bd
00000180: fe9c 2e3d fc1c dc3c 6202 603d f9d5 ac3d
00000190: 87a9 b7bb 1593 9ebd 0738 fbbc 44d2 a0b9
000001a0: 4aab ab3d cfe1 ba3d a41e 9b3c 6f62 91bd
000001b0: 3ef7 c23d 18df 8b3c bf2a a23c 1820 a93d
000001c0: 8054 a23b 86cb 4b3d 0912 a93c a6d2 48bd
000001d0: 0779 a13c 5bc1 42bd 24db a83d a0c5 ea3c
000001e0: 6214 4fbd fc4c c83c 73fe a5bd 334b 943c
000001f0: bc95 34bd 841d 7a3d 0efa 27bd 161a a33d
00000200: 0a6b 8bbd 76a9 8c3c 9386 1cbd 6f73 bcbb
00000210: 8ac2 9dbc 378d 8cbb df19 68bc 39a0 d23c
00000220: 3d73 aebd f5e4 6a3d 1a3c 503d 2850 a33d
00000230: fc54 003d 4678 62bd 376f 36bc ce6f 89bb
00000240: 6629 493d 9db3 53bd f55a d5bc c977 95bd
00000250: 3dff b3bd 9c81 b9bd ce52 213d ef68 b2bc
00000260: b742 963d 046b d93c c3c5 0dbd 7746 b93c
00000270: 3336 8a3b 3fbf 593c 5987 8d3d f12a 413d
00000280: 3ff2 34bd e2d5 813d bd04 6a3d 067a bf3d
00000290: 24f6 98bd 0c25 a23d 7665 473d 6b2e 963d
000002a0: f26f c5bc b166 a53d 4b11 52bc 0ab2 963d
000002b0: 25d4 933b d2ef b83d 5899 4ebd 8d8c 81bd
000002c0: 1cd6 a53d ccda adbd 08a6 af3d 5bb1 75bd
000002d0: e7ea b93c c6cf 643d ca90 563c 35b0 9bbb
000002e0: 918b a53c f21d b93d 9856 0e3c 5585 653d
000002f0: aa22 b7bd 4cd9 04bd cfa4 d1b8 5da9 913d
00000300: c97f 87bd 2898 11bd 1fdf e7bc 51d1 173d
00000310: 5d06 95bc e399 0a3d 00c1 33bd b5f7 fc3c
00000320: 374c 53bd c126 97bb 93b9 b63d 4e39 233c
00000330: acc8 d3bc d98f 8e3d cae5 abbd 4421 523c
00000340: 4e17 253d 9308 98bd 2cb8 acbd c9b8 67bd
00000350: 2b0f 8b3d f4a8 e3bc 12df d6bb c369 85bd
00000360: 0b51 bc3d 8cab ab3c ca8f 9bbd 00cf 54bd
00000370: 5b61 d6ba df32 6d3d 9c03 023c 0594 3fbc
00000380: 1291 b9bc 7357 b33d c768 9c3d 45d8 af3d
00000390: 8c2a 833d 8de8 59bd eb1a e13c 1426 c1bc
000003a0: abf3 2b3d a200 953d 7281 5d3d 5458 fe3c
000003b0: d56e e23c ff03 99bc dc63 6abc 5651 433d
000003c0: 0ba0 8abd 8854 113d 682a c23c 4724 b3bd
000003d0: 8bfe fe3c b55b ac3d 306b 603d 3d76 a03d
000003e0: 5391 883d da7b aebd 30b7 03bd 27d0 26bc
000003f0: ed8a 403d 04e5 1f3c b398 9abc 3227 87bd

critic.2.weight f4 [1, 512]
-0.023835443 -0.02885736 -0.039748363 -0.053625308 -0.021765063 -0.043414112 -0.013088291 0.0073642144
-0.044471085 -0.052141864 0.039015267 0.007466148 -0.0013990181 -0.0116253365 -0.012288678 0.036687605
-0.032595605 0.012073947 -0.023013897 0.011911889 -0.052432574 -0.05388709 0.03457749 -0.036877103
-0.0020570937 -0.03585511 -0.048005164 0.02258903 -0.0152654555 -0.024647195 -0.051035855 -0.02455519
-0.024746884 -0.012602387 -0.05325516 0.007556062 0.03002176 0.030689266 -0.023138734 0.012598287
-0.045809664 -0.046081033 -0.006588429 0.017440312 0.022042604 -0.03767079 0.0034826673 -0.030641273
0.026747268 -0.031324446 0.014849529 0.030378109 -0.0479126 0.014089958 0.0039348453 0.03251295
-0.04311641 -0.046302356 0.0069505204 0.040437743 -0.052211914 0.021064548 0.022112353 0.009968445
0.03859599 -0.026095668 0.021488711 0.036950555 -0.019127304 0.026677014 0.03811873 0.0097165685
0.015091731 -0.023146762 -0.0499088 -0.047102246 0.0066337325 -0.04981019 -0.004304814 0.021716293
0.014416541 0.028691156 -0.020081371 -0.036551807 0.029278059 -0.014871984 -0.024895808 -0.013118626
-0.0010745135 -0.008730203 -0.037619002 0.013992552 0.014040994 -0.02066801 -0.0010760233 -0.049987648
-0.030288124 -0.052370336 0.039336614 0.01853869 0.004736155 0.023837661 -0.011053613 -0.04631876
0.014628664 -0.03438924 -0.0043348772 0.03283363 -0.0446842 -0.04072844 0.006438345 0.017439432
-0.024735596 0.010935934 0.0149771245 -0.0335282 0.0151427295 0.029232575 0.028901419 0.0032967997
0.034267154 -0.04970575 0.008956729 0.011764641 0.030241422 -0.020051353 0.033377193 -0.052153934
0.035167295 -0.020999327 0.0257369 0.009784028 -0.02771887 0.027840765 0.015233935 0.044015415
-0.004832482 0.036977258 0.029507779 -0.026274888 0.017915681 -0.034177735 0.020019313 0.015055316
0.02729227 0.039427985 -0.025270006 -0.038351085 0.016290171 -0.0010403326 0.0013615803 -0.017319297
0.03024102 0.016014554 0.004040235 -0.015252357 0.017023755 -0.050612036 0.031386517 0.009348657
0.02226263 -0.04392013 -0.009380577 -0.011724876 0.017729586 0.049354132 -0.026124993 -0.01860081
0.02975052 0.030289888 -0.029625136 0.03148829 -0.026402034 -0.0130092 -0.04708682 -0.035902597
-0.023801629 0.0076442044 -0.030617826 0.03354199 -0.009658851 0.026583366 0.010894323 -0.01627607
0.004504952 -0.029408267 -0.027203433 -0.043042663 0.0062851016 0.0006218496 0.006705071 -0.038480844
-0.018541284 0.030132895 -0.020159056 0.002547778 -0.044542022 -0.028325934 -0.027029628 -0.040873636
-0.044590496 -0.022873748 -0.035351854 -0.026122443 -0.011777461 0.042811226 0.03324903 -0.012818738
0.008881313 -0.00043332204 0.039745912 -0.02276254 -0.018958276 -0.012649092 0.01166968 -0.040825352
-0.021544581 0.006659704 -0.027482048 -0.020950114 -0.013418167 -0.05199151 -0.00644476 0.019678472
-0.041258723 0.02534275 0.03686961 -0.023446888 -0.012697515 -0.004154635 -0.00838505 -0.01145033
0.004806238 -0.016796881 -0.039361592 0.022424644 -0.05028319 0.036680546 0.0035023584 -0.017235585
-0.026976423 -0.027665518 0.0038890832 0.010609594 0.018646978 -0.027806973 -0.020300996 -0.044863988
-0.05140297 -0.033705603 0.017412934 -0.027604433 -0.044049416 0.03918453 0.031303603 0.022091411
00000000: 8c42 c3bc 4566 ecbc 2ecf 22bd 36a6 5bbd
00000010: a54c b2bc ffd2 31bd 4570 56bc 824f f13b
00000020: 5027 36bd b592 55bd 79ce 1f3d 97a6 f43b
00000030: 425f b7ba 3278 3ebc 7456 49bc be45 163d
00000040: f882 05bd ced1 453c a487 bcbc 152a 433c
00000050: 8ac3 56bd b6b8 5cbd 20a1 0d3d 720c 17bd
00000060: 4ed0 06bb cfdc 12bd 10a1 44bd a10c b93c
00000070: f61b 7abc eae8 c9bc f90a 51bd f727 c9bc
00000080: fab9 cabc 3e7a 4ebc 1522 5abd d898 f73b
00000090: 32f0 f53c 0e68 fb3c 718d bdbc 0c69 4e3c
000000a0: eaa2 3bbd 77bf 3cbd c0e3 d7bb fcde 8e3c
000000b0: b192 b43c b04c 1abd 763d 643b 6803 fbbc
000000c0: 161d db3c 104e 00bd 704b 733c 83db f83c
000000d0: 0140 44bd 91d9 663c e0ef 803b 4d2c 053d
000000e0: d59a 30bd 8aa7 3dbd 31c1 e33b 0ca2 253d
000000f0: 29dc 55bd 8f8f ac3c f724 b53c b052 233c
00000100: d416 1e3d 95c6 d5bc 1809 b03c 7759 173d
00000110: ddb0 9cbc c189 da3c 6322 1c3d 3e32 1f3c
00000120: 4f43 773c 479e bdbc 2b6d 4cbd 49ee 40bd
00000130: c85f d93b c505 4cbd 660f 8dbb 5ee6 b13c
00000140: 5b33 6c3c b709 eb3c b081 a4bc 59b7 15bd
00000150: 8ad8 ef3c 9fa9 73bc 4bf2 cbbc 81ef 56bc
00000160: b1d6 8cba 2009 0fbc 6216 1abd 0441 653c
00000170: 330c 663c f54f a9bc 5a09 8dba d9bf 4cbd
00000180: cd1e f8bc 4782 56bd 6e1f 213d 73de 973c
00000190: bf31 9b3b 3347 c33c 371a 35bc bdb8 3dbd
000001a0: 10ad 6f3c bbdb 0cbd 960b 8ebb 8e7c 063d
000001b0: c806 37bd ddd2 26bd c1f8 d23b 24dd 8e3c
000001c0: 4ea2 cabc a22c 333c 9d62 753c de54 09bd
000001d0: 3619 783c 2779 ef3c abc2 ec3c 1f0f 583b
000001e0: b75b 0c3d 4298 4bbd 3fbf 123c 7bc0 403c
000001f0: dcbc f73c bc42 a4bc 86b6 083d 5d9f 55bd
00000200: 950b 103d c806 acbc 31d6 d23c 304d 203c
00000210: af12 e3bc 5112 e43c c197 793c 8249 343d
00000220: cc59 9ebb 7775 173d 4cba f13c 6f3e d7bc
00000230: e8c3 923c f4fd 0bbd 8bff a33c 92aa 763c
00000240: 0a94 df3c 3d7f 213d 0b03 cfbc 0716 1dbd
00000250: f772 853c c55b 88ba 0e77 b23a 33e1 8dbc
00000260: 04bc f73c f430 833c f363 843b 06e5 79bc
00000270: 6775 8b3c 914e 4fbd 268f 003d 1c2b 193c
00000280: 1e60 b63c 98e5 33bd feb0 19bc b219 40bc
00000290: a33d 913c 8f27 4a3d 1504 d6bc ba60 98bc
000002a0: 5db7 f33c 8022 f83c 6ab0 f2bc ddf9 003d
000002b0: 1449 d8bc 8a24 55bc 1cde 40bd 9a0e 13bd
000002c0: a2fb c2bc 3c7c fa3b 3cd2 fabc 5363 093d
000002d0: 2840 1ebc 5cc5 d93c 1a7e 323c 6555 85bc
000002e0: 479e 933b 9be9 f0bc bcd9 debc 814d 30bd
000002f0: 41f3 cd3b 9f03 233a 36b6 db3b 179e 1dbd
00000300: e4e3 97bc 43d9 f63c 9b24 a5bc 9ff8 263b
00000310: b271 36bd ca0b e8bc 3d6d ddbc 1d6b 27bd
00000320: 86a4 36bd ba61 bbbc 1bcd 10bd bcfe d5bc
00000330: 40f6 40bc d35a 2f3d 2330 083d af05 52bc
00000340: ed82 113c 802f e3b9 9ccc 223d 8278 babc
00000350: 634e 9bbc 233e 4fbc 2f32 3f3c 7c38 27bd
00000360: 437e b0bc a539 da3b 0822 e1bc 939f abbc
00000370: dfd7 5bbc 0df5 54bd 912e d3bb bf34 a13c
00000380: e8fe 28bd 999b cf3c 9704 173d b013 c0bc
00000390: 3d09 50bc 9b23 88bb 7361 09bc 2a9a 3bbc
000003a0: a67d 9d3b 9d99 89bc 9f39 21bd e3b3 b73c
000003b0: bff5 4dbd 573e 163d d387 653b a431 8dbc
000003c0: a9fd dcbc cca2 e2bc fddf 7e3b ddd3 2d3c
000003d0: 8cc1 983c 73cb e3bc 464e a6bc 4dc3 37bd
000003e0: ec8b 52bd e30e 0abd 92a5 8e3c b122 e2bc
000003f0: 296d 34bd f57f 203d 3538 003d 0cf9 b43c
