results/env-1,1/preprocessed_a2c/512-nodecay-5000/model.pth (torch, 532879 bytes, 7 tensors)

actor.0.weight f4 [512, 127]
00000000: 4453 bc3c 8ce4 8a3c df9d b93c c85c a8bc
00000010: ca01 053d 8676 65bb d853 a13c 6582 803c
00000020: 3f60 97bd 07d8 203c b56b bd3d 7043 46bd
00000030: 2e5b 263d 2940 993d 4809 ae3d c54c 9e3d
00000040: 72d1 cfbd f897 883c 9b14 ae3d 0b4c f4bc
00000050: 7e86 793d 8bb3 443d bce5 5dbd e06f 563c
00000060: 2431 863d e339 763d 7bcd 23bc 3a9e 9b3c
00000070: 0ae6 c5bd 763d acbd 201f 99bd d674 923b
00000080: 5070 77bd 08d3 9fbc eda4 cb3c 59a5 8239
00000090: bfa8 fe3b eb72 42bd b1d6 86bc 02b3 9b3d
000000a0: 2e8c 243d 3904 bf3a 2a90 953c 1fc9 edbc
000000b0: 5d3a 083d e015 4fbc aede 2a3d 6a26 b1bc
000000c0: 8a2c 37bd f572 4f3a 93be 213c b78e 9dbc
000000d0: b859 663d bfe4 15bd 01b8 febc 3eb8 893b
000000e0: e18f 2ebd 8aa9 633d d9e5 80bc 804d 45bd
000000f0: dc94 a6bd d8cf 8b3d 3f38 89bd 147c 143d
00000100: 81f0 b83d 5e28 37bd 7492 a9bd 7633 a93d
00000110: ac8f 353d 7b21 54bd 7e92 e6bb 6680 45bd
00000120: 7738 b93d dc84 30bd 23f2 e3bc 4774 603d
00000130: 76c4 163d 6730 95bd d838 b03d e30d b4bd
00000140: 980e 30bd d058 82bd 0675 61bb c3a5 ac3d
00000150: 1cd0 9d3d e1a0 933d 6db3 83bd da86 b1bc
00000160: a1fd 753d e983 10bd 373f 5c3d 732f 863d
00000170: c2f6 853d e39a 99bd 6ee0 66bc e61c b4bd
00000180: 8e7f fd3c 21e4 d0bc ca9c 223d 87b3 7cbd
00000190: 31e7 a13d e33a 2ebc cfb6 34bd 0e19 8abd
000001a0: d34f 3e3d 9d08 22bd 8578 acbd 7879 5e3d
000001b0: 9c3c 933d 33cf 633d bd4a 0b3d 0174 81bd
000001c0: 811e 433c b4de 4cbd b184 abbd ae64 413d
000001d0: a447 bbbc fc1d afbc 0315 5c3b ff27 42bd
000001e0: 3667 403d 5d28 9cbd 2f23 abbd c22b 74bd
000001f0: 2f31 acbd 22aa 83bd 8851 94bc 7e0c 68bc
00000200: 40e9 f0bc afeb a1bd feb3 9e3d 6c33 993c
00000210: bcde 343d bdc6 1abd 3dd4 91bd 41b9 f03a
00000220: c4d1 92bd f92d b73d 5008 a7bc 3d28 80bc
00000230: eb2f 673c 6918 893c d34d 4abd f63e 673d
00000240: 0fdc bb3d fb24 d13b 4842 4b3b e90c 263d
00000250: b158 033d 8f6f 70bd c8e6 b6bd 05bb 9abd
00000260: a303 973d ab5b 9fbc 89a7 8cbd 0382 3b3d
00000270: 581e a43c 54d5 833d d253 1abd 1441 583d
00000280: 7f63 193b cad1 f4bc 33d0 93bd f67f 8bbd
00000290: 2da2 7c3c b1ce 50bd 6dc3 643d 00f2 aa3d
000002a0: 0545 84bc 2a02 c93c 8df0 e53c 42cb 903c
000002b0: 727c d73b 2c48 4f3d d43b 1c3b b101 973d
000002c0: 0517 cf3d c6f2 2a3d 22d1 e1bc 57e1 d13d
000002d0: ca8f 8bbd 9f05 3d3c c9ab 37bd e952 283d
000002e0: 16fb 073d c52a 8dbb 6ea8 473d a416 cb3d
000002f0: c294 8e3c 8a33 a23d 1b96 873d 34fe d63c
00000300: 9e44 8f3d e021 3cbd da4e 373d f3b9 4f3c
00000310: 765e 953d 85cc 813d a1f2 ac3d 9ff4 68bd
00000320: 344b cabc 633a 5ebd 2631 163d a319 e4bc
00000330: 7bb0 0dbd 95a1 4cbd 9398 573b 581b 143d
00000340: e4e7 19bd d6be 8dbc e217 a73d a031 d239
00000350: 3611 1f3d 0fd4 a9bd 12ba a8bc 2d33 d0bd
00000360: 0888 893d ddbc 823d ba9f a33d 1fe7 e0bd
00000370: 7a69 86bd a620 fa3c 1c04 0dbd 0297 05bd
00000380: 1da7 1e3c 5907 86bc 598b 94bc e269 d8bd
00000390: f06c 8abd 4ca0 8dbd 252b 22bd e6b1 b3bd
000003a0: 5414 1b3c e8ac b33d af1e 1b3c 7383 54bd
000003b0: 0642 a23d 5872 8e3d 9861 8bbd 01ae c73c
000003c0: 527e 273d 6934 be3c 2eca 56bc a09b 63bc
000003d0: 5cb7 b93d c08b dbbc f2c2 9b3d 3c33 393c
000003e0: d62e 6a3d f005 79bc b96f ed3c 07a5 99bc
000003f0: abb5 8d3d 893f de3a 4a75 0dbc 77c6 c5bd
0.022988923 0.016954683 0.022658287 -0.020552054 0.03247241 -0.0035013272 0.0196933 0.015687177
-0.07391404 0.00981713 0.09249059 -0.048404157 0.0406143 0.07482941 0.08497864 0.077294864
-0.101473704 0.016674027 0.08500024 -0.029821416 0.060919277 0.048022788 -0.05417417 0.0130881965
0.065523416 0.0601138 -0.009997721 0.018996347 -0.09663017 -0.0841016 -0.0747664 0.0044694943
-0.060409844 -0.019509807 0.024858916 0.00024918726 0.007771581 -0.047472876 -0.016459795 0.076025024
0.04017275 0.0014573402 0.01825722 -0.029026566 0.033258785 -0.012639493 0.04171627 -0.021624763
-0.04472021 0.0007913553 0.009872097 -0.01923309 0.056237906 -0.036595102 -0.0310936 0.0042028716
-0.042617682 0.055581607 -0.0157346 -0.048169613 -0.081338614 0.068267524 -0.06700181 0.036251143
0.090302475 -0.04471623 -0.08279887 0.082617685 0.04432647 -0.051789742 -0.007036506 -0.048218153
0.09043973 -0.043095455 -0.02782542 0.05479839 0.036808454 -0.07284623 0.08604592 -0.08791711
-0.042982668 -0.06364596 -0.0034402027 0.08430054 0.07705709 0.072084196 -0.06430707 -0.021670748
0.060056332 -0.03528205 0.053771224 0.06552019 0.06541206 -0.075002454 -0.014091594 -0.087945744
0.030944612 -0.025499405 0.039700307 -0.061694648 0.079054244 -0.010634157 -0.044119652 -0.0674306
0.046462845 -0.039558996 -0.08421425 0.05431506 0.07189295 0.055617522 0.034006823 -0.06320954
0.011909128 -0.050017074 -0.08374918 0.047215156 -0.02286131 -0.021376602 0.003358186 -0.047401424
0.04697343 -0.07624886 -0.0835632 -0.059612043 -0.084078185 -0.06428935 -0.018105283 -0.014163135
-0.029408097 -0.07906281 0.077491745 0.018701278 0.04415773 -0.037787188 -0.07120559 0.0018365757
-0.07168916 0.089443155 -0.020389706 -0.015644187 0.014110546 0.016735272 -0.049390625 0.05645653
0.09172832 0.0063825822 0.0031014849 0.040539656 0.032067005 -0.05870014 -0.08930737 -0.075552024
0.073737405 -0.01945289 -0.06867892 0.045778286 0.020034 0.064371735 -0.037677594 0.05279644
0.0023405252 -0.029885191 -0.07217445 -0.06811516 0.015419525 -0.050978366 0.055850435 0.08346939
-0.016146192 0.024537165 0.028068805 0.017675046 0.0065761143 0.050605938 0.0023839371 0.073733695
0.101118125 0.041735433 -0.027565543 0.10248058 -0.06814535 0.011536985 -0.04484156 0.041094694
0.03319844 -0.004308077 0.04874461 0.09916428 0.017404918 0.079199865 0.06620427 0.02624426
0.069955096 -0.045930743 0.044752933 0.012678611 0.072934076 0.06337837 0.08444715 -0.056873914
-0.024694063 -0.0542549 0.036667965 -0.027844256 -0.034592133 -0.049958784 0.0032897338 0.03615889
-0.037574664 -0.017302912 0.08158852 0.00040091295 0.038834773 -0.082924 -0.020596538 -0.10166011
0.06715399 0.06383679 0.0798945 -0.10981583 -0.06563087 0.030533146 -0.034427747 -0.032614715
0.009683398 -0.016360926 -0.018132852 -0.105670705 -0.067590594 -0.0691534 -0.039591927 -0.08774166
0.009465296 0.087732136 0.009467765 -0.051883172 0.07922749 0.06955403 -0.06805724 0.024374964
0.040891953 0.02321835 -0.013109727 -0.013892084 0.09068176 -0.026800036 0.07605542 0.011303719
0.057173572 -0.0151991695 0.028983938 -0.018755449 0.06919416 0.0016956191 -0.008633921 -0.09656995

actor.0.bias f4 [512]
00000000: dc35 8abd 09b4 3f3d 3b6e c83c cd44 54bd
00000010: e4de 0e3d 6295 313c eba7 42bd 6a89 b4bd
00000020: 5245 adbd fd4b 1f3d 1b00 5d3d 0485 74bd
00000030: 2040 4dbd fb22 51bb 50d9 9bbd 5e96 4b3d
00000040: 13e3 33bb 6a7a 26bd c818 b1bc 90a0 a5bd
00000050: 2b2b 74bd ec8b 83bc cfd2 a2bd 7126 f7bc
00000060: ee69 a43d bedb 9f3d 7656 ea3c 6e92 46bd
00000070: 85ff 3b3d 1a4f 95bd 3ea6 d93b 6b19 de3c
00000080: 9c70 4bbd 1111 b43d 82dc 143d db17 85bb
00000090: b837 493d 7f06 113d 551e 4a3d 50d9 59bd
000000a0: ab6a 963d 29dc 9bbd 3a2d ad3d 6bfa 993d
000000b0: 9508 2f3d fd75 743d 189e 7bbd fe2f 583d
000000c0: 7d3b 99bd b7ab a8bd 209f 72bd 51a9 1a3d
000000d0: 9e53 933d 3a92 6ebd 256d 073d 2dbe 8dbd
000000e0: 2d3f 703d dc39 003b b2d1 483d 0023 4bbc
000000f0: 5449 123c c8f1 c23d 7aee 213d 1d40 00bd
00000100: 3bac 323d 3077 bb3d c133 6b3d 4f1f 2fbd
00000110: 07cc 44bd a00d ae3d 3c91 a6bd d2ff bd3c
00000120: 503c 92bd f772 253d 565b 22bd 790b 8a3c
00000130: 1a4b f3bc 72ca bd3b 4d12 0fbd cf66 893c
00000140: 0cfa b13d 5019 18bc 455d 933d 6d25 b53d
00000150: ed97 f63c 90f9 9f3d c38d ebbc 0e51 a2bc
00000160: 0567 83bd 1be1 ba3c 37d3 9b3d 649e 4b3d
00000170: e5fc 19bd ba80 50bd 4e0e fb3c 8e51 1e3c
00000180: 91f8 59bd 6651 b8bc 14ee 84bd 9762 aabd
00000190: 1ceb 893d e972 2b3d fe48 0a3d facc 8e3d
000001a0: 9361 65bd 4ed3 003d 31f0 0739 ce42 23bd
000001b0: 2123 2ebd c67f 97bd 98b6 91bd 789e 48bc
000001c0: 8f8b 8b3d 0254 b3bd b44c 803d 09f7 d33c
000001d0: 3b65 a9bc fb55 ccbb c66a 623d b929 73bd
000001e0: 2462 83bd 8a51 823d 0adb 5dbd 2f9d 03bd
000001f0: 6ce7 a1bd 68f2 673d 0e7d 4fbd e854 b33d
00000200: e069 82bd f463 a53d f0dd 083d de2e 8c3d
00000210: c750 8ebd ee23 0ebd aae2 8bbc e5d0 e13b
00000220: 6dd5 4dbd 0c9b 93bc 192d b03d b1f8 99bd
00000230: 49a6 173c 9744 dfbc 6482 d43d a647 11bc
00000240: 4313 fe3c e361 a8bc 49f7 f9bc e728 a5bd
00000250: c527 72bd cc46 82bd 671a 5bbd f612 aebd
00000260: 96f9 c43c 26b0 9438 9d90 a93d 1118 313d
00000270: 8c83 b03c 710e 8bbd cf8f 8cbd 9300 a23d
00000280: 432e 353d 6d71 f0bb 1fd0 7d3d bf4c a1bc
00000290: 52c4 503d adc8 edbc d763 94bd 5ae4 54bd
000002a0: 628b 593a 233d 433d dbf4 62bd f737 d63c
000002b0: 5de5 5dbc 1904 c93c 2191 623d 8ae4 a53d
000002c0: f065 f33c e5da 8e3d e802 8e3d 6203 9abd
000002d0: 84dd 883d f1fb 34bd fd37 aa3c ed2c f1b9
000002e0: d2ce c3bb a452 673d 49dd 20bd 1141 27bd
000002f0: 5ab6 053d 35e5 d3bc a683 8abd 3dd3 3bbd
00000300: 26e7 ee3b bd00 f3bc e425 9b3d 7802 ab3d
00000310: 7dd1 983c 5c88 463d d321 e3bb 0139 08bd
00000320: 0cef 0fbd 0550 d03c 24ff 8b3d 6a3e 88bd
00000330: bb37 a93c 2396 8d3d 472e 97bd d24b 57bd
00000340: ee35 8abd 1f16 99bd eded 443d edc3 8d3d
00000350: 9b5f 6abd c014 bbbd 76ea acbd 6dd0 753d
00000360: a59d ec3c 9e9e 723b 55aa 813c af80 46bd
00000370: b007 42bc 3bfa 963c ebba 1d3d f33d 9b3d
00000380: 4923 0bbd 12c0 06bc 5ab8 803d 8935 94bd
00000390: 886f 223d fcec 6ebd 3142 68bc 84ff 84bd
000003a0: e7b8 78bd e450 543d 9646 46bd 234e a83d
000003b0: c6d4 023d b69b 3d3c dcef 87bd 93f9 febb
000003c0: 010e 86bd 424e 403d 5061 423d 6ccb 8d3d
000003d0: 1cb8 c93d f168 473d dc1e 213b 4d5a 933d
000003e0: bc2e 1cbd 37d9 60bd 3339 9d3a 678c fb3c
000003f0: 6394 c5bc a907 7c3d 9ba7 7fbd 421b 883d
-0.06748554 0.046802554 0.024466624 -0.051823426 0.034880534 0.010838838 -0.04752342 -0.08815272
-0.084604874 0.038890827 0.05395518 -0.059697166 -0.050109982 -0.003191172 -0.076098084 0.04970395
-0.002744858 -0.040644087 -0.021618262 -0.080872655 -0.05961148 -0.01605793 -0.07950365 -0.030169697
0.08028017 0.07805584 0.02860568 -0.04847949 0.04589798 -0.07290478 0.006642132 0.02711173
-0.04966794 0.08792318 0.036343105 -0.0040616817 0.049125403 0.035406586 0.049345333 -0.05318576
0.07344564 -0.076103516 0.08455892 0.075184666 0.042732794 0.059682835 -0.061430067 0.052780144
-0.074820496 -0.08235877 -0.059233785 0.03775913 0.07193683 -0.05824492 0.033063073 -0.06921039
0.058654 0.0019565737 0.049028106 -0.012398481 0.008928616 0.09518772 0.03953407 -0.031311143
0.043621283 0.091535926 0.057422403 -0.042754468 -0.04804614 0.084986925 -0.0813317 0.023193274
-0.0714041 0.040392842 -0.039637886 0.016851174 -0.029698897 0.0057919556 -0.034929562 0.016772656
0.08690271 -0.009283379 0.07195524 0.08845029 0.03010174 0.07811272 -0.02875412 -0.01981404
-0.06416134 0.022812417 0.076086454 0.0497116 -0.037594695 -0.050904013 0.03064647 0.009662999
-0.053215567 -0.022499751 -0.06490722 -0.08319586 0.06734297 0.041857634 0.033761017 0.0697269
-0.056001257 0.031451516 0.00012964082 -0.03985863 -0.04251397 -0.07397418 -0.07114905 -0.012244813
0.06813728 -0.087562576 0.0626463 0.025874631 -0.020678153 -0.0062358356 0.05527761 -0.05936596
-0.06415203 0.063632086 -0.05416397 -0.032132324 -0.07905468 0.05662766 -0.05065637 0.08756429
-0.0636785 0.08075705 0.03341478 0.06844877 -0.06949001 -0.034702234 -0.017075855 0.0068913572
-0.050252367 -0.018018268 0.08602352 -0.07518137 0.009255954 -0.027254386 0.103764325 -0.00886718
0.031015044 -0.020554489 -0.030513423 -0.08064442 -0.05911996 -0.0636116 -0.053491976 -0.0849971
0.024044793 7.09e-05 0.08279536 0.043235842 0.021547101 -0.06789864 -0.06863367 0.07910266
0.04423357 -0.00733774 0.061966058 -0.019689916 0.050968476 -0.029026354 -0.072456054 -0.051975586
0.0008298663 0.047665726 -0.055409294 0.026149733 -0.013543454 0.024538087 0.055314187 0.08100231
0.029711694 0.069753446 0.06934148 -0.075201765 0.06682876 -0.044185583 0.02077865 -0.00046000574
-0.0059755826 0.056475297 -0.039273534 -0.040833537 0.032644607 -0.02586613 -0.06763391 -0.04585575
0.0072907386 -0.029663438 0.075755864 0.0835008 0.01865458 0.048469886 -0.0069315224 -0.03325749
-0.035140082 0.025428781 0.068357736 -0.066525295 0.020656457 0.06913402 -0.073818736 -0.052562542
-0.067485675 -0.074749224 0.048078466 0.069221355 -0.057220083 -0.09134817 -0.084431574 0.060013223
0.028883765 0.0037020813 0.015828291 -0.048462566 -0.011842653 0.018429866 0.038508337 0.07580175
-0.033969197 -0.008224504 0.06285162 -0.072367735 0.039657146 -0.058331475 -0.0141759375 -0.06494048
-0.06072321 0.051834956 -0.04840716 0.082180284 0.031941198 0.011572769 -0.066375464 -0.0077812164
-0.0654564 0.046949632 0.047456086 0.06923565 0.09849569 0.048684064 0.0024585044 0.07194958
-0.038130507 -0.054894652 0.0011995196 0.030706597 -0.024118608 0.061530743 -0.0624157 0.06645824

actor.2.weight f4 [2, 512]
00000000: d862 ac3c aa0b ecbc f0dd 8dbc 0c66 18bd
00000010: d7f7 483c b687 9d3c e136 283d e5a6 003c
00000020: a661 843c da0b 61bd 244b 893b 0227 a0bc
00000030: 7acf e23c 4a51 a8bc 8d6a 2b3d 4729 e13c
00000040: 98f8 b93c 21a1 99bc d8ab f5bc b63c bcbc
00000050: d697 9cbc 6c9c b1bc 152c 14bd 7295 08bd
00000060: 43f5 84bd 56cd 563d a848 4dbd d773 c1bc
00000070: 89ca 1abd f5ee b8bc 94a7 283c 3c98 073d
00000080: b0dc 1c3b c87e 603c 0111 6fbb d17e 11bd
00000090: 10c0 9a3c cea7 01bd 8e6d c5bc 8d61 18bc
000000a0: 32dc bebc 708c c2bb 46d2 443d 1f9f 753c
000000b0: e4fa d73c cdd9 fb3c 7382 c0ba fc18 4dbd
000000c0: f40a 03bd 73de fdbc ca37 3c3d 34b2 78bd
000000d0: 7d5b a6bb 79c1 8b3c bb06 803d bac3 373c
000000e0: 9da8 b03b c6ad 403d 626a 06ba 06a1 2cbd
000000f0: c9ab 623d 2701 9dbb 9879 683c 3beb cabc
00000100: 9f3d 89bd 635d 433b a215 ac3d a886 51bc
00000110: ba18 2fbc 6785 13bd 1f67 abbc 2b78 843d
00000120: 7d04 99bc 33a7 8d3c d24f cebc 28f2 53bc
00000130: d90d 1a3d e8ef 0a3d 9a4f 9abd d1fa 753b
00000140: f5df f73c b54d 0bbd ddd4 573d ab94 1abd
00000150: 2114 903d a2c3 6e3d 13a8 32bd 51ea 063d
00000160: 50b0 153b 0574 a73b d5be 1f3d 8b93 81bd
00000170: c8a7 25bd da1c 0a3d 717c 5dbc 42b4 0fb8
00000180: 1f99 493c 9e40 883c 5a47 df3c c24a 53bc
00000190: d101 03bc efa1 45bd adbd 753c 5ab8 a03c
000001a0: fb05 ab3d af3d efbc 3112 8abc 2b37 96b9
000001b0: f825 24bd 8837 5dbc 8c5b 0b3d cdb6 133b
000001c0: e402 1fbd 8e33 3fbc cbf1 9abc 38dd eb3c
000001d0: 53c7 31bd d017 14bd 6014 53bb e8e9 13bd
000001e0: 0145 eaba 0cd7 09bd 70b1 31bd 9b72 27bb
000001f0: 0664 db3b 2499 1d3c 408d 13bd 96fa 1cbd
00000200: 6d11 96bc feb1 013d cf8e debc f6bb 913c
00000210: 6e35 c6bc 3491 1d3b c53b cbbb 0e57 e33c
00000220: 5799 553d 1b94 30bc e7f7 4abc 9539 4b3d
00000230: e1b3 cf3c bb05 333b 09e0 96bd 0fe8 60bc
00000240: 9623 8fbc 9a4c 6e38 b5e3 943a 7e0e 2fbd
00000250: 99f8 c23c 2ec8 fabb a36a 2fbd 10d4 7cbc
00000260: 5132 263d ab15 05bd 8c07 f13b 45ba 50bd
00000270: 3c3a e83c 77e5 b93c 2551 df3b 3fa7 7abc
00000280: 2c11 413d 563b 2dbd 65db 98bd 2342 b53c
00000290: 32a6 183d 622c 113d 505c 23bd 8cd5 953c
000002a0: a3e5 343d f12e 49bd 1536 373d 50e2 093d
000002b0: b5df acbc e977 4f3d 20ce f63c 08bf 353c
000002c0: 5561 efbc 21da d03c 7836 79bc d581 553c
000002d0: a536 ee3b 9e1a 4a3d 6a10 d53a e531 eabc
000002e0: 2c00 c7bb ae6c 4abd acb1 8b3c be2d d7bc
000002f0: b093 07bd c075 563b 8b29 973b 165b bebc
00000300: f3a8 b13c d9fd b9bc 2f69 9d3d f53b 043d
00000310: 1fe2 4bbd 90e8 03bc 95bf 25bd c781 24bd
00000320: d8bd 0bbc b714 05bd 343b 753b 98fa 383d
00000330: c8b3 d83c c8f1 babc 1264 583d e1a5 f8bc
00000340: 4f8d 7e3d 5097 6fbc a0eb 73bd c416 f3bc
00000350: 05e0 2fbc da08 143b 61e0 343c 93d8 b2bc
00000360: 6585 febc 4ec1 933d 2cf1 2f3c 200b 3d3c
00000370: 3cb7 8d3c 94f4 103d ef07 8b3c ca19 5dbd
00000380: d4bd a43c de8b 54bd a447 493d a4f9 8f3c
00000390: e045 3a3d 8c3c d2bc 9f44 82bb f3c7 d8bb
000003a0: 8c6c ce3a 05f8 f93b e012 2b3d fc20 09bb
000003b0: 17fa 873c b729 27bd 03d5 13bd 2da6 9b3c
000003c0: 7b98 6fbc adad 163c a8b7 c9bb ce32 6abd
000003d0: 568c e6bc 4411 f8bc 1756 37bd 9678 773c
000003e0: f669 8fbd 9536 4a3c 034b 02bd 1a65 473d
000003f0: 0e04 a63a c8e4 843d 0d3b 813d 15cb 00bd
0.021043226 -0.028814156 -0.017317742 -0.037206694 0.012266121 0.019229751 0.04106796 0.007852291
0.016159844 -0.054942943 0.0041898657 -0.01954985 0.027686823 -0.020546574 0.04184966 0.027485503
0.022701547 -0.01875359 -0.029989168 -0.022978168 -0.01911537 -0.021681033 -0.036174852 -0.033345647
-0.064920925 0.052441917 -0.05011812 -0.023614807 -0.03779081 -0.022574881 0.01029386 0.033104166
0.002393525 0.013702102 -0.003647864 -0.035521332 0.01889041 -0.03165417 -0.024100091 -0.009300602
-0.023298357 -0.0059371516 0.048052095 0.014991551 0.026364751 0.030743504 -0.0014687314 -0.050072655
-0.031992868 -0.030989861 0.045951642 -0.060716823 -0.005076824 0.017060028 0.06251284 0.011216098
0.005391194 0.047040723 -0.00051275466 -0.04214575 0.05533961 -0.004791397 0.014189146 -0.02477037
-0.067012064 0.0029810301 0.08402564 -0.012788452 -0.010687048 -0.036015894 -0.020923195 0.06468233
-0.018678898 0.01729164 -0.025184546 -0.0129361525 0.037610862 0.0339202 -0.07534714 0.0037533531
0.030258158 -0.034009654 0.052693237 -0.037739437 0.07035089 0.05829204 -0.04361732 0.032938305
0.0022840686 0.005110266 0.03900035 -0.0632697 -0.04044321 0.03371892 -0.013518439 -3.4261735e-05
0.012304573 0.016632374 0.027255703 -0.012896242 -0.0079960385 -0.048250135 0.0149988355 0.019619156
0.0835075 -0.029204218 -0.016854377 -0.00028651333 -0.040075272 -0.013502009 0.034022853 0.0022539378
-0.038821116 -0.011670006 -0.018914124 0.028792009 -0.04340298 -0.036155522 -0.003220819 -0.036111742
-0.0017873348 -0.03365235 -0.04338211 -0.0025550488 0.0066952733 0.009619031 -0.03602338 -0.038324915
-0.018318856 0.031663887 -0.027167706 0.017789822 -0.0241954 0.0024042847 -0.0062021934 0.027751472
0.05214819 -0.010777499 -0.012388206 0.04961546 0.025354328 0.0027316648 -0.0736695 -0.013727202
-0.017473023 5.6814963e-05 0.0011359366 -0.04273843 0.023800181 -0.007653258 -0.042826306 -0.015431419
0.04057533 -0.032491367 0.007355636 -0.05095889 0.02834808 0.022692425 0.006815093 -0.015298664
0.047135517 -0.042292915 -0.07463721 0.022126263 0.03726787 0.035442717 -0.039882958 0.018290304
0.04416431 -0.049117032 0.04472931 0.033663094 -0.021102766 0.050651465 0.030127585 0.011092909
-0.029221216 0.025494637 -0.01521074 0.013031443 0.0072696977 0.04934179 0.0016255502 -0.028588245
-0.0060730185 -0.04942005 0.017052494 -0.026266929 -0.03309983 0.0032723993 0.0046131066 -0.023236793
0.021687007 -0.022704052 0.07686078 0.032283742 -0.049776193 -0.008051053 -0.04046591 -0.040162828
-0.008529149 -0.03249046 0.003741932 0.04516086 0.026452914 -0.022820368 0.05282981 -0.030352535
0.06214648 -0.014623478 -0.05955088 -0.029673941 -0.010734563 0.0022588284 0.011039824 -0.021831786
-0.031069467 0.07214604 0.010738652 0.011538297 0.017299287 0.035389498 0.016971556 -0.053979672
0.020110048 -0.0518912 0.049140587 0.017575093 0.045476794 -0.025663637 -0.0039754654 -0.0066156327
0.0015748902 0.007628443 0.041766047 -0.0020924201 0.016598744 -0.040811267 -0.036091816 0.019000137
-0.0146237565 0.009196681 -0.0061559267 -0.057177357 -0.02814309 -0.03028167 -0.044759836 0.0151044335
-0.07002632 0.012342115 -0.031809818 0.048680402 0.0012666003 0.06488949 0.06310091 -0.031443674

actor.2.bias f4 [2]
00000000: ab69 e6bc dc15 cabc
-0.028126558 -0.024668626

critic.0.weight f4 [512, 127]
00000000: f1a1 f03d 2062 a3bd eec4 4b3d 3ac0 aabd
00000010: f1fc 6f3d 2155 7a3d cb89 a43c 740b a1bc
00000020: 38f4 c43d 298b 8bbc 454e 693d a155 1ebd
00000030: b7a4 06bd 1722 0bbd fa10 bc3b 8730 e83c
00000040: c55c 2dbd 2e6e 07bc ca6d d8bb 7562 833a
00000050: a39d 39bd 1a3f 49bd 6cf9 fcbc 5a7f 233c
00000060: c235 cabd e562 4abb 510c d03c 776b 763c
00000070: 12a6 8cbd c9cd a73d 43d8 73bc 7a72 80bc
00000080: 70ff acbd 6aff 933d 9d43 bb3d ab8a 8d3d
00000090: ea3a 11bc c861 53bc 7e10 8b3d 54f3 54bd
000000a0: 3893 b3bd 393e af3d 3f27 803d aeb0 2c3b
000000b0: edb3 06be c5a6 10bc d855 1fbc 2bbe 793d
000000c0: c467 acbc a79b 6cbd c0dd 15bd c893 653d
000000d0: ed7b 5bbd 3010 1ebd ac75 d43c 4584 f43d
000000e0: d23e 54be 6ee9 ce3c ef24 2bbd 8c37 9abc
000000f0: da6d 2cbe 2266 19bd 7aa5 aa3d dd7d 283d
00000100: 6865 41be 870a adbd 1efb 9dbd 37ce 50bd
00000110: 214c 48bd 93a7 89bd 08b0 c53d 3ec7 5c3c
00000120: 8121 02be f26a 67bd 323c 9e3d dfe8 e2ba
00000130: c8b7 e8bc f45d 71bc 292d 8a3d 57f8 a03d
00000140: 80e4 29bc 1411 393d 4a4c 42bd dc5f ad3b
00000150: be93 97bc 9673 efba 6ce7 b33d 580e b53c
00000160: 7e9a 603d f9d7 c3bb cc35 aa3d 1b62 86bd
00000170: 382c 813c 5ec4 8bbd adf8 8b3d 4316 57bd
00000180: 05ff 37bd 7cb9 8b3d d402 5abd b882 78bd
00000190: eebf 1abc 4c10 76bd 89a0 d63b a837 d0ba
000001a0: 57e9 9b3d 218d 50bd 2dc7 c93d 35bb 223c
000001b0: 5533 c2bc 7164 9d3d 7cfd d0bb 06f2 2dbd
000001c0: be03 2b3d b130 8c3d bfa3 88bd 35a3 e5bd
000001d0: 72ab 70bd ffc6 02bc 4b06 03bd 54b5 753d
000001e0: 17d5 293b f3d7 92bd bcd9 91bd 0300 f4bd
000001f0: 471b 0bbd e931 19bd 42f8 0abd c4a2 6a3e
00000200: af3a 9b3d eccc 26bd dfd4 33bd 87af 1f3d
00000210: 7c78 ac3d 1b94 a03d 1253 a13d 2f09 653d
00000220: 6c93 8b3d e563 33bd f280 573d 445c d8bc
00000230: 4827 0fbd 4061 e3bb 833b c43d 81cc 8c3c
00000240: 07cd 5e3d b0eb a2bd 4c80 b4bd 111f 8f3d
00000250: 5a99 4eba 1e83 853d e4e0 833d a674 183d
00000260: 738a 3f3c 120f 8ebd efcb 1fbd 303b 8f3d
00000270: 9e62 89bc a364 56bd 1efd 283d 136f e33b
00000280: dcfa 0cbc bbaa b13c 8ffd c4bc 0ba4 143d
00000290: cb3c 1bbd f07a 8e3d 5336 a53d e542 b6bd
000002a0: 70f5 89bd 63ab 29bd 45e1 27bd 2284 0a3e
000002b0: ead1 9a3c 7dc5 d0bb 78d4 0bbd 361a 1d3d
000002c0: c676 9c3d 76fc c7bc 0067 023d 195f 903d
000002d0: a0ab 553d 46a7 8ebc 57e9 643d a874 cabd
000002e0: 6686 83bd 012a 25bd 08ab 6c3d 3db5 2b3e
000002f0: c076 18bc 741a a3bd bc93 7f3d 9360 abbd
00000300: c006 753d 5c2c 8bbd 50eb d7bd 835b 143d
00000310: b82d 823d 6c0c 84bc b02e 713d be99 a5bc
00000320: a060 633d ae6e 933c 0c6f 73bd 42b9 df3d
00000330: b50a 6bbd 00ff 183d be2f 2b3d 18ea a4bd
00000340: b3d4 b8bd 6aa4 343d 55ee 45ba 43b7 f33d
00000350: 88c4 14bd bfb3 a33d c882 a23d 9274 0fbc
00000360: 9c0d cb3c 8809 21bd 967d cabd a4b1 c43d
00000370: 4dc7 64bd 5477 043d f585 6f3d 0cd2 e1bd
00000380: 791a b9bd 614a a63d 8dde 0dbc 1c49 1d3d
00000390: 610c 39bd c750 353c 813a f23d 9d95 9abd
000003a0: f660 48bc 216a 63bd 7160 253d 8d1a ae3d
000003b0: 3c64 41bd 5bbf 6c3d fd6a af3d 1e23 31be
000003c0: 6c4c 91bd 58ee 36bd 0e4d f43b 13c2 903d
000003d0: 889e 6fbc f005 86bd c42d dd3c be97 21be
000003e0: 25ee a4bb 6938 94bd 59a2 a63d 5127 253d
000003f0: fc34 043d 18a9 ccbc b2e5 77bd 1905 a2bd
0.11749638 -0.079777 0.049748354 -0.083374456 0.058590833 0.06111634 0.020085236 -0.019658782
0.096168935 -0.01703413 0.05695941 -0.03865588 -0.032871928 -0.033968057 0.0057393285 0.028343452
-0.0423248 -0.008266015 -0.0066048848 0.0010023849 -0.04531635 -0.049132444 -0.030880652 0.009979093
-0.09873535 -0.00308817 0.025396498 0.01504027 -0.06867613 0.08193547 -0.014883104 -0.015679587
-0.08447158 0.07226451 0.091437556 0.069112144 -0.008864144 -0.012901731 0.06790255 -0.05198987
-0.08768314 0.0855679 0.062574856 0.0026350426 -0.13154574 -0.008828823 -0.009725057 0.060972374
-0.021045573 -0.05776563 -0.03658843 0.05604914 -0.05358498 -0.038589656 0.025935017 0.11939291
-0.20727089 0.025257792 -0.04178327 -0.018825315 -0.1683878 -0.037450917 0.083323434 0.041135658
-0.1888634 -0.084492736 -0.077139124 -0.05097791 -0.048900727 -0.06721415 0.09652716 0.013475237
-0.12708093 -0.056498475 0.07726325 -0.0017311833 -0.028407946 -0.014731873 0.06746895 0.07859867
-0.01036942 0.045182303 -0.047436036 0.0052909683 -0.018503066 -0.00182687 0.087843746 0.022101566
0.054834835 -0.0059766737 0.08311042 -0.06561681 0.015768155 -0.068245634 0.068345405 -0.052511465
-0.04492094 0.06822488 -0.053225353 -0.060671538 -0.009445174 -0.060074136 0.006549899 -0.0015885727
0.076128654 -0.05091584 0.09852443 0.009932329 -0.023706118 0.07685173 -0.006377874 -0.04246714
0.041751616 0.06845225 -0.06671857 -0.1121277 -0.058757253 -0.007982015 -0.031988423 0.05998738
0.0025914365 -0.07170095 -0.07121608 -0.11914065 -0.03396156 -0.037401114 -0.033928163 0.22913653
0.075795524 -0.040722772 -0.04390418 0.038985755 0.08421418 0.07840749 0.078771725 0.05591696
0.06815228 -0.04379644 0.052613206 -0.026411183 -0.03494957 -0.0069390833 0.095816635 0.017187359
0.054394748 -0.0795511 -0.08813533 0.06988347 -0.00078811275 0.06519149 0.06439379 0.03722062
0.011690724 -0.06936468 -0.039012846 0.06993711 -0.016770657 -0.05234207 0.041257016 0.0069407313
-0.008604731 0.021687856 -0.024046687 0.036289256 -0.037899774 0.06957042 0.08067002 -0.08899478
-0.067362666 -0.041423213 -0.04098632 0.13526967 0.018898923 -0.0063711987 -0.034138173 0.038355075
0.07639842 -0.024412375 0.03183651 0.070493884 0.052165627 -0.017413747 0.055886593 -0.09885532
-0.06422119 -0.04032326 0.057780296 0.16768356 -0.009305656 -0.0796403 0.06239675 -0.083680294
0.05982089 -0.0679557 -0.10542929 0.036220085 0.063563764 -0.016119204 0.058882415 -0.020214912
0.05551207 0.017997112 -0.059432074 0.10924007 -0.057383258 0.037352562 0.041793577 -0.08052462
-0.09024944 0.04410211 -0.0007550468 0.11900189 -0.03632024 0.07993268 0.07935101 -0.00875582
0.024786763 -0.03931573 -0.09887235 0.09604195 -0.05585413 0.032340363 0.05847736 -0.110263914
-0.090382524 0.081196554 -0.008659017 0.0383998 -0.04517782 0.011066622 0.11827565 -0.07548068
-0.012230149 -0.055521134 0.040375177 0.08501158 -0.04721473 0.05779968 0.08565328 -0.17298552
-0.070946544 -0.044660896 0.0074554747 0.07068267 -0.014625199 -0.06544101 0.026999362 -0.15780541
-0.005033272 -0.07237322 0.08136434 0.0403207 0.032277092 -0.024982974 -0.06052179 -0.079111286

critic.0.bias f4 [512]
00000000: d0d8 27bd 8ea4 64bc 7f99 063b 60b7 9c3c
00000010: e0d2 893d 62de 40bd 0d1f 063d 0576 783d
00000020: 9f82 49bd 6dac 3d3d 3b5c d4bb 6f58 aa3d
00000030: ebda 603c 2c3c 563c f89b 96bc af66 a33a
00000040: 735b dfba c661 24bd bd1f 19bd 97d7 adbb
00000050: cc8a 07bd bf09 71bc b1e4 213d 6e4a a4bd
00000060: e691 393b 82d4 92bc 015b 813d cc15 13bd
00000070: 7c1d a13d 79a9 3e3c 91ef 053d 1f0d 65bd
00000080: 9dd8 cb3c be85 ef3c fe08 91bd 21ed 803d
00000090: a824 283d 4dcb fdbc 8321 2abd 12aa e93c
000000a0: 2c16 023d 3f08 72bd f0aa 2c3d 3fb5 a1bd
000000b0: d994 503c 1cc5 5b3d 0ae8 963d 7d7b 48bb
000000c0: 03e2 303d 68bc 20bd 6fa6 a4bc 0db4 a43d
000000d0: 7336 44bd ca9c b33d f240 61bd 83e6 2f3d
000000e0: 826d 5dbd 5762 023d 323b 113d 9d9a ca3d
000000f0: 9975 56bd 26d9 9abd ccc4 8a3d 1672 a43c
00000100: 1bc8 3b3c 8651 49bd b2b6 023d 400e 0d3d
00000110: 2e4f 7a3b ce0b 293d 11e4 103c 0f5d b4bc
00000120: 97c4 3bbd 435c 543d 8cb2 783d 8ad7 83bd
00000130: e1d4 1a3d 424a 2c3b 520a 613d 7039 9abc
00000140: bf82 a6bd 9cbc 35bb ece4 98bd b95f 433d
00000150: 793a a9bd 936a ed3c add8 78bd 1408 53bd
00000160: 8e3c a63d 48b9 b23c afda 333d c380 d03b
00000170: 18c4 573b 3db9 883d 73b1 013d 2df2 18bd
00000180: e10a f33c d804 cb3c 5897 8c3d 7122 c53d
00000190: 0409 f83b 2991 9fbd 3907 37bd 65e4 5fbc
000001a0: 9c9f ca3d 1f42 b13d d131 bb3c 0899 63bd
000001b0: 6971 bf3d 18df 8b3c f429 c93c 9f30 c33d
000001c0: 8054 a23b 6e9e 573d 1c1c 073d f04c 80bd
000001d0: b9dc f83c 120c 0fbd 0f86 c43d fbd8 363d
000001e0: 5000 1fbd 75ae 9e3c c861 94bd ad0b f13c
000001f0: 311c 1cbd 02bc bd3d 9d95 00bd 47ee 973d
00000200: e5db 57bd a4a6 823b 5d27 c4bc a288 223c
00000210: ac62 b6bc 94a7 ce39 c304 3cbb 7cd1 1e3d
00000220: b38c 9abd a5c9 863d 3d03 823d 6308 9c3d
00000230: 6c29 313d 9a79 80bd 1e46 283a 90ef 1a3c
00000240: 08ce 623d 7cd0 01bd 27bc 07bd 18bd a4bd
00000250: 565b 9dbd 5e56 abbd f3c7 453d f071 e9bc
00000260: c5f7 ac3d 371f 223d 237f 92bc d7c6 8a3c
00000270: e0e2 923c 7cbf 3a3a 5547 aa3d 009a 7e3d
00000280: 22f1 fcbc 0585 653d 0e50 333d 977c ba3d
00000290: c16f 77bd c172 c13d 6481 0e3d 6cc0 b53d
000002a0: c266 40bc 8f8c bb3d 798e b5bc b679 c33d
000002b0: 6b3b 22bc 1140 af3d 3196 80bd 33b9 8abd
000002c0: 17ff b83d 3738 9ebd 1295 ae3d 3443 4bbd
000002d0: 0828 333c 41ba 873d 9565 a73c cf00 55bc
000002e0: c280 013d edb4 c33d f4db 613c 14d5 323d
000002f0: 262e a4bd f8e3 e7bc a240 063c cd4f 893d
00000300: 1bd8 89bd ac46 e8bc 3efb f6bc 4822 343d
00000310: ea7e e7bc 43d7 f63c 8a93 3dbd 1fa6 ab3c
00000320: 43db 72bd 85f0 15bc 964c b73d 30c5 313b
00000330: 2616 24bd 057d ae3d a990 95bd b4e3 283b
00000340: c0dd 203d 305a 9ebd a75f 93bd 74d6 85bd
00000350: e7d0 683d a330 24bd 2988 1b3a 0921 91bd
00000360: 2b11 af3d e052 903c bfa1 a0bd 4864 6abd
00000370: ede3 19bc 77d3 6a3d 59f8 f43a 028e ebb9
00000380: bcc4 07bd 340a ce3d 1036 b23d 1773 a43d
00000390: 79d7 4a3d 92a8 80bd 11ac 3a3c 0621 fcbc
000003a0: 0a0c 563d 9917 773d 59d8 293d 9979 223d
000003b0: 5bfa bc3c ea0f 6cbc b54c feba 49f3 103d
000003c0: c13c 95bd e634 e03c aed2 e23c 5723 a4bd
000003d0: 4fb1 203d 131b 8f3d 9565 5a3d 834f 943d
000003e0: 5cd8 803d 185f b4bd 6cc0 98bc eb4a 92bc
000003f0: 4c6d 263d 10a6 983c cb1e b3bb 3975 68bd
-0.040978253 -0.0139552485 0.0020538268 0.019130409 0.06729674 -0.04708708 0.032744456 0.060659427
-0.049196836 0.046307016 -0.0064807213 0.083176486 0.013724069 0.0130758695 -0.018384919 0.0012466515
-0.0017040804 -0.040132307 -0.037383784 -0.0053052413 -0.03309135 -0.014711796 0.039524738 -0.08022009
0.0028315722 -0.017923597 0.06316186 -0.03590946 0.07866952 0.011637085 0.03269917 -0.055920716
0.024883563 0.029238578 -0.07081793 0.06295229 0.041050583 -0.03098073 -0.041535866 0.028523479
0.031759426 -0.059089895 0.042155206 -0.07895898 0.012730801 0.053654775 0.07368477 -0.0030591183
0.04318429 -0.03924218 -0.020098893 0.080421545 -0.04790349 0.087701395 -0.054993577 0.042944442
-0.054059513 0.031832065 0.035456844 0.098927714 -0.052358244 -0.07560949 0.06775817 0.020073932
0.011461283 -0.049150012 0.031912513 0.034437418 0.0038194167 0.041271023 0.008843438 -0.02201703
-0.04584178 0.0518458 0.06071715 -0.06437595 0.037800673 0.0026289378 0.054941483 -0.018826216
-0.081304066 -0.0027730828 -0.074655384 0.04769871 -0.08263106 0.028981483 -0.060753513 -0.051521376
0.08117019 0.021816865 0.043909725 0.006363006 0.0032923277 0.066759564 0.03166337 -0.03734033
0.029668273 0.024782583 0.06864804 0.0962571 0.007569434 -0.07791359 -0.044684622 -0.013665293
0.09893724 0.0865519 0.022850903 -0.055565864 0.09347803 0.017074153 0.024556138 0.09530758
0.004953921 0.052641325 0.03298579 -0.06264675 0.030378686 -0.03492362 0.09595882 0.044640522
-0.038818657 0.019370297 -0.07245213 0.029424513 -0.038112823 0.09264375 -0.031392682 0.07418495
-0.052699942 0.0039871503 -0.023944551 0.009920271 -0.022263847 0.00039416237 -0.0028689362 0.038774
-0.075463675 0.065814294 0.06348274 0.07618787 0.043252394 -0.06273194 0.00064191397 0.00945653
0.055372268 -0.031692967 -0.03313842 -0.08043879 -0.076834366 -0.083660826 0.04828639 -0.028496712
0.08445696 0.03958055 -0.01788289 0.016940517 0.017930448 0.00071238703 0.08314387 0.062158585
-0.0308767 0.05603506 0.043777518 0.09105795 -0.06040931 0.09445716 0.034791365 0.08874592
-0.011743249 0.09157669 -0.022162663 0.09544699 -0.009901862 0.085571416 -0.06278647 -0.06773605
0.090330295 -0.07725566 0.08524527 -0.049624637 0.010934837 0.06627322 0.02043418 -0.013000681
0.031616934 0.09555993 0.013785351 0.04366024 -0.080166146 -0.028306946 0.008194121 0.06704674
-0.06730672 -0.028354011 -0.030149098 0.043978006 -0.02825876 0.030131942 -0.046283282 0.020953236
-0.059291136 -0.009151583 0.089501545 0.002712559 -0.040060185 0.08519939 -0.07302982 0.0025770487
0.039273977 -0.07732046 -0.071959786 -0.06535044 0.05683985 -0.040085446 0.000593307 -0.07086379
0.085481964 0.017617643 -0.078433506 -0.057224542 -0.009392721 0.057330575 0.0018689736 -0.00044928497
-0.033146605 0.1006054 0.08701718 0.08029764 0.049521897 -0.06282152 0.011393563 -0.030777466
0.052257575 0.06032524 0.04146609 0.039666746 0.023068598 -0.014408091 -0.0019401523 0.035388265
-0.072869785 0.027368974 0.02768835 -0.08014553 0.039231595 0.06987586 0.053319532 0.07241728
0.06291267 -0.088072 -0.018646441 -0.01785799 0.040631577 0.018633872 -0.0054663173 -0.056752417

critic.2.weight f4 [1, 512]
00000000: 4820 a4bd 8241 17be 3e21 84bd 8fca 9dbd
00000010: 85d7 fdbc 651f 41bd 0807 d1bc d5ae a43b
00000020: a1e2 66bd cb50 55bd 3f68 dd3d c96a c33c
00000030: 79e1 56bd 61ac a8bc 7456 49bc 8f53 823d
00000040: 0c32 edbc c694 3a3d 75a8 a8bc 45fe a73d
00000050: 0172 82bd d02a 62bd d020 4e3d 6cce 3dbd
00000060: 183b 4dbd 141d efbd c1b0 91bd 87b6 8f3d
00000070: b1ca 21bd f2bf afbc ba77 93bd d02c fbbc
00000080: 1329 01be dc9c babd 03b7 8bbd eb26 f23c
00000090: b549 f43c 7c2d a43d 8025 2dbd eda3 393d
000000a0: 09af 40bd 766c 41bd 16b7 78bc 6c03 8e3d
000000b0: d167 8d3d 4bb4 45bd ad30 983c 0767 1ebd
000000c0: b114 b83d d743 dabc fd5e 853d 6191 a23d
000000d0: f783 3ebd 8992 813d e7c5 4f3d d495 3b3d
000000e0: 179b 7abd 4de9 49bd 9b3c bf3c 4afa af3d
000000f0: b63d 72bd 91a9 173d 29c5 a23d b4cc aa3d
00000100: 8504 9b3d 90c0 c3bc 90bb 923d 5496 6d3d
00000110: 961e 02bd b51c 9b3d 3994 5c3d d5f2 5c3d
00000120: b190 333d 67c4 dcbc ad0e 48bd 2a23 0dbe
00000130: 9add 9bbd 48e5 5abd 64e7 8bbc 5aae 783d
00000140: c724 613c 5b8d bd3d 7c04 c0bc 29ff 1ebd
00000150: 8f9f 8e3d ee15 38bd b15d febc b2cd 1bbe
00000160: c2d3 55bd 5fad 27bc e671 1ebd a510 203d
00000170: 52e1 3d3d c97e dfbc d531 a9bd 6b53 52bd
00000180: 02cf c6bc da26 b6bd 7ff9 b33d 91ee 773d
00000190: fb96 aa3d c253 bf3c 0b94 13bc 740a 48bd
000001a0: fcdd 833d 1401 13bd 2535 95bd 7705 863d
000001b0: 7ff6 5dbd ddd2 26bd 204c 733d 7bd0 a93d
000001c0: 4ea2 cabc 0fff 543d f42d 883d ccab 39bd
000001d0: 0007 ca3c 1a3a 643d 63a0 793d 518d 6a3d
000001e0: 01b7 663d 8840 97bd 9f5c cb3c 0d80 e43c
000001f0: 9f25 a33d 92df efbd 0d0a 943d f5a6 91bd
00000200: 8868 7b3d 5677 8abc 9772 6e3d a34b 2d3d
00000210: 5db7 69bd f278 5a3d fa01 773d 167d 073e
00000220: d531 0bbe c000 9e3d 7103 893d de99 1abd
00000230: 5475 0e3d 7c61 0fbd 8aae 853d 8c45 8b3d
00000240: 9e2d 9c3d 23b3 c93d a07d 3abd 8981 14bd
00000250: 769a 7d3d 1a69 1d3d 3135 e13c ef5b c7bc
00000260: f310 d93d a21d 6b3d cbdc 4d3d 0aae 36bd
00000270: 698d 213d d089 34bd bdf1 8e3d 5f13 383d
00000280: 6414 343d 0f44 42bd 3351 61bc 74d6 c0bd
00000290: 0170 1f3d 119b 043e 03b3 d3bc 277f c8bd
000002a0: c4f9 5f3d e68d 2f3d 7d04 f2bc da72 dd3d
000002b0: 2566 c2bc 1dd6 14bd d4d8 1fbd 5e46 50bd
000002c0: 29c5 cfbd 435f fe3c c335 a7bd da39 b23d
000002d0: f430 59bc 1a36 373d 1ea2 253d 26d0 7bbc
000002e0: e333 2a3d 5a0d 0abe ca09 89bd 0840 17bd
000002f0: a44d 6e3d fc19 4a3d 639e 203d 7f8f 98bd
00000300: 5bab 9cbd 709c 793d c5b0 92bc 74ef 643d
00000310: 4f50 4ebd e4f5 17bd d5f6 63bd c727 36bd
00000320: 65a3 49bd 1a63 41bd f23b cdbd 8a73 f3bc
00000330: bbf9 c2bb 9f66 c13d eef7 3b3d 0a34 8abc
00000340: 83bf da3b addd 2f3b 40d8 e63d 7380 e9bc
00000350: b557 bbbc 6612 22bc 087a f33c edb4 69bd
00000360: 5b24 9bbc ad09 943b 64a2 f1bc 9d3b e8bc
00000370: b174 f7bc f9ec f5bd 5b32 08bd 36a1 1c3d
00000380: b391 49bd 298e 9d3d 0433 d53d dbb0 19bd
00000390: 761c 25bc 9c19 98bc 3d9e e6bb a465 b2bc
000003a0: ce61 9b3c 6a83 10bc 70ef 13bd 317e 823d
000003b0: bc6c 98bd 34f6 b73d d90e 733d dbfa 39bc
000003c0: 09a2 0ebd d0f2 00bd 229e 303d 6ae8 323d
000003d0: 42ce 703d 727c e8bc 4fe5 01be ead7 11bd
000003e0: c7ab 9dbd 0a34 fdbc 1829 943d 5bb7 bfbc
000003f0: 2034 28bd dc15 913d 63ab 8c3d 03b8 b03d
-0.0801397 -0.14771083 -0.06451653 -0.077046506 -0.030986557 -0.04714908 -0.025516048 0.0050257244
-0.056368474 -0.052079003 0.10810899 0.02385463 -0.05246112 -0.02059001 -0.012288678 0.06363594
-0.028954528 0.045552038 -0.02058814 0.08202795 -0.06369401 -0.05521661 0.05032426 -0.046339437
-0.050105184 -0.11675468 -0.07113791 0.07017236 -0.039499942 -0.021453831 -0.072005704 -0.030661017
-0.12613325 -0.0911195 -0.06822016 0.029559573 0.029820303 0.08016488 -0.04227209 0.045322347
-0.047041927 -0.047222577 -0.01518037 0.069342464 0.06904567 -0.048267644 0.018577898 -0.038672473
0.089883216 -0.026643677 0.06512258 0.07937885 -0.04651257 0.063267775 0.050725844 0.045797184
-0.06118306 -0.04929476 0.023344329 0.08592661 -0.059140883 0.037026946 0.079477616 0.08339825
0.075692214 -0.023895532 0.07164681 0.058004692 -0.03176745 0.07573835 0.053852294 0.05394252
0.04383916 -0.02694912 -0.04884212 -0.13782945 -0.076106265 -0.053441316 -0.01707811 0.06071315
0.013741679 0.09255477 -0.023439638 -0.03881756 0.06964027 -0.04494279 -0.031050535 -0.15215185
-0.0522039 -0.010234206 -0.03868284 0.039078373 0.04635746 -0.027282136 -0.08261458 -0.051349085
-0.02426863 -0.08894129 0.08787822 0.06053025 0.083295785 0.023355369 -0.009007464 -0.048838094
0.064388245 -0.0358897 -0.07285527 0.06544011 -0.054190155 -0.04072844 0.05939877 0.082917176
-0.024735596 0.052001055 0.0664939 -0.045329854 0.024661541 0.055719472 0.060943972 0.057263676
0.05632687 -0.07385355 0.024824439 0.02789309 0.0796616 -0.117125645 0.072284795 -0.07111923
0.061378986 -0.016902607 0.05821475 0.04230846 -0.057059634 0.053338 0.06030462 0.1323131
-0.13593228 0.07714987 0.066901095 -0.037744395 0.03477986 -0.035005078 0.06527431 0.068003744
0.07625888 0.09848621 -0.04552996 -0.036256347 0.061914884 0.03843031 0.027491184 -0.02433583
0.10598936 0.057401307 0.050259393 -0.04459957 0.0394415 -0.04407674 0.06979702 0.04494035
0.04396476 -0.047428187 -0.01375227 -0.09415904 0.038925175 0.12949778 -0.025842195 -0.097898774
0.054681554 0.042859934 -0.029543156 0.10812922 -0.023730347 -0.036337007 -0.039025143 -0.050848357
-0.10145027 0.031051284 -0.08164551 0.087024406 -0.0132563 0.04472933 0.04043781 -0.015369451
0.04155339 -0.13481656 -0.0669132 -0.0369263 0.058179513 0.049341187 0.03921355 -0.07449245
-0.07649871 0.060940206 -0.017906556 0.055892423 -0.050369557 -0.037099734 -0.05565532 -0.04447153
-0.04922809 -0.04721365 -0.10021199 -0.02971818 -0.0059501803 0.094434015 0.04589074 -0.016870517
0.006675662 0.002683501 0.11271715 -0.028503632 -0.02286897 -0.009892082 0.029721275 -0.05705731
-0.018938234 0.004517755 -0.02949638 -0.028348738 -0.03020701 -0.120080896 -0.033251148 0.03823968
-0.049211215 0.076931305 0.10410121 -0.03752218 -0.010077586 -0.018566899 -0.0070379064 -0.021776982
0.018967535 -0.008820394 -0.036117017 0.06371725 -0.074426144 0.089825064 0.05934033 -0.0113513125
-0.034822498 -0.031481564 0.043119557 0.04367868 0.058790453 -0.028379653 -0.1268513 -0.035606302
-0.076987796 -0.030908603 0.072344005 -0.02340286 -0.041065335 0.070842475 0.06868627 0.086288475
