results/env01/a2c/512-nodecay-new-2500/model.pth (torch, 532879 bytes, 7 tensors)

actor.0.weight f4 [512, 127]
000000 0b e1 8a bd 3c 57 66 3d 01 c0 b7 3d 93 21 eb 3c
       -0.06781205 0.056235537 0.08972169 0.028702533
000010 8c 8f 5c bd ae e6 0a 3d 32 a5 78 bd b1 ef 91 3d
       -0.053847834 0.0339114 -0.060704418 0.07125796
000020 3c 50 6c 3a 7f 8b a7 3d f4 ac 1a bd 56 41 7f bd
       0.00090146414 0.08180904 -0.037762597 -0.06231817
000030 2b 54 a7 3d 22 0a 8b 3d cf 58 73 bd 6b a6 80 3d
       0.08170351 0.06789042 -0.059410866 0.06281742
000040 5c 4c ae 3c 48 ce 71 bc c7 cf 9c 3d d2 b2 99 3d
       0.021276645 -0.014758654 0.07656818 0.075048104
000050 94 07 29 3d ae 18 8a 3c dd 2d a3 bd 1c a5 1d 3d
       0.041266993 0.016857471 -0.07967732 0.03848754
000060 19 6f 1c 3c 77 a6 99 3c d1 6f 12 3d 91 a4 8d 3c
       0.009547972 0.018756134 0.035751168 0.017290385
000070 74 cc f1 bc 67 7e bd bd 32 c3 ac 3d 51 38 a8 3c
       -0.029516436 -0.09252625 0.08435668 0.020534666
000080 8a 49 65 bd 17 8e 93 bd 50 2f 33 bd 16 9f 69 bd
       -0.055978335 -0.07204836 -0.043746293 -0.05703648
000090 66 4e d1 bc 97 ec 12 3b 83 02 34 ba 20 46 89 3c
       -0.025550079 0.002241885 -0.00068668294 0.016757071
0000a0 33 52 75 bd 76 9c dd bc 14 ae 4c 3d c1 e4 a8 3d
       -0.059892844 -0.027052145 0.0499707 0.08246756
0000b0 99 2f ba 3c ea 1e cf bc 6a a9 95 bd f5 5f 32 3d
       0.022727774 -0.025283296 -0.07307704 0.043548543
0000c0 e1 b9 55 bd b9 ed e1 bc 27 4c 38 3d 3b 29 2e bc
       -0.05217922 -0.027579175 0.0449945 -0.010629947
0000d0 02 a5 0f bd 33 9f 4a 3d df 35 66 3d 5b 05 5b 3d
       -0.035069473 0.04946823 0.05620372 0.053471904
0000e0 98 6f 03 3d 29 21 92 3c a2 7d 8f 3d d0 d8 84 bd
       0.032088846 0.017838078 0.070063844 -0.06486666
0000f0 07 35 09 3d 7a ad 8b 3c d9 02 a9 3d 2a e0 73 3d
       0.033497836 0.017050494 0.08252496 0.05953995
000100 f6 05 9d bd df 97 fa 3b e7 b3 35 3a d4 eb 98 bd
       -0.076671526 0.007647499 0.00069314096 -0.07466856
000110 81 a1 10 3d 3b c9 a8 3d 17 21 20 bd 77 3a 07 3d
       0.035310272 0.08241507 -0.039094057 0.03301474
000120 8f 26 11 3d 52 65 11 3d a0 92 88 bc dc 61 52 bd
       0.035437163 0.035497017 -0.016671479 -0.051362857
000130 77 bf 61 bd 97 ef 9b 3d 96 07 64 bd e5 0f 9d bd
       -0.055114236 0.076140575 -0.055671297 -0.07669047
000140 02 17 7b 3d 8a 7d 55 bd fd 51 32 3b 91 d4 04 3d
       0.06130124 -0.052121677 0.0027209513 0.03242928
000150 0a 0f 83 bd 4e 32 bf 3c 02 f2 40 bd bb 38 1f 3d
       -0.06399353 0.023339417 -0.047105797 0.03887246
000160 bb ac 8e 3c 85 6f 43 3c 70 41 be bc 74 28 4f bd
       0.017416349 0.011928444 -0.023224562 -0.05057569
000170 52 4b 82 bd 5c dc 07 3d 40 ac 9d bb c2 f9 aa bd
       -0.063620225 0.033169135 -0.0048117936 -0.08348419
000180 d5 cb d6 3d 6c f6 96 bd fe 04 80 bb 64 2a 0e bd
       0.104880966 -0.0737122 -0.003906845 -0.034708396
000190 e4 72 c4 ba 26 2f ac bb 6f 4a c2 3c 06 8c 9c bd
       -0.0014987853 -0.005254644 0.023717133 -0.07643895
0001a0 6d dd 56 3d 0b 8c 8b bd c0 79 d4 bc f5 b6 98 bd
       0.05245726 -0.068138205 -0.025936961 -0.07456771
0001b0 ec cf 03 3d 41 1c df 3b 46 1f 29 bd 74 1d 34 3d
       0.03218071 0.006808788 -0.04128959 0.0439734
0001c0 64 0a 4a 3c e6 79 76 3c b6 c6 8f bd 65 ae df 3b
       0.012331579 0.015043711 -0.07020323 0.0068262094
0001d0 bd 19 cf 3c b5 0b 19 bc 40 7a 4a 3b 2d 19 12 bd
       0.025280828 -0.00934117 0.003089562 -0.03566854
0001e0 24 d8 81 bd ad 62 2d bd ed dd 83 3a 22 3c 6e bb
       -0.06340054 -0.042330433 0.0010060646 -0.003635176
0001f0 bb dc 0a bd be e3 b5 3c 3b 53 21 3d e1 ac 2e 3c
       -0.03390191 0.022203322 0.039386015 0.010661335
000200 22 a5 f9 bc e4 e0 8e bd a3 5b b2 3c a0 30 20 bd
       -0.03047425 -0.06976488 0.021772211 -0.039108872
000210 2b f9 3a 3c 4c 66 44 bd d4 b3 2e bc a9 54 d8 3c
       0.011411945 -0.04794912 -0.010662992 0.026407557
000220 b9 54 32 bb 78 e8 62 3c 92 b3 08 3d e0 14 91 bc
       -0.0027211143 0.01384937 0.033374377 -0.01771015
000230 99 c6 ae bd a2 df 44 3b 86 3b 50 3c 26 5a 22 3d
       -0.08533973 0.0030040522 0.012709504 0.039636753
000240 c0 2a 22 3d a9 46 79 3c 1e 5a 93 3d 18 37 10 3d
       0.03959155 0.015214601 0.07194923 0.03520879
000250 46 ef 1a bc a0 14 9e bd d4 73 13 bd 7d eb 87 3b
       -0.009456461 -0.07718778 -0.035999134 0.0041479454
000260 d8 df 5e bd 6a d9 40 3d 55 93 59 3d 75 3d 81 bd
       -0.054412693 0.047082342 0.053119022 -0.0631055
000270 f7 44 3d 3d 08 b0 22 bd b3 66 34 bc c3 b9 7b bd
       0.046208348 -0.039718658 -0.0110108135 -0.061456453
000280 45 2d 1b bd fb 2e 3a 3d 77 9d d3 bc 6e d8 88 3d
       -0.03788497 0.04545496 -0.025831921 0.06681906
000290 46 9e 18 bb 66 4e 6b bd c2 76 85 3d 01 1f 03 bd
       -0.0023287698 -0.057447813 0.06516792 -0.03201199
0002a0 a2 86 3a 3d 30 1e 1b 3b b5 0d 08 bd dd 7f 97 bd
       0.045538552 0.0023669116 -0.033216197 -0.07397435
0002b0 83 a5 93 3d c2 3e 9e 3c 1f fa 06 3d f0 8b b5 3c
       0.07209303 0.019317035 0.032953378 0.022161454
0002c0 b5 48 99 3d 99 f0 5e bd 7f 3f 9e 3c 9e 99 b3 bd
       0.07484571 -0.05442867 0.019317387 -0.087695345
0002d0 8d 79 b1 3d d1 8a 66 bd 85 66 1d bd 94 18 66 bc
       0.08665762 -0.05628473 -0.03842785 -0.014043946
0002e0 b8 4c b9 bc 3b 6c a3 3b e2 51 97 3c ce dc 81 3d
       -0.02261959 0.0049872673 0.018471662 0.06340943
0002f0 78 c8 e7 3b 4e da 06 3c cb bc bc 3d ae 89 8c bd
       0.0070734583 0.008230759 0.09215697 -0.06862198
000300 68 73 b7 bd 59 03 37 3b ce e5 99 bd 45 64 9c 3c
       -0.08957559 0.002792558 -0.07514535 0.019090781
000310 7d bf a4 bd 84 c5 55 bd 81 23 65 3d b7 8d ef 3c
       -0.08044336 -0.05219032 0.055942062 0.02924238
000320 5e 36 82 3d ff 24 a0 bd b0 ac 9a 3c d6 ef 23 bd
       0.06358026 -0.078195564 0.018881172 -0.040023647
000330 ea ea 04 3d 58 66 83 3d 7d 6b 23 bd 75 dd b2 bd
       0.032450594 0.06416005 -0.03989743 -0.08733646
000340 21 11 ac bc 86 22 94 bd 16 8e ff bc d3 13 8c bc
       -0.021004261 -0.07233147 -0.031195682 -0.017099297
000350 51 6a 27 bd 74 d0 ac 3d a3 95 11 bd b4 a0 1f b9
       -0.040872876 0.08438197 -0.035543095 -0.00015223288
000360 47 1b b3 3d 55 3b 84 3d e2 58 a0 bd 3a 96 8e bc
       0.08745437 0.06456629 -0.07829453 -0.017405618
000370 36 11 10 bc 47 b8 e9 3b 01 be ae bc 33 07 49 3d
       -0.008793166 0.0071325633 -0.021330835 0.04907913
000380 15 57 14 bd 3e 41 83 bd dd 30 ca 3c 64 6a ca 3c
       -0.03621586 -0.06408928 0.024681503 0.024708934
000390 a9 85 37 3c ff 32 05 bd b2 d5 3e bd 3f 28 44 3d
       0.011201301 -0.032519337 -0.046590514 0.047889944
0003a0 82 ef 38 bd a8 aa e7 3b 15 0b 0b 3d 0c 10 81 3c
       -0.045150287 0.0070699044 0.033946116 0.015754722
0003b0 24 d5 b5 3c 22 7b d0 bc 82 25 ac 3d fa e9 d6 3c
       0.02219636 -0.02544934 0.084055915 0.026234616
0003c0 a2 2d 0d 3d 1a d7 3e 3b a2 7e 7a 3c 05 15 96 bd
       0.034467347 0.002911991 0.015288981 -0.07328228
0003d0 24 2a a7 ba 10 0c 1b 3d 9b 16 87 3d 2e ef 41 bd
       -0.0012753648 0.0378533 0.065961085 -0.04734724
0003e0 a4 75 8b bd 93 79 82 3d e8 12 41 3d d1 4a fe 3c
       -0.068095475 0.06370845 0.04713717 0.031041535
0003f0 36 60 19 bd d8 d7 e4 3c 4c 4d eb bb e3 63 32 3d
       -0.03744527 0.027934954 -0.0071808454 0.04355229

actor.0.bias f4 [512]
000000 cc b4 d0 bc 8a 15 63 bc e5 20 8d bd 0a 88 96 bd
       -0.025476836 -0.013860116 -0.0689104 -0.07350166
000010 8e ed 13 3d e4 1a 19 bd 39 1d a2 3c 0b 9f b3 bd
       0.03611522 -0.03737916 0.019789325 -0.087705694
000020 ad 0f e3 bc 03 86 42 bd 78 cf b6 bb 00 ff 3d 3c
       -0.027717436 -0.047491085 -0.0055789314 0.011596441
000030 f7 df 95 3c a3 13 1e 3d 06 03 07 bd 65 fc 5b 3c
       0.018295271 0.038592946 -0.032961868 0.013426875
000040 06 e3 37 37 17 52 08 ba 2b d0 47 3d 91 90 37 3d
       1.0960508e-05 -0.00052002206 0.04878251 0.044815604
000050 e3 33 41 3d 5e 95 37 3b 46 fb 8b 3c f0 19 21 bd
       0.047168624 0.0028012614 0.01708759 -0.039331377
000060 a0 77 94 3b c8 61 fe bc c0 e1 a5 3d 6b dd 7d 3d
       0.004530862 -0.031052485 0.08099699 0.06197874
000070 2b 17 ae bd ba eb 61 3d 76 d8 a6 3d b4 31 be bd
       -0.08500513 0.055156447 0.081467554 -0.09286824
000080 63 94 06 3d 22 0a 8a 3d e5 48 d4 3c 0d 45 68 bd
       0.032856356 0.06740214 0.025913665 -0.056706477
000090 50 ad 96 bb 81 be 16 3d e1 fa 4e bd 7e 97 ac 3d
       -0.004598297 0.036802772 -0.050532226 0.08427332
0000a0 ab 4d 8f 3c ec 9d 94 3c 97 91 19 bd 9a c9 a4 3d
       0.01749309 0.01814171 -0.03749236 0.08046265
0000b0 71 df b1 bd e0 ac 45 bc 06 f7 44 3d a0 25 99 bd
       -0.08685196 -0.012065142 0.048087142 -0.074778795
0000c0 5b 50 80 3d 1c 2f 8a 3a 44 4a 6a bd 96 7a 44 bd
       0.062653266 0.0010542604 -0.05719973 -0.04796847
0000d0 8f ce 27 3d bc 2e 22 3d 97 20 a0 3d 21 d2 7d bd
       0.040968474 0.03959535 0.07818716 -0.061967973
0000e0 85 a1 68 bd 4e 7c 03 3d 45 cd 22 bd 45 f8 53 3d
       -0.056794662 0.032100968 -0.03974654 0.05175044
0000f0 6d 75 6b 3c fb 04 80 3d d7 b8 65 3c 7e bd c3 3c
       0.014371258 0.0625095 0.01402112 0.023894068
000100 d5 14 8c bd 01 80 b1 bd 09 03 06 3c 8d 20 f5 bc
       -0.06839911 -0.08666993 0.008179435 -0.029922748
000110 da 4d 2a 3c 36 22 f4 3c e8 5d e5 bc d3 d2 42 3d
       0.010394538 0.02980147 -0.02799888 0.04756434
000120 5c d0 25 bd f1 1a af 3d 74 b8 14 3d 28 1d 59 3d
       -0.04048191 0.085500605 0.03630872 0.05300632
000130 e5 89 52 3d 66 8f 63 bd 7a 01 f7 bc 2b f5 96 3d
       0.051401038 -0.055556677 -0.030152071 0.07370981
000140 e4 12 6a bd ce 0a a6 3d cb d8 98 3d df 49 94 bd
       -0.05714692 0.081075296 0.07463225 -0.07240652
000150 d7 f7 43 3d c9 e7 1b bd 3e 31 1a bd 2c b9 4c bd
       0.04784378 -0.038062844 -0.037644617 -0.04998128
000160 91 5b 71 3d 96 d7 37 bb 61 94 54 bd 14 19 51 3d
       0.058925215 -0.0028052083 -0.051899318 0.051049307
000170 11 a2 8c 3c 84 3f a6 bd 73 ff b5 bd 9c d1 3b 3d
       0.017167123 -0.081175834 -0.08886614 0.045854196
000180 4d b8 16 bd 64 83 d4 bc 2b 66 ef bc 98 cf 9e 3d
       -0.036796857 -0.025941558 -0.029223522 0.07754439
000190 8a b1 50 bd f5 e8 ca bc dd 90 7f bd f1 12 b5 3d
       -0.050950564 -0.024769286 -0.06239401 0.088415034
0001a0 3a 55 98 bd cf 28 61 3b 3c 6a b7 bb 65 5b db bc
       -0.07438131 0.00343566 -0.005597381 -0.026776979
0001b0 a8 05 9d 3d 77 25 bb 3d 34 49 8a bd de 63 bc bc
       0.076670945 0.09138005 -0.06752244 -0.02299684
0001c0 8f f5 c4 3c 79 0c bd 3b e3 f8 ca 3c b7 04 9f bd
       0.024042873 0.005769309 0.024776882 -0.07764571
0001d0 30 e0 2c 3d ca 56 99 3d ec 84 b5 3c 49 09 65 bd
       0.04220599 0.07487257 0.022158109 -0.05591706
0001e0 81 44 99 3d 3a 50 c2 bc e0 93 63 bd 91 7d 9d 3d
       0.07483769 -0.023719896 -0.055560946 0.076899655
0001f0 d3 03 06 bd f8 c2 a3 bd da 8a 8c bd 48 56 e6 3c
       -0.03271849 -0.07996172 -0.06862421 0.028117314
000200 8a 67 85 3c a5 75 aa bd e1 75 25 3d 64 ea 55 3b
       0.016284723 -0.0832322 0.04039562 0.0032640928
000210 8a ad cc 3b ea ac a4 bd b8 2b a2 bd a5 59 a3 3d
       0.0062462734 -0.08040793 -0.07918495 0.07976083
000220 a2 53 50 bd e1 e3 29 3d e7 47 e9 bc 5e 72 a2 bc
       -0.05086101 0.041477088 -0.028476669 -0.019829925
000230 a1 17 45 bd 6d 4d 9e bd ff fa 03 3d df 3d 94 3d
       -0.048118237 -0.077296115 0.03222179 0.072383635
000240 3c 61 2a 3d 4e 1b 79 3b 6c 4a 8c bd 41 da 1c bd
       0.041596636 0.003801066 -0.06850132 -0.03829408
000250 3e fd 56 bc 85 64 b4 bc 91 70 6f bc 59 61 94 3b
       -0.013121901 -0.022020588 -0.01461424 0.0045282063
000260 92 99 a8 bd 2c f3 67 bd f7 d8 25 3c 41 62 1c bc
       -0.08232416 -0.05662839 0.010122529 -0.00954491
000270 cb 3b 12 bb 57 29 12 bb 3c d5 05 3b ea 12 9d bb
       -0.0022313471 -0.0022302472 0.0020421287 -0.0047935145
000280 4e 4f 14 bd 93 37 45 bd 46 26 98 3a c4 19 af bd
       -0.036208443 -0.048148703 0.0011608086 -0.08549836
000290 92 89 b4 3d a7 18 94 3d b7 8c 52 bb 4e 03 ab 3d
       0.08815302 0.072312646 -0.003212733 0.0835024
0002a0 32 e7 a9 bd b0 fd b1 3d 48 ec b5 3c 49 2d a7 3d
       -0.0829605 0.08690965 0.022207394 0.08162934
0002b0 d5 0b f5 3c fa c5 88 3b c2 58 ac 3c cd d7 63 3c
       0.029912869 0.0041739913 0.021038417 0.013906431
0002c0 35 24 8a bd 27 4a 32 bd fa 7e ba 3d 4b 01 a5 bc
       -0.06745187 -0.04352775 0.0910625 -0.020142218
0002d0 f9 2c 28 3d 40 70 9e 3d 7d 31 45 bd 04 c8 ad bd
       0.041058514 0.07736254 -0.0481429 -0.084854156
0002e0 84 8b 63 3d 97 6b 5f 3d 02 35 cb bc a1 11 83 3c
       0.055552974 0.054545965 -0.02480555 0.015999617
0002f0 03 b1 e0 bc 40 2d 85 3d 6b 4e 9b bd f7 34 42 3d
       -0.027428156 0.065027714 -0.075833164 0.047413792
000300 25 84 8c bd b5 7f 0f 3d 0d 0e d6 3b ae 0f 4f bd
       -0.06861142 0.0350339 0.0065324367 -0.050552063
000310 20 eb cc bc a0 05 91 bc 84 30 7b 3c 05 d4 3c 3d
       -0.02501446 -0.017702878 0.015331391 0.046100635
000320 7b 9c 9d bd 15 7f ea 3c 0d 46 74 bb 2e 6b 96 3c
       -0.07695862 0.02862505 -0.0037273199 0.018361654
000330 bb b4 54 bd 67 b9 83 bd 85 f7 79 bd 83 1f 48 bb
       -0.05193017 -0.06431847 -0.06102707 -0.003053636
000340 41 72 7a 3d d3 c5 d1 3c 19 ae 8e 3d b7 82 37 3d
       0.061144117 0.025607025 0.069668 0.044802394
000350 62 9d 0b 39 82 75 98 bd 74 ce ce bc 44 71 77 bd
       0.00013314703 -0.07444288 -0.025244929 -0.060410753
000360 2c ec 6d bd 9e 84 9c bd 27 98 b8 3c a1 80 34 3d
       -0.05808656 -0.07642482 0.02253349 0.044067983
000370 b6 2f ea bc 56 21 be 3c 23 86 50 bc a6 c9 c3 3c
       -0.028587203 0.023209255 -0.012727293 0.023899864
000380 f5 d6 aa bd a7 b5 7e bd b4 e1 18 bd 46 7e 6f bd
       -0.08341781 -0.062184956 -0.037324622 -0.058470033
000390 4c 51 3e 3c 68 18 8c bd 4f 89 17 3b dd 08 0c bd
       0.011616062 -0.068405926 0.0023122614 -0.03418814
0003a0 d3 26 98 3d 53 b0 51 3c f0 19 82 3c ea ce ac 3d
       0.0742928 0.012798387 0.015881509 0.08437903
0003b0 02 f5 8d bd 4c 92 b3 3c e0 15 60 bd 22 e7 32 3c
       -0.06931497 0.021920346 -0.05470836 0.010919364
0003c0 8e 11 4a 3d b6 48 ae 3d d1 7c 25 3d 26 2f 87 bd
       0.049333148 0.08509962 0.040402237 -0.0660079
0003d0 5d 53 5f 3d 27 c3 ff 3c dd 7a 6d bd 8d 71 9a 3d
       0.05452286 0.031220986 -0.0579785 0.07541189
0003e0 a6 63 28 3d d7 03 27 bc c2 74 4c 3c 69 b3 90 3d
       0.041110657 -0.010193787 0.012479009 0.0706547
0003f0 7d 33 66 3d 80 69 9f bd 34 98 bc 3d 1f cd 0d bb
       0.056201447 -0.077837944 0.09208718 -0.0021637154

actor.2.weight f4 [2, 512]
000000 c8 1a b6 3c 12 fd ed 3c ef ff 3d bc 4b 79 12 3d
       0.022229567 0.029051337 -0.011596664 0.035760205
000010 5e cf 59 3c 60 f8 24 3c 6d ee 83 3c 17 15 1e 3d
       0.013294069 0.010068983 0.016104901 0.03859433
000020 0d 8c ae 3c 23 3c 48 3d 21 87 c1 bb 8a 70 da ba
       0.021307016 0.048885476 -0.005906001 -0.0016665619
000030 d6 a6 6e bc 38 94 8d 3c b7 ad 0b 3d 3e 8b 52 bc
       -0.014566144 0.01728259 0.034101214 -0.012850581
000040 57 1e 2b bd e5 8c c3 3b 8c 92 49 3c f7 4c 8c 3c
       -0.04177698 0.0059677237 0.012303006 0.017126543
000050 78 95 aa bc 38 9b 5a 3b 55 16 af bc a2 17 44 3d
       -0.020823225 0.0033356678 -0.021372953 0.0478741
000060 e5 97 5e bc cb 07 07 3c bf d3 60 3c 4f 2b 33 3d
       -0.013586019 0.008241604 0.013722359 0.043742474
000070 96 d2 f8 3c a6 76 1e bc 4d a9 39 bb 3e 8f 8c bc
       0.030373853 -0.009671843 -0.002832967 -0.017158147
000080 98 54 85 bc bf b2 6a bc 5a 66 17 bd 22 e9 6d bd
       -0.016275689 -0.014324843 -0.036962844 -0.05808366
000090 57 e3 93 3b 68 ad b4 bc e2 09 8a bc 8a a1 20 bc
       0.004513185 -0.022055343 -0.016850416 -0.009804139
0000a0 6d 50 14 3c 3f ba f9 bb 66 7b 39 bd 43 0e 0c 3d
       0.009052378 -0.007621079 -0.045283698 0.03419329
0000b0 bf 50 21 3d cd d8 c7 3c 9b 32 83 3b 95 fc 22 3d
       0.039383646 0.02439537 0.0040038354 0.039791662
0000c0 25 78 ba bc c2 e6 fd bc ec 6f f8 3b eb 91 1d 3d
       -0.022762368 -0.030993823 0.0075817015 0.038469236
0000d0 ca 9f eb 3c a1 14 35 3d fd 83 63 bb 57 dc 8c bc
       0.028762717 0.044209126 -0.0034716122 -0.01719491
0000e0 14 57 49 3d ec f5 b4 3c 1d 1b aa 3c 3a d1 e3 bc
       0.04915531 0.022089921 0.020764882 -0.027809728
0000f0 2d bf ac bc 18 6d 81 bb de 2a 06 bc ff 30 a2 3b
       -0.021087253 -0.0039497726 -0.008188931 0.0049496884
000100 af 06 29 3d 79 c8 01 3d ce 61 42 bc a3 5f e8 bc
       0.04126614 0.031685326 -0.011864139 -0.028365916
000110 6e 6c 51 3d 97 d5 a6 3c 21 ab 4a 3c fe 42 84 bc
       0.051128797 0.02036552 0.012369902 -0.016145226
000120 b9 3a 90 3c 32 2e 19 bd 29 2f 9c 3c 56 31 dd bc
       0.017606126 -0.03739757 0.019065456 -0.027001064
000130 1a d8 00 3c 85 a7 78 bc 10 25 bc 3c 41 33 09 3d
       0.007864023 -0.0151766585 0.022966892 0.033496145
000140 39 42 d8 3c 3a 8a 11 bc c7 42 5b 3d 0a d9 17 3d
       0.026398765 -0.008883053 0.05353048 0.03707222
000150 f1 58 ac 3c 2d 93 21 3b 4c f9 de bc 3e 26 4f 3c
       0.021038504 0.0024654374 -0.027218483 0.012643395
000160 91 b9 14 3d 2f b6 bc 3b b7 19 0d 3d 6b 8f 1d bd
       0.036309782 0.0057590227 0.03444835 -0.038466852
000170 9a 86 14 3d 28 46 f8 3c 82 63 29 bd 1c ee d1 bc
       0.03626118 0.03030689 -0.041354664 -0.025626235
000180 d7 44 e8 3c d6 8d 8b ba 11 75 7f bc 0c ff ef bc
       0.028353138 -0.0010647129 -0.015591876 -0.02929642
000190 b7 e2 29 3d ce b1 94 bc ab 99 08 bd b7 93 36 3c
       0.041475978 -0.01815119 -0.033349674 0.011143616
0001a0 5e a7 d6 3c 38 07 e0 ba 83 bc b9 3c 68 59 37 bd
       0.026202854 -0.0017091995 0.022672897 -0.044763
0001b0 98 0d 33 bd 70 b9 81 3d 4f 56 f0 3c f3 7c 92 3b
       -0.043714136 0.063341975 0.02933803 0.0044704615
0001c0 74 99 f9 3c c3 65 51 bb 77 30 d1 3c b0 31 3d bd
       0.03046868 -0.0031951524 0.025535805 -0.046189964
0001d0 67 43 cc 3c 87 81 06 3c 0f 08 82 3b 56 7c 66 bb
       0.024934484 0.008209593 0.003968246 -0.0035169325
0001e0 f2 d9 d7 bb 94 f8 ab 3c 22 c1 00 bd 8e 4c 6d 3c
       -0.0065872604 0.020992555 -0.031434186 0.014483584
0001f0 ca 11 d8 bc a9 8c 49 bd 6b 49 d7 3c fe fb e3 3c
       -0.02637567 -0.04920641 0.026280126 0.02783012
000200 3c 11 dd bb 20 9b a6 b5 21 da a0 3c 71 f3 4e bd
       -0.0067464393 -1.2413111e-06 0.019635262 -0.050525133
000210 e7 b0 42 bd 78 5e 9a 3b 9b 11 02 3d 27 8b ec bc
       -0.04753199 0.0047109686 0.03175507 -0.028874947
000220 c7 58 18 bd 12 9c 02 bd 81 ab 55 3d 2a f4 c9 bc
       -0.03719404 -0.03188712 0.052165512 -0.02465256
000230 d7 db 4c 3d ae 80 17 3d aa 1b 31 bd 1b 1f b6 bc
       0.050014343 0.036987953 -0.043239273 -0.02223163
000240 30 09 b0 3c 0a c6 95 3c 20 17 85 3c 96 89 a3 3c
       0.021488756 0.018282909 0.016246378 0.019963067
000250 3d 15 cf 3c ec 97 55 bc 9b 9c 2e bd ef 33 d9 3c
       0.025278682 -0.013036709 -0.04262982 0.026514022
000260 7d 85 e8 3b 2c 0e 4e bc 50 b2 f2 bc bc d5 3a 3d
       0.007095991 -0.012576621 -0.029626042 0.04561399
000270 25 c0 1f bd dd c0 44 3d 0d 89 76 bb b8 83 74 bc
       -0.039001603 0.04803549 -0.003761831 -0.014923982
000280 9a 1c 9f 3c 2e 27 f9 bc 63 2e 50 3a e9 a2 7e 3b
       0.019422818 -0.03041419 0.00079414825 0.0038854426
000290 ac c8 fd 3c 45 5d 59 3d c9 e9 73 3c 43 d2 2a 3d
       0.030979477 0.053067464 0.014887282 0.041704427
0002a0 7f 75 8c bc d3 fb 82 bd 85 36 13 bd 83 44 1f bd
       -0.01714587 -0.06395688 -0.035940666 -0.038883697
0002b0 e4 bd 0f bd 4e ea 1a 3d ca 47 5d 3d 73 0f 91 3c
       -0.035093203 0.037821107 0.05402354 0.017707562
0002c0 66 73 1e bd 4f 44 97 bc c4 57 c9 bc 81 e6 03 bc
       -0.03868427 -0.01846519 -0.024577983 -0.008050562
0002d0 09 5f 66 bd 1b 33 16 bd b1 7e 36 bd a1 93 2b 3d
       -0.056242976 -0.03666983 -0.044554416 0.041888837
0002e0 e3 f4 39 3d c6 9a df bc 55 e8 01 bd 14 51 44 3c
       0.045399558 -0.027295481 -0.03171571 0.011982221
0002f0 fa 7f a5 3a be 30 03 3d 3f c8 10 3d 86 b3 11 3d
       0.0012626641 0.032028906 0.03534722 0.035571598
000300 f2 d4 2b bd a9 83 27 3d b2 fb 96 3c 24 a7 74 3c
       -0.041951127 0.040897045 0.018430565 0.014932428
000310 8b 18 0d bc d9 59 46 3b 73 02 02 3d a8 57 02 3d
       -0.0086118085 0.0030265956 0.031740617 0.031821877
000320 97 ac b5 bc 76 9e 37 3d 23 c9 14 3b 15 8e 8c 3c
       -0.022177024 0.044828855 0.0022702895 0.017157594
000330 19 cd 12 3d 3c dd bd 39 f6 52 0c 3d 18 04 1b bd
       0.035840128 0.00036213722 0.034258805 -0.0378457
000340 1d c9 49 3d e8 60 42 bc a7 23 97 3c a3 b7 33 3b
       0.049264062 -0.011863925 0.018449618 0.0027422688
000350 ff bf 14 bc 77 0c 02 3d 75 87 96 bd d2 a7 f2 bb
       -0.009078979 0.03175017 -0.07350055 -0.0074052596
000360 19 dc fe bb 2f 8a 8b 3c eb 40 73 bc 20 37 e7 3c
       -0.0077777025 0.017033665 -0.014847021 0.028224528
000370 f2 f0 50 3c 05 60 1b bc 8b 78 7c bc 33 a4 85 bc
       0.012752758 -0.009483342 -0.015409599 -0.016313648
000380 4a 05 08 bd d1 6d 62 3d ad e4 b2 3b f5 53 71 3d
       -0.03320817 0.05528051 0.005459389 0.05891796
000390 67 57 0a 3c 63 1f 3a bd 9b 16 7e 3c 9a d1 0d 3d
       0.00844369 -0.04544009 0.015508319 0.03462372
0003a0 0a 27 38 3d 01 60 40 bd de dd d9 3c f8 92 1f bd
       0.044959106 -0.046966556 0.026595052 -0.03895852
0003b0 a6 43 f4 3c cb 57 41 bb 46 d2 02 bd b3 96 2c bd
       0.029817414 -0.0029501792 -0.031938814 -0.042135905
0003c0 ed a8 57 3d a7 c1 39 ba c4 5c be 3b b0 03 db bc
       0.052651335 -0.00070860464 0.0058093984 -0.026735157
0003d0 61 9c 44 bd 15 47 0f 3d 28 91 f7 3a 03 13 99 bc
       -0.048000697 0.0349799 0.0018887864 -0.018685823
0003e0 f9 b1 3b 3a 9a d0 04 3d 98 86 34 bd 0b 2b 8c bc
       0.0007160004 0.0324255 -0.04407367 -0.017110368
0003f0 d7 4f f8 bb e8 8e 21 bc a0 10 0e bd fe 9d a7 bc
       -0.007577877 -0.009860732 -0.034683824 -0.020461079

actor.2.bias f4 [2]
000000 fd 94 87 bc f4 60 26 3d
       -0.016550535 0.040619805

critic.0.weight f4 [512, 127]
000000 1a 5b 1b bd 0c 8a cb 3b f7 e9 df bc b6 e1 59 bd
       -0.037928678 0.006211525 -0.027333243 -0.05319377
000010 eb 0b 1c 3c 38 ea 5a 3d 0b f3 70 3c 83 cb 00 3d
       0.009524326 0.053446025 0.014706383 0.031444084
000020 d0 59 a3 3d 0b 18 66 bb 04 d1 15 bc 0c 81 4d 3d
       0.07976115 -0.0035109546 -0.0091440715 0.050171897
000030 57 20 93 3b 37 9d 08 3c bc 88 2c 3d bd 08 91 3d
       0.004489939 0.008338264 0.042122588 0.07081745
000040 07 79 40 bd 16 de bf bd 8e 26 44 3d 5f 51 70 3d
       -0.04699042 -0.093685314 0.04788833 0.05867135
000050 2c e3 fe 3c d7 4c bf bc 04 32 34 bd 6b 7e cf 3d
       0.031114183 -0.02335207 -0.04399301 0.10131534
000060 23 86 cd 3d 5d 52 35 ba 81 25 20 3d 49 f7 75 bd
       0.1003535 -0.0006916875 0.039098267 -0.060050283
000070 a0 2b c9 bd 08 91 19 3d 71 75 8c 3d 0a fa e8 bc
       -0.09822774 0.03749183 0.06858338 -0.02843954
000080 a3 53 dc 3d 0f a4 77 bd bb d5 b7 bc 92 62 53 3d
       0.1075814 -0.060459193 -0.022440782 0.051607676
000090 47 03 6f bd ab 04 77 3d 70 f0 8d 3d b9 e3 52 bd
       -0.058352735 0.060307186 0.069306254 -0.051486704
0000a0 c5 c7 d3 3d a1 e7 8d bb 09 2e c2 3b 0e 68 0f bd
       0.103408374 -0.004330591 0.005925898 -0.035011344
0000b0 6d 7e 8a 3d 84 d9 34 bd 89 2b 84 3d 84 11 47 3d
       0.06762395 -0.04415275 0.06453616 0.04860069
0000c0 84 60 0b 3e 7a e7 72 bd a0 a6 64 3d a3 09 59 39
       0.13611037 -0.059302785 0.05582297 0.00020698323
0000d0 8e 70 b1 3d de 0e 85 bd 80 e0 a3 bd 51 bc 3c bc
       0.08664046 -0.06496976 -0.08001804 -0.0115195075
0000e0 d4 1b 01 bc 4b 35 01 3c c7 89 a3 3c de c3 5e bd
       -0.00788017 0.007886241 0.019963158 -0.054386012
0000f0 3d fe 9f bc 4b d7 b5 3d 37 d1 2b bd da f4 d3 3c
       -0.01953041 0.088789545 -0.04194757 0.02587359
000100 f3 db e1 3c 2b 2a 37 bd 75 d7 3d bd 6f f7 68 bd
       0.0275707 -0.04471795 -0.046348054 -0.056876596
000110 08 72 b5 3d 6e 37 23 bc b5 34 34 bd cd 69 b5 bd
       0.0885964 -0.009961946 -0.043995578 -0.088580705
000120 3d 13 0e 3d 48 bc a8 bd d8 6c f5 bc 11 cc 63 3c
       0.034686316 -0.08239037 -0.029959127 0.013903634
000130 95 a4 d2 bc 9e 44 c3 3d ad e8 92 3d df ac 7b bc
       -0.025713244 0.09534572 0.07173286 -0.01536104
000140 1e fe f4 3d 36 11 79 3d 54 c8 76 bc 38 ff 68 bd
       0.119625315 0.06080743 -0.01506241 -0.05688402
000150 9e 9e 94 3d 05 e4 53 3d a1 61 de bc 41 1b da 3c
       0.07256816 0.05173113 -0.027146162 0.026624324
000160 d0 ca 14 3b 51 11 ab bb b2 34 0b bd 3c 40 59 bd
       0.0022703893 -0.00522057 -0.0339858 -0.053039774
000170 b9 9d 70 bc f1 a0 68 3d 3d 5b 83 3d cd 95 90 3d
       -0.0146860415 0.05679411 0.06413887 0.07059822
000180 92 b1 9b 3d 8f dd e3 3b d6 a7 a4 bc a1 23 42 3d
       0.07602228 0.006953902 -0.020099562 0.04739726
000190 93 58 6f 3d b2 73 ea bc a6 14 09 bd bc d7 86 bd
       0.05843408 -0.028619621 -0.033466958 -0.06584117
0001a0 c4 71 d4 3b ae 52 3a 3d 34 32 a3 38 8c b0 8a bd
       0.0064832885 0.045489006 7.781797e-05 -0.06771955
0001b0 37 b1 80 3c eb ff 9a bd ca 71 09 3d 3e 57 6a 3d
       0.015709503 -0.07568344 0.033555783 0.057212107
0001c0 ad d6 33 3d 18 22 34 bd 6d 56 72 3c e8 45 82 bd
       0.043905903 -0.043977827 0.014791113 -0.0636099
0001d0 16 8a d0 3c e1 c2 a1 3d 21 0d 88 bc 7d 84 84 bd
       0.02545647 0.07898498 -0.016607823 -0.06470583
0001e0 92 e1 9d bc de 7b 2d bd 92 18 6f 3d f6 58 81 3b
       -0.0192726 -0.042354457 0.05837304 0.0039473725
0001f0 52 ba b4 3d 55 33 57 bd 6d 4a 87 3b b0 1b 4c bd
       0.088246 -0.05253919 0.0041287453 -0.049831092
000200 b4 28 ba 3c 33 ad 2f bd fe 2a 4f 3d ea 09 a9 3b
       0.022724487 -0.042889785 0.05057811 0.0051586526
000210 c8 d1 99 bd 26 a2 1b 3d 8c 12 20 3d 00 d5 2f bc
       -0.07510716 0.037996434 0.039080188 -0.0107319355
000220 c2 8f fc 3c 83 cc ed 3b ba 10 ad 3b 98 97 84 bd
       0.030830268 0.0072570457 0.005281535 -0.06474227
000230 52 fe 51 3d 8d 18 d1 bc 0e d6 67 bc d6 20 b2 3c
       0.05126793 -0.025524402 -0.014150156 0.021744173
000240 c7 07 4c bc 57 7b 2d 3d 4f 18 c6 3d 95 b2 ea 3d
       -0.012453026 0.042353954 0.09672605 0.11459843
000250 6e 03 60 bd 0d e0 1c bd e7 39 a9 3c c5 e4 a8 3d
       -0.05469077 -0.03829961 0.020657493 0.08246759
000260 84 93 8a bd d0 75 47 bd 51 3c 24 bd dd b3 14 3d
       -0.067664176 -0.04869634 -0.040096585 0.036304343
000270 07 6e 72 bc a4 61 80 bb 82 22 23 bc 30 ce ed bc
       -0.01479674 -0.0039178897 -0.009956958 -0.029028982
000280 cd 81 e1 bc d9 a4 c5 3d 8d 6f d8 3d f2 1f ef 3d
       -0.027527714 0.09650583 0.105681516 0.11676015
000290 90 75 74 bd 66 86 0a bd b2 f2 27 3d 5f ea 12 3c
       -0.05968243 -0.03381958 0.041002937 0.008967011
0002a0 2e 31 86 bd af 8c 92 3d 76 5a 9b bc a4 b6 ed bc
       -0.06552349 0.071557395 -0.018964034 -0.029017754
0002b0 06 a0 66 bd 1d cd 6d 3c 42 4a f4 bb 53 79 38 bd
       -0.056304954 0.014514235 -0.0074551413 -0.04503758
0002c0 65 ea 99 bc cb 7a 3c 3d 4c b9 3e 3d 7b 05 f5 3d
       -0.018788526 0.046015542 0.04656343 0.11963936
0002d0 6e 06 1a 3c fd da 2d bb fb b7 8f bd de d5 6b bc
       0.009400947 -0.0026528232 -0.07017513 -0.014394252
0002e0 ab 0a a3 3b 08 15 66 3c 56 70 6c 3d 01 b8 54 3d
       0.004975637 0.0140431 0.05772432 0.051933292
0002f0 88 dd 1f bd b7 e0 69 bd 51 87 74 bd 30 4e a6 3c
       -0.039029628 -0.05709907 -0.05969936 0.020300955
000300 56 7d 8a 3d 24 48 ac 3d f7 59 06 be c0 2a 07 3e
       0.06762187 0.08412197 -0.13120256 0.13199902
000310 09 9f a2 3d 6d 15 85 bc 94 c6 cf bd 56 c7 c9 3c
       0.0794049 -0.016245568 -0.10145298 0.024631184
000320 62 a9 7e bd 64 6f cb bc bc d5 72 bd f9 5f 82 3c
       -0.062173255 -0.024833389 -0.059285864 0.015914904
000330 a8 5d 10 bc 0e 4c 68 3c 3e 6c c6 bd 94 d3 f3 3d
       -0.008811392 0.014178289 -0.09688614 0.1190559
000340 bb 8e c7 3d 09 7f 8e 3c f5 83 43 3d 25 00 19 3e
       0.097440206 0.01739456 0.047733266 0.14941461
000350 c0 37 a6 3d 4c 64 dc 3c 65 25 61 3d b2 a5 14 3d
       0.08116102 0.026903294 0.054967303 0.036290832
000360 fc e3 f4 bc 39 af 94 3d 71 53 bc bd 71 86 26 bb
       -0.029893868 0.072599836 -0.09195603 -0.0025409723
000370 1c 83 a4 bd 90 f5 69 bd 9f 53 4f 3c 42 14 05 bd
       -0.0803282 -0.057118952 0.012654214 -0.032490022
000380 f2 e2 1d bd 41 46 8f bd 24 7e 9d bd ab 7d dc 3d
       -0.03854651 -0.06995822 -0.07690075 0.10766157
000390 60 9f 86 bd 8b 26 81 3d af 51 d9 bd e7 8c bb 3d
       -0.06573367 0.063061796 -0.10611283 0.09157734
0003a0 15 ca e2 3b f2 64 16 bd ef d8 d5 bd db 13 dd 3d
       0.0069210627 -0.036717363 -0.104417674 0.10794803
0003b0 ea b6 b3 3d 8c eb f2 3c ac 6d fc 3b ed 62 dc 3d
       0.087751225 0.029653333 0.0077035036 0.10761056
0003c0 36 d8 3e 3d a7 90 57 bd fe c7 9d bd 9f 5f f6 3d
       0.046592914 -0.052628186 -0.07704161 0.12029957
0003d0 4f e3 46 3d af 67 13 3c 14 1a 7d 3d 4f 7a bf bc
       0.048556622 0.008996888 0.06179245 -0.023373751
0003e0 0c c4 83 3d 3d 58 0e bd a1 d2 3e 3d 3e 3b df bc
       0.06433877 -0.03475212 0.04658759 -0.027249929
0003f0 12 d4 d3 bc 98 c0 a2 3d 6a 55 c2 3c b2 e2 22 bd
       -0.025857959 0.079468906 0.02372237 -0.039766975

critic.0.bias f4 [512]
000000 09 e8 60 3d 1a 77 d3 3d 43 66 3e 3d 01 0e 3a 3c
       0.054908786 0.10325451 0.046484243 0.011355878
000010 e9 e2 52 bc 3f d5 9a bb 81 ca 20 3d 37 10 4e 3c
       -0.012871482 -0.004725128 0.039255623 0.012577108
000020 3c 13 58 3c 7b 6a 58 bc cd 00 98 bd 56 5b 79 bd
       0.01318818 -0.013208981 -0.07422028 -0.06087812
000030 45 42 a3 3d 52 c7 21 3d e3 6a fb 3c 00 3e 02 3d
       0.07971624 0.039496727 0.030690616 0.03179741
000040 52 05 9d 3d 2d 78 45 3d eb c5 72 3c 19 53 8f bd
       0.076670304 0.04821031 0.014817695 -0.069982715
000050 9e da c8 bb 2e fe 74 3d 87 17 65 bd 33 ba b1 bc
       -0.006129577 0.059812717 -0.05593064 -0.021695232
000060 b6 08 50 3d 68 e4 63 bd 83 db 4b bd e4 fa 94 bd
       0.050789557 -0.055637747 -0.04976989 -0.07274416
000070 18 c6 90 3d fe b9 73 3c 17 80 b3 3d 67 d9 cc 3d
       0.070690334 0.014875887 0.087646656 0.10002404
000080 aa ac fc bc d1 f6 a4 bd 10 79 90 3d cd 77 97 bd
       -0.030844051 -0.08054889 0.07054341 -0.07395897
000090 d8 7f 36 bd 63 41 48 3d 3e f3 90 3d f6 c7 e9 3c
       -0.044555515 0.048890483 0.07077645 0.028537732
0000a0 af 2d 94 bc 8f 01 5d bc a3 ad 3a bd 42 f8 ef bc
       -0.01808819 -0.013489141 -0.04557575 -0.029293183
0000b0 64 d3 38 3d f7 22 aa 3b 35 6d b4 3d ea 87 91 3d
       0.045123473 0.0051921564 0.08809892 0.07106002
0000c0 0b dc f8 3c 32 95 e4 3c 9c b9 39 bd 79 bf 1b 3d
       0.030378362 0.027903173 -0.045343027 0.0380244
0000d0 2a 08 05 3d 81 54 97 bc 41 38 79 bd 74 62 54 3d
       0.03247849 -0.018472912 -0.060844664 0.051851705
0000e0 d8 20 de bc 27 54 60 bd 92 44 21 3c 9b 98 8a 3d
       -0.02711527 -0.054767754 0.009843009 0.067673884
0000f0 c8 6a fe ba bb cd be 3d 12 d3 2b 3d 90 f5 52 bb
       -0.0019410485 0.09316584 0.04194934 -0.0032189824
000100 7b 8b 4e bd 67 1e af bc 0c cd 15 bd 7c 88 07 3a
       -0.050425988 -0.021376802 -0.0365725 0.0005170179
000110 0c d8 26 3c c8 28 3d bd 8d 05 2a bd 34 00 73 bd
       0.0101833455 -0.04618147 -0.0415092 -0.059326366
000120 3e e7 c1 3d 63 0e 74 3d 99 61 1e 3d 69 a4 61 3c
       0.09467934 0.059584033 0.038667295 0.013772109
000130 36 ca e6 b8 24 ee a0 3d ae 71 17 bd f7 fa a4 3c
       -0.00011004919 0.07857922 -0.036973648 0.0201392
000140 ff 87 a0 bc 0d 04 81 3d e1 87 44 3d 4e b8 8b bd
       -0.019596098 0.06299601 0.047981147 -0.06822263
000150 61 9b cc 3a 44 0c 6f 3d a0 f4 1f 3d 97 96 60 bd
       0.0015610271 0.058361307 0.039051652 -0.054831114
000160 ca 1a 2b 3d 48 11 9d 3d b2 22 90 bc 7e 4a 86 3d
       0.041773595 0.07669312 -0.017594669 0.06557177
000170 be 36 87 3c 96 d6 bb bc dd 81 9d bd 26 ed c1 3d
       0.016505595 -0.022929471 -0.07690785 0.094690606
000180 8e 47 95 3d 1d 55 94 bd 3a a4 3c bd 39 3f 49 bd
       0.072890386 -0.072427966 -0.046055056 -0.04913256
000190 af a7 be 3d 73 32 70 3c f9 8c 81 3d af c6 b3 3d
       0.09309327 0.0146604655 0.063257165 0.0877813
0001a0 21 94 75 3d 4d 04 b0 3d 47 a5 a1 3d 32 18 eb bc
       0.05995572 0.0859457 0.07892852 -0.02869806
0001b0 e5 71 9f 3d 03 12 d3 3d 27 99 90 3d 22 6f 80 3d
       0.077853955 0.1030617 0.070604615 0.06271197
0001c0 28 24 e1 bc 43 4e 56 bd 28 57 ce 3c 75 a9 38 bd
       -0.027483061 -0.05232073 0.025188044 -0.04508348
0001d0 6c 5c a5 bd 09 53 8d 3d 0a 75 de 3c 51 13 04 3d
       -0.08074269 0.06900603 0.027155418 0.032244984
0001e0 85 ab 6e bd 5b 1b bd bc e3 4e b5 bb 19 5f 18 bc
       -0.058269043 -0.023084333 -0.0055330857 -0.009300017
0001f0 1a 53 20 3d 41 a8 12 3d 9b 01 b7 bd 8f 90 20 bd
       0.03914175 0.03580499 -0.08935853 -0.03920036
000200 c6 06 9d 3d 33 d3 ca 3b 26 bd a7 bd 55 39 7f 3c
       0.076673076 0.0061897277 -0.08190374 0.015577634
000210 a7 92 8d 3d 27 67 8a bd 02 1f 8e bd d4 16 b6 bd
       0.06912737 -0.06757956 -0.06939508 -0.08891073
000220 2a 0d 14 3d 9d 5b cd bb 7a 88 0d 3b 67 8e d5 3c
       0.036145367 -0.0062670247 0.002159624 0.02606888
000230 bc 78 63 bd fb bf 94 bd 47 1c 48 bd b1 cc e0 3c
       -0.055535063 -0.0726318 -0.048855092 0.027441354
000240 ab 3a 3f 3c 37 a8 1b bd 4c 86 d9 bc 57 f7 b6 3d
       0.011671702 -0.03800222 -0.026553296 0.08933895
000250 21 1b 54 bc 76 e2 b3 bc fa 2c 20 bd ee 58 9d bc
       -0.012945921 -0.02195857 -0.039105393 -0.019207444
000260 97 57 20 bd be dd 79 bd dd ee ff bc 94 b6 ee 3c
       -0.039146032 -0.061002485 -0.031241829 0.029139794
000270 08 b0 81 3c 1e 2c 86 bd ca f9 92 3c d0 3d b2 3d
       0.015831009 -0.065513834 0.017941374 0.08703196
000280 b8 75 22 bc ee dc 5c bb 3b 78 c9 bc fd 45 02 bd
       -0.009915762 -0.003370102 -0.024593463 -0.031805027
000290 bd 5b 5a bd b4 25 41 bd 36 f7 45 bd 13 75 21 bd
       -0.053310145 -0.047155097 -0.04833146 -0.03941829
0002a0 28 18 bc 3c 36 40 78 3d 0d fb 89 3c 16 93 c5 3d
       0.022960737 0.06060811 0.016843343 0.09647195
0002b0 43 f7 ed bc 24 ed 60 bd 2a 9d a2 bd ca dd 8a bd
       -0.029048568 -0.054913655 -0.07940133 -0.06780584
0002c0 11 0c 1d 3d bd 57 4a 3d 86 00 b0 3c 60 e0 7c bc
       0.038341586 0.04940008 0.021484625 -0.015434355
0002d0 f3 f6 8b bc 6a f9 4c bd 2c ec f6 bc ef aa 05 bd
       -0.017085528 -0.050042547 -0.030141912 -0.032633718
0002e0 c7 89 99 3d b4 d2 88 3d ae 92 65 bd f5 dd 99 3c
       0.07496982 0.066808134 -0.056048088 0.018782595
0002f0 b6 09 1a bd 78 20 1d bc 39 6d 78 bd dc 60 68 3c
       -0.037606917 -0.009590261 -0.060651038 0.014183249
000300 42 42 56 bd 95 ef 50 bc 2b 4c a8 3c b0 bc 45 bd
       -0.052309282 -0.012752433 0.020544132 -0.04827565
000310 8d b5 39 ba df 9b 36 bd fb 3b 76 bd 2d ac de bc
       -0.0007084243 -0.044582244 -0.060115796 -0.02718171
000320 7a a0 52 bd 43 2e b1 bc 96 47 10 bb 93 67 55 bd
       -0.051422574 -0.021628505 -0.0022015325 -0.05210073
000330 2c ed 4d 3c 38 73 95 3d e2 a3 30 bd 06 a5 16 3c
       0.012568753 0.07297367 -0.04312504 0.009194618
000340 03 e0 93 bc 1b 47 01 bd ac 99 89 3d 8f bd a5 bd
       -0.018051153 -0.031561952 0.06718764 -0.08092796
000350 04 c7 b5 bd 31 da 65 bc c9 82 57 bd 49 db b7 3d
       -0.0887585 -0.014029072 -0.05261496 0.08977372
000360 0a b2 c8 3d 5c b4 80 3d 5a 62 a9 3d 1a ea 3c 3c
       0.09799583 0.06284401 0.08270712 0.011530424
000370 1e a9 6b bd 3e a3 bb 3d 09 ee af bd 0e fd 4d 3c
       -0.05753433 0.09161995 -0.085903235 0.01257254
000380 28 b9 45 bc 54 0c ad 3c f4 92 91 bd 10 41 97 3d
       -0.0120680705 0.021124043 -0.07108107 0.073854566
000390 5d 71 17 3d b0 b3 3d 3d a3 8b 8a bc 56 2c 6f bb
       0.036973346 0.04631394 -0.016912287 -0.0036494932
0003a0 4c f9 51 b9 6a 07 88 3d 65 f7 85 3c 90 21 9d 3d
       -0.00020024664 0.06642039 0.016353318 0.07672417
0003b0 88 29 cb 3b 7d bf 4d bd 28 dc 96 bd 3b 8b 12 bd
       0.0062000193 -0.050231446 -0.0736621 -0.03577731
0003c0 4b 08 31 bd f6 f3 eb 3b db 03 8a bc 5c 54 d6 bc
       -0.0432208 0.0072007133 -0.016847542 -0.026163273
0003d0 6e 65 7d bd fe 89 19 3d 5d 61 73 bd 94 84 56 3c
       -0.06186431 0.037485115 -0.059419025 0.0130931325
0003e0 9b 0c a1 3d cd 84 0c bd 86 32 70 3d f2 da 96 bd
       0.078637324 -0.034306336 0.058641933 -0.07365979
0003f0 30 f3 a8 3d a1 fe 04 b9 f0 8a dd 3c e5 1c 80 bd
       0.08249509 -0.00012683358 0.02704379 -0.06255511

critic.2.weight f4 [1, 512]
000000 f1 3e 2a 3d 2e 81 bc 3d 34 31 cc 3c 66 bf 29 ba
       0.04156393 0.092043266 0.024925806 -0.0006475359
000010 2d 2c b6 bc cd 44 c8 bc 8d 13 2e 3c e9 fc 39 3d
       -0.022237862 -0.02444687 0.010624778 0.04540721
000020 25 07 0d bd c8 2e 8a bc d9 48 28 bc 74 68 8a 3c
       -0.03443064 -0.01686801 -0.0102712745 0.01689551
000030 7b f9 cf 3c 83 8b 32 bd b4 f8 1c bd 14 a1 a2 bd
       0.025387516 -0.04359008 -0.03832312 -0.079408795
000040 20 39 60 3d fa e4 9b 3a 25 72 2a bd 92 b9 00 bd
       0.05474198 0.0011893802 -0.041612763 -0.031426974
000050 ae 64 ad bc 9f a0 0f bd 74 f8 8e 3d 54 30 9a 3c
       -0.021166172 -0.03506529 0.069809824 0.018821873
000060 40 3e 38 bd 08 f3 ad 3c b7 93 16 3d 0a 7f 34 3c
       -0.04498124 0.02123405 0.036761966 0.011016617
000070 68 5b 2d bd 09 0b 85 3d a4 a5 9f 3d 47 5f 86 3d
       -0.0423235 0.064962454 0.07795265 0.065611415
000080 5b 6e e1 bc 1f cc 3c bd cb a5 48 bd 70 c8 95 bc
       -0.027518442 -0.046093103 -0.048986237 -0.018284053
000090 19 a6 5e 3d 53 1e db bc 26 dd 3d 3d 81 19 be bc
       0.05435762 -0.026747858 0.04635348 -0.02320552
0000a0 38 7b 84 3b e9 3c d9 bd 5f 1e 16 3d 1a 53 a0 ba
       0.004043009 -0.10607321 0.036650058 -0.0012231797
0000b0 4d f3 79 3d a0 dd 9c bb 67 ae 6a bc 2a fb c2 bc
       0.061023045 -0.004787162 -0.014323807 -0.023801405
0000c0 ae 02 78 3d 10 30 58 3d 9f fe db bc a0 6b 94 3d
       0.06054943 0.05278021 -0.026854811 0.0724709
0000d0 09 30 ab bc a1 cf 08 3d 5c b6 30 bd c4 06 12 3d
       -0.020896928 0.033401135 -0.04314266 0.035650983
0000e0 d0 fc 9b 3d 0d db de bc de de 91 3d 30 b6 f3 bc
       0.076165795 -0.02720406 0.07122587 -0.02974996
0000f0 ac 71 0a bd ac 6c 90 3d f9 75 e1 bc 03 ff d0 bc
       -0.033799812 0.070519775 -0.027522074 -0.025512224
000100 a7 36 4e bd 16 da ef bc f3 36 cc bc e6 59 b5 bc
       -0.05034509 -0.029278796 -0.024928546 -0.022137593
000110 19 b4 57 bd e7 5f 41 bd 73 a6 27 bd be 43 2f bd
       -0.05266199 -0.0472106 -0.040930223 -0.042789213
000120 25 f6 3d 3d cb b5 9c 3b b4 c4 43 bd 09 1a 23 3d
       0.04637732 0.0047824136 -0.047795013 0.03981975
000130 d4 6a 15 3d 76 51 84 3d 53 3c b7 bc eb 6c 1a 3d
       0.036478832 0.0646085 -0.022367632 0.03770153
000140 cc 97 81 3d 7e ba 91 bc 4c 31 18 bc 02 8c ef bc
       0.06327781 -0.017789122 -0.009289097 -0.029241566
000150 d0 c1 15 bc af b7 f4 bc d2 90 81 3d 3e 15 b0 bc
       -0.009140447 -0.029872743 0.063264504 -0.021494504
000160 05 df e3 3b 75 00 05 bd d5 0e fe bc 83 1a 12 bd
       0.0069540762 -0.03247114 -0.031012932 -0.035669815
000170 eb 3e cc bc 1c ea 2c bd 79 4f 14 3d f6 40 46 3d
       -0.024932345 -0.04221545 0.036208604 0.048401795
000180 fa 53 85 bc b6 8c 74 bc 28 db 26 bd 5d 17 5f bc
       -0.016275395 -0.014926126 -0.040736347 -0.01361641
000190 4c 24 27 bd 53 1e 0e bd dd 0e e5 3c ba 57 62 bd
       -0.0408061 -0.03469689 0.027961189 -0.055259444
0001a0 0a 9e bb bc 0a 35 59 bc 2c fe 29 bd d4 32 8c 3d
       -0.022902507 -0.013257274 -0.041502163 0.06845632
0001b0 3f d3 32 bc 1e 1b 68 3d b2 e8 35 bd a2 e5 d7 bc
       -0.010914623 0.056666486 -0.04441137 -0.026354615
0001c0 29 c2 cb bc 06 37 96 3d c3 b8 c0 bb 98 e2 3d 3c
       -0.024872856 0.07334714 -0.0058814003 0.011589669
0001d0 a9 1e a0 3d f1 77 13 3d c5 0b 81 bc 15 52 c3 bc
       0.07818348 0.036003057 -0.015752682 -0.02384285
0001e0 4a 54 86 3d de 9f b2 bc 71 9f 2c bd d5 8d 9c bd
       0.065590456 -0.021804746 -0.042144243 -0.0764424
0001f0 97 7b c2 bc c4 0d 08 bd 83 f6 2d bc d5 e2 b1 bc
       -0.023740573 -0.033216253 -0.010617855 -0.021714607
000200 f3 35 4e bb 1a d5 46 bd 8c 99 d8 3c 36 63 80 3d
       -0.0031465262 -0.048543073 0.026440404 0.06268923
000210 20 a4 24 bd da 26 74 3d 93 1b 64 3d 4b f3 c6 bb
       -0.040195584 0.059607364 0.05569036 -0.0060714833
000220 18 9f 02 3d da 61 42 3d 0a 62 16 bd a2 ee a7 3c
       0.031890005 0.0474566 -0.03671459 0.020499531
000230 1b 4e d7 3c b6 ad 04 3d ca de 1e 3b dc 11 23 bd
       0.02628236 0.032392226 0.002424168 -0.039811954
000240 e8 c1 ef 3b d1 0c 33 3d 30 b7 9a bc 61 35 57 3d
       0.0073168166 0.043713395 -0.018886179 0.05254114
000250 fe 8b 38 3d b6 75 54 3d f6 4a 14 bd ab 6b b6 3c
       0.045055382 0.05187007 -0.0362043 0.022268137
000260 04 65 5d bd cb 39 3c bd 9d cd c6 bc d5 30 22 bc
       -0.054051414 -0.045953553 -0.024267966 -0.009899338
000270 8e 5b 4c 3d ae 76 31 bd 3a 2b 23 bd 78 e9 f4 3c
       0.049892 -0.043326072 -0.039836146 0.029896483
000280 39 ad 35 3d 0b f4 53 3d 64 55 36 bc 9d 94 52 3d
       0.04435465 0.05174641 -0.011128757 0.05141126
000290 f7 c2 15 bd 8c c1 85 3d 53 45 61 3c f3 61 4c 3d
       -0.036562886 0.06531057 0.013749438 0.0498981
0002a0 5b d2 4e 3d fa a5 0a bc 13 da 3d 3d 00 ee 41 3d
       0.05049358 -0.008462423 0.04635055 0.047346115
0002b0 ed 00 0a 3d 3c 22 06 bd 3e 49 65 bc 29 6d 11 bd
       0.03369229 -0.032747492 -0.013994513 -0.035504494
0002c0 08 51 6d 3d 2f e1 05 3d 17 20 85 bd 65 86 64 bd
       0.057938606 0.032685455 -0.06500261 -0.05579223
0002d0 09 0b 8d bc 9d 90 8c 3d 66 96 f2 3c 71 68 5e 3d
       -0.017217176 0.0686352 0.029612731 0.05429882
0002e0 bd 79 94 bb 00 45 ea bc de e6 1e bd 1f 2d 25 bd
       -0.004531114 -0.028597355 -0.03879439 -0.040326234
0002f0 ff ac cb bc 90 3b 6a bd 9a 71 65 bc da 60 98 bd
       -0.024862764 -0.05718571 -0.0140041355 -0.07440348
000300 f9 ff 53 3d 41 3b bc bc 52 6a 20 bd b7 59 82 3d
       0.051757786 -0.022977473 -0.039163895 0.06364768
000310 f4 22 8a 3d 26 1d b4 3d ea 69 96 3c a8 33 95 bd
       0.06744948 0.08794622 0.01836105 -0.07285243
000320 e9 89 7d 3d 70 40 97 bc 7f 7f 57 bd 0e 65 0d bd
       0.0618991 -0.018463343 -0.052611824 -0.0345202
000330 ca 55 40 bd 78 18 59 3d 2f 55 90 bc dc 0b e6 bb
       -0.046956815 0.05300185 -0.017618744 -0.0070204567
000340 36 9d 25 3d 12 02 9c bc 9f 03 93 3d ee 1b 61 3d
       0.04043313 -0.019043956 0.07178425 0.054958276
000350 d3 bb e1 bb 17 2e 5d bd 59 4e 8d bd a3 04 fa bc
       -0.0068888455 -0.053999033 -0.06899709 -0.03051979
000360 65 37 7c 3d 24 ad ea 3c 10 65 15 bd e2 e4 77 ba
       0.061576266 0.028647013 -0.036473334 -0.00094564084
000370 7f d4 59 3d c4 6f 67 3d aa 63 76 ba 03 44 de bb
       0.053181168 0.056503072 -0.00093990064 -0.00678301
000380 b7 17 e8 3c fc 48 c6 3c 78 50 f3 3c 24 0b 56 3d
       0.02833162 0.024204724 0.029701456 0.05225672
000390 20 57 15 3d ee 19 97 3c 77 f1 c9 bd 61 c8 00 bd
       0.036460042 0.018444981 -0.09860509 -0.031441096
0003a0 e4 2d 33 bd b8 c2 54 bc f3 35 0f bd c3 5a 58 3d
       -0.043744937 -0.012985878 -0.03496356 0.052820932
0003b0 4c 0a 19 bd 87 c6 ad bd 6d 9b 7c 3d 7a 83 98 3c
       -0.037363335 -0.08485132 0.061671663 0.01861738
0003c0 cf 40 fa bc a0 c8 29 bd 8f 12 e7 bb 4b 31 8b 3d
       -0.030548481 -0.041451097 -0.007051773 0.06796511
0003d0 78 7a 19 3d aa 27 e9 bc 04 bf b9 3c d7 ad be bc
       0.03747031 -0.028461296 0.022674091 -0.023276253
0003e0 5f 6c 02 bd e8 48 59 bd 30 90 16 3c 55 28 6c 3d
       -0.031841632 -0.053048044 0.00918965 0.05765565
0003f0 d3 b4 92 3c ee 42 13 3d 17 6f 6e bd 94 07 c5 bc
       0.01790849 0.0359525 -0.058211412 -0.024051465
