results/env01/ppo/512-256-newest-unite-noactivation-500/model.pth (torch, 270295 bytes, 5 tensors)

shared.0.weight f4 [512, 127]
00000000: cff7 3c3c 0247 083c 235d d2bc 896c 7b3c
00000010: f3c9 b4bd be0e 04b8 ca94 4a3d c51c 88bd
00000020: ca45 633d e6ce 1b3d 34b1 62bd 62cd 9b3d
00000030: 7f29 313c 4445 a8bd 1fa9 3e3d 7ee8 1cbc
00000040: d54c 76bc 1c05 6d3d 0dd7 853d faca 6a3d
00000050: b243 6bbd 9423 573c 9a5a 903c 023d 06bd
00000060: 6b5a 5a3d bef2 3dbd fad8 b0bd a902 a03d
00000070: eaa4 adbc fd3c 85bc 173b 29bd e5de afbd
00000080: a673 8fbd 3819 163d b7aa 6b3c 8708 a13d
00000090: 05c6 26bc 2d39 a4bd cd72 81bc 90cc a8bc
000000a0: 6985 f9bd 801a 93bd 67a7 98bd f3d0 25bd
000000b0: fa5f b33b cc8c 39bd cc89 9cbc 541b da3b
000000c0: 3fd5 14be 7862 37bd 143a 203d 391b 663c
000000d0: e8cc 16bb 71be 56bd 4e98 033d b89b f33d
000000e0: 3970 a7bd 6349 2bbd 7751 ca3c b184 363d
000000f0: 2320 18bd d8b8 b3bb 4aa4 80bc 4ade 2ebb
00000100: e359 19be 6c7c b63d db6c 9d3d 5d79 4d3d
00000110: 5487 b9bc 48a9 2a3b 1746 37bb 5a1e c6bc
00000120: 4d2c f9bd 08ec a33c e7cc 903d cdd7 45bb
00000130: 5f0d 22be 9484 0abc 1709 113d 9434 a23d
00000140: 463d 3bbd e503 ab3d 39de 783d 24ea 1f3d
00000150: 7523 95bd 59ca a83b 338f d5bc 9b93 2d3c
00000160: 5698 0cbe cd90 b0bb a2b1 af3d 61a8 e53b
00000170: 3f57 293d 49a5 65bd 76b5 9a3d 8c01 31bd
00000180: b8aa 0c3d bb38 443d 72e5 66bd 1cca 50bd
00000190: 1330 103d 96ba 633d 7985 123c 8f66 ca3d
000001a0: b1ae 943c 37be 0c3d 7941 b4bd 8a9a 1e3b
000001b0: f515 a4bd 08c5 6dbd 4b36 943c e17d c9bc
000001c0: 30c4 85bd 6067 3c3d ecc5 303d 64c5 eb3c
000001d0: a9c6 5a3c 42d5 073d 520a a23d 1a77 14bc
000001e0: d0cc 8abd f0a8 10bc 04dc 7ebd 6435 a73b
000001f0: bb69 5a3c 7bc9 653c 3a27 0b3d b914 513d
00000200: 8a99 1b3d fa72 28bd 1923 503d 94a5 8a3d
00000210: 8e56 8b3d b96d 9f3a fb1d 863d b2a4 5dbd
00000220: ffdb 333d 01d5 06bd 1b66 1f3d d5ec 983c
00000230: 8dbd 4cbb 8c1d 98bc 9bd2 b93c 4dd8 003d
00000240: 891b 323d b7f0 91bc 8c0a 003c 4441 623d
00000250: 0cf4 61bb 4999 143c 1a50 333d e3fc bcbc
00000260: 64b4 9fbc e5ed 7abd f08e e53b 3993 4abc
00000270: 4874 3cbd dd6d 2dbd 0813 873d 6fec 933d
00000280: 40be bd3b 4ed3 87bd 7dae 44bd 9bfb 703d
00000290: 4a73 623d e82e 823d 1a04 68bd f78a c53c
000002a0: 2de9 9abd bd85 173c 6404 89bd caf5 f63d
000002b0: 4014 923d 5abf 233d 0f3c 93bd a006 cabc
000002c0: 2d2d 7f3c be0a 7b3d e752 2c3d 612e 023e
000002d0: 1df3 083b f30b adbd c8c7 f4bc 71ba 123d
000002e0: 82ab a0bd 5555 e73c 6bd0 7bbd f923 aa3d
000002f0: f99d bebd 9154 7abc 8b68 203d 9b95 f83d
00000300: 2cd2 05ba 4c6b 5d3d 0260 01bb fd33 3e3d
00000310: b459 03bd 94ec dfbb 36a7 58bb 864e 153e
00000320: 4c1d 143c 2ca5 b5bd 6c3d a5bd 3052 dc3d
00000330: 4626 713c da42 b3b9 5e59 febd 5768 1b3d
00000340: b53f 3ebd f82d 533d 6a77 4e3d a9bb df3d
00000350: e7fa f63b 1e1b b6bd ad47 243d 9ebd a4bc
00000360: 5297 94bc 812e 3a3d 4759 0d3d 9660 9dbc
00000370: 4499 7d3d 9359 9f3c a5cb e7bd 040a bf3d
00000380: 3711 03bd 9163 8e3d 5c3e 583d 2678 64bc
00000390: 165f 613d a6ae b9bc e304 1f3c f01e d33d
000003a0: 14ec 963c 6357 97bd 9a71 353d 99d4 533d
000003b0: 8491 373d a866 b33c 1e48 52bd 2174 d43d
000003c0: 1cf4 94bd 8dc3 8dbd ba94 a7bb cd11 ba3d
000003d0: 4850 42bc e368 32bc b8e1 343c ad4a 2f3d
000003e0: 54d6 0fbc 0c22 383d 79eb 06bd f6d6 dd3b
000003f0: bb24 bebc 9ec0 4abc 8bb0 bb3d 47ce 1fbd
0.011533692 0.008317711 -0.025679177 0.015345701 -0.08827581 -3.1484982e-05 0.049458303 -0.06646112
0.055486478 0.03803911 -0.055344775 0.07607533 0.010813116 -0.08216336 0.046548005 -0.009576915
-0.015032967 0.0578662 0.06535158 0.05732248 -0.057437606 0.013131041 0.017621327 -0.032773025
0.053308886 -0.046374075 -0.08635135 0.078130074 -0.021196801 -0.016264433 -0.041316118 -0.08587436
-0.0700448 0.036645144 0.014383963 0.078629546 -0.0101790475 -0.08018718 -0.015801812 -0.020605356
-0.12183649 -0.07182789 -0.074538045 -0.040482473 0.005474088 -0.04530029 -0.019108675 0.00665609
-0.14534472 -0.04477164 0.039117888 0.014044576 -0.0023010317 -0.052427713 0.03212767 0.11894935
-0.08175702 -0.041818034 0.024697049 0.044560138 -0.037140023 -0.0054846816 -0.01570334 -0.0026682788
-0.14975695 0.0891045 0.07686778 0.05016457 -0.022647537 0.002604084 -0.002796536 -0.024184395
-0.12166653 0.02001001 0.07070332 -0.0030188442 -0.15825413 -0.008454461 0.03540906 0.07920185
-0.04571273 0.08350352 0.060758803 0.039041653 -0.072821535 0.005151075 -0.02606926 0.010594274
-0.13729987 -0.0053883553 0.08578803 0.0070085977 0.04134297 -0.05606583 0.07554142 -0.043214366
0.034342498 0.047905665 -0.05637116 -0.050973997 0.035202097 0.055597864 0.008942955 0.09882843
0.018149706 0.03436109 -0.088015504 0.0024201 -0.080120005 -0.05804923 0.018092295 -0.024596157
-0.065315604 0.045997024 0.043157503 0.028780647 0.013353028 0.033162363 0.07912125 -0.009061599
-0.06777346 -0.00882934 -0.062221542 0.0051028 0.013330872 0.0140250875 0.033972956 0.051045153
0.037988223 -0.041125275 0.05081472 0.06769863 0.06803618 0.0012163437 0.06548687 -0.054112144
0.043910976 -0.03291798 0.038915735 0.018667618 -0.003124091 -0.018568777 0.022683432 0.03145628
0.04348329 -0.017814977 0.007815015 0.055238023 -0.0034477739 0.009069749 0.043777563 -0.023069805
-0.019495197 -0.06126203 0.007005565 -0.012364202 -0.046009332 -0.042341102 0.06595427 0.072228305
0.005790502 -0.066321 -0.048017967 0.0588337 0.05528573 0.06356603 -0.056644537 0.024114115
-0.07564006 0.009248194 -0.066902906 0.12058599 0.07132769 0.03997741 -0.0718919 -0.024661362
0.015574736 0.06128954 0.04207125 0.12713005 0.002089686 -0.08449545 -0.02988042 0.035822336
-0.078452125 0.028238932 -0.06147806 0.083076425 -0.09307475 -0.015278951 0.0391622 0.1213791
-0.00051048654 0.054057404 -0.0019741063 0.0464363 -0.03206797 -0.006833622 -0.003305865 0.14580736
0.009040188 -0.08869395 -0.08068356 0.107578635 0.014718598 -0.0003419135 -0.12419389 0.037941303
-0.046447475 0.05155751 0.05040685 0.10924465 0.007537234 -0.08891891 0.040107418 -0.020109948
-0.018138561 0.045454506 0.03450897 -0.019211095 0.061913744 0.019451892 -0.11318139 0.09328082
-0.03199884 0.069525845 0.052793846 -0.013944661 0.05502232 -0.022666287 0.009705755 0.10308635
0.018423118 -0.073897146 0.044297792 0.05171642 0.04481651 0.021899536 -0.051338308 0.10373712
-0.07273123 -0.06922064 -0.005114165 0.090854265 -0.011859961 -0.010889265 0.011040144 0.042795826
-0.008779127 0.044954345 -0.032939408 0.00677001 -0.023210874 -0.012375025 0.09164532 -0.03901508

shared.0.bias f4 [512]
00000000: a402 acbc 1b1b 36bd 26d7 923d 540c 09bd
00000010: 0a2e b53d 0ae3 93bd 8d38 cc3c b3fa c4bc
00000020: 6526 0e3d 9cd8 94bd 0252 343d d8ad 593d
00000030: a576 753d 0fe0 86bd c0ef 8ebd cf81 9b3d
00000040: 8a24 913b eaba 46bc 9723 223d c176 9d3d
00000050: 49ef a7bd 0a75 2ebd 33bc fabc e733 073c
00000060: 4fdd 043c 3a63 a6bd d4b6 8bbd 4c11 973d
00000070: b0aa 74b9 1cfd 173c 85d8 443d 0fb4 bf3d
00000080: d8df ac3d 5aae a0bc 3765 95bb 8649 99bc
00000090: 471f 8e3d 0b98 b0bd 1364 793d 9afe fa3c
000000a0: 0161 103d ec86 b63d f639 8abd dfad a33d
000000b0: 2315 a8bc 5463 55ba 29f1 9cbd 77dd 613b
000000c0: 2b93 6b3d 3a9d 763c 5bee 983d 2ad4 2ebc
000000d0: 22a4 d4bc 390a 2ebd 885c 11bc fd24 833c
000000e0: b3a3 9f3d dd89 74bd 2bad a7bd 572e 7dbd
000000f0: 39f4 103d effd 243d 53b1 cc3c 4b4b 3fbd
00000100: d363 6ebd a3d2 5e3d 07da 2c3b 226c 333d
00000110: 3868 253d d16b 38bd 9246 7fbd afd2 e8bc
00000120: ea3b 12bd 05a6 4f3d 2485 a13d 0ba4 e63c
00000130: 8b7e 49bd e405 9c3d 2ae9 993c ed85 3dbd
00000140: ff32 85bd ba99 b1bd 7067 193d 487a 27bd
00000150: f928 1a3d 0270 3bbd 8650 053c fbac 9fbd
00000160: 7662 d4bc 1a49 983d 7392 9fbd bac1 2bbc
00000170: 5953 a63d 9fd8 68bc cfe0 273d 739c 82bd
00000180: 27cd 8f3d b970 90bd 249f 65bd c69f 07bc
00000190: 144c 8a3c d0b5 833d 0105 a93c 4f95 233d
000001a0: 6d25 883c 7f3b acbd 3b58 77bd 7cb2 58bd
000001b0: bd12 acbd 8490 8d3d d2ea f33c 842c fe3c
000001c0: 61d1 a9bd b080 953d 4b17 31bd f30a 403d
000001d0: 4b5f a73d cd67 143d a20b 5bbc dc61 2a3c
000001e0: 277b 17bd ddfd ad3d 79c5 d7bc f938 9fbd
000001f0: f92d 9cbd 2db1 36bc 3ee5 63bd cb0c b33c
00000200: 0e79 73bd 68bb 28bd 3d6e 1f3d ef5c 7abd
00000210: cd42 af3d 8948 9a3d 30da a8bd 55aa 843d
00000220: 0597 62bb df72 31bd 4656 583d 00a3 a03d
00000230: 04b4 b23d aff9 a83d 0388 3e3d 3271 41bd
00000240: ebf1 ec3c 5b49 49bc cabb 80bc 14c3 08bd
00000250: 8144 e6ba f3b7 73bd 4953 d63c b394 09bd
00000260: 4a5a 6f3d 3182 abbd ac82 573d 6b79 66bd
00000270: f9c7 acbd a521 ac3d 61fb b93d f1a2 7dbc
00000280: 3de5 183c 2347 953c 632f 4cbd c948 babd
00000290: d1f0 6abd 55eb adba 3e60 833d 16a4 a6bd
000002a0: 72f5 b63d 2418 403d 6079 09bd d78d 323d
000002b0: 24df ac3c 46f2 2f3c c342 033d 7b8f 8e3d
000002c0: f55c 9d3d 5b11 29bd fffb b13c dc97 233c
000002d0: 22ed 7dbc a004 d63c 2233 e13c 23c3 7bbd
000002e0: 5d62 18bb 6ee6 3ebd 37ca b63d e4d9 65bc
000002f0: 7927 563c 8bdf 8a3d 2cb1 833c d342 35bd
00000300: a701 f8bc aa18 873c 3bdd 853c bb27 88bd
00000310: 9936 363a be6a c73b ccb5 97bd 4822 683d
00000320: 65d3 e53c c50d 923c 4d65 82bd 16bb 813d
00000330: da10 67bd 92de 97bd d14b 0abd 9f19 9d3d
00000340: 6df7 98bc a195 a3bd a1f3 36bd b2f9 8c3d
00000350: 7237 7a3d a690 62bc d9d5 95bd 0c0e 923d
00000360: a6ec 96bb dcfa 103c 58a0 a3bd 6895 93bc
00000370: 4269 c9bc 8be7 44bd b4f3 7abd 41d9 4dbc
00000380: 78d5 573d 06a0 91bd befb 5abd b5df 42bd
00000390: c104 8c3c 7e22 603c 33d0 95bd 3ee5 763d
000003a0: 7d5c 43bd fc4a 3e3d 61f0 95bd 3d3a 70bd
000003b0: 48c6 b1bd f033 35bc 3a0e bb3d 31e5 993d
000003c0: cc48 34bc bebb 19bc d775 f23a c922 87bd
000003d0: ce43 ac3d 13cd a8bd bef5 5c3c 2d48 393d
000003e0: d70b a1bd 5b65 603d 33ae 833d 7cc1 113d
000003f0: f60e 39bc 1ec9 e4bb d4e6 3abd 2b30 99bb
-0.020997353 -0.044459444 0.071699426 -0.033459023 0.08846672 -0.07221039 0.02492931 -0.024045324
0.034704585 -0.072678775 0.04402352 0.053144306 0.0599276 -0.065857045 -0.069793224 0.075931184
0.0044294046 -0.012129525 0.039584722 0.07688666 -0.08199937 -0.042592086 -0.030607319 0.008252121
0.008109405 -0.08124395 -0.06821981 0.07376346 -0.0002333324 0.009276655 0.04805805 0.09360515
0.08441132 -0.019614387 -0.004559185 -0.018711817 0.069395594 -0.0862275 0.060886454 0.030638982
0.03524876 0.08912453 -0.067493364 0.07992148 -0.020517891 -0.0008140106 -0.07663185 0.0034464279
0.057513397 0.015052134 0.07467338 -0.010670701 -0.02595717 -0.042490218 -0.008872159 0.016008848
0.07794895 -0.05970179 -0.08187326 -0.06181177 0.03538916 0.040281232 0.024986899 -0.046702664
-0.05820067 0.054400098 0.0026375072 0.043804295 0.040382594 -0.045024697 -0.06232316 -0.028420774
-0.03570167 0.050695438 0.07886723 0.028154394 -0.049192946 0.07618311 0.01878794 -0.0462703
-0.06503867 -0.08671899 0.03745216 -0.0408881 0.03763673 -0.045761116 0.008136874 -0.07796665
-0.025925856 0.07435818 -0.07791605 -0.0104832 0.08121366 -0.014211803 0.04098588 -0.063774966
0.070215516 -0.0705275 -0.05605997 -0.008277839 0.01688198 0.06431162 0.020632269 0.039937314
0.016619409 -0.084097855 -0.060386878 -0.05290459 -0.084020115 0.0691233 0.029775057 0.031027086
-0.08291889 0.07299936 -0.043235105 0.046885442 0.081724726 0.036231805 -0.013369473 0.010399308
-0.03698268 0.08495686 -0.02633928 -0.077745385 -0.07625956 -0.01115064 -0.055638544 0.021856686
-0.05944162 -0.04119435 0.03892349 -0.061123785 0.08557663 0.07533366 -0.08244741 0.06477801
-0.0034574878 -0.04332244 0.05281665 0.0784359 0.087257415 0.08250748 0.04651643 -0.047227092
0.02892395 -0.012285556 -0.015714545 -0.033389166 -0.0017568023 -0.0595016 0.02616276 -0.033589076
0.058435716 -0.083744414 0.052614853 -0.056268137 -0.08436579 0.08404855 0.0908115 -0.015480743
0.009331998 0.018222397 -0.04984988 -0.09095914 -0.057358567 -0.0013268987 0.06414841 -0.08136766
0.08933534 0.046898022 -0.033563018 0.0435923 0.021102495 0.010738915 0.03204609 0.069609605
0.07683746 -0.041276317 0.021726606 0.009984937 -0.015498431 0.026125252 0.027490202 -0.061465394
-0.0023251988 -0.046606474 0.08925288 -0.014029 0.013070934 0.06780919 0.016075693 -0.04425318
-0.030274225 0.016491253 0.016340842 -0.06648203 0.00069508847 0.0060857227 -0.07407722 0.05667332
0.028054902 0.017828831 -0.06366978 0.06334512 -0.056412555 -0.07415499 -0.03376371 0.076709025
-0.01867267 -0.07987524 -0.044665936 0.06883563 0.061088033 -0.013828432 -0.07316179 0.071315855
-0.0046058474 0.008848872 -0.079895675 -0.018015578 -0.024586324 -0.04807238 -0.06126757 -0.012564004
0.052693814 -0.071106 -0.053462736 -0.047576625 0.01709211 0.013680099 -0.073151015 0.060277216
-0.047695626 0.04645823 -0.07321239 -0.05864929 -0.08680397 -0.011059746 0.09133573 0.07514418
-0.011003684 -0.00938314 0.0018498254 -0.065984316 0.0841137 -0.0824224 0.013486324 0.045234848
-0.078635864 0.05478416 0.0642971 0.03558491 -0.011295071 -0.006981983 -0.04563029 -0.0046749315

actor.0.weight f4 [2, 512]
00000000: 40a2 893c 2931 e9bc 290e 633d 620d ddbc
00000010: a82d 2e3d 2c78 c3bc a50d c3bc e1c4 023c
00000020: f11a ba3c a4c9 aa3c a613 31bc 6438 d8bc
00000030: bd85 f63c 0089 a93c 624d 463d 5d05 e8bb
00000040: fab9 223d 9e78 de3c d28d 933c b27f ffbc
00000050: bb75 fd3a 5f64 d73c e8a1 4b3b eb12 32bc
00000060: 1317 903b 828b 7cbc 744c 4c3c 0165 9cbc
00000070: c3b9 eebc a350 a4bb 8396 1e3d 501e f83b
00000080: daa7 95bc 1273 883c eaea 903b 0b20 88bc
00000090: bc6e e83c 31f1 eabb e8f0 8b3d 4822 afb9
000000a0: cd02 273d 8974 e6bb 1e0e 04bc 5470 27bd
000000b0: 6432 a1bc ee90 043c 7805 fe3b 669d 81bc
000000c0: aeeb e0bc d132 4d3c 5987 df3b 05dc 413d
000000d0: f5f1 a7bc 3151 ee3c bb43 073d b09d 103b
000000e0: 30ca efbc 1d5b cbbb ac43 963c 6571 c4bc
000000f0: fd42 ad3c 5b60 f4bb 6477 7a3c 3421 913b
00000100: f820 9cbb 1070 bb3c cd86 20bd 69bc d8bb
00000110: 8a52 31bd 415d eebc 74cb 563d 8e1a 203d
00000120: e2a6 a5bc dc81 95bd 5884 083d 448a b63c
00000130: 290a 52bd 0a63 853d dacf 8f3c 1e10 263c
00000140: 1aa6 df3b 77cd 4a3d 9710 89bb cc07 f1bc
00000150: 6798 583d 0f87 9b3c 9684 89bb d6e9 bfbc
00000160: 7519 37bd 4c23 0bbd 370f 113d b128 25bc
00000170: 68d0 a0bc 0e62 433d d95d 0a3d d2ff 983c
00000180: 049c 0bbd aad2 8bbc ab4c e1bc 6ed4 74bc
00000190: a356 513c b6bf 28bd d3d5 2e3d 990f af3b
000001a0: d9ba 3f3d cda4 503d 0374 22bd a4ae 4f3a
000001b0: 8159 3dbd 3181 003d c430 12bc 0de6 2bba
000001c0: d48a cb3b 0d29 f4bc f817 2f3d d127 21bd
000001d0: 5f4d 483d f052 a03c 3da8 fc3c a165 103d
000001e0: 2ce2 033d 99ce b8bc ee01 023d d2ea 89bc
000001f0: 6947 d7bc ce51 39bd 8e38 773b 1788 1cbd
00000200: 967f 1cbd cad8 4c3c 1ab3 5c3d b0e0 58bd
00000210: c89f 1e3d ad6c fd3c 1ef1 4d3b 4193 b23c
00000220: 3596 44bc 9bbd fcbc a8fd 533d 3b53 afbd
00000230: a446 5d3c 01da 4abd 4db5 8b3c b877 febc
00000240: 253c 7bbc 490f 183d de28 a938 ee44 75bb
00000250: 6c83 9b3c d61e 64bd 5826 6dbc 3f1e e63c
00000260: 0dd6 76bc 90f8 29bd 6424 9e3c 4125 0e3d
00000270: 6808 253d 68df 91bc 0f0d 053c fd73 e73c
00000280: a732 edbc f4c3 073d 95ac 94bb af86 203d
00000290: 67de 8d3b 38fc 213d 5b5b abbc 8c96 31bb
000002a0: 3810 c3bc e22b 3ebd 283e 243d 3e92 e5bc
000002b0: fcfd 903c e01c aabc 71ae b4bc 5159 133c
000002c0: 888d 2e3d daca 0c3c 440c 54bc 10b7 d13b
000002d0: 8d89 483c 26a7 413c 25a1 20bc 6e77 21bd
000002e0: 02fb 6dbc c912 99bc 51e7 66bd 0b34 35bb
000002f0: 6bee 0dbd bc3b 893b b2df 6fbb f8f0 14bd
00000300: de6e 5fbd 69e5 3dbd 6e8e 64bc c99e 223d
00000310: fa32 d53b e970 7d3c c95f 843c b0fc b13c
00000320: f814 313d 67b8 c6bb 5139 973c f2c7 ea3c
00000330: 69fd 173d fb98 843d f6b2 023d 441f 57bd
00000340: 22cf 2c3d f0c2 4f3c 4acb f83c 1e4c 8b3c
00000350: 2b4f babb 43f2 68bc bda0 3cbc 0eaf 41bb
00000360: 1163 fb3b ace6 a7bc 2aa7 823d 3bcf 423c
00000370: ce93 d5bc dc52 15bd 644b 103d 807e 7abd
00000380: 6a82 78bc bc89 313c af51 00bc 49b1 cbbc
00000390: cba6 2b3d 1183 a3bd 9093 d0bb 8d4e 5b3b
000003a0: b8bf 2aba 1b81 2f3d 2eba 0bbb b859 37bd
000003b0: 5788 5ebc d328 42bc 9201 8f3d 8728 3abd
000003c0: ec41 b33c 4c25 81bc 8c38 c33c 9fe6 013d
000003d0: a7df de3b d14b 9dbc ca12 a6b9 238f 83bc
000003e0: f175 70bc 7102 fc3c e822 393d 8960 303d
000003f0: 4641 f9bc 1264 26bd e47d 0abc d8e1 153d
0.016801 -0.028465824 0.055433426 -0.02698392 0.04252401 -0.023861013 -0.023810217 0.00798151
0.022717925 0.020848103 -0.010807907 -0.026394077 0.030093068 0.02069521 0.04841364 -0.0070807175
0.039728142 0.027157124 0.018011961 -0.03118882 0.0019337455 0.026292978 0.0031071845 -0.010868768
0.004397282 -0.015414121 0.0124694 -0.019091131 -0.029141312 -0.0050144955 0.038717758 0.007571973
-0.018268514 0.016656432 0.004422535 -0.016616842 0.028373115 -0.0071698655 0.068330586 -0.00033404143
0.040774155 -0.007032935 -0.008060006 -0.04087861 -0.019677348 0.008091195 0.007752117 -0.015822124
-0.02745613 0.012524323 0.0068215546 0.047328968 -0.020501116 0.02909145 0.033023577 0.0022066645
-0.029271215 -0.00620593 0.018342815 -0.023979852 0.021150107 -0.0074577755 0.015287254 0.004429007
-0.0047646724 0.022880584 -0.039191056 -0.006614257 -0.043291606 -0.029097201 0.05244012 0.039087825
-0.020221177 -0.07300159 0.033329338 0.022282727 -0.05127922 0.06513031 0.017555166 0.010135679
0.006825221 0.049512353 -0.004182886 -0.029422663 0.052879717 0.0189853 -0.0041967137 -0.023426931
-0.044702012 -0.03396921 0.0354149 -0.010080502 -0.019630626 0.047700934 0.033780906 0.018676672
-0.034084335 -0.017068226 -0.027502378 -0.014943225 0.012777003 -0.041198455 0.042684387 0.0053424356
0.04680905 0.050938416 -0.03966142 0.0007922447 -0.046227936 0.031373207 -0.008922759 -0.00065574126
0.006211618 -0.02980473 0.042747468 -0.039344613 0.04890191 0.019570798 0.030841941 0.03525317
0.032198116 -0.022559451 0.03174012 -0.016835604 -0.026279168 -0.04524403 0.0037722918 -0.038215723
-0.038207613 0.012502858 0.053881742 -0.052948654 0.038726598 0.03093561 0.0031424235 0.021798732
-0.011998703 -0.03085213 0.051755577 -0.08560797 0.013505612 -0.04952431 0.017054224 -0.031062946
-0.015334164 0.037123952 8.06616e-05 -0.0037425118 0.018983565 -0.05569347 -0.014474474 0.028090594
-0.015065682 -0.041496813 0.019304462 0.034703497 0.04029122 -0.017806724 0.008120789 0.02825355
-0.028954817 0.03314586 -0.004537175 0.039190944 0.004329491 0.039547175 -0.020917585 -0.002709779
-0.023811445 -0.04642857 0.04009834 -0.028023835 0.017699234 -0.020765722 -0.022055836 0.008993463
0.042615443 0.008593285 -0.0129423775 0.0063999966 0.012239826 0.011819636 -0.009804045 -0.039420538
-0.014525177 -0.018685715 -0.056372944 -0.0027649428 -0.0346512 0.004188029 -0.0036601839 -0.03636262
-0.05454909 -0.04636136 -0.0139499735 0.03970221 0.006506321 0.015468814 0.016158955 0.021726936
0.043232888 -0.006064463 0.018459948 0.028659794 0.037106905 0.06474491 0.03190895 -0.05252005
0.042189725 0.012680754 0.030370373 0.017004069 -0.005685707 -0.014217916 -0.011512932 -0.0029553804
0.0076717217 -0.020495735 0.0637954 0.011890228 -0.026071455 -0.036455974 0.035228148 -0.061155796
-0.015167812 0.010836061 -0.007831975 -0.02486481 0.041907113 -0.07983983 -0.006365247 0.0033463568
-0.00065135537 0.042847734 -0.0021320689 -0.044763297 -0.013582311 -0.011850554 0.069827214 -0.045448806
0.02188202 -0.015764855 0.023830675 0.031714078 0.006801564 -0.019201191 -0.00031675986 -0.016059464
-0.014676557 0.030762883 0.045199305 0.043060813 -0.030426633 -0.04062278 -0.008452866 0.036592335

actor.0.bias f4 [2]
00000000: 2ef5 40bd ce5e a6bc
-0.04710882 -0.020308878

critic.0.weight f4 [1, 512]
00000000: 5edc 9fbc e982 1c3c 7984 493c e9b1 473c
00000010: c0a7 2fbc 5886 abb9 8bcf 66bc e707 053d
00000020: 29f8 a83c 1140 a0bc 912c 463c dc56 f1bb
00000030: b8b4 163c d2fb aa3b 49be ddba 332c c13a
00000040: f477 ca3b e449 1dbc 2124 29bc 752c b63b
00000050: a761 fe3b 5e8f 063c 8bb8 18bc ff8d acba
00000060: ec5d b4ba c548 efba bf70 2cbc c1eb 03bc
00000070: 81d6 853c d690 d93b e85a ac3a e6b7 23bc
00000080: 052e b63c 369c 2b3b 3fb2 063c 9f97 ae3c
00000090: c979 f83c 878e c3bc 54c5 893b c59a d5bb
000000a0: fff5 1a3d 6917 303c 4edd 1dbc 7f7b 383b
000000b0: 1897 2c3c 8082 08bc 65ea ab3c a2db 893c
000000c0: a903 f6bb 457a 09bd 26f9 8c3a 6d48 e43c
000000d0: f6cd 673c bcf4 44ba b674 263c a367 793b
000000e0: 6dc1 293c 7a80 11bc a434 a53a 1a53 32bc
000000f0: 2bb0 433c d29c 13ba 7c4d ec3b 6e99 67bc
00000100: bc1c 05bc d319 c1bb d0a3 9c3b 71e0 70bb
00000110: c2a8 d1bc 6c47 903c f813 5bbc 3f66 a93b
00000120: 70e0 613b 4dd8 fbbc 72c8 773c 5b01 823c
00000130: 6c1d 233c 3537 8b3c ac10 65bc f690 c3bc
00000140: a9b6 7cbc 7686 ea3c 597d ce3c ec26 28bb
00000150: 23a4 743c ceb5 a9bc e269 11bc a4c8 073c
00000160: ef81 7a3c bdea 753b 165e 18bc eed8 f43b
00000170: 751a 193c 4598 ecbc 1db4 263b af19 32bc
00000180: 883a 483b 5203 c03b 5d0c a1bc 91f1 013c
00000190: 5faa 283b cfcc 1c3c b4e9 a33c 406d e9bc
000001a0: 025a 09bd 33db 3ebb 8aeb 053d 3218 473c
000001b0: 897c 1cbb a0ab 21bd ff6e 41bb 4962 cc3c
000001c0: 9d49 1d3d 8958 07bc 9ce6 19bc 244f 3f3c
000001d0: caae 90bb 6c23 503b bded acbb 869b 763c
000001e0: 21b9 a53b 2155 8a3c aa0b 9abc 3130 9f3c
000001f0: b41f ac3c ff00 07bc cc38 97bc b0a7 e93b
00000200: 3316 093c 7bc9 7e3c 514f aebb ee25 d43a
00000210: 4cd1 babc 0a89 c9bb 56eb 103d 8a38 68bb
00000220: 444b 26bc ae53 563c 599b 43bc 584d 79bc
00000230: bbd7 c5bb 8e83 c33b 60dc e53b 465a 0c3d
00000240: 7b54 bfbb ddb9 46bc b992 80bc a5c6 493c
00000250: 8911 cdbb 9427 3f3c 5e10 0c3b 2596 d3bb
00000260: 8d22 013b 36f4 ab3a a5eb a2bc 0621 bfbc
00000270: cc93 25ba 8eb0 773c 697c 68bc a0be efbb
00000280: 5954 b33c 2f8a 293c feac c93c 6571 c63b
00000290: 4a54 c7bb 4529 40bc bfb3 e23c f53c 4fbb
000002a0: a47d 673b 7947 c93b e8c6 07bb 1123 c7bb
000002b0: 5f50 fbbc da42 1b3d 6d03 d73b c2c2 9bbc
000002c0: 00b5 f0bb 1a91 993b e5b3 aebc 94bb f13b
000002d0: 7a7b 6abc 0278 f7ba 75a9 dbbb 958e 44bb
000002e0: 8cad 1cbc 7a6f b0bc b3f6 2dbc 108b b1bc
000002f0: fce9 59bc 449b 923b b6ad 1c3c e7f7 a53c
00000300: 20a0 fa39 57de 51bb 2326 3ebc 5cc2 32bc
00000310: 1235 473c 5bdf 103c 41b6 ae3c 59fe 863b
00000320: c254 d1b8 8f34 0b3b d999 1a3c fc47 513c
00000330: decd 9bbc 7f76 803a 9276 49bb 852c 19bc
00000340: 857b 903c 008d 1e3c 11ef 57bc 7cf7 083c
00000350: 4417 6a3b cc07 1d3c b574 7cbc 5017 bc3c
00000360: febc 133a 6518 5ebc f5b6 74bb 9b4f 933a
00000370: 7770 853a 4276 8abb 6c57 4dbc ab3f 0abc
00000380: 818a 86bb d7a4 7fbc eac5 f5ba 2a39 703c
00000390: b322 c43c 91ef a23b 7f0e c83a d9d9 75bb
000003a0: 602b 343c 8010 7abc 3937 44bb cc6b 4dbb
000003b0: e9b8 96bc abcb 26bb 50e7 1c39 33d6 8e39
000003c0: c71f 77bc ef1b fbbc 16bf 11bc 6a61 a13b
000003d0: 8240 63bc 6885 f5bb 0840 52bc 56df 0a3c
000003e0: d5d9 1f3c 40bd 7f3b dfef 4e3b 12c9 d03b
000003f0: 3962 3d3c 4429 f8bb 97dd 0cbd e4a8 be3b
-0.019514259 0.009552696 0.01229965 0.012188413 -0.010721147 -0.00032715756 -0.014087568 0.03247824
0.020626144 -0.0195618 0.012095586 -0.007365091 0.00919836 0.0052180076 -0.0016917671 0.0014737904
0.0061788503 -0.009600136 -0.010323555 0.005559499 0.007763106 0.008212892 -0.009321342 -0.0013164877
-0.0013760901 -0.001825594 -0.010524928 -0.008051814 0.016337635 0.0066395802 0.0013149651 -0.009992575
0.02223874 0.0026185638 0.008221208 0.021312533 0.03033151 -0.023871673 0.0042044315 -0.006518694
0.037832256 0.010747769 -0.009635283 0.0028149781 0.01053407 -0.008331895 0.020985791 0.016828362
-0.0075077605 -0.03356387 0.0010755404 0.027866567 0.014148226 -0.0007513275 0.010159662 0.0038056157
0.010361058 -0.008880729 0.0012604189 -0.010884071 0.011943857 -0.0005630973 0.0072113853 -0.014135702
-0.008124527 -0.005892971 0.00478027 -0.0036754871 -0.025593165 0.017612182 -0.01337146 0.0051696594
0.003446605 -0.030742789 0.0151234735 0.015869787 0.009955745 0.016994098 -0.013981026 -0.023872834
-0.015424409 0.02862857 0.025206255 -0.0025657965 0.014931711 -0.020716574 -0.008875342 0.008287583
0.015289768 0.0037523948 -0.009299776 0.007472149 0.009344687 -0.028881202 0.0025436946 -0.010870381
0.0030552465 0.005859771 -0.019659216 0.007931129 0.0025736315 0.009570315 0.0200089 -0.028494477
-0.033533104 -0.0029122352 0.03269533 0.012151765 -0.002387794 -0.039470315 -0.0029515622 0.02494921
0.03840028 -0.0082608545 -0.0093933605 0.011676583 -0.0044153677 0.0031759394 -0.005277364 0.015051728
0.0050574695 0.016886296 -0.01880439 0.01943216 0.021011211 -0.008239984 -0.0184597 0.0071305856
0.008367109 0.015550966 -0.005319514 0.001618562 -0.022804879 -0.0061503695 0.035380684 -0.003543409
-0.010149781 0.013081474 -0.011938893 -0.015216194 -0.00603768 0.0059666103 0.007014796 0.03426578
-0.0058389283 -0.012129274 -0.015694963 0.012315427 -0.006258194 0.011667151 0.002137206 -0.0064571076
0.0019704432 0.0013119045 -0.019887755 -0.023331176 -0.0006316274 0.0151177775 -0.014189818 -0.0073164254
0.021890806 0.010347887 0.024618622 0.006055998 -0.006083046 -0.011728589 0.0276736 -0.0031622027
0.003532269 0.0061425534 -0.0020717923 -0.0060771783 -0.030677972 0.03790555 0.0065616877 -0.019013766
-0.0073457956 0.004686487 -0.021326015 0.0073770974 -0.014311666 -0.001888037 -0.0067035505 -0.0029992212
-0.009562861 -0.021537531 -0.0106179 -0.021672755 -0.013300415 0.0044740755 0.0095629 0.02025981
0.00047803018 -0.0032023394 -0.011605772 -0.010910597 0.012158649 0.008842315 0.02132714 0.004119676
-9.981684e-05 0.0021241044 0.009436094 0.01277351 -0.019019064 0.000980094 -0.003074084 -0.009348993
0.017637024 0.009677172 -0.0131795565 0.008359786 0.0035719434 0.009584378 -0.0154086845 0.022960335
0.0005635767 -0.013555621 -0.0037340496 0.0011238934 0.0010180612 -0.004225523 -0.01253305 -0.008438031
-0.0041058664 -0.015603266 -0.0018751 0.0146620665 0.023942327 0.004972406 0.0015263109 -0.003751388
0.0109966695 -0.015262723 -0.0029940142 -0.003134477 -0.018398719 -0.0025450985 0.0001496349 0.0002724394
-0.01508326 -0.030652968 -0.008895656 0.0049249427 -0.01387036 -0.00749271 -0.012832649 0.008476099
0.009756525 0.0039022714 0.003157608 0.0063716257 0.011559063 -0.0075732786 -0.034391012 0.005818473
