results/env01/a2c/512-nodecay-new-4000/model.pth (torch, 532879 bytes, 7 tensors)

actor.0.weight f4 [512, 127]
0	0xbd828bcc	-0.063743204
1	0x3d67fa7d	0.05663537
2	0x3dc568ad	0.09639106
3	0x3ca6ab9b	0.0203455
4	0xbd4714bf	-0.04860377
5	0x3d167450	0.036732018
6	0xbd7316df	-0.059347983
7	0x3d8234d1	0.0635773
8	0x3ab69b11	0.0013931711
9	0x3db0d310	0.08634007
10	0xbd150ecc	-0.036391065
11	0xbd8d3ec7	-0.068967395
12	0x3dabd85b	0.08390876
13	0x3d918de7	0.07107144
14	0xbd6ef8a0	-0.058342576
15	0x3d65d24e	0.056108765
16	0x3ca36940	0.019947648
17	0xbc20a2cd	-0.00980444
18	0x3d9fa40b	0.077949606
19	0x3d961231	0.073276885
20	0x3d2d6b93	0.04233892
21	0x3c93e396	0.018052857
22	0xbda2cf39	-0.07949681
23	0x3d16366f	0.036673006
24	0x3bff16c4	0.0077846963
25	0x3cad1f04	0.021132953
26	0x3d14ab98	0.036296457
27	0x3cb1723e	0.02166092
28	0xbd0580dd	-0.032593597
29	0xbdc0cfc3	-0.094146274
30	0x3dabf4ad	0.083962776
31	0x3cc54289	0.024079578
32	0xbd627be0	-0.055293918
33	0xbd97d9b0	-0.074145675
34	0xbd35a212	-0.044344015
35	0xbd5da46f	-0.054111894
36	0xbcd3ace2	-0.025839273
37	0x3a3a3d0a	0.00071044324
38	0xbaabdc87	-0.0013111987
39	0x3cabf525	0.020990917
40	0xbd792363	-0.060824763
41	0xbceb6354	-0.028733887
42	0x3d4c93e4	0.049945727
43	0x3db30b9a	0.08742447
44	0x3ccc8ed6	0.024970453
45	0xbcea4af3	-0.028600192
46	0xbd986e4e	-0.07442914
47	0x3d43f6d5	0.04784282
48	0xbd6b1727	-0.057395127
49	0xbcdc7e51	-0.026915701
50	0x3d3cc4ab	0.046085995
51	0xbb9df0dd	-0.004819973
52	0xbd02b38a	-0.031909503
53	0x3d3abf79	0.04559276
54	0x3d5e2ed0	0.054243863
55	0x3d5d5d1d	0.054043878
56	0x3cd7e13d	0.02635252
57	0x3ca9275a	0.020648647
58	0x3d934703	0.07191279
59	0xbd6e6ee1	-0.05821121
60	0x3cf685d4	0.030093111
61	0x3c798464	0.015229318
62	0x3da53b14	0.08067909
63	0x3d6362b4	0.055514053
64	0xbdab0878	-0.08351225
65	0x3c56e8c8	0.013117023
66	0x3b8fcea6	0.004388648
67	0xbd8b94e3	-0.06815507
68	0x3cf72390	0.030168325
69	0x3da6b34d	0.08139668
70	0xbd26f6c1	-0.040762667
71	0x3cda09c6	0.026615988
72	0x3d03e23a	0.03219817
73	0x3d2547d5	0.040351707
74	0xbc57c14b	-0.013168643
75	0xbd50f76f	-0.05101722
76	0xbd5dbe46	-0.054136537
77	0x3d9c2472	0.07624139
78	0xbd66003c	-0.056152567
79	0xbdad5a50	-0.08464491
80	0x3d764836	0.06012746
81	0xbd438d79	-0.04774234
82	0x3bc6198e	0.006045527
83	0x3d055a5c	0.032556877
84	0xbd5be384	-0.053683773
85	0x3caac435	0.020845512
86	0xbd4753de	-0.048663966
87	0x3d074cc1	0.033032183
88	0x3c96ad0c	0.018393062
89	0x3c6cb2ee	0.014446957
90	0xbcac2d8b	-0.02101781
91	0xbd5d8f89	-0.054091964
92	0xbd4f7b16	-0.050654493
93	0x3d018c03	0.031627666
94	0xbbbb38a9	-0.0057135415
95	0xbdb0abed	-0.08626542
96	0x3dd80346	0.10547499
97	0xbd940688	-0.07227808
98	0xbb115119	-0.0022173582
99	0xbd15dd1b	-0.036587816
100	0x3c32ce82	0.010913493
101	0xbbe945d7	-0.0071189213
102	0x3cb6171f	0.022227822
103	0xbda03e8c	-0.0782443
104	0x3d621c7c	0.055202946
105	0xbd8a9e58	-0.06768483
106	0xbccb55e9	-0.024821239
107	0xbd9c940e	-0.07645427
108	0x3d2e8a3d	0.042612303
109	0x3bba8910	0.0056926087
110	0xbd2c0b9f	-0.04200327
111	0x3d37131f	0.04469597
112	0x3c4af6ae	0.012387915
113	0x3c7cb7a1	0.01542464
114	0xbd8ec88f	-0.06971847
115	0x3bb8569c	0.005625559
116	0x3d09bd99	0.03362808
117	0xbc251720	-0.010076314
118	0x3b265b60	0.0025384054
119	0xbd03d561	-0.032185916
120	0xbd81902e	-0.06326328
121	0xbd2f8802	-0.042854317
122	0x3a5f7ed1	0.0008525672
123	0x3a4dd8c6	0.0007852431
124	0xbcc97136	-0.024590116
125	0x3ca0d065	0.01963062
126	0x3d1abae1	0.037775878
127	0x3c1e239e	0.0096520465
128	0xbcfc2efc	-0.030784123
129	0xbd9075ea	-0.0705374
130	0x3cafa52c	0.021441065
131	0xbd1e4f5b	-0.038649898
132	0x3c44bfa9	0.012008586
133	0xbd4276ba	-0.047476508
134	0xbc3393c2	-0.010960521
135	0x3cdf5349	0.027261393
136	0xbb0c55e9	-0.002141351
137	0x3c6b3c39	0.01435762
138	0x3d076554	0.03305562
139	0xbc8e9c64	-0.017408557
140	0xbdad8f07	-0.08474546
141	0x3b629dc4	0.00345789
142	0x3c4b94c7	0.012425608
143	0x3d15c0ac	0.0365607
144	0x3d272c5c	0.04081379
145	0x3c813b6c	0.015775405
146	0x3d92b27b	0.07162949
147	0x3d118dc8	0.035535604
148	0xbc0fdede	-0.008781163
149	0xbd9d07c8	-0.076675
150	0xbd11156c	-0.03542082
151	0x3b7ac948	0.0038266946
152	0xbd5f02a0	-0.054445863
153	0x3d41d6c4	0.047323957
154	0x3d529630	0.05141276
155	0xbd5df3d8	-0.054187626
156	0x3d3c9ab4	0.046045974
157	0xbd215354	-0.03938611
158	0xbc395e52	-0.011313992
159	0xbd792523	-0.060826432
160	0xbd1b4391	-0.037906233
161	0x3d3ade95	0.045622427
162	0xbce4ed94	-0.027945317
163	0x3d94fd15	0.07274834
164	0xbb23c240	-0.0024987608
165	0xbd68c0f1	-0.05682463
166	0x3d8316cf	0.06400835
167	0xbd059a46	-0.03261783
168	0x3d3f7312	0.0467406
169	0x3b3658f5	0.0027824019
170	0xbd13f7f6	-0.036125146
171	0xbd95beac	-0.073117584
172	0x3d968fb3	0.07351627
173	0x3caa162d	0.020762527
174	0x3d058367	0.03259602
175	0x3cb58bf0	0.022161454
176	0x3d989e90	0.074521184
177	0xbd5e4c21	-0.05427182
178	0x3c8934e4	0.016748853
179	0xbdb3999e	-0.087695345
180	0x3db49161	0.08816791
181	0xbd60951d	-0.054829706
182	0xbd200cdd	-0.039074767
183	0xbc661894	-0.014043946
184	0xbcb9904e	-0.022651818
185	0x3babf243	0.0052473857
186	0x3c864c3e	0.016393777
187	0x3d81e568	0.06342584
188	0x3c0cf1ef	0.008602603
189	0x3c1ce1dc	0.009575333
190	0x3dbac782	0.09120084
191	0xbd8c89ae	-0.06862198
192	0xbdb67a4b	-0.08910044
193	0x3b526e8e	0.0032109353
194	0xbd97b144	-0.074068576
195	0x3caf92b4	0.021432258
196	0xbda6f478	-0.081520975
197	0xbd5a20d9	-0.053253982
198	0x3d603af1	0.05474371
199	0x3cef8db7	0.02924238
200	0x3d85a38d	0.065253355
201	0xbd9ee49b	-0.07758447
202	0x3c9aacb0	0.018881172
203	0xbd174ed8	-0.036940426
204	0x3d00d135	0.031449515
205	0x3d816990	0.063189626
206	0xbd248805	-0.04016878
207	0xbdafc370	-0.085821986
208	0xbcb89ee8	-0.02253671
209	0xbd9565b1	-0.07294787
210	0xbcff8e16	-0.031195682
211	0xbc497296	-0.012295386
212	0xbd2c4449	-0.04205731
213	0x3daa8bb7	0.0832743
214	0xbd0dd020	-0.03462231
215	0xbaf9a3ca	-0.0019046005
216	0x3db1edbe	0.08687924
217	0x3d8321a6	0.06402902
218	0xbda058e2	-0.07829453
219	0xbc42c02d	-0.011886639
220	0xbc26e1b7	-0.010185651
221	0x3bc09f4e	0.0058783656
222	0xbca9a61f	-0.020709096
223	0x3d5619d4	0.052270725
224	0xbd1d10a2	-0.03834594
225	0xbd864f51	-0.06558097
226	0x3cc6ccfd	0.024267668
227	0x3cee3cc8	0.029081717
228	0x3c22c7c2	0.009935321
229	0xbd09fa35	-0.03368588
230	0xbd3fb9a0	-0.046807885
231	0x3d57d965	0.052697558
232	0xbd413a06	-0.047174476
233	0x3bc2ec61	0.0059485887
234	0x3d095925	0.03353228
235	0x3ca4e270	0.020127505
236	0x3cab7636	0.02093039
237	0xbcda03bb	-0.026613107
238	0x3daf2abc	0.08553073
239	0x3cf9ced5	0.030494133
240	0x3d03f039	0.032211516
241	0x3ad7877e	0.0016443578
242	0x3c73b6d7	0.014875135
243	0xbd910176	-0.07080357
244	0xbb1a146a	-0.0023510703
245	0x3d16db46	0.03683021
246	0x3d86efd8	0.06588715
247	0xbd3ce573	-0.046117257
248	0xbd8ca8af	-0.06868111
249	0x3d81f0ef	0.063447826
250	0x3d404283	0.04693843
251	0x3d098675	0.033575494
252	0xbd1dc467	-0.038517382
253	0x3cdc8c5e	0.026922401
254	0xbc1dd375	-0.009632935
255	0x3d45ddc5	0.0483072

actor.0.bias f4 [512]
0	0xbccd0605	-0.025027284
1	0xbc71a78d	-0.01474942
2	0xbd84ce3e	-0.0648465
3	0xbd8fc304	-0.07019618
4	0x3d0ecdec	0.03486435
5	0xbd25a911	-0.040444437
6	0x3c953472	0.018213484
7	0xbdb9763e	-0.09055756
8	0xbcdb06fe	-0.026736733
9	0xbd3b23b9	-0.045688365
10	0xbc0b4d3a	-0.008502299
11	0x3c88b034	0.016685583
12	0x3cd43ff5	0.025909403
13	0x3d171551	0.036885563
14	0xbd0c22c0	-0.034212828
15	0x3c3d17f7	0.011541358
16	0x3a1e6391	0.0006042058
17	0xbab4cba8	-0.0013793604
18	0x3d4ca069	0.049957667
19	0x3d33607b	0.043793183
20	0x3d53a8a1	0.05167449
21	0x3b456b84	0.0030123899
22	0x3c87049a	0.016481686
23	0xbd2a955f	-0.041646358
24	0x3bc3321f	0.0059569026
25	0xbcf9dbaf	-0.030500261
26	0x3da4b4ea	0.08042319
27	0x3d7919c8	0.060815603
28	0xbdacab7d	-0.08431146
29	0x3d67d59d	0.056600202
30	0x3da9af9f	0.0828545
31	0xbdbf738f	-0.09348213
32	0x3cfc5632	0.03080282
33	0x3d8d989c	0.069138736
34	0x3cdc808c	0.026916765
35	0xbd5f0234	-0.05444546
36	0xbad74f84	-0.0016426896
37	0x3d1afd85	0.03783943
38	0xbd4937e6	-0.049125575
39	0x3dae0112	0.08496298
40	0x3c9892d2	0.018624697
41	0x3c941bf5	0.018079737
42	0xbd1cab58	-0.038249344
43	0x3da39e7a	0.079892114
44	0xbdb4ac06	-0.08821873
45	0xbc402b70	-0.011729106
46	0x3d46b5e9	0.048513327
47	0xbd9ac2db	-0.07556697
48	0x3d8057bc	0.06266734
49	0xba16ce67	-0.0005752802
50	0xbd73a289	-0.059481177
51	0xbd3db0bb	-0.04631112
52	0x3d278941	0.04090238
53	0x3d22492f	0.039620575
54	0x3d9a8f10	0.07546818
55	0xbd6dfcd4	-0.058102444
56	0xbd6f6fd7	-0.05845627
57	0x3d058642	0.03259874
58	0xbd1f9743	-0.038962614
59	0x3d5c03fd	0.05371474
60	0x3c61c0ab	0.013778846
61	0x3d7d2ebf	0.06181216
62	0x3c5e9e0c	0.013587486
63	0x3ccbd07e	0.02487969
64	0xbd8ff448	-0.07029015
65	0xbdb18001	-0.08666993
66	0x3c25169c	0.010076191
67	0xbd012f82	-0.031539448
68	0x3c163d27	0.009169853
69	0x3ce13693	0.027491843
70	0xbce6c0b0	-0.028168052
71	0x3d3e2cfd	0.046429623
72	0xbd28dfd1	-0.041229073
73	0x3dba2a73	0.09090128
74	0x3d15a570	0.036534727
75	0x3d59a3e2	0.053134806
76	0x3d4ec5cd	0.050481606
77	0xbd5f1cca	-0.054470815
78	0xbccfaad0	-0.025350004
79	0x3d937d33	0.07201614
80	0xbd759bff	-0.059963223
81	0x3da59a7e	0.08086108
82	0x3d9841f5	0.07434455
83	0xbd9817f2	-0.07426442
84	0x3d814c38	0.06313366
85	0xbd103c96	-0.03521403
86	0xbd22423e	-0.039613955
87	0xbd4ef647	-0.050527837
88	0x3d6864bf	0.056736704
89	0xbb7e262f	-0.0038780083
90	0xbd544a21	-0.051828507
91	0x3d459a94	0.04824312
92	0x3c7fbc09	0.015608796
93	0xbda56e3a	-0.08077665
94	0xbdb5cf93	-0.08877482
95	0x3d3bd19c	0.045854196
96	0xbd190696	-0.037359796
97	0xbcea19b4	-0.02857671
98	0xbcbf4260	-0.02334708
99	0x3d9c70ea	0.07638724
100	0xbd4fb3a5	-0.05070843
101	0xbcc6036c	-0.024171554
102	0xbd7d4651	-0.061834637
103	0x3db5f6b8	0.088849485
104	0xbd9adbb7	-0.075614385
105	0x3b0c9c5b	0.00214555
106	0xbbdc5eb4	-0.0067251567
107	0xbcebf240	-0.028802037
108	0x3d9e8c47	0.077415995
109	0x3dbb0d92	0.09133448
110	0xbd8ef51e	-0.06980346
111	0xbcba8fb8	-0.022773609
112	0x3cd6b069	0.026207166
113	0x3bab9343	0.005236061
114	0x3cc51d5a	0.024061847
115	0xbd9e0796	-0.07716291
116	0x3d35ca81	0.044382576
117	0x3d9b4635	0.0758175
118	0x3cacd503	0.021097666
119	0xbd644095	-0.055725653
120	0x3d99c4bd	0.07508228
121	0xbcc9d0e6	-0.024635743
122	0xbd6061f9	-0.054780934
123	0x3d9848f7	0.07435792
124	0xbd06c292	-0.0329004
125	0xbda42f8e	-0.08016883
126	0xbd8f0076	-0.0698251
127	0x3cd3cf48	0.025855675
128	0x3c507cdf	0.012725084
129	0xbda70bf3	-0.08156576
130	0x3d252e3d	0.0403273
131	0x3b9a5ae8	0.004710544
132	0x3c1c5641	0.009542049
133	0xbda775b1	-0.08176745
134	0xbda57a1f	-0.080799334
135	0x3da4ecbd	0.08052967
136	0xbd55b825	-0.052177567
137	0x3d2b44cd	0.04181366
138	0xbce16f99	-0.027519034
139	0xbca4b4ea	-0.020105798
140	0xbd45ed1e	-0.048321836
141	0xbda7ab67	-0.08186989
142	0x3d1953f7	0.03743359
143	0x3d95bfee	0.07311998
144	0x3d1f245e	0.03885304
145	0x3b725ddb	0.0036982212
146	0xbd8490e1	-0.06472946
147	0xbd206ff3	-0.039169263
148	0xbc381afc	-0.011236902
149	0xbcb2227d	-0.02174496
150	0xbc826bd5	-0.015920559
151	0x3b7cc6d7	0.0038570666
152	0xbdaeae69	-0.0852936
153	0xbd63a947	-0.055581357
154	0x3c510ba1	0.01275912
155	0xbc2d5c09	-0.010581025
156	0xbb010017	-0.0019683891
157	0xbab45b55	-0.0013760129
158	0x3a4af409	0.00077420525
159	0xbba09467	-0.0049005034
160	0xbd117bee	-0.03551858
161	0xbd41fa65	-0.047357935
162	0x3ac77f66	0.0015220463
163	0xbdafa2d8	-0.08575982
164	0x3db4f24d	0.08835278
165	0x3d908cc7	0.07058101
166	0xbb63eb47	-0.0034777687
167	0x3da9b306	0.08286099
168	0xbdab5e74	-0.08367625
169	0x3dbbb479	0.09165282
170	0x3cc2323f	0.0237056
171	0x3da947f5	0.08265678
172	0x3cf84f63	0.030311292
173	0x3bad4965	0.0052882903
174	0x3cac895d	0.021061594
175	0x3c484624	0.012223754
176	0xbd6ecd7f	-0.058301445
177	0xbd3d31a8	-0.046189934
178	0x3dbb7170	0.09152496
179	0xbc83774f	-0.016048102
180	0x3d2d405f	0.042297717
181	0x3da44c1b	0.080223285
182	0xbd4251e4	-0.04744138
183	0xbda945d6	-0.08265273
184	0x3d57258e	0.05252605
185	0x3d623604	0.055227295
186	0xbcb05cce	-0.021528628
187	0x3c7f165e	0.015569298
188	0xbcde57d0	-0.027141482
189	0x3d80bcd5	0.06286017
190	0xbd9e6eb8	-0.07735962
191	0x3d3d6cdc	0.046246395
192	0xbd89abbb	-0.06722208
193	0x3d0c0ea4	0.03419365
194	0x3bc4487b	0.0059900857
195	0xbd4f708f	-0.050644454
196	0xbcb8f1c4	-0.02257622
197	0xbc4d67b0	-0.012536928
198	0x3c4bef27	0.012447155
199	0x3d3ff260	0.046862006
200	0xbd96e7e4	-0.073684484
201	0x3ce4f37a	0.02794813
202	0xbba2cba2	-0.0049681226
203	0x3c92f763	0.017940229
204	0xbd54b4bb	-0.05193017
205	0xbd80e89f	-0.06294369
206	0xbd5dae4c	-0.0541213
207	0xba407d6a	-0.0007342907
208	0x3d7b6a76	0.061380826
209	0x3cdb9986	0.026806604
210	0x3d908be3	0.07057931
211	0x3d4297fb	0.04750822
212	0xbaabbe61	-0.0013103002
213	0xbd8d1f89	-0.068907805
214	0xbcc3d024	-0.02390296
215	0xbd74a7a9	-0.059730206
216	0xbd746e88	-0.059675723
217	0xbd9d29f7	-0.0767402
218	0x3ca497f2	0.020091984
219	0x3d3be74c	0.04587488
220	0xbce46ff5	-0.027885417
221	0x3cb6fe78	0.022338137
222	0xbc41be7c	-0.0118252
223	0x3cd6c7c0	0.026218295
224	0xbdb1de82	-0.08685018
225	0xbd7af7ea	-0.061271586
226	0xbd1a264e	-0.037634186
227	0xbd713572	-0.05888886
228	0x3c67c5da	0.014146293
229	0xbd89fcae	-0.06737648
230	0x3a40d20a	0.0007355517
231	0xbcfe8821	-0.03107077
232	0x3d966521	0.073435076
233	0x3c812bd1	0.015767964
234	0x3c8cd4a0	0.017191231
235	0x3daea656	0.0852782
236	0xbd91c64f	-0.071179025
237	0x3cb75d52	0.022383366
238	0xbd5af5f4	-0.053457215
239	0x3ca124ad	0.019670809
240	0x3d4a6825	0.049415726
241	0x3dae659c	0.08515474
242	0x3d2838ce	0.0410698
243	0xbd8768fc	-0.06611821
244	0x3d6584ff	0.056035038
245	0x3cf2490b	0.029575845
246	0xbd71b8b1	-0.059014026
247	0x3d9d0e81	0.07668782
248	0x3d2e67f5	0.04257961
249	0xbc2893ea	-0.010289172
250	0x3c61a547	0.013772315
251	0x3d973b0d	0.0738431
252	0x3d78a8f9	0.06070802
253	0xbd9ed68a	-0.07755764
254	0x3dc8ab96	0.097983524
255	0xbaa469d9	-0.0012543752

actor.2.weight f4 [2, 512]
0	0x3cd10091	0.025512965
1	0x3cf42e55	0.02980725
2	0xbcbaf8c8	-0.022823706
3	0x3d24cc2a	0.04023377
4	0x3c53f299	0.012936258
5	0x3be55e4d	0.006999767
6	0x3c81cd5c	0.015844993
7	0x3d1a8c83	0.03773166
8	0x3cdbeb5f	0.026845632
9	0x3d5078ba	0.050896384
10	0xbbb08a31	-0.0053875674
11	0xbc1320db	-0.008980001
12	0xbcb66c96	-0.022268575
13	0x3c857c1a	0.016294528
14	0x3d06ddb6	0.032926284
15	0xbc683c86	-0.014174586
16	0xbd288be0	-0.04114902
17	0x3c05d708	0.008168943
18	0x3c2e9142	0.010654749
19	0x3c8b7fbe	0.017028686
20	0xbccdc927	-0.025120331
21	0x3c0d8ade	0.008639066
22	0xbcae0c7e	-0.021246191
23	0x3d49d776	0.049277745
24	0xbca5fc61	-0.020261945
25	0x3c485c76	0.012229076
26	0x3c5a1f29	0.013313093
27	0x3d389bf6	0.04507061
28	0x3cefe554	0.029284157
29	0xbc8c22e6	-0.017106485
30	0xbbb278f1	-0.0054465462
31	0xbc6cbf58	-0.014449917
32	0xbc896a85	-0.016774425
33	0xbcc6bf02	-0.024261001
34	0xbd0e5152	-0.03474552
35	0xbd8960d9	-0.06707925
36	0x3c3abe26	0.011397874
37	0xbcd6394b	-0.026150366
38	0xbc924c9e	-0.0178588
39	0xbc5fb621	-0.013654263
40	0x3bc50063	0.006012009
41	0xbbc046a8	-0.005867798
42	0xbd3aa190	-0.045564234
43	0x3d004012	0.031311102
44	0x3d2173b5	0.039416987
45	0x3d0431d6	0.03227409
46	0x3b44d8db	0.0030036482
47	0x3d1a598c	0.037683055
48	0xbcd0f298	-0.025506303
49	0xbcfcfe08	-0.03088285
50	0x3bb37efa	0.0054777833
51	0x3d3939bd	0.04522108
52	0x3d0119b3	0.03151865
53	0x3d4f0c0b	0.050548594
54	0xbbd0bae6	-0.0063699363
55	0xbcc8ce07	-0.024512304
56	0x3d426bd8	0.04746613
57	0x3ca00e75	0.019538144
58	0x3c82603a	0.015915025
59	0xbd0988b2	-0.03357763
60	0xbcc28014	-0.023742713
61	0x3ac3362e	0.0014893466
62	0xbc0741a6	-0.008255398
63	0x3b253582	0.0025208895
64	0x3d1da915	0.038491327
65	0x3d01c879	0.031685326
66	0xbbdbc818	-0.0067072026
67	0xbd03ad7f	-0.03214788
68	0x3d64f714	0.055899695
69	0x3c940e1e	0.018073138
70	0x3c5253b8	0.012837343
71	0xbc6bb331	-0.014385984
72	0x3cbff524	0.023432322
73	0xbd3693a3	-0.04457439
74	0x3ca5c5f6	0.020235997
75	0xbcd220ed	-0.025650466
76	0x3be820ee	0.0070840036
77	0xbcce6bee	-0.02519795
78	0x3cce28e5	0.025165984
79	0x3d07d63a	0.033163287
80	0x3cbbc5f8	0.022921547
81	0xbbddd676	-0.0067699505
82	0x3d6bb837	0.057548728
83	0x3d2280c7	0.039673593
84	0x389a1b8c	7.348423e-05
85	0x39a7c884	0.00032002118
86	0xbcc68c8d	-0.024236942
87	0x3c51e84f	0.012811734
88	0x3d109e0e	0.035306983
89	0x3c1fa99e	0.00974503
90	0x3d1b9ac8	0.037989408
91	0xbd250e99	-0.040297125
92	0x3d2432c4	0.040087476
93	0x3d087a11	0.033319537
94	0xbd316a10	-0.04331404
95	0xbcd1ee1c	-0.025626235
96	0x3d0f48c5	0.034981508
97	0x3a5817a1	0.0008243267
98	0xbccdd34e	-0.025125172
99	0xbcf035d3	-0.02932254
100	0x3d425b56	0.047450386
101	0xbc94ccb5	-0.018164018
102	0xbd0a0343	-0.033694517
103	0x3c1428f8	0.009042971
104	0x3cc41b84	0.023938902
105	0x3a9a80eb	0.0011787688
106	0x3cbbcf01	0.022925856
107	0xbd3a6fc6	-0.04551675
108	0xbd49df96	-0.049285494
109	0x3d83ba77	0.0643205
110	0x3cf778f7	0.030209048
111	0x3b935592	0.0044962848
112	0x3d1ff02e	0.039047413
113	0x3a321ba5	0.00067942805
114	0x3d01d178	0.031693906
115	0xbd5b49e5	-0.05353727
116	0x3cd11eb3	0.025527334
117	0x3bb18249	0.0054171425
118	0x3c3b70b5	0.011440446
119	0xbb97b7a3	-0.0046300455
120	0xbac6cd36	-0.0015167359
121	0x3cb95411	0.022623094
122	0xbd07dca1	-0.033169392
123	0x3c414a6e	0.011797531
124	0xbcdb7e5b	-0.02679365
125	0xbd52fdc1	-0.05151153
126	0x3cd25d14	0.025679149
127	0x3cc74faf	0.024329988
128	0xbbb475f1	-0.005507224
129	0x3aa09617	0.0012251762
130	0x3cd4c962	0.025974933
131	0xbd70fd72	-0.058835454
132	0xbd58b151	-0.052903477
133	0x3b8e4061	0.0043411707
134	0x3d0b6408	0.034030944
135	0xbce5c05d	-0.028045828
136	0xbd172cae	-0.036907844
137	0xbd0f8d0e	-0.03504663
138	0x3d72c2a3	0.05926765
139	0xbccae664	-0.024768062
140	0x3d65b21c	0.05607806
141	0x3d021f48	0.031768113
142	0xbd2e251f	-0.04251587
143	0xbcbd36f3	-0.02309749
144	0x3c99097e	0.018681284
145	0x3c6a5e1a	0.014304662
146	0x3cd402cd	0.025880242
147	0x3ca35fde	0.019943174
148	0x3ccc20e6	0.024918031
149	0xbc52e328	-0.012871541
150	0xbd28a90a	-0.041176833
151	0x3cd7fab0	0.026364654
152	0x3b95ad59	0.004567784
153	0xbc44ba9e	-0.012007384
154	0xbd10aba0	-0.035319924
155	0x3d2df656	0.042471252
156	0xbd2a30dc	-0.041550502
157	0x3d64bcea	0.055844225
158	0xbbc0f901	-0.0058890586
159	0xbc906c37	-0.017629726
160	0x3c966cc8	0.018362418
161	0xbd033855	-0.032036144
162	0xb99a0808	-0.00029379153
163	0x3bc649ee	0.0060512936
164	0x3d184316	0.037173353
165	0x3d6b54e7	0.057454016
166	0x3c81fd69	0.015867906
167	0x3d4740cf	0.04864579
168	0xbc85681a	-0.016284991
169	0xbd9d5090	-0.07681382
170	0xbd3207c0	-0.043464422
171	0xbd322c5c	-0.043499336
172	0xbd04d200	-0.032426834
173	0x3d2ccbd5	0.042186577
174	0x3d6424c7	0.055699136
175	0x3c8e48aa	0.017368633
176	0xbd46bef3	-0.048521947
177	0xbcb181e0	-0.021668375
178	0xbceff2fb	-0.029290667
179	0xbc8bb237	-0.017052753
180	0xbd77bae5	-0.06048097
181	0xbd4bba06	-0.049737953
182	0xbd41e891	-0.047340933
183	0x3d42f1f5	0.04759403
184	0x3d40427c	0.046938404
185	0xbcd8480a	-0.026401538
186	0xbd0cc0c0	-0.03436351
187	0x3c6e3d56	0.014540991
188	0x3a242f0b	0.00062631135
189	0x3d05f4e1	0.032704238
190	0x3d17c855	0.037056286
191	0x3d054127	0.032532837
192	0xbd44fe65	-0.048094172
193	0x3d2bdda9	0.04195944
194	0x3c953513	0.018213784
195	0x3c68e774	0.014215339
196	0x36f2e32f	7.2386097e-06
197	0xbbd9e9dc	-0.0066501927
198	0x3cf4b242	0.029870156
199	0x3d0d7b41	0.034541372
200	0xbcd925de	-0.026507314
201	0x3d3d4223	0.04620565
202	0x3bf0182b	0.0073271
203	0x3c8eb9d1	0.017422589
204	0x3d12cd19	0.035840128
205	0x3b9c57d7	0.0047712135
206	0x3d1a6151	0.037690464
207	0xbd0ff4e7	-0.035145666
208	0x3d6919a0	0.056909204
209	0xbc908fdd	-0.017646724
210	0x3c670e9f	0.014102607
211	0xbbccff6e	-0.0062560355
212	0xbc3a3ec5	-0.0113675045
213	0x3cfe7bd5	0.031064907
214	0xbdab46f7	-0.08363145
215	0xb9ec4017	-0.00045061178
216	0xbc0d6332	-0.008629607
217	0x3c724060	0.014785856
218	0xbc6f5f06	-0.014610058
219	0x3cdc24d5	0.026873032
220	0x3c171f74	0.009223808
221	0xbbe35bb7	-0.0069384235
222	0xbcb4390e	-0.021999862
223	0xbc990a08	-0.018681541
224	0xbd00548c	-0.03133063
225	0x3d776fca	0.060409345
226	0x3c49898c	0.01230086
227	0x3d845768	0.06461984
228	0x3bb0e24c	0.0053980704
229	0xbd3aa6ea	-0.045569338
230	0x3cbc6413	0.022996938
231	0x3d0a1c58	0.033718437
232	0x3d5215e8	0.051290423
233	0xbd536723	-0.05161203
234	0x3cea3e42	0.02859414
235	0xbd3225f3	-0.043493222
236	0x3cfc58d5	0.030804077
237	0xbbc9ce44	-0.006158622
238	0xbd1f9ed9	-0.03896985
239	0xbd5abbe3	-0.05340184
240	0x3d6eda15	0.058313448
241	0x3bc6b10e	0.006063587
242	0x3b126353	0.0022337034
243	0xbcc679a0	-0.024227917
244	0xbd5d6c30	-0.054058254
245	0x3d084a78	0.033274144
246	0x3c053c2b	0.008132021
247	0xbcad802f	-0.021179287
248	0xbaa796bc	-0.0012786011
249	0x3d1999b2	0.03750009
250	0xbd4afc2f	-0.049556907
251	0xbcdf81ca	-0.027283568
252	0xbc46696a	-0.012110094
253	0xbc0ceffe	-0.0086021405
254	0xbd35d473	-0.04439206
255	0xbccc29ac	-0.024922214

actor.2.bias f4 [2]
0	0xbc8f765e	-0.017512497
1	0x3d2a519c	0.041581735

critic.0.weight f4 [512, 127]
0	0xbd4d8993	-0.05018003
1	0x3b8c500d	0.0042820037
2	0xbce5af29	-0.028037624
3	0xbd25da9f	-0.040491696
4	0x3be3e96c	0.0069553163
5	0x3d544f02	0.05183316
6	0x3c5b8193	0.013397592
7	0x3d1434d4	0.036183193
8	0x3da1756a	0.07883723
9	0xbb4f7cab	-0.0031660001
10	0xbc2c2c48	-0.010508604
11	0x3d7f7c13	0.062374186
12	0xbc1ae470	-0.009453878
13	0x3c01af3d	0.007915315
14	0x3d2982a1	0.041384343
15	0x3d9c8138	0.07641834
16	0xbcde3772	-0.027126048
17	0xbdc7ae6a	-0.09750064
18	0x3d3e0ca0	0.04639876
19	0x3d889828	0.066696465
20	0x3ba1ec87	0.0049415263
21	0xbcb25a4b	-0.02177157
22	0xbd32f087	-0.043686416
23	0x3de6d97a	0.11271949
24	0x3dfa6e6a	0.12228091
25	0xbc1c24c6	-0.009530252
26	0x3d1a18f1	0.037621442
27	0xbd3a84ed	-0.045536924
28	0xbe0cf893	-0.13766699
29	0x3d1d5567	0.038411524
30	0x3d8e6539	0.069529004
31	0xbc86a560	-0.016436279
32	0x3e0385ff	0.12844084
33	0xbd8f229b	-0.06989022
34	0xbcc16f6c	-0.0236127
35	0x3d91d766	0.07121162
36	0xbdc78ec7	-0.097440295
37	0x3d79957f	0.060933586
38	0x3d91893c	0.071062535
39	0xbd1e9103	-0.038712513
40	0x3df80acd	0.12111435
41	0xbc5c35a2	-0.013440521
42	0x3ba6cefb	0.005090592
43	0xbc3b686c	-0.01143847
44	0x3d53773f	0.051627394
45	0xbd36c952	-0.044625588
46	0x3d883322	0.06650378
47	0x3d724a5f	0.059152957
48	0x3e1fa0ea	0.15588728
49	0xbd889b69	-0.06670267
50	0x3d6302ee	0.055422716
51	0x3c791dad	0.015204829
52	0x3d9fe792	0.078078404
53	0xbd836965	-0.06416587
54	0xbd9efca2	-0.0776303
55	0xbc07b9a6	-0.008284008
56	0x3c694a81	0.0142389545
57	0x3b56ab8a	0.0032756054
58	0x3ca35f44	0.019942887
59	0xbd89811e	-0.0671408
60	0xbd0b2b64	-0.033976927
61	0x3dbdcc2b	0.092674576
62	0xbd1de898	-0.038551897
63	0x3cd99321	0.026559414
64	0x3d466001	0.0484314
65	0xbd456068	-0.048187643
66	0xbd3e374a	-0.046439447
67	0xbdba7b91	-0.091056
68	0x3daceeac	0.084439605
69	0xbbc816d2	-0.006106236
70	0xbd267e05	-0.040647525
71	0xbdad7289	-0.084691115
72	0x3d63a649	0.055578504
73	0xbdb1430c	-0.08655366
74	0xbcfb5c77	-0.03068374
75	0xbd143f6f	-0.036193307
76	0xbcb004b3	-0.021486616
77	0x3dca0178	0.098635614
78	0x3d997bd7	0.07494324
79	0xbb86fe17	-0.0041196453
80	0x3e09fc68	0.13475192
81	0x3d665977	0.056237664
82	0xbc8a2031	-0.016861053
83	0xbdd4255a	-0.10358687
84	0x3db97429	0.09055359
85	0x3d5b974f	0.053611096
86	0xbcca9a6c	-0.024731837
87	0x3d27d42a	0.04097382
88	0x3c4e6bdf	0.012598961
89	0xbc15445e	-0.009110538
90	0xbd118485	-0.03552677
91	0xbdc3983b	-0.0955052
92	0x3b9cb7f7	0.0047826725
93	0x3d6f547b	0.058430176
94	0x3d87c1f3	0.0662879
95	0x3dad14de	0.08451246
96	0x3da91f97	0.082579784
97	0x3b903dd1	0.0044019003
98	0xbca9d6d5	-0.020732323
99	0x3c9539ae	0.01821598
100	0x3d9f5268	0.077793896
101	0xbce03730	-0.027370065
102	0xbd01eab2	-0.031717964
103	0xbd603d78	-0.05474612
104	0x3c83775c	0.016048126
105	0x3d32e603	0.043676388
106	0xb8b08885	-8.417763e-05
107	0xbdb56739	-0.08857579
108	0x3d0c77ba	0.034293868
109	0xbd992747	-0.07478195
110	0x3d0ee876	0.03488966
111	0x3d85da4e	0.06535779
112	0x3d6593e7	0.056049254
113	0xbd390363	-0.045169245
114	0x3c76cd04	0.015063528
115	0xbd9de245	-0.07709173
116	0x3d337168	0.043809325
117	0x3da33463	0.07968976
118	0xbc7d6c96	-0.015467783
119	0xbd68aa9f	-0.056803342
120	0xbaa91c71	-0.0012902153
121	0xbd33620e	-0.043794684
122	0x3d6f448f	0.058414992
123	0x3ab46768	0.0013763728
124	0x3de628c2	0.11238243
125	0xbd578839	-0.052620146
126	0x3b9ada98	0.0047257654
127	0xbd2193f2	-0.039447732
128	0x3caddaf7	0.021222575
129	0xbd39e42e	-0.045383625
130	0x3d78f6f5	0.06078239
131	0x3b9e9993	0.004840085
132	0xbd9f80aa	-0.077882126
133	0x3d13ac33	0.036052894
134	0x3d338d70	0.043836057
135	0xbc585e7f	-0.013206123
136	0x3cf91780	0.030406713
137	0x3bc13a42	0.0058968375
138	0x3c793561	0.01521048
139	0xbd7d7adc	-0.061884746
140	0x3d43cb5f	0.04780137
141	0xbce294c1	-0.027658822
142	0xbc1047d4	-0.008806188
143	0x3cca1874	0.024669863
144	0xbc619a24	-0.01376966
145	0x3d2b12f4	0.041766122
146	0x3dd6cc1a	0.10488148
147	0x3dfccb55	0.1234347
148	0xbd72861e	-0.059209935
149	0xbd26632f	-0.040621933
150	0x3d121aa1	0.035669927
151	0x3dacd97c	0.08439919
152	0xbd9551a9	-0.07290966
153	0xbd47ed54	-0.048810318
154	0xbce8caec	-0.028417073
155	0x3d1dd46f	0.03853267
156	0xbca90683	-0.020632988
157	0xbbc6fba8	-0.00607248
158	0x3c1dc98c	0.009630572
159	0xbcec2697	-0.028826995
160	0xbd08c665	-0.03339233
161	0x3dc605b3	0.09669056
162	0x3df2fd6f	0.11864745
163	0x3dee1715	0.11625496
164	0xbd86000e	-0.06542979
165	0xbd1264dc	-0.03574072
166	0x3d71c8ab	0.059029263
167	0x3c49346b	0.012280564
168	0xbd8fd0dd	-0.070222594
169	0x3d937ec0	0.0720191
170	0x3a2d1adb	0.0006603428
171	0xbcf5fd45	-0.030027995
172	0xbd82a4b8	-0.06379074
173	0x3c50317c	0.0127071105
174	0x3bf8285b	0.00757317
175	0xbd24539d	-0.040118802
176	0xbcaf3eb6	-0.021392208
177	0x3d3fdaf6	0.046839677
178	0x3d81d5e1	0.06339622
179	0x3df1310f	0.11776935
180	0x3ba918a3	0.0051604076
181	0xbb52c68c	-0.00321618
182	0xbd7cb4ad	-0.061695743
183	0xbbf0a918	-0.0073443763
184	0x3b84817f	0.0040437574
185	0x3c760ffa	0.015018458
186	0x3d76082e	0.060066395
187	0x3d4d79ed	0.050165106
188	0xbd1cff6c	-0.038329527
189	0xbd64d1e7	-0.05586424
190	0xbd88e6c4	-0.0668464
191	0x3d0abb49	0.033870015
192	0x3d88e167	0.06683617
193	0x3dadd18f	0.08487236
194	0xbe0e36bb	-0.13888066
195	0x3e0fb75b	0.14034788
196	0x3da48fcd	0.0803524
197	0xbc748ddd	-0.014926401
198	0xbe0d37b9	-0.13790788
199	0x3d379492	0.044819422
200	0xbd807248	-0.062717974
201	0xbcc4a4bb	-0.02400433
202	0xbd93e19e	-0.072207674
203	0x3d1bc895	0.038033087
204	0xbc2289c6	-0.009920543
205	0x3c747d94	0.014922518
206	0xbe0e9d52	-0.139272
207	0x3e10fbd7	0.1415857
208	0x3dc6eaa7	0.09712725
209	0x3c95b1c8	0.01827325
210	0x3d112a7d	0.03544091
211	0x3e3104cb	0.17286985
212	0x3da2cb19	0.07948894
213	0x3cdf40a7	0.027252508
214	0x3c958197	0.01825027
215	0x3d61b3e1	0.055103187
216	0xbcef8bde	-0.029241499
217	0x3d9769c4	0.0739322
218	0xbdd8e065	-0.10589675
219	0x3c777d99	0.015105628
220	0xbda54566	-0.08069877
221	0xbd66e3a5	-0.056369442
222	0xbca3e997	-0.020008845
223	0xbcad2923	-0.02113778
224	0xbd162616	-0.036657415
225	0xbd8b4bec	-0.0680159
226	0xbdd67950	-0.10472357
227	0x3df56ba6	0.11983423
228	0xbd839e59	-0.06426687
229	0x3d842448	0.064522326
230	0xbe0ae74d	-0.13564797
231	0x3dc8a3d8	0.09796876
232	0x3c1416fc	0.009038683
233	0xbd0e7685	-0.034780998
234	0xbe11a380	-0.14222527
235	0x3df8c7c2	0.12147476
236	0x3db6e0f8	0.08929628
237	0x3cff5694	0.031169213
238	0xbc126dbd	-0.008937296
239	0x3de8e8bd	0.11372516
240	0x3d44fa62	0.048090346
241	0xbd511374	-0.051043943
242	0xbdc8b0cf	-0.097993486
243	0x3e0a9d05	0.1353646
244	0x3d49fae6	0.04931154
245	0x3c2515ae	0.01007597
246	0x3d6dc081	0.058044914
247	0xbc4acd78	-0.012378089
248	0x3d845723	0.064619325
249	0xbd0b2b92	-0.0339771
250	0x3d171103	0.036881458
251	0xbbf93e03	-0.0076062693
252	0xbcd45b7f	-0.025922535
253	0x3da3d8dd	0.08000348
254	0x3cbaf0d0	0.022819906
255	0xbd285c87	-0.041103866

critic.0.bias f4 [512]
0	0x3d66795d	0.056268085
1	0x3dd4f999	0.103991695
2	0x3d38693d	0.045022238
3	0x3c0538d8	0.008131228
4	0xbc5dd32d	-0.013539118
5	0xbc07b248	-0.008282252
6	0x3d2aa800	0.041664124
7	0x3c7dee2c	0.015498679
8	0x3c48ec39	0.012263351
9	0xbc8a06cf	-0.01684895
10	0xbd9ca59c	-0.07648775
11	0xbd6e0b5a	-0.058116294
12	0x3da3a42b	0.07990297
13	0x3d15bffe	0.03656005
14	0x3cf65b02	0.030072693
15	0x3d198c6f	0.037487444
16	0x3da2d527	0.07950812
17	0x3d37fe0a	0.044920005
18	0x3c740d9e	0.014895825
19	0xbd8dfa5c	-0.06932518
20	0xbc108fdb	-0.00882336
21	0x3d6cb516	0.057789885
22	0xbd632fe2	-0.055465586
23	0xbc9983c0	-0.018739581
24	0x3d4cd56b	0.05000822
25	0xbd58a118	-0.052888006
26	0xbd3f84c1	-0.046757463
27	0xbd912322	-0.07086779
28	0x3d906253	0.07050004
29	0x3c84954a	0.016184468
30	0x3db34a97	0.08754461
31	0x3dd30b87	0.10304933
32	0xbcfdf5aa	-0.03100093
33	0xbda1ac5a	-0.078942016
34	0x3d8e0f4e	0.06936513
35	0xbd801f56	-0.06255977
36	0xbd344cb3	-0.04401846
37	0x3d43da47	0.047815587
38	0x3d979003	0.07400515
39	0x3ce22a3c	0.02760803
40	0xbc825cc4	-0.015913375
41	0xbc084f8a	-0.008319745
42	0xbd2edc4c	-0.04269056
43	0xbce78763	-0.0282628
44	0x3d45137f	0.048114296
45	0x3b81f239	0.003965643
46	0x3db4095a	0.08790846
47	0x3d8652a6	0.06558733
48	0x3d08c47d	0.03339051
49	0x3cfcc95a	0.03085773
50	0xbd35509b	-0.044266324
51	0x3d1f3b50	0.038874924
52	0x3d01959c	0.03163682
53	0xbc7e90a7	-0.0155374175
54	0xbd77379b	-0.060355764
55	0x3d604b54	0.05475934
56	0xbccd9cf3	-0.025099253
57	0xbd60f03f	-0.054916617
58	0x3c458af6	0.012057057
59	0x3d950161	0.07275654
60	0xbb122949	-0.002230244
61	0x3dc4f469	0.0961693
62	0x3d1f9821	0.03896344
63	0xbb6fb801	-0.003657818
64	0xbd58c65e	-0.052923553
65	0xbcb5147a	-0.02210449
66	0xbd15954e	-0.03651934
67	0xba588e84	-0.00082609826
68	0x3c45287a	0.012033576
69	0xbd3fd08e	-0.046829753
70	0xbd2c50cc	-0.04206924
71	0xbd78a05a	-0.0606998
72	0x3dc2011d	0.094728686
73	0x3d6e81bd	0.058229197
74	0x3d1a8990	0.037728846
75	0x3c897250	0.016778141
76	0x3ac6243d	0.0015117001
77	0x3da4eca4	0.08052948
78	0xbd1771ae	-0.036973648
79	0x3c9f7ae2	0.019467775
80	0xbc881637	-0.016612155
81	0x3d7c8e5b	0.0616592
82	0x3d418033	0.0472414
83	0xbd89eba0	-0.06734395
84	0x3a035c47	0.0005011004
85	0x3d6f5fdf	0.05844104
86	0x3d22f3ed	0.039783407
87	0xbd6428b0	-0.055702865
88	0x3d30e45b	0.043186527
89	0x3d9d2c0a	0.076744154
90	0xbc82c9c2	-0.015965346
91	0x3d8629d9	0.065509506
92	0x3c843ee3	0.016143268
93	0xbca503ea	-0.020143468
94	0xbd9d81dd	-0.07690785
95	0x3dc88f84	0.097929984
96	0x3d96bf85	0.07360748
97	0xbd937dd0	-0.07201731
98	0xbd3dd520	-0.04634583
99	0xbd50d6a6	-0.050985955
100	0x3dbeb69f	0.09312176
101	0x3c68422a	0.014175931
102	0x3d875d0e	0.06609546
103	0x3dbf03e5	0.09326915
104	0x3d6c687c	0.05771683
105	0x3dae7a1e	0.08519386
106	0x3d9fff76	0.07812397
107	0xbce8e487	-0.028429283
108	0x3d9a8ca2	0.07546355
109	0x3dd1d7fb	0.10246273
110	0x3d90ad33	0.07064285
111	0x3d70acc3	0.05875851
112	0xbce54bfa	-0.02799033
113	0xbd523232	-0.0513174
114	0x3cc2fc5d	0.023801977
115	0xbd2f1840	-0.042747736
116	0xbda08bd0	-0.07839167
117	0x3d8e78ef	0.0695666
118	0x3cd96249	0.026536124
119	0x3d19d865	0.037559886
120	0xbd676a73	-0.056498002
121	0xbcc27bb1	-0.023740621
122	0xbc019383	-0.007908705
123	0xbbd4a087	-0.006488863
124	0x3d13989f	0.036034223
125	0x3d11e874	0.035622075
126	0xbdc18cfc	-0.09450719
127	0xbd325554	-0.043538406
128	0x3d9badd6	0.07601516
129	0x3bb03fa9	0.0053786826
130	0xbda79db0	-0.081843734
131	0x3c6ead32	0.01456766
132	0x3d8e5f62	0.069517866
133	0xbd8493d8	-0.064735115
134	0xbd863352	-0.06552757
135	0xbdb0cbdb	-0.08632632
136	0x3d14f2cc	0.03636436
137	0xbb59d9b7	-0.003324134
138	0x3b365749	0.0027823022
139	0x3ced3c3c	0.028959386
140	0xbd637b84	-0.055537716
141	0xbd81473b	-0.06312414
142	0xbd4fb65d	-0.050711025
143	0x3ce351f9	0.027749049
144	0x3c610a0f	0.013735308
145	0xbd0f7692	-0.035025187
146	0xbce64487	-0.028108848
147	0x3dbe00ae	0.092774734
148	0xbc21fa9e	-0.009886412
149	0xbca9f63e	-0.0207473
150	0xbd2aa225	-0.04165854
151	0xbc92bb4a	-0.017911572
152	0xbd186a67	-0.03721085
153	0xbd70fffd	-0.05883788
154	0xbd07c231	-0.03314418
155	0x3cdf4fce	0.027259734
156	0x3c7ffeab	0.015624682
157	0xbd88cc21	-0.066795595
158	0x3c930203	0.017945295
159	0x3db0b4f4	0.08628264
160	0xbbe38874	-0.0069437567
161	0xbb0a2417	-0.002107864
162	0xbcc31166	-0.023812007
163	0xbcf15e74	-0.029463984
164	0xbd582eb5	-0.05277892
165	0xbd34e44b	-0.04416303
166	0xbd4778fd	-0.048699368
167	0xbd1567e2	-0.036476023
168	0x3cc96d9b	0.024588397
169	0x3d764771	0.060126726
170	0x3c90fac6	0.017697703
171	0x3dcbb570	0.09946716
172	0xbcd6de95	-0.026229182
173	0xbd655a58	-0.05599436
174	0xbda645af	-0.0811876
175	0xbd8c05de	-0.068370566
176	0x3d287710	0.04112917
177	0x3d56336a	0.052295126
178	0x3ccaa3bd	0.02473628
179	0xbc801342	-0.015634183
180	0xbc856ad1	-0.016286286
181	0xbd410603	-0.047124874
182	0xbcf6ec2c	-0.030141912
183	0xbd01f5ab	-0.031728428
184	0x3d919536	0.07108538
185	0x3d815474	0.06314936
186	0xbd75136a	-0.059832968
187	0x3c987622	0.018611018
188	0xbd1e3da1	-0.038632993
189	0xbc1a8073	-0.009430039
190	0xbd7926fe	-0.0608282
191	0x3c9cdde7	0.01914878
192	0xbd4a41bc	-0.049379095
193	0xbc532d82	-0.012889268
194	0x3cce5d49	0.025190966
195	0xbd399a67	-0.045313265
196	0x3b534407	0.0032236592
197	0xbd2f4bf0	-0.04279703
198	0xbd7cea99	-0.061747167
199	0xbcd5acdd	-0.026083404
200	0xbd56d58c	-0.052449748
201	0xbccfc46f	-0.025362222
202	0xbb0162e6	-0.0019742786
203	0xbd59069e	-0.052984826
204	0x3c60b06b	0.013713936
205	0x3d92be8d	0.07165251
206	0xbd315ee4	-0.043303385
207	0x3c0af7ba	0.008481914
208	0xbc7794f6	-0.015111199
209	0xbd06f19b	-0.032945257
210	0x3d8aa099	0.06768913
211	0xbd9f93f6	-0.07791893
212	0xbd963078	-0.073334634
213	0xbc71c213	-0.014755744
214	0xbd4237c3	-0.04741646
215	0x3db6fa3b	0.089344464
216	0x3dc59719	0.0964796
217	0x3d869014	0.065704495
218	0x3da0d3ee	0.078529224
219	0x3c23d336	0.009999087
220	0xbd66eabe	-0.05637621
221	0x3dc1bfc6	0.09460406
222	0xbdb69cf3	-0.089166544
223	0x3c05f149	0.008175203
224	0xbc06c8b1	-0.0082265595
225	0x3cc1d430	0.02366075
226	0xbd8ee73f	-0.069777004
227	0x3d9bfe9b	0.076169215
228	0x3d235b59	0.039882038
229	0x3d48e7e3	0.04904927
230	0xbc50e35e	-0.012749521
231	0xbb84200a	-0.0040321397
232	0xba6dd45d	-0.0009072477
233	0x3d81db0c	0.06340608
234	0x3c6dd9dc	0.014517274
235	0x3d9e5cf8	0.07732576
236	0x3b15774f	0.002280671
237	0xbd3d3131	-0.04618949
238	0xbd90bba3	-0.07067039
239	0xbd130c7d	-0.03590058
240	0xbd3c9ccd	-0.046047974
241	0x3b8dea2f	0.0043308954
242	0xbc8f4b97	-0.017492099
243	0xbcc951ec	-0.024575196
244	0xbd7d656e	-0.06186431
245	0x3d10f990	0.03539425
246	0xbd67cf46	-0.056594156
247	0x3c6115ec	0.013738137
248	0x3d9770d2	0.07394566
249	0xbd0ecfe8	-0.034866244
250	0x3d703286	0.058641933
251	0xbd96f155	-0.07370249
252	0x3dae78e8	0.08519155
253	0x3b3381cf	0.0027390604
254	0x3cd0f593	0.025507724
255	0xbd7df83f	-0.062004324

critic.2.weight f4 [1, 512]
0	0x3d706391	0.058688704
1	0x3ddd8a8b	0.108174406
2	0x3cd24572	0.02566788
3	0xbafedbfb	-0.0019444221
4	0xbd01ff97	-0.03173789
5	0xbcc10f4a	-0.02356686
6	0x3c5a2568	0.013314582
7	0x3d4987da	0.049201824
8	0xbd1e1f0a	-0.03860382
9	0xbc88c4ac	-0.016695343
10	0xbc57ac6e	-0.013163669
11	0x3ca6d145	0.02036346
12	0x3cf5ccae	0.030004825
13	0xbd3845a8	-0.044988304
14	0xbd34ef7a	-0.044173695
15	0xbe061192	-0.1309264
16	0x3d83b1d9	0.06430406
17	0x3b4bcbb9	0.003109677
18	0xbd47ed1d	-0.048810113
19	0xbd2e85df	-0.04260814
20	0xbcded018	-0.027198836
21	0xbd201543	-0.039082777
22	0x3db95e65	0.090512075
23	0x3cc6d74e	0.024272587
24	0xbd5a46f0	-0.053290308
25	0x3cc2b721	0.023768963
26	0x3d262766	0.040564917
27	0x3c4be220	0.012444049
28	0xbd30e0ab	-0.04318301
29	0x3da187f3	0.078872584
30	0x3dbb21b4	0.09137288
31	0x3d9474b2	0.0724882
32	0xbcf45c17	-0.029829068
33	0xbd864a56	-0.06557147
34	0xbd51d089	-0.051224265
35	0xbcf38b06	-0.029729377
36	0x3d905ca2	0.07048918
37	0xbd0922f2	-0.033480592
38	0x3d8e4d79	0.069483705
39	0xbd01ead5	-0.031718094
40	0x3c045d7f	0.008078932
41	0xbe1fb11e	-0.15594909
42	0x3d22fdcf	0.039792832
43	0xbad6d69e	-0.0016390865
44	0x3d8442eb	0.06458076
45	0xbba170b4	-0.0049267653
46	0xbc93f688	-0.018061891
47	0xbccf8540	-0.025332093
48	0x3d84d235	0.06485406
49	0x3d64f1b1	0.055894557
50	0xbcd0b313	-0.025476014
51	0x3dad000d	0.08447275
52	0xbcb08083	-0.021545654
53	0x3d19a0e5	0.037506957
54	0xbd2c852e	-0.042119198
55	0x3d1fee18	0.039045423
56	0x3dc42034	0.09576455
57	0xbd1730cc	-0.03691177
58	0x3d9b6ff3	0.07589712
59	0xbd2bfffc	-0.041992173
60	0xbd126864	-0.035744086
61	0x3d9adf77	0.07562154
62	0xbcf0ddac	-0.029402576
63	0xbcf1a616	-0.029498141
64	0xbd63679e	-0.05551874
65	0xbcf4d12e	-0.0298849
66	0xbd253f03	-0.040343296
67	0xbcb91c66	-0.02259655
68	0xbdb3ee99	-0.08785743
69	0xbd6be31e	-0.057589643
70	0xbd28d816	-0.0412217
71	0xbd2d76a4	-0.042349473
72	0x3d5584f0	0.052128732
73	0x3bb26244	0.005443843
74	0xbd4f1885	-0.050560493
75	0x3d38680a	0.045021094
76	0x3d36ebba	0.0446584
77	0x3db46229	0.08807785
78	0xbcb73c53	-0.022367632
79	0x3d52fd47	0.051511075
80	0x3d8af363	0.067847036
81	0xbcbfbf30	-0.023406595
82	0xbbdd6b83	-0.006757201
83	0xbd5e9acf	-0.054346856
84	0xbc3a4ed0	-0.011371329
85	0xbd4198a2	-0.047264703
86	0x3daeee21	0.08541513
87	0xbcd0cf4b	-0.02548947
88	0x3cb2016d	0.021729195
89	0xbd11baff	-0.035578724
90	0xbd3bb3d3	-0.04582579
91	0xbd382d4d	-0.044965077
92	0xbd0f3f42	-0.034972437
93	0xbd70ee03	-0.058820736
94	0x3d144f79	0.036208604
95	0x3d63d011	0.05561835
96	0xbcf95e8a	-0.030440588
97	0xbcc6d01f	-0.024269162
98	0xbd3c91a5	-0.046037335
99	0xbc831450	-0.016000897
100	0xbd5c19f2	-0.05373568
101	0xbd1049d7	-0.03522667
102	0x3cffbd48	0.031218186
103	0xbdce6dd1	-0.100795396
104	0xbcdbd114	-0.026833095
105	0xbca68895	-0.0203288
106	0xbd56a1fd	-0.052400578
107	0x3d9fa8c7	0.077958636
108	0xbc39737d	-0.011319038
109	0x3d8b6c8b	0.06807812
110	0xbd6ac656	-0.057318054
111	0xbcedf310	-0.029046565
112	0xbd1dfe29	-0.038572464
113	0x3da6dbe5	0.0814741
114	0xbc194ad5	-0.00935622
115	0x3d091897	0.033470716
116	0x3dcf1a44	0.10112432
117	0x3d692f96	0.056930147
118	0xbca8e102	-0.020615105
119	0xbd81c5bb	-0.06336542
120	0x3db4e5ae	0.088328704
121	0xbcc39be8	-0.023878053
122	0xbd367af4	-0.04455085
123	0xbde9aee7	-0.11410313
124	0xbce6154a	-0.028086323
125	0xbd24068e	-0.040045314
126	0xbc4c5b37	-0.012472919
127	0xbcc16eda	-0.023612428
128	0xbc17698e	-0.009241475
129	0xbd5f9c5e	-0.054592483
130	0x3d14bcb3	0.03631277
131	0x3d8f7e59	0.07006521
132	0xbd551e27	-0.05203071
133	0x3db45cdf	0.08806776
134	0x3da81f60	0.08209109
135	0xbcbcbb85	-0.023038635
136	0x3d3bae6c	0.04582064
137	0x3d54e488	0.051975757
138	0xbd59a4f0	-0.053135812
139	0x3ccf2ec6	0.025290858
140	0x3cd74b4e	0.026281025
141	0x3d66b71d	0.056326974
142	0x3b0d0dd8	0.0021523144
143	0xbd2f58f7	-0.042809453
144	0x3c20fe92	0.009826319
145	0x3d41e79f	0.04734003
146	0xbc9d1465	-0.019174764
147	0x3da40a88	0.08009821
148	0x3d47c75e	0.048774116
149	0x3d842185	0.06451706
150	0xbd16e420	-0.03683865
151	0x3cbba98a	0.022907991
152	0xbdbd36e6	-0.09238987
153	0xbd90a1c4	-0.07062104
154	0xbcd061ad	-0.0254372
155	0xbc4ae224	-0.012383018
156	0x3d645243	0.055742513
157	0xbd4977cb	-0.04918651
158	0xbd410873	-0.0471272
159	0x3d17b142	0.03703428
160	0x3d3f0481	0.046635155
161	0x3d6b538f	0.057452735
162	0xbc8c51d1	-0.017128857
163	0x3d6f94b6	0.05849143
164	0xbd53f67f	-0.05174875
165	0x3d9025d8	0.07038468
166	0x3c5e65ba	0.013574058
167	0x3d5a272a	0.053260006
168	0x3d63b046	0.05558803
169	0xbc846854	-0.016163029
170	0x3d56ebc6	0.052470945
171	0x3d59e4f7	0.053196874
172	0x3d6606b3	0.056158733
173	0xbd280d8f	-0.041028555
174	0xbc6ac882	-0.014330031
175	0xbd32f177	-0.04368731
176	0x3db9474e	0.090468034
177	0x3d19a37b	0.037509423
178	0xbdb6b4ca	-0.089212015
179	0xbd910a39	-0.07082028
180	0xbcf0e200	-0.02940464
181	0x3d9f4427	0.07776671
182	0x3cf29666	0.029612731
183	0x3d71d2bb	0.05903886
184	0xbc0e3dc9	-0.008681723
185	0xbcfc2ef9	-0.030784117
186	0xbd1f487f	-0.038887497
187	0xbd2a93a6	-0.041644715
188	0xbd019cd1	-0.031643692
189	0xbd966358	-0.07343167
190	0xbcb6a7bc	-0.022296779
191	0xbe00a875	-0.12564261
192	0x3d5fd09c	0.054642305
193	0xbd04855e	-0.03235375
194	0xbd8daa2c	-0.06917223
195	0x3d89bec7	0.06725841
196	0x3dc3207c	0.0952768
197	0x3ddd0fcb	0.10794028
198	0x3c89506c	0.016761981
199	0xbdce2cab	-0.100671135
200	0x3d95b317	0.07309549
201	0xbc9e6db5	-0.019339422
202	0xbd9006ea	-0.07032569
203	0xbd11208f	-0.03543144
204	0xbd82e0e9	-0.063905545
205	0x3d7153ab	0.058917683
206	0xbcd4056f	-0.025881497
207	0xbc5fd027	-0.013660467
208	0x3d32947d	0.04359864
209	0xbcac29b0	-0.021015972
210	0x3dbc856f	0.09205138
211	0x3d75e244	0.060030237
212	0xbcc66ca6	-0.02422173
213	0xbd72f9ca	-0.05932025
214	0xbdf04ce0	-0.11733413
215	0xbd002153	-0.03128178
216	0x3da6f6e9	0.08152563
217	0x3d03a804	0.032142654
218	0xbd16896e	-0.036752157
219	0x3aa71747	0.0012748026
220	0x3d827721	0.06370378
221	0x3d7ea318	0.062167257
222	0xbae80586	-0.0017701841
223	0xbc269d84	-0.010169391
224	0x3d0cc3e8	0.03436652
225	0x3ce37f11	0.02777055
226	0x3d4f22b7	0.050570216
227	0x3d9b7849	0.07591302
228	0x3d24e6de	0.040259235
229	0x3cb707c0	0.022342563
230	0xbe1b8682	-0.1518803
231	0xbd117aad	-0.035517383
232	0xbd3e6130	-0.046479404
233	0xbc5a992a	-0.013342181
234	0xbd0cf5f5	-0.03441425
235	0x3d74aa64	0.05973281
236	0xbd1c724b	-0.038194936
237	0xbe03c39b	-0.12867586
238	0x3d85e004	0.06536868
239	0x3cb2f39d	0.02184468
240	0xbd03fcea	-0.03222362
241	0xbd2b7756	-0.041861854
242	0xbc8fb5e0	-0.01754278
243	0x3d97d869	0.07414324
244	0x3d197a78	0.03747031
245	0xbce5867c	-0.028018229
246	0x3cdd61b1	0.027024122
247	0xbd0d3d7c	-0.034482464
248	0xbd04a1fb	-0.03238104
249	0xbd749f74	-0.05972238
250	0x3c169030	0.00918965
251	0x3d9c19ac	0.07622084
252	0x3cac5bf6	0.021039944
253	0x3d1d9f9d	0.038482297
254	0xbd86490c	-0.06556901
255	0xbd02d713	-0.031943392
