results/velocity/ppo_separate/model.pth (torch, 547215 bytes, 7 tensors)

actor.0.weight f4 [1024, 64]
00000000: 2642 043e a36b 3cbb ee4a 323d e1fc 0fbd
00000010: 1522 983c 767b 2b3d 9b09 d73b e7d7 be3d
00000020: 9fda eabd bfaf 133d df73 0e3d 410f b43d
00000030: d330 18bd acf7 c03d 3d42 79bd c980 a9bc
00000040: 867d 95bc 5828 cebd 0434 d03c e601 a93d
00000050: f12f 853c 6fbe d23d 9689 ab3d 52cb 14be
00000060: 3459 c63c ffb5 893d 22fc 10be 2a62 73bc
00000070: 0114 1ebe 6092 ccbd 375e ac3c b56a 0fbe
00000080: b08a 94bd 515d af3d 5e48 ebbd f8e1 edbd
00000090: a68f 81be b03c ebbd 853e f9bd c6df e5bd
000000a0: 0eb5 36be e5f4 1fbe dbb9 a5bd a380 45bc
000000b0: cfe3 d7bd 44df 4bbc c98c aabd 8786 eabd
000000c0: cf19 9e3d 69ef b83d 44be cb3d 2fb0 62bd
000000d0: 37dd 0abd 2a42 b8bd 589a 383d cfab af3c
000000e0: 6eb4 edbd 5d5e 81bd 5ce7 cd3d d666 95bd
000000f0: 3b6b b03d 8bbb a93d cd55 2ebb 2a0f 9e3d
00000100: eb56 82bc e840 39bd a596 9e3d 54d4 f53b
00000110: e517 32bd 2039 78bd 87b6 a9bc 3eed 1fbd
00000120: 96e8 b03d 7be9 9a3d cfa4 2f3d 99f5 8dbd
00000130: 5c6a 88bd 4d49 a33c 794d ad3c db17 c43c
00000140: fcc1 5c3c dd40 e23b c4bf 123d 22da c4bd
00000150: 4bb6 b93c 6202 e53c 9655 0dbe b9aa f7bd
00000160: 631a d23d 952d f3bd af2f b4bd 05f1 04be
00000170: 4e88 aa3c 789e b43c 8ff0 ec3d 171f d73b
00000180: a72f ca3d e78d 023b 5f23 893b 07f4 983d
00000190: dc90 f9bc 05db 9a3c ce80 7cbd 517c 1ebd
000001a0: 5b6b edbd f92d dcbd c030 bf3d 539d 0d3d
000001b0: 42cb 483d eaf7 98bc dd3e 893d f77c debd
000001c0: 43ca 4abd fcfa 3a3d c2ad 35be 1546 9e3d
000001d0: d945 f6bd 8af1 5e3d 6afe 1d3d 2809 313d
000001e0: 0cb6 763b a7a1 73bd 7548 82bb 5845 5fbd
000001f0: b8be 463d 7654 1d3d 555f 99bd b57d b1bd
00000200: 7ef6 bb3d 6c7d fc3c 631d be3c b1dd a0bc
00000210: c897 cbbd 7cbf 4a3d ce72 9b3d 1be8 8d3d
00000220: 62a4 ca3d e5fd b8bd 040c ccbc 8052 87bc
00000230: b635 18be 02ba f1bd d150 ebbd c54b 003e
00000240: 8a72 bd3c 821d 9ebb d058 4a3d 6acd 2fbd
00000250: 8db2 8f3d 50fb 9b3d 80ad 22bd ef08 4fbd
00000260: f242 9e3d 354d 30bd 504a 54bd ae48 80bb
00000270: 30d2 ee3d ca9b f13d 341c 27bd a874 08be
00000280: ebdf 573e 0fe9 2e3e 4372 8cbd 0461 8cba
00000290: a7c0 243c ec83 1b3e dc92 27be 25f7 0c3d
000002a0: 7fbb 243d 7e94 0d3e 3452 5ebe 03db 2dbe
000002b0: 54f6 05bd d1d7 88bd fb45 f2bd 879e 15be
000002c0: 6f47 b7bd ba7c b33d 8cdf 14be 364b 28bd
000002d0: dad0 eebc 4c23 e63d 8cc9 11be 7c8e 90bd
000002e0: 8a06 cf3d 79f9 92bc 6af5 c2bd 07f1 b73d
000002f0: 9d65 b4bc 0aa9 823d 9143 ee3d d6c6 e13c
00000300: d07c 3fbc 9b93 f8bd ab7d 4e3d 5173 90bd
00000310: 89de c43b 6b77 503d 93c1 583d 9f20 5f3d
00000320: f76e 483d edf8 6cbd 77d6 113d 23f6 123d
00000330: 6ba1 913d 537c bd3c 7163 f13d 0e9d 873c
00000340: 771f 4c3d 4b6b af3b 8bcb b63d b5a1 4e3c
00000350: 77d4 5bbc d5cd e83d ba3b 6c3c 351d cf3d
00000360: 0933 debd d79f fdbd 8543 25bd f244 91bb
00000370: 51c6 7ebd 1d7c 5abd bd53 2ebd 8563 67bd
00000380: f1f7 4ebd f197 d9bd b34e acbd dd4a dfbd
00000390: 6971 52bc a5ce 13bb 4350 213d 2f9b 93bd
000003a0: 1b8f a63c 61fb 00bd 3074 81bc 9399 ac3c
000003b0: a98a b33d 9722 ef3d 9bd2 d73d 495d 38bd
000003c0: 7bdb 0c3d e5be 9dbd 235e 133d bb5f ba3d
000003d0: b7c1 f1bd 0ff8 8bbd c3cd 7cbd 1989 e0bd
000003e0: e5d5 d0bc a5d5 76bd ed3b a0bd e7d7 3fbb
000003f0: 85a1 fcbd 919f 7dbd 1968 9ebd ffde f4bd
0.12915859 -0.002875068 0.04352849 -0.035153273 0.01857094 0.04186579 0.0065624244 0.09318524
-0.1146748 0.036056276 0.034778472 0.08791972 -0.037155937 0.0942224 -0.060854185 -0.020691292
-0.01824833 -0.10066289 0.025415428 0.08252315 0.016258212 0.102902286 0.08375852 -0.14530686
0.024212457 0.06724166 -0.14158681 -0.014854947 -0.15437318 -0.09988856 0.021041019 -0.14005549
-0.07253015 0.085627206 -0.11488412 -0.11615366 -0.25304908 -0.114861846 -0.12170128 -0.11224322
-0.17842504 -0.15620764 -0.0809209 -0.012054595 -0.10541498 -0.012443367 -0.08327634 -0.1145144
0.07719766 0.09030039 0.099484 -0.055343803 -0.033902373 -0.08996995 0.04506907 0.02144423
-0.1160668 -0.063168265 0.10053894 -0.07295005 0.086142026 0.08287724 -0.0026601434 0.07717736
-0.015910586 -0.045227915 0.07743577 0.007502118 -0.04347982 -0.060601354 -0.020716919 -0.03904461
0.08638112 0.07564064 0.042881783 -0.0693161 -0.066609114 0.019932413 0.021155106 0.023937156
0.013473984 0.006904705 0.035827413 -0.09611918 0.022669932 0.027955238 -0.1380218 -0.1209311
0.10258939 -0.118739285 -0.087981574 -0.12982567 0.020816948 0.02204822 0.115693204 0.0065649855
0.0987237 0.0019921006 0.0041851248 0.074684195 -0.030464582 0.018903265 -0.061646275 -0.038692776
-0.11592742 -0.10750956 0.0933547 0.034573864 0.049021967 -0.018672902 0.06701443 -0.10863679
-0.049509298 0.045649514 -0.17742065 0.07728211 -0.12025041 0.05442957 0.038572706 0.043221623
0.003764513 -0.059480336 -0.0039759227 -0.05450949 0.048521727 0.038410626 -0.07488886 -0.08666555
0.09177874 0.030821525 0.023207372 -0.01963696 -0.09941059 0.04949902 0.07590257 0.06929036
0.09894635 -0.090328015 -0.024908073 -0.016518831 -0.14864239 -0.11803056 -0.11490024 0.12528904
0.023125906 -0.004825295 0.049401104 -0.042920507 0.07016478 0.076162934 -0.039716244 -0.05054563
0.077276126 -0.04304238 -0.051828682 -0.003914914 0.11661184 0.117972925 -0.04079838 -0.13325751
0.21081512 0.17081092 -0.06857731 -0.0010710065 0.0100556975 0.15187043 -0.16364616 0.034415383
0.040217873 0.13826177 -0.21711046 -0.16978078 -0.03270562 -0.06681789 -0.11829754 -0.14611255
-0.08949172 0.08764024 -0.14538401 -0.04108735 -0.029152323 0.11237201 -0.1423704 -0.07058427
0.10108669 -0.017941223 -0.09519465 0.08981519 -0.02202111 0.06379898 0.11633981 0.027560633
-0.011687472 -0.121375285 0.050412815 -0.07053245 0.0060079736 0.050895136 0.05291898 0.05447447
0.04893395 -0.05785458 0.03560492 0.035879266 0.07110866 0.023130571 0.11786545 0.016554382
0.049834695 0.0053533665 0.089255415 0.012611796 -0.013417355 0.11367384 0.014418537 0.10112993
-0.10849578 -0.12384003 -0.040347595 -0.0044332677 -0.062200848 -0.05334102 -0.042560328 -0.056491394
-0.050529424 -0.10624684 -0.08413448 -0.10902951 -0.012844422 -0.002255359 0.039383184 -0.07207333
0.02033191 -0.031489734 -0.015802473 0.021069324 0.08766682 0.11676519 0.10538217 -0.04501084
0.034389 -0.07702426 0.035978448 0.091002904 -0.11804526 -0.06834423 -0.061719667 -0.10963649
-0.025492618 -0.06026234 -0.0782393 -0.0029272975 -0.12335495 -0.061919753 -0.07734699 -0.11956596

actor.0.bias f4 [1024]
00000000: 9163 a4bb cebb debd aeba 71bc f5ad d1bd
00000010: 53a7 43bd 4d9c b73d e163 80bd 65cc 813c
00000020: b53b 533d 4217 5bbd 978a 22bd d3c6 ecbd
00000030: 0365 f93c 3763 2e3d 1d26 bbbb 347c 3d3d
00000040: 1540 a7bd ee3c d6bd e96a 0f3d 696d d4bd
00000050: 8c72 063e e68c ddbd 4853 e73d 40ae 96bb
00000060: 34d1 943d f0a0 99bc 4758 be3d dc9b b8bd
00000070: a5ef 12bd 7adb c5bd 7d33 e13d 3bd1 bcbd
00000080: 1898 c43d d4e4 f13b 7ebc 0c3e 4c4e 1b3d
00000090: e427 a73d 4233 393a 0c87 a0bd 00b9 453c
000000a0: e7b0 bfbb 372c 183d 8268 083e 25d0 a5bd
000000b0: 804d b73d b8f0 493d 6491 893d 7dd1 bc3c
000000c0: 59ac 09be 63a1 ed3d 7d63 293c c2a7 913d
000000d0: 7ece bc3d aaec bf3c 0f37 d23d b5a4 e9bc
000000e0: 4099 4f3c 5522 8ebb e0fd fcbc 9af7 08be
000000f0: 9a1b 5b3d e6f3 6cbd cfb8 b83d 7b53 923d
00000100: 0076 983d d888 363d 6552 7f3b 2c60 9bbd
00000110: 28c2 c83c 4cf2 843d 4fb3 17be 15bf cdbd
00000120: 1026 1cbd 47ee 4ebc 648c 48bc 5493 f13d
00000130: ddba 423d 2983 0ebd 8326 46bd 00e7 11bd
00000140: 3321 00be a871 e6bd 5622 5abd ebdb 943d
00000150: 1f32 acbd edea dabc a144 613d a33c b43d
00000160: ea2b 02be 8731 a03c 0b75 07be ca53 bdbd
00000170: ca19 cebd 974c 10bd f316 c0bd f83a cd3d
00000180: edff 9ebd 21a2 70bd 3df0 f8bd 25e7 063d
00000190: 2203 c4bc 9cca 2d3d 4d2c b4bc c22d 17bd
000001a0: 1fd8 0ebd e89e 903d c721 4d3d 8061 48bd
000001b0: 6747 093e 5ca8 3cbd c126 af3d c8d1 5d3d
000001c0: 59c1 473b 8dae c53c 8ad4 f8ba af0a 20bd
000001d0: 88df ebbd 607e de3d 008b 913d 29b3 ff3c
000001e0: e6f8 003d c837 46bd 8da1 56bd b6e9 533d
000001f0: 662e ddbc 2693 b7bd e9a8 8ebd 72ff c9bb
00000200: 3f2a adbd b9ad a63d 95b1 213d 916e a33d
00000210: 04aa ecbc 25cf 8e3c 37c7 f93d 8862 003e
00000220: c039 d13d 005f ca3d bbd5 de3d 7ccb 8fbd
00000230: 44f4 bc3d 4dc1 953c 5f8b 743d 3235 523d
00000240: b512 ac3d 6409 b43c 26ca 9e3d 2ce9 933d
00000250: 2065 993d a946 95bd ba00 e53c 1447 f7bd
00000260: b3b8 d43d 1f09 b33d f564 18bd 8e5a dbbd
00000270: ada7 dfbd 2732 8b3d 0d28 58bd d74f 833d
00000280: 42b6 313d f312 62bd 34dc c2bd 3c39 d63a
00000290: 418e a3bc 7bde a1bd 99b8 053b 34d0 86bd
000002a0: d070 08be 1120 073e a856 8fbb 21d1 8c3d
000002b0: db53 7b3d 509b 85bd f80d 3dbd eb72 843d
000002c0: f1bb 8ebc 48cc 96bc 9016 71bd 8179 f5bd
000002d0: a93d 643d 0d46 bfbc ff77 f4bb bc67 a6bd
000002e0: bcaf d0bd 391f f93c 5eec 8b3c 5d1b e5bd
000002f0: beaa d1bd d663 8abd d2da b93c 67af 33bc
00000300: 0932 95bd fdeb 99bd d219 603d 7f77 29bd
00000310: 1b2c 81bd 49a1 d5bd 3906 2ebd 6c80 893d
00000320: 028b 8d3d 5c2e 7bbd 8a46 0f3d d8b4 0ebe
00000330: 215f e73d b1f8 99bd 81b2 97bd de4c 88bd
00000340: 9133 d13c 6931 0dbd f4e2 b7bd e523 5fbc
00000350: 6ce2 f3bc 2a4e 2f3d d1bd a53c 5786 11bc
00000360: f20a 0a3e f995 fa3c 75d9 67bd 9c3e dabc
00000370: 03ab 06be 6911 be3c ce37 ea3d f1d9 1e3d
00000380: c667 ccbd fb12 9fbd badd c33d a7b1 c83b
00000390: b695 a63d 2764 09be b416 6f3d ee3d a03c
000003a0: f0c2 c6bc ceb7 fc3d 3a71 10bb 5e3c a63d
000003b0: 5965 863c 66ff 8c3d f188 f6bc 51bc 1fbe
000003c0: fe62 d33d a639 78bd 2539 883d 1589 debd
000003d0: 10f1 f9bd c6fd e93d d545 7dbb 12e9 18bd
000003e0: 0c1c 54bd 694a b43d 1dc0 a63d 371c a1bd
000003f0: d9bc 893d cd90 063d dbb9 96bd 6127 11bc
-0.005016752 -0.10875665 -0.014753981 -0.10238258 -0.047766995 0.08965359 -0.062690504 0.015844533
0.051570613 -0.053488977 -0.03968295 -0.1156136 0.030443674 0.042575087 -0.0057113306 0.046261027
-0.081665196 -0.1046084 0.035014067 -0.10372431 0.13129634 -0.1081789 0.112951815 -0.004598409
0.07266465 -0.018753499 0.09294181 -0.09014103 -0.035873074 -0.096610025 0.10996149 -0.09219595
0.09599322 0.0073820148 0.13743779 0.037916467 0.081619054 0.0007064828 -0.07838258 0.012068033
-0.005849946 0.03715154 0.13321117 -0.08096341 0.08950329 0.049301833 0.06717184 0.02304911
-0.13444652 0.11603048 0.010338661 0.071120754 0.09219073 0.02342828 0.10264408 -0.028520921
0.012670815 -0.004337589 -0.030882776 -0.13375703 0.05349312 -0.057849787 0.090196244 0.07144829
0.07444382 0.044564098 0.0038959023 -0.07586703 0.024506643 0.06491527 -0.14814495 -0.10046212
-0.038122237 -0.012630052 -0.012240503 0.11795679 0.047541488 -0.034793053 -0.04837657 -0.03562069
-0.12512664 -0.11252147 -0.0532554 0.072685085 -0.08407997 -0.02672335 0.05499709 0.08800628
-0.12712064 0.019554866 -0.13228242 -0.09244497 -0.100635126 -0.03522929 -0.09379377 0.10021013
-0.07763658 -0.05874837 -0.12155197 0.03293528 -0.023927275 0.04242955 -0.02199378 -0.036908872
-0.034874078 0.07061559 0.05008104 -0.04892111 0.13406144 -0.046058998 0.085523136 0.05415514
0.0030480234 0.024131084 -0.001898424 -0.03907269 -0.115172446 0.10863948 0.0710659 0.03121336
0.031487368 -0.04839304 -0.05240016 0.051736556 -0.026999664 -0.08963613 -0.06965811 -0.0061644847
-0.084553234 0.08138604 0.039475996 0.07980073 -0.028889664 0.017432759 0.121962 0.12537587
0.10216093 0.09881401 0.108806096 -0.070212334 0.092262775 0.01828065 0.059703227 0.051320262
0.084020056 0.021977134 0.077534005 0.072222084 0.07489991 -0.07288868 0.027954448 -0.12074104
0.10386791 0.08741974 -0.037205655 -0.10710631 -0.109206535 0.06796675 -0.05277257 0.064117126
0.043386705 -0.055193853 -0.09514657 0.0016343961 -0.019965293 -0.07903763 0.0020404218 -0.0658268
-0.13324285 0.13195826 -0.004374344 0.06875826 0.061359268 -0.06523764 -0.0461559 0.06467231
-0.017423602 -0.018407956 -0.058859408 -0.11986066 0.055722866 -0.023348833 -0.0074605937 -0.081252545
-0.10189769 0.030410396 0.017080482 -0.1118686 -0.102376446 -0.067573234 0.02268735 -0.010967112
-0.07284934 -0.07515714 0.054712124 -0.041373726 -0.063072406 -0.10431153 -0.042486403 0.06713948
0.06911279 -0.06132351 0.03497938 -0.13936174 0.11297441 -0.07518137 -0.07407094 -0.06655286
0.025537284 -0.03447095 -0.08978835 -0.013619398 -0.029771052 0.042799152 0.020232113 -0.008882127
0.13480738 0.03058909 -0.056603868 -0.026641183 -0.13151173 0.023201661 0.11436425 0.038782064
-0.09980731 -0.07767292 0.09563775 0.0061246934 0.08134024 -0.13417111 0.05837126 0.01956078
-0.024262875 0.123397455 -0.0022040145 0.08116983 0.016405748 0.06884651 -0.030094596 -0.15599181
0.10321616 -0.060601853 0.066515245 -0.1086599 -0.12204182 0.114253566 -0.003864636 -0.03733165
-0.05178456 0.08803255 0.081421115 -0.0786671 0.06725473 0.032852937 -0.07359668 -0.008859486

actor.2.weight f4 [2, 1024]
00000000: 389d e03d 433a f1bc 9c65 afbd 0243 ef3b
00000010: ef48 07be 3d18 363d aaf9 2d3e 4935 c5bd
00000020: 1170 e0bd d338 86bc 6879 f73c 0394 d6bd
00000030: 225f 173d 5055 143c 1d04 e03d ca28 b6bc
00000040: 7668 5e3d 3445 b93d 18fa 353d 5a2a aebd
00000050: 777d b7bd ca7a dbbd d16e 0dbe 9e47 70bd
00000060: cabe b5bd 4327 91bd dc61 25be cc53 8c3d
00000070: 0a76 4ebe 8419 26bc a126 1ebe dcf3 9bbc
00000080: c270 ad3d c6c9 05bd 0828 cbbd 43d2 13bc
00000090: 9f3a 52be dcb4 c83d 334e 07be f598 40bd
000000a0: fec9 fabd 3f91 163e 38fc 70be bc18 c3bd
000000b0: 41d8 a0bd ba21 03be 81cb b7bd c395 a93d
000000c0: bdb4 3a3d e506 373e 3ac6 11bd cc2f 163d
000000d0: 6a00 d2bd 356a 7e3d 3cc9 893d ea1b 2a3e
000000e0: 1ec2 b13b 9e0b e3bd ad5d a33d 2a8b 8bbd
000000f0: 7997 01be 5598 463e eed6 36be 80c6 5d3c
00000100: fbcb 9fbd 87d9 66bd 7a2c b63a 62be 583d
00000110: 96d7 003e d0e5 383d 06b2 c23d c69c dabd
00000120: 1eaa 58bd 297d c63b 5fb6 d13c edf4 c93d
00000130: 010d a63d 13f4 403e 02d4 a83d 35c6 cd3d
00000140: fade 9ebd 6982 bc3d e47f 5a3d c41c 223d
00000150: acd2 143d 3351 cc3c 76c3 89bd c26c cb3d
00000160: 552f 7bbd 646c 09bb 899e 333c 1b68 8f3d
00000170: 0612 8d3d e77c 033d cac9 e5bd d328 ca3d
00000180: cccf af3c bb42 9dbd 2321 fdbd 52ba 03be
00000190: 4b4c 803c c14b 813d cee3 13be b516 06be
000001a0: aead 583d d73d e8bd d64b 8c3d e3de 95bd
000001b0: d416 313d 5479 da3c 2a5a f0bd 4ef5 28be
000001c0: 232f c93d a040 9b3c 5b01 3f3d 7780 9abd
000001d0: 06f1 dbbc 823b 1c3e bf7a 41bd 5863 253e
000001e0: 391a 8cbd 4cca 3a3c a8c8 aabc 7763 2a3d
000001f0: 1b44 7c3d 98ba 383c 08bd 14be 329e a6bd
00000200: 4bf2 edbd ebdc 3d3d 5790 c23d fc6c cb3d
00000210: d175 84bd 6827 10bc fc30 a03c 6d19 debd
00000220: 0755 e43d 2c7a bcbd 5e85 753d 643f 80bc
00000230: 1295 0dbd f1f5 3dbe b0b1 76bc e245 4dbe
00000240: df2c 67bd 2308 d93c 697b b73d ea4e c0bc
00000250: 0ba0 993c b2a6 22bd b91b dc3d 4058 983d
00000260: 396c a33d 0384 71bd f57a 833d cccf 8b3c
00000270: 26ec cfbd e85f cebd 4ae6 9dbd c918 75ba
00000280: c435 983d d62f 92bd 5bc4 f4bd 1ee2 f73c
00000290: f7c7 76bc 8d9b 683d d064 1b3d 8644 c43d
000002a0: 0ed5 33bb a286 4ebd 1a11 e13d d1cd 0b3d
000002b0: 7424 18bd 9b97 de3b 621c fcbd 4963 adbd
000002c0: deee 383b f134 f7bd 8c04 f23c 24a0 b53d
000002d0: b148 c63d 8cec b6bd 7144 72bd 9ee9 4f3d
000002e0: aaee c03c 8ee1 0abc 18d7 1abd 9b39 86bd
000002f0: 06a7 083d 3caf 393e 437e d43c fc08 14be
00000300: c76d 883d c6a8 bcbd b796 7c3d 3c46 29be
00000310: 076e bcbd 88e0 e13d 98d9 3bbe b86b a0bc
00000320: b86c 9abd fba4 543d 77c8 393d 283f 6abc
00000330: 6f4f f13d 063c d43c 188b 01be 033e 5d3d
00000340: 3a3e f5bd f018 65bd dff0 e33d ef18 033d
00000350: 92f7 c5bd afe4 be3d 37a9 fdbd 2498 b9bd
00000360: 3eee 2bbe 3ad9 1b3d 57eb 063e 66ba b0bc
00000370: d142 053c 8f17 d5bd 1458 9dbd e388 b4bd
00000380: 8415 2bbe cc9d f53d 8be3 1fbe 8953 b5bd
00000390: e210 233d f832 fd3c dad6 d13c 2e85 21be
000003a0: 3072 debd 5fcd ea3d 1bd3 493c 87f1 8a3d
000003b0: fb67 23bd 1dff 5bb9 c66d 343d 0785 393c
000003c0: 66ef 853d 71c9 a63d 1748 6a3d cf71 f0bb
000003d0: 9c94 163d 96f6 09be d0f5 cbbd 8af1 383d
000003e0: 9d1a 3c3e c8a3 0f3e 74b4 a1bd 94ec 26be
000003f0: 4b24 3f3e ed8a 093e 8883 573d c6c2 6dbd
0.10967487 -0.029446727 -0.08564302 0.007301689 -0.13211416 0.04445671 0.1698977 -0.09629304
-0.10958875 -0.016384518 0.030209258 -0.1047745 0.03695596 0.009053543 0.109382845 -0.022236247
0.05429884 0.090464026 0.04442796 -0.08504172 -0.089594774 -0.107167795 -0.13811804 -0.05866205
-0.08874281 -0.07087567 -0.16150612 0.068519205 -0.20162216 -0.010137919 -0.15444423 -0.01903718
0.084687725 -0.03266313 -0.09919745 -0.009022298 -0.20530175 0.09800121 -0.13213424 -0.04702087
-0.12245558 0.14703844 -0.23533714 -0.09526202 -0.07853747 -0.12805834 -0.08974362 0.08280518
0.04558252 0.17873724 -0.035589434 0.036666676 -0.10253985 0.062113006 0.067278355 0.16612211
0.005424752 -0.110862 0.079768516 -0.06813653 -0.12655438 0.19394048 -0.17855427 0.013536096
-0.07802578 -0.056359794 0.0013898753 0.05291594 0.1258224 0.04514104 0.095066115 -0.106744334
-0.05289661 0.0060574007 0.025599657 0.09861169 0.08107949 0.18843107 0.08243562 0.100475706
-0.07757373 0.09204561 0.053344622 0.039578214 0.036333725 0.024941063 -0.06726734 0.09932853
-0.061324436 -0.0020969147 0.010963091 0.070022784 0.06888203 0.032101538 -0.11220129 0.09871068
0.02146139 -0.076787435 -0.12359836 -0.12864044 0.01566138 0.06313277 -0.1444237 -0.130946
0.05290001 -0.1133992 0.06850402 -0.07317903 0.04323466 0.026669182 -0.117359474 -0.16499826
0.09823444 0.018951714 0.046632152 -0.07544034 -0.026848327 0.15257075 -0.0472362 0.16151178
-0.06840939 0.01140077 -0.020847633 0.041598763 0.061588388 0.011274956 -0.14525235 -0.08135642
-0.11618479 0.046353262 0.09500187 0.099328965 -0.06467784 -0.008798458 0.019554608 -0.10844693
0.1114903 -0.0920299 0.059941642 -0.015655227 -0.034565993 -0.1855085 -0.015057012 -0.2004619
-0.056439277 0.026493138 0.089590855 -0.02347513 0.018753072 -0.039709754 0.10747475 0.07438707
0.07979626 -0.058963787 0.064199366 0.017066859 -0.101524636 -0.100768864 -0.0770994 -0.00093497016
0.0743213 -0.0713803 -0.11951514 0.030259188 -0.015062324 0.05678897 0.03793794 0.09583382
-0.0027440223 -0.050421365 0.1098959 0.03413183 -0.03714414 0.006792975 -0.12310101 -0.08466203
0.0028218548 -0.12070645 0.029543184 0.08868435 0.096818335 -0.089318365 -0.059147302 0.050759904
0.023551304 -0.008476628 -0.037802786 -0.06553956 0.03336241 0.18133253 0.025939113 -0.14456552
0.06661563 -0.092118785 0.06166717 -0.16530699 -0.092006736 0.11029154 -0.18344724 -0.019582614
-0.07540268 0.05191515 0.045357194 -0.014297284 0.11782729 0.025907528 -0.12650716 0.054014217
-0.119747594 -0.055931985 0.11129927 0.0320062 -0.09666361 0.09320962 -0.12385791 -0.09062222
-0.16790101 0.03804896 0.13175713 -0.021573257 0.008133606 -0.10404884 -0.07682815 -0.088151716
-0.16707426 0.11992988 -0.15614145 -0.08853824 0.039811023 0.030908093 0.025615145 -0.1577346
-0.10861623 0.11464953 0.012318398 0.06784349 -0.039894085 -0.00020980505 0.04405 0.01132322
0.06539802 0.08143891 0.057197656 -0.007337786 0.03676282 -0.13472971 -0.099589944 0.045152225
0.18369527 0.14027321 -0.07895747 -0.16301185 0.18666188 0.13431902 0.052615672 -0.05804708

actor.2.bias f4 [2]
00000000: e3ba 87bc d713 b8bc
-0.016568607 -0.022470398

critic.0.weight f4 [1024, 64]
00000000: 10f4 4dbc 3483 d63c 3ba7 1d3c 0022 27bd
00000010: 6e6f b0bb bad8 ca3c 4099 27be bc70 e0bc
00000020: a593 90bd b2f4 ea3a 8f3a 533d 4bbe b73d
00000030: 1ee6 35be cf60 953d 01a8 5ebd f2ee 19bb
00000040: 12a8 b3bc b9a5 0ebe ab5f 29be 933a 02be
00000050: 6d41 f3bc 2c12 adbd 28e6 d7bc 5861 833c
00000060: adfc 44bd fe30 953d 662c 89bd 6af4 f9bd
00000070: a0c5 01bd f4c8 5bbc c7a8 72bd e2bf 6dbd
00000080: f522 90bc 17fe 313d 2fce 20be 057a 443c
00000090: bd3e 81bd 79c9 03be 687a 24bb c0bd 18bc
000000a0: 9175 d4bd 2997 bf3d ff15 0cbc 2faa 2b3c
000000b0: 5ded d4bd 34f0 77bc 0a9d 9cbc e0b1 3b3c
000000c0: cb5f b5bd f8fa 15be e9aa 70bd 22a8 24be
000000d0: fde7 40bd 1d2a f8bd 7063 b9bc 4f3e ccbd
000000e0: 6b32 ee3d 3506 bc3c 1f8e a4bc 8c2d 683b
000000f0: 18de 363b ff70 fe3d 0b7d 14be f5aa d03c
00000100: 3773 373d 4092 b93d e670 533c ae2f 5ebd
00000110: df22 123d 2671 bbbc fdfc 043e 4f7b 0dbe
00000120: b845 e23d b09c 1e3d fb84 043d 9cfc 9bbd
00000130: e4ee 063e 8463 97bd 1a59 4abd 697d 7d3d
00000140: 1c7b 97bc 61a1 0bbe 1443 37bc 73cb d9bd
00000150: 7a6b dcbd e5a9 12bd 766e c0bd a4a3 aebd
00000160: f25e c2bd 5e47 e6bd b809 31be ef05 00bd
00000170: f292 80bd 979b c6bc e9f4 dcbd 121e 17be
00000180: 86a3 b6bd b115 08be 9684 0abe 96f9 a4bd
00000190: efac 3ebe 3963 26bd 9e0d a23d ecf3 78bd
000001a0: dfb5 1bbe ad93 bcbd 13d4 a9bd 7654 023e
000001b0: ec6c 1c3d b533 e4bd 9b7c cbbd 9d47 903d
000001c0: 0eb9 c6bd ccbe e9bd d512 4ebd 1392 a6bd
000001d0: f6cc 813d 49a5 4c3c 623b 03be 56ef c1bd
000001e0: a12b c03d 738b b4bd c427 fabc 6f0d 14bc
000001f0: 48b4 efbd 74cf f0bd 9d1b 973d 8ba8 b63d
00000200: 4089 073b f05a 733d b4b5 213d 3b29 cbbd
00000210: fc53 f0bd d2d8 743d 9bde dcbc 3465 01bd
00000220: 17a4 2c3d 9584 8f3d 5765 733c ab0c afbc
00000230: 4ae3 103d c6e2 8c3d c99d 7cbd 2ce1 813d
00000240: 38e4 0b3d 06ee 00bd e073 44bd 9cc1 4f3d
00000250: 0437 b1bb 18fd 9ebd c4dc d4bd ffe5 33bd
00000260: 0b24 3f3d fa56 18be 847c 0cbe ab7c 20be
00000270: 2bfd 88bd 3706 83b9 a3aa 32be aae2 efbd
00000280: 5492 4f3d ea47 913b 2e78 efbc 696a 5dbd
00000290: 7e23 f0bd 329f b63c 5243 3dbc 0767 f7bd
000002a0: b641 ce3d d1d7 9fbd 8f98 7ebd ed59 0cbc
000002b0: f1c1 f13c 65b6 18be a712 f7bd 5c24 353d
000002c0: 3af5 72bd 1f1b a73d 88bd 8d3d 5a79 34bc
000002d0: a5b8 aebd b3e8 babd ac45 f6bc 0005 c7bd
000002e0: 4c79 8abd ca5d dfba 8b4d bfbd 2675 7bbd
000002f0: 8384 e5bd 7062 d2bd b75b efbd 49eb a73c
00000300: 9204 89bb cb53 0b3c 62fb fdbd 3346 143d
00000310: 576d 57bc f470 f8ba 8f3d e3bd 4cf3 c63d
00000320: 5b12 053c 8035 26bd 1aaf 4abd 9989 b93c
00000330: 8d62 d1bc 0076 173d 7b77 1bbe dd1d eabb
00000340: 2a0f 073c 0f70 9a3d 09f1 48be df23 54bd
00000350: f22f 3a3d 9b36 e7bd d4ea 0cbe 5be0 223d
00000360: 6330 0b3d 0242 8e3d a56b 7dbd 2a0f 04be
00000370: 16d2 91bc c0a7 263b 6973 60be 012a e9bc
00000380: eb57 723a ec10 fdbd f25e a3bd 30dd 9cbd
00000390: 98f5 1cbe f2f9 963c 657c d3bd a2c2 2d3d
000003a0: 4150 a4bd 0e64 36bd 290f 6e3c 7cc0 9fbd
000003b0: 6bf7 a63b 4ed2 74bd d886 b1bc 1f8c 663d
000003c0: 77fc 8b3d 3aff 94bd 27e2 09be 27a5 c03d
000003d0: f7b0 993d 1dbc 673d b2ea cfbc b08a debc
000003e0: 69fc b7bd dc2b 893d ca87 b33d 87ad 3dbd
000003f0: 14e0 513c 10a0 fdbd 8fb9 a03c ec24 f43c
-0.012570396 0.02618561 0.00962239 -0.04080391 -0.005384377 0.024761546 -0.16367054 -0.027397506
-0.07059411 0.0017925708 0.051569518 0.089718424 -0.17763564 0.072938554 -0.05435944 -0.002348837
-0.021930728 -0.13930406 -0.165404 -0.12717657 -0.029694283 -0.08450732 -0.026354864 0.016037628
-0.048092533 0.07284735 -0.066979215 -0.122048214 -0.03168261 -0.01341461 -0.05924299 -0.05804432
-0.017594794 0.04345521 -0.15703653 0.011991982 -0.063107945 -0.12869824 -0.0025097374 -0.009322584
-0.103739865 0.093550034 -0.008550166 0.010477587 -0.10396836 -0.0151329525 -0.01911785 0.011455983
-0.08856162 -0.14646518 -0.058756743 -0.16079763 -0.04709624 -0.121174075 -0.022630423 -0.09972822
0.1163071 0.022952178 -0.0200873 0.0035427539 0.0027903374 0.12423896 -0.14500825 0.025472144
0.04478761 0.09061098 0.012905335 -0.05424469 0.035677787 -0.022881102 0.12987132 -0.1381657
0.11048454 0.038723648 0.032353383 -0.07616541 0.13177067 -0.07392028 -0.04940138 0.06188718
-0.01849132 -0.1363578 -0.011185426 -0.10634508 -0.10762687 -0.035806555 -0.09396069 -0.08527306
-0.09490766 -0.11244081 -0.17288864 -0.03125566 -0.062780276 -0.024244113 -0.107889004 -0.14757565
-0.08917908 -0.13289525 -0.1352714 -0.08055417 -0.18620656 -0.04062197 0.079127535 -0.060779497
-0.15206097 -0.092078544 -0.08292403 0.12727532 0.038189813 -0.11142675 -0.09935876 0.07044909
-0.09703265 -0.11413345 -0.05031093 -0.0813333 0.06337921 0.012490579 -0.12815621 -0.09469478
0.093833216 -0.0881566 -0.03053654 -0.009036406 -0.11704308 -0.117583185 0.07378314 0.08918866
0.0020681173 0.059412897 0.039479926 -0.099199735 -0.11734769 0.05977709 -0.026961615 -0.031590655
0.042148676 0.0700771 0.014855704 -0.021368345 0.03537301 0.06879191 -0.061673913 0.06341776
0.034153193 -0.031476997 -0.04796207 0.05072175 -0.0054081697 -0.077631176 -0.1039367 -0.043920513
0.046665233 -0.14876929 -0.13719374 -0.15672557 -0.06688913 -0.00024990898 -0.17447905 -0.117131546
0.05067666 0.0044336217 -0.02923211 -0.05405656 -0.117255196 0.022292707 -0.011551695 -0.12080198
0.10071127 -0.078048356 -0.06215721 -0.008566362 0.029511424 -0.14913328 -0.120641045 0.044224128
-0.059315898 0.0815947 0.06920916 -0.011015261 -0.08531312 -0.09126415 -0.030062519 -0.097177505
-0.06761417 -0.0017041501 -0.09340962 -0.06139102 -0.11206915 -0.10272682 -0.11687415 0.020497935
-0.004181453 0.0085038645 -0.12401463 0.03619976 -0.013148627 -0.0018954561 -0.11095726 0.09714374
0.008122052 -0.040578365 -0.049483396 0.02264862 -0.025559688 0.036977768 -0.15182297 -0.0071446733
0.0082433615 0.07540905 -0.19623198 -0.05179202 0.04545588 -0.11289712 -0.13761455 0.039764743
0.033981692 0.06946184 -0.061870236 -0.1289641 -0.017800372 0.0025429577 -0.21919025 -0.028462412
0.0009244668 -0.12356743 -0.07977094 -0.07659376 -0.15328062 0.01842973 -0.10326461 0.042421944
-0.0802312 -0.044529013 0.014529982 -0.07800385 0.0050954125 -0.059770875 -0.021670744 0.056285974
0.06835263 -0.07275243 -0.13465177 0.094065 0.075044565 0.056575883 -0.025380466 -0.02716574
-0.0898369 0.06697819 0.08766134 -0.046308067 0.012809772 -0.12384045 0.019619731 0.029802762

critic.0.bias f4 [1024]
00000000: b2fc 57bd f4a4 063d a6ff a4bd 1bad cdbd
00000010: 0fcb 163e d8a8 423d 16db 423b 4619 823d
00000020: 705b 143d d87d 61bc a1a0 6f3d df69 22bd
00000030: d52b 96bd 7f38 6fbb e4fd 553c 7d27 273e
00000040: 5923 a6bd 6821 65bd 6d27 063c d6cc 89bd
00000050: 248e c13d 29f7 263e 4617 7ebd 4300 a1bd
00000060: 0dc0 653c 9e61 b73b 71c7 e83d 0044 62bd
00000070: 8846 023d f70e d43c d1df edbd 0b0a bbbd
00000080: 7c21 5fbd f622 5a3e 4ff6 adbd d77f 293e
00000090: 102f 49be 6c1a 94bd b905 54bd 996a ebbd
000000a0: 9370 ffbb 755d 7b3d 9dbd d8bd e451 1fbe
000000b0: a635 8f3c 8e77 0c3d 648c d7bc 54b1 84bd
000000c0: 629e a9bb fa25 7f3d f137 f73d df70 11be
000000d0: 25fe cebd e2d8 493d f316 083d 6071 24be
000000e0: 42c8 483d 4a2f a8bd 41c4 62bc af00 093e
000000f0: 86ff ca3d e8f7 d63c 5d03 80bd e473 f4bd
00000100: 64c8 3ebd 021d d43d a722 993d 2392 bcbd
00000110: ea9c 2d3d dbf5 2a3d 21ed e4bd 554a 193d
00000120: 0215 63be 0d6c 173d fa15 ef3c 1cc8 47bd
00000130: bc0d 34be a7a6 d03c 5a31 19be 97a2 12be
00000140: e2fe 99bd 9364 f53a 2d58 3ebd 97f9 293e
00000150: b6cd 133d 7aff 85bd 2b62 213e a5f0 57bd
00000160: dc92 153d 4ead c4bd 832d 783d 68b8 a73c
00000170: 2c38 ae3d c79b e5bd b9a5 fc3d 9084 953d
00000180: 783f 3dbe 219e 263e c374 efbd 9ea2 28bd
00000190: 5f10 4abd 05c5 33be f11f 7a3d 0bb1 f83d
000001a0: d81c 343d e587 a83d ebc7 183e 8990 19be
000001b0: ae48 84bd 4152 8abd 6174 6dbd f2d7 d53d
000001c0: 2467 9cbd 298f 39be ae12 deba 6767 86bd
000001d0: d9bc 88bb eddc 773d 97bc e53c 3c8b 9bbd
000001e0: 23be f2bd 47fb 62bd 2d00 9dbd 554a 923d
000001f0: 498b bdbd 3520 bebd d821 943b 4be4 42be
00000200: e03e 5a3d e6e0 d3bd 31fa b2bd 818d 3b3d
00000210: 48b1 f3bc dbb9 f9bd 305b bdbd 8c4b f9bd
00000220: 5423 97bd 4e64 b3bc 01ab b83d c600 86bd
00000230: bdbc 83bc 27c4 3fbc 6d8b 8e3d 9c3d 9e3b
00000240: 70e8 ee3d ffaa cfbd 5233 f63c aef2 d5bd
00000250: 94ad a3bd 32fc b0bc 7528 26be 64f7 13be
00000260: 564b 1bbe ae46 8e3c 1e6c 673b 7e9f 1a3e
00000270: d6f7 ebbd 1564 01be 37a8 e43d 0774 673d
00000280: b4f7 933d 93a6 c83d 86f8 e3bb 065c bf3d
00000290: 8611 73bc 8f83 adbb 9705 64bd a234 51bc
000002a0: 2937 eb3d e575 923d bca8 9fbd 5a81 e6bc
000002b0: 821e 143e e5b4 853c 65f8 91bd 307c cabd
000002c0: 9366 893d 2a55 d6bd 2cf8 7abd 67eb 7b3d
000002d0: 7479 673d 8c21 b4bd d65b 87bd 0ab1 1cbe
000002e0: 8a2f 053e dc98 02bd a3cb 943c cb99 bdbb
000002f0: 12c7 e63c 1045 f03c 2ea4 5c3e f979 77bd
00000300: 875b 0cbe dcef 5dbe d7fd 89bd 0fbe 913c
00000310: 36c8 3abd 3a10 2dbd 8255 41be 4b0d d43b
00000320: 96be 0b3d ac61 f63d 773c 963d c000 bc3c
00000330: fff0 ebbd 1040 91bd aece 023c 19cf e63c
00000340: 2bce 49bd 769b 54bc e100 383e b547 7b3d
00000350: 2c37 88bd fa86 06be 8763 063e 904e 143d
00000360: bee9 f3bd 21c4 a43d 319b eabd 30d8 b13c
00000370: c53e 38be f0bd d43c d6cd 103e d63a 0cbc
00000380: e95a 873d 6269 3c3d 604e adbd f776 8fbd
00000390: 35b6 b3bd 5cfb 7dbd 1c9d 733d 1bd2 8b3d
000003a0: 9c1f 25bd a0bf 203d 3428 453d 7e63 a8bd
000003b0: dec6 3c3e cf76 193d 10f6 9ebc 9950 30be
000003c0: 20df 39bc 3514 aabd 8589 a33d c80c 9bbd
000003d0: 168c 0cbe 00dd 27bd 304d fb3d d9ea 59bd
000003e0: ea96 3e3e 3bd4 febd ef89 7cbd 427b 73bd
000003f0: c432 863d 4d88 183d 5f26 0fbe 0a4f 2e3d
-0.052731223 0.032872155 -0.080565736 -0.10042783 0.14725898 0.047524303 0.0029732636 0.06352477
0.036220014 -0.013762914 0.058502797 -0.039651748 -0.07332579 -0.003650218 0.0130610205 0.16323657
-0.08112211 -0.05594006 0.008188111 -0.067285225 0.09450939 0.16305222 -0.062033914 -0.07861378
0.014022839 0.0055963537 0.113661654 -0.05524063 0.031805545 0.025886042 -0.11614955 -0.09132775
-0.054475293 0.21302399 -0.08494245 0.16552673 -0.19646859 -0.07231602 -0.05176327 -0.11494941
-0.0077954023 0.061368424 -0.10583041 -0.15558583 0.017481636 0.034293704 -0.02631206 -0.06479135
-0.0051763514 0.062292077 0.12071217 -0.14203213 -0.10107068 0.0492791 0.03322501 -0.16058874
0.049019106 -0.08212145 -0.013840736 0.13379167 0.099120185 0.026241258 -0.062506415 -0.11936167
-0.046577826 0.10357095 0.074773125 -0.09207561 0.042385973 0.041738372 -0.11178041 0.037424404
-0.22175983 0.03696828 0.029185284 -0.048774824 -0.17583364 0.025470091 -0.14960232 -0.14319836
-0.07519318 0.001872199 -0.04647081 0.16599117 0.036084853 -0.06542869 0.15760104 -0.05271973
0.03651701 -0.09603368 0.06059028 0.020473674 0.08506808 -0.11211353 0.123362966 0.07300675
-0.18481243 0.16271259 -0.116921924 -0.04117071 -0.04933202 -0.17555626 0.061065618 0.12143143
0.04397282 0.08229045 0.14920013 -0.14996542 -0.06459175 -0.0675397 -0.057972316 0.10441579
-0.0763686 -0.18121018 -0.0016942823 -0.06562691 -0.004172903 0.060513426 0.028044028 -0.07594916
-0.11852672 -0.055415418 -0.07666049 0.07143084 -0.09255082 -0.09283487 0.004520636 -0.190324
0.05328262 -0.1034563 -0.087391265 0.045789246 -0.02974762 -0.12193652 -0.09245908 -0.121726125
-0.07379785 -0.021898415 0.090169914 -0.06543116 -0.016081208 -0.011704481 0.06960187 0.0048291218
0.11665428 -0.10140037 0.030053768 -0.10446678 -0.07992092 -0.021604631 -0.1622637 -0.14449841
-0.15165457 0.017367687 0.0035312246 0.15099904 -0.1152188 -0.12635835 0.11164897 0.056507137
0.0722498 0.097973965 -0.0069571165 0.09343724 -0.014835721 -0.005295224 -0.055669393 -0.012768896
0.1148513 0.07151393 -0.077958554 -0.028137852 0.14464763 0.016321609 -0.071274556 -0.09886968
0.067090176 -0.104654625 -0.06127183 0.061503794 0.05651231 -0.08795461 -0.06609313 -0.1530191
0.13006416 -0.03188406 0.018163508 -0.005786156 0.028171096 0.029329807 0.21547005 -0.060419057
-0.1370679 -0.2167353 -0.06737869 0.017790822 -0.045601092 -0.042251803 -0.18880275 0.006471311
0.034117304 0.12030348 0.073357515 0.022949576 -0.11520576 -0.07092297 0.007983847 0.028174924
-0.049268883 -0.012976518 0.17969085 0.061347682 -0.06651148 -0.13137427 0.13123904 0.036207736
-0.11909817 0.08045221 -0.11455382 0.021709532 -0.17992695 0.025969476 0.1414102 -0.008558949
0.066091366 0.04599894 -0.084622145 -0.070051126 -0.087749876 -0.062007293 0.059476003 0.06827184
-0.04031335 0.039245248 0.048134044 -0.08222102 0.18435237 0.03746682 -0.019404441 -0.17218246
-0.011344701 -0.083046354 0.07985214 -0.07570797 -0.13725314 -0.040982246 0.12270582 -0.053202484
0.18612257 -0.124428235 -0.06165498 -0.05944372 0.065526515 0.03723936 -0.13979481 0.042555846

critic.2.weight f4 [1, 1024]
00000000: ac48 11bc 8cff 5f3d 50ad 8ebc d7cd 1ebc
00000010: ef2c 49be 35ca dfbd 8412 4ebe 6b6e 66bd
00000020: 4b85 71bc 196b f7bd 33cb ce3d 3bf0 10be
00000030: a665 0e3d 4058 e13a 6104 70bd 13ec fbbd
00000040: 129c e2bd d7e9 dcbb b51b 99bd 843f 823d
00000050: 70ae 733e 9eb2 babd 1219 9a3b 0af5 173d
00000060: 7865 a33b 4253 22bd 4aa4 6dbe 8b43 d1bc
00000070: be86 75bc 807e 2838 25b9 963c b877 da3d
00000080: 4c62 c4bc d3b0 7fbe ad2d 36bc f6ab 17be
00000090: 574d 7fba 01a2 763c b3b7 23be 0a26 0e3d
000000a0: 79e1 0b3b 7558 14be 166f 303d 591d b63d
000000b0: 932b 68bd a949 25bb 51db 99bc 9678 4e3e
000000c0: 0c78 07be ff9d 6abc 2df6 ee3d 72f0 b83d
000000d0: a76c 123d acf4 023d 7019 1bbe e0bd e73b
000000e0: ffc8 143d b0ca 963c 5817 553d 3d31 97bd
000000f0: 7fc0 2dbe 5f9e 60bd c39d 2d3d d6c8 663c
00000100: 5926 5b3d 26c0 3bbb e9c4 adbb 1dfb 583b
00000110: ad43 9fbc 865e 91bd d3cd 05bd 9d42 0bbe
00000120: 8355 9f3d 08f0 d1bc eea0 a23d aa5d 383d
00000130: 2f81 9eba 5f08 7c3a b49b 013c 1081 fe3c
00000140: ca4d 073d 0132 a13d f3bf ab3d 5896 55bd
00000150: dcf7 4bbd 2cc9 ef3c 7ac5 55be bd97 96bc
00000160: 3998 19bd 200c 383d 467e ef3c 9b32 8abc
00000170: 02db aebd fb79 643d 4de6 ccbd a583 97bd
00000180: 0e44 5c3d 134a 093c 3d69 383d c289 41be
00000190: 1aea 2c3d aa92 2fbb a526 99bd 1e87 0fbe
000001a0: 0755 1dbc 8039 19be d213 e0bd ffdb 763d
000001b0: 50c0 ac3d 8432 02be 2483 b43d 854b c7bd
000001c0: a8cb 1a3d a1dd ba3d 0b3e 963c 04c5 a03d
000001d0: 2251 4d3c be55 f93c 2bd2 303d 9763 2cbd
000001e0: 1c33 8e3a fb1d ea3c fad7 233c 9f6b 1ebd
000001f0: a959 0f3b 529a 033d a8da b13d 477b 4cbc
00000200: 943b baba 33b2 fc3c 6746 373d 6fcb 2fbe
00000210: 18ad 593a e51c 203b 84f6 7cbd 0fb7 d0bc
00000220: 18a7 893a cd9b a1bd 5438 0b3d 9e1c e83c
00000230: 01e6 2b3d af9f 313d ab0a 56be acda a3bd
00000240: c589 bdbd 7524 d03c f384 083d d0d6 abbb
00000250: b895 ef3c 7c3d 10bd 3174 f0ba ff59 aa3b
00000260: 20cc 7739 dab6 713a 8a03 b0bd 9368 cdbd
00000270: 610c 473c 68dc 4a3d bcc8 00be 2897 8fbd
00000280: f4f5 00be 0eb7 68bd c36f 313a 576d 13bd
00000290: 0d04 1fbe d631 05bd 7489 e638 b167 31be
000002a0: 59e7 39be 82c2 07bb 2e17 4038 5526 89be
000002b0: 7f10 41be 0c54 123b 0195 e4ba f435 c6bc
000002c0: bf7d 04be ac69 ba3d 134a 7d3d 3f68 ac3d
000002d0: e305 45bd d417 b3bd eb56 8bbb a448 263d
000002e0: 25ea bf3c 1433 ad3c 4e71 413d 2e9e 423e
000002f0: f004 2dbd 271d bf3d 09c8 13be 76ee 82bd
00000300: c887 08bb 8e08 cbbb d902 83b9 2834 b53d
00000310: f03b bbbd aebc 653c 77b1 6ab8 481a 853c
00000320: a355 513d a347 3bbe 61db 4cbe 6faf 02be
00000330: 308b 273c dc7d 163e 845d 34bd 4436 80bb
00000340: 8ba4 e33c 3776 2a3c 0cf0 27be 5e42 713c
00000350: a69f 18ba a75d a03d 3d71 0dbe 872f 1cbe
00000360: f71f 2a3c 4580 b4bd 6d5f 883d 8c48 ea3c
00000370: 469d b03c 14da 0a3e e8ca 09bd 49e1 f7bd
00000380: 0a97 123b 2aa4 f23d f8ec 7ebd 932a 1fbe
00000390: 889f 353c b7ec 04bc 4563 dfbd 1198 fd3a
000003a0: 45a1 b5bd cb6f 873c 6c33 68be 7b90 d6ba
000003b0: 74ef 0abd 3a05 083d f9f0 a6bd dca0 943d
000003c0: a20b e83d 92cc 4a3d 0c25 d2bd 620b 31bc
000003d0: 3756 2f3e 7c37 7bba c598 78be cbed 91bd
000003e0: 34e4 28be d5d9 083b 5619 9f3d 5067 dabd
000003f0: 0c77 53bd 42da 3d3a 79f7 57bb 3a25 15bd
-0.008867424 0.054687068 -0.017416626 -0.009692631 -0.19646047 -0.1092724 -0.2012425 -0.056257647
-0.014741252 -0.12080974 0.10097351 -0.1415414 0.03476491 0.0017192438 -0.058597926 -0.12300887
-0.11064924 -0.006741743 -0.07475988 0.06359771 0.23797011 -0.091161 0.0047026956 0.03709892
0.0049864613 -0.039630182 -0.23207203 -0.025544902 -0.014985738 4.0172134e-05 0.01839883 0.10667366
-0.023972653 -0.24969797 -0.011119288 -0.14811692 -0.00097390026 0.015053273 -0.15988044 0.034704246
0.002134411 -0.14486869 0.04307469 0.08892316 -0.05668218 -0.0025220907 -0.018781336 0.20163187
-0.13229388 -0.014319896 0.11668048 0.09030236 0.03574815 0.03197162 -0.15146422 0.0070721954
0.036324497 0.018407196 0.052024215 -0.07382438 -0.16967963 -0.054838534 0.04238678 0.014085969
0.053503368 -0.0028648465 -0.0053030145 0.003310866 -0.01944145 -0.07098107 -0.032666992 -0.1359963
0.07779982 -0.025627151 0.07940851 0.0450112 -0.0012092943 0.00096142845 0.007910658 0.031067401
0.03303317 0.078708656 0.08386221 -0.052145332 -0.049796924 0.02927073 -0.20876113 -0.018382901
-0.037498686 0.04493344 0.029235017 -0.016869834 -0.08537866 0.055780392 -0.10004864 -0.07398156
0.05377584 0.008379477 0.045022238 -0.18900207 0.042215444 -0.00267903 -0.07478074 -0.14016387
-0.009602792 -0.14963341 -0.109412804 0.0602684 0.08435118 -0.12714583 0.088140756 -0.09731201
0.037791878 0.091243036 0.018340131 0.07850078 0.012531551 0.030436393 0.04316918 -0.042087164
0.0010848972 0.028578749 0.010000223 -0.038676854 0.002187351 0.032129593 0.086842835 -0.0124805635
-0.001420843 0.03084669 0.044744875 -0.17167448 0.0008303686 0.0024431285 -0.061758533 -0.025477914
0.0010502068 -0.07891045 0.033989266 0.028333958 0.041967396 0.043365177 -0.20902507 -0.08000693
-0.09254793 0.025408009 0.033329915 -0.0052441135 0.029246196 -0.035214886 -0.0018345175 0.0051987167
0.00023631798 0.00092206674 -0.08594425 -0.100297116 0.012148947 0.049526602 -0.12576574 -0.07011253
-0.12593824 -0.0568152 0.0006768668 -0.035992946 -0.15528889 -0.03251823 0.00010992857 -0.17324711
-0.18154658 -0.00207153 4.5797955e-05 -0.26787058 -0.18853949 0.0022327928 -0.0017439426 -0.024195649
-0.12938593 0.091021866 0.06183822 0.08418321 -0.048101317 -0.08744779 -0.004252305 0.04059662
0.023427079 0.02114252 0.047227196 0.19005653 -0.042241037 0.09331732 -0.14431776 -0.06393139
-0.0020832885 -0.006196088 -0.0002498839 0.08847839 -0.091422915 0.0140220355 -5.5955225e-05 0.016247883
0.05110706 -0.18289046 -0.20005561 -0.12762235 0.010226056 0.14696449 -0.044034496 -0.003912719
0.027788421 0.010404161 -0.16400164 0.014725296 -0.00058221293 0.07830363 -0.13812728 -0.15252505
0.010383598 -0.08813528 0.06658826 0.028599046 0.021559369 0.13559753 -0.033640772 -0.121035166
0.0022367858 0.11847718 -0.06223771 -0.15543585 0.0110853985 -0.008113078 -0.10907606 0.0019347687
-0.0886865 0.0165328 -0.22675866 -0.0016369963 -0.033919767 0.03320811 -0.08151431 0.07257244
0.11330344 0.0495115 -0.102609724 -0.0108059365 0.17122732 -0.0009583158 -0.24277027 -0.071254335
-0.16493303 0.002088179 0.07768504 -0.106642365 -0.051627204 0.0007242301 -0.0032953902 -0.036412455
