results/env01/a2c/512-nodecay-new-19500/model.pth (torch, 532879 bytes, 7 tensors)

actor.0.weight f4 [512, 127]
00000000: 5d8e 83bd e46e 783d 3b3b ef3d 6b66 3ebc
00000010: 88a8 b3bc 59d7 2e3d 5b40 82bd e5f0 5d3d
00000020: 32e1 48bc e3d3 c43d a16d 2dbd dcfe a5bd
00000030: eda3 9e3d 69c1 a13d 3531 7abd ef0a 703d
00000040: 8bd4 daba d7bc afbb 7a3b 8e3d 3884 933d
00000050: 9745 fe3c 302b b53c d873 a2bd fbc7 0d3d
00000060: 67e6 a03c 195c 973c 7ec1 db3c fc01 913c
00000070: 9d20 20bd 070b b9bd fbd8 a53d 49c5 bf3c
00000080: bcaa 4abd 2bbc 9abd 018c 5cbd bd0b 70bd
00000090: bde4 18bd c534 c53b 9751 8bbb ce9e 133d
000000a0: eed2 84bd dec2 16bd cf6a 2b3d 46af ce3d
000000b0: a5c4 ea3c d5e2 1ebd b4bb a8bd 6815 933d
000000c0: 63ea 88bd 5494 15bd 040e 1e3d be27 a43c
000000d0: 5ac0 adbc c1e8 e03c 4a23 373d e941 843d
000000e0: 9443 b73a 11dc bd3c f61c 913d 90e1 1abd
000000f0: 7430 363c 9de6 283c b006 9f3d d0fd 573d
00000100: 00e5 aabd a9bb 723c 3cc1 4a3b d441 76bd
00000110: 65e5 4c3c 99f3 a93d b1c7 1fbd f5e2 3e3c
00000120: 8d73 f43c 0155 403d cb93 45bc e7b0 98bd
00000130: 8046 52bd a62c ab3d 8c4d 45bd 3690 fabd
00000140: 2e97 873d 2e9b 16bd dcb3 4d3c 08b3 b9bc
00000150: 0a5b 02bd 12e1 053d 6af5 15bd 020d 593b
00000160: a2a3 153d 5060 9c3c 73eb 89bc 7a1c c3bd
00000170: c4ad a6bc 664a 163d 71ac 883a 576a d6bd
00000180: dd7f f23d cb8b 8fbd cb8a ba3a 7f49 5cbd
00000190: 159c f83c 0336 d3bb 556a c93c cac7 c0bd
000001a0: adcc 603d 3af4 80bd c3a2 a1bc 7feb aebd
000001b0: fb63 4f3d 47ad d03b 33fc 26bd 30eb 043d
000001c0: 646a 8e3b 3e33 aa3c 798f 84bd d852 b63b
000001d0: 7991 333d b587 4cbc 5695 813a ae55 abbc
000001e0: 080d afbd b5f7 29bd 022d c23a 1db3 d13c
000001f0: 5074 03bd 1b54 483c f50d 023d e8f1 f33c
00000200: e712 54bc d08a 72bd df54 083d 410e 63bd
00000210: 8ccb 7a3c 942c 43bd d352 b43b 9f1d d739
00000220: 216a c03a f1d4 4c3c e4e7 563d 56e7 a1bc
00000230: 7ca8 b6bd dcd0 813a 05d6 153d dcbc 933c
00000240: 2517 083d 6006 493c 0954 a33d e010 243d
00000250: 549c 02bb ad29 92bd c083 2ebc 47a2 3c3c
00000260: 4e86 babd 6dd2 233d a6dc 5b3d f618 3abd
00000270: 91d0 583d 6c24 08bd 6543 9d3b 21f8 94bd
00000280: 397b 61bd d4ff fd3c 2e8c e0bc 2b21 993d
00000290: cd0b 143c 6550 46bd 0c4e b03d 2af2 64bd
000002a0: 4cfc ac3c 7d7d 72bc 6e4f 0cbd c9a5 acbd
000002b0: db52 b33d 7983 073d 80ae 613d fd8c b43a
000002c0: 3d4d 543d b355 8ebd 016f 863c 07a3 cabd
000002d0: acd9 cb3d 7746 33bd 0aef 80bc 0a7c 01bd
000002e0: 0814 36bd 92dd debb f3eb 783c 24fe 203d
000002f0: fd83 df3c 4725 c83c c2b9 e43d 9189 b9bd
00000300: 120f d2bd a956 10bb e2df aabd c8bc 183a
00000310: 164f 82bd e8bc 1fbd 4763 8f3d acc9 673c
00000320: 333e 713d 4e76 9cbd 1add 023a 272a 6ebd
00000330: 1559 3e3d 0923 9c3d 0e7b 2cbd f10f e0bd
00000340: 0650 89bb 9e4c 6dbd e831 f6bc 5946 eabc
00000350: 2290 fbbc 997b bf3d 0b5d 34bd d3b9 b3bc
00000360: c0e1 e13d b4a8 a53d 7f5f 6fbd d5b4 eebc
00000370: a264 36ba caab 723c 98b5 debc b2d2 333d
00000380: 6174 94bc a6bf 4dbd 14e9 0a3d fe20 f03c
00000390: 74f9 8c3c 7c7d d6bc 9ada 37bd 7ae4 7c3d
000003a0: 88e7 25bd 9d4c 693c 9774 0e3d cc9b 8a3c
000003b0: ab9d fb3c b95a 8dbc e6b1 9d3d 323d 4b3d
000003c0: 4755 203d 2764 273c 264a 6e3c 9a9c 8abd
000003d0: 7cc9 d33b 30f0 393d fcd8 793d b824 20bd
000003e0: 2cca 6abd 96ac 963d f648 443d af43 133d
000003f0: 8c42 f3bc 0c33 113d 3af5 5abb 74ef 533d
-0.06423638 0.06065263 0.11681219 -0.011621098 -0.021930948 0.04268584 -0.06359931 0.054184813
-0.012260722 0.09610727 -0.04234088 -0.08105251 0.0774611 0.07898218 -0.061082084 0.058604177
-0.0016695423 -0.0053630876 0.06944938 0.07202953 0.031039042 0.02211532 -0.07932252 0.034614544
0.019641114 0.018476533 0.026825663 0.017701142 -0.039093602 -0.090353064 0.08098026 0.023409503
-0.04947923 -0.075554214 -0.053844456 -0.058604944 -0.037327517 0.0060182535 -0.0042516696 0.03604012
-0.06485544 -0.036806934 0.041849907 0.100920245 0.02865822 -0.038790543 -0.082389265 0.07181817
-0.06685331 -0.03651841 0.038587585 0.020038482 -0.021209884 0.027454736 0.04471139 0.06457884
0.0013981932 0.023176225 0.07085602 -0.03781277 0.011119951 0.010308889 0.077649474 0.05273229
-0.083444595 0.0148152495 0.003093793 -0.060121372 0.012505864 0.08298416 -0.0390088 0.01165079
0.029840255 0.046956066 -0.012059162 -0.074556164 -0.051336765 0.083581254 -0.048169658 -0.12234537
0.06620632 -0.036769085 0.012555089 -0.022668377 -0.031825103 0.032685347 -0.036611 0.0033119326
0.036533006 0.019088894 -0.016835904 -0.09526916 -0.02034653 0.036692046 0.0010427368 -0.104695015
0.11840794 -0.07009085 0.0014232037 -0.05378103 0.030347863 -0.0064456477 0.024586836 -0.09413107
0.054882694 -0.062965825 -0.019730931 -0.08541011 0.05063246 0.0063683125 -0.04076786 0.032450855
0.004346179 0.020776387 -0.06472678 0.005564075 0.043839905 -0.012483527 0.0009886425 -0.020914879
-0.085474074 -0.041495997 0.0014814439 0.025598103 -0.032093346 0.012227084 0.03175159 0.029778436
-0.01294396 -0.059214413 0.033284064 -0.055433515 0.015307318 -0.047649935 0.0055030375 0.00041030065
0.0014680066 0.012501941 0.052467242 -0.01976363 -0.089188546 0.0009904164 0.036581058 0.018034391
0.033225197 0.012269586 0.07975013 0.040055156 -0.0019929605 -0.07136855 -0.010651529 0.011513299
-0.09107648 0.0399956 0.053677224 -0.04543396 0.05293328 -0.03323786 0.004799294 -0.07273889
-0.055049155 0.031005777 -0.027410593 0.074770294 0.009036017 -0.048416514 0.08608636 -0.05589501
0.021116398 -0.014800427 -0.034255438 -0.084300585 0.08756038 0.033084366 0.055098057 0.0013774928
0.051831473 -0.069499396 0.016410353 -0.09894376 0.09953627 -0.043768372 -0.015738983 -0.031612433
-0.044452697 -0.0068013156 0.015192973 0.039304867 0.027284617 0.024431838 0.11168243 -0.09059442
-0.10256781 -0.002202431 -0.083434835 0.00058264704 -0.06362741 -0.038998514 0.070013575 0.014147203
0.05889721 -0.07639752 0.0004992053 -0.05814567 0.046471674 0.0762387 -0.04210954 -0.109405406
-0.0041904477 -0.057934396 -0.030053094 -0.028597998 -0.030708376 0.09349746 -0.044034045 -0.021939194
0.110293865 0.08088818 -0.05844068 -0.029138962 -0.00069577445 0.0148114655 -0.0271862 0.043902107
-0.0181219 -0.0502316 0.033913687 0.029312607 0.017208792 -0.026182882 -0.04488621 0.06174133
-0.04050401 0.014239457 0.034779157 0.016919993 0.03071483 -0.017255174 0.07699947 0.049618907
0.039143827 0.010216749 0.014544046 -0.06768151 0.006463228 0.045395076 0.060997948 -0.039097518
-0.057321712 0.07357137 0.047921143 0.03595322 -0.029694818 0.035449073 -0.0033410327 0.051742032

actor.0.bias f4 [512]
00000000: 8180 d2bc fc62 03bc 242d 5abd e849 98bd
00000010: 1865 053d 773c 20bd 7e61 753c 807e cdbd
00000020: f70c 00bd 7add 33bd 8678 003c 3306 753c
00000030: 29ca 1f3d 1b59 063d dd19 2dbd 2962 113c
00000040: b33e d3bb 87e4 8bbc b0f5 523d 0abb 3f3d
00000050: 931f 563d dd64 4c3b 7784 a83b e2dc 1cbd
00000060: 11f4 063c 0d65 fbbc b04d 9b3d adda 623d
00000070: bff0 aabd 00fb 7d3d 9722 ac3d e8ea c5bd
00000080: c3a0 bf3c 5c72 943d 78ac b13c c7dd 4ebd
00000090: 3406 b7bb 5f3f 303d 246f 5dbd c758 b13d
000000a0: fa1b a93c 578f d03b 49da 11bd 13c8 9f3d
000000b0: b680 bfbd 1268 4dbc 95d8 503d 5ba3 a1bd
000000c0: 66e2 863d 4598 c23b cfcc 91bd 4dc5 56bd
000000d0: a0fa 1b3d 0a49 163d ee66 943d c587 69bd
000000e0: 005f 80bd 5711 133d 5e01 10bd bb7f 6f3d
000000f0: 7e50 9c3c baa5 733d 3b6d 2d3c 6775 e93c
00000100: 6f65 a2bd 5877 9fbd 8f33 363c b2ae 38bd
00000110: a19a 343c f9ff d03c e9d5 16bd 18bd 2f3d
00000120: 2177 35bd 4647 c13d c87c ee3c b5ae f43c
00000130: c5e5 653d 0744 59bd 94b3 95bc 5e3b 7f3d
00000140: a883 62bd 09cd 9e3d 6753 943d a571 9cbd
00000150: 9294 8e3d 9f58 41bd aeea 33bd 90cd 72bd
00000160: ba09 573d c6c6 95bb 15e6 58bd a018 8f3d
00000170: e76d 3c3c 0b93 a6bd 8755 afbd e679 7b3d
00000180: fbd1 27bd b5ff c8bc 8edc b2bc f08f a53d
00000190: b0d7 55bd 8560 e1bc 9196 70bd 972f bd3d
000001a0: f988 99bd ecc1 7fbb 5e92 abbc 19f0 0cbc
000001b0: c580 a33d ddb3 bb3d 5f66 8dbd 6c0b d3bc
000001c0: 956e e53c 07f9 fabb f07f bd3c 32e3 7abd
000001d0: 7685 4c3d 4c86 a43d 3a2e a73c 0169 18bd
000001e0: 4f13 993d 47cd e1bc 1ca6 3ebd fa61 8d3d
000001f0: cfd6 0dbd 1434 9abd 860e 88bd df9b e83c
00000200: 7a4a 333c db81 a3bd 8121 213d 96f3 d73b
00000210: d5bd 4c3c db80 b4bd 018d 92bd b9e7 983d
00000220: 5b8b 5abd d4dc 343d 9a93 e2bc fc1d b43b
00000230: 2396 57bd de18 b0bd e76d 4b3d 1229 933d
00000240: e582 353d a577 bf3c 6cfa 8cbd f86d 3abd
00000250: 764f 85bc 5ce4 e0bb 32ee bbbc 0b93 63bc
00000260: 64a3 b4bd aed7 54bd df75 a03c 9309 88bb
00000270: 138d 893a f193 ed39 9c68 f03a bef3 5ebb
00000280: 8e72 16bd 10f5 36bd 6be0 643b 8f71 b3bd
00000290: 5dc3 b33d cc8e 8a3d 8316 18bc 67ff a53d
000002a0: 7ec6 a1bd a95f c13d 7840 f83c b0a6 b43d
000002b0: aa53 2c3d b3ed d93b 5584 963c 0401 4e3c
000002c0: d07b 6cbd 5722 12bd b5fc c73d e50c fe3a
000002d0: d88a 433d d9b5 ae3d bcc2 36bd 32da a9bd
000002e0: 5edd 2d3d 6922 643d 06bd 73bc 11a3 693c
000002f0: d3ba dfbc cba1 3c3d 6f44 abbd 07c1 443d
00000300: 3ea2 85bd a690 ff3c a4bd 703c 1564 1fbd
00000310: d82f 01bd 57b2 15bc b571 ec3b 853b 1a3d
00000320: 388d 73bd 3a03 eb3c e7f4 b1bb 7e51 b73c
00000330: a631 65bd c149 86bd 19a7 89bd f179 6cbb
00000340: efe8 6d3d 91cf cb3c e956 743d 8fec 5e3d
00000350: 758b 62ba f00e 8bbd 572f a2bc 1479 7ebd
00000360: c23c 5fbd e67e 9abd 4ec3 d93c 2626 4d3d
00000370: bbf5 febc 5c21 973c e10b 02bc e190 fe3c
00000380: ffb0 96bd 422b 8bbd b3cc 31bd dfe2 80bd
00000390: 2cd4 f53b 4d1e 89bd 5a24 fb38 fa1c 22bd
000003a0: 65ea 933d 69f9 413c 22b7 113c 4b76 b83d
000003b0: 720f 8fbd 365b d53c 64a2 48bd 5a74 fc3c
000003c0: b5e8 473d e462 af3d ac47 313d 4805 9cbd
000003d0: 5e60 813d bfed 0a3d 1449 76bd fc0b 973d
000003e0: d94e 193d 9bdd 3fbc 4bfc 9d3c 9e14 a33d
000003f0: 249d 7b3d 2d1c 8cbd 5515 d53d 30f7 b1bb
-0.025696041 -0.008019205 -0.053265706 -0.074359715 0.032567114 -0.039120164 0.014976857 -0.100338936
-0.031262364 -0.04391239 0.007841235 0.014955091 0.039011154 0.03279982 -0.042260993 0.008873501
-0.0064466833 -0.017076744 0.051503837 0.046809234 0.052276205 0.003118805 0.005142744 -0.038296588
0.008236901 -0.030687833 0.07583177 0.055384327 -0.083467 0.06200695 0.08405035 -0.096639454
0.023392087 0.07248375 0.021688685 -0.050504472 -0.0055854563 0.043029185 -0.05406107 0.08659511
0.020643223 0.0063647437 -0.035608564 0.07801833 -0.093507215 -0.012537019 0.0509878 -0.07892486
0.06586151 0.005938562 -0.07119142 -0.052434254 0.03808081 0.03669075 0.07246195 -0.057014246
-0.0626812 0.03590521 -0.035157554 0.058471423 0.01908135 0.05948422 0.010585125 0.028498365
-0.07929503 -0.07786435 0.011120691 -0.045088477 0.0110231945 0.025512682 -0.036825094 0.042904943
-0.044303063 0.094374225 0.029112235 0.029868463 0.05612733 -0.05304339 -0.018274106 0.062312476
-0.05530134 0.07753951 0.0724247 -0.076388635 0.06961931 -0.047203656 -0.04392498 -0.05927807
0.05249951 -0.004570815 -0.0529538 0.06987119 0.011500812 -0.08133515 -0.08561235 0.06139555
-0.040971737 -0.024535993 -0.021833684 0.080840945 -0.05220765 -0.027511844 -0.05873734 0.09237593
-0.074968286 -0.0039025499 -0.020943817 -0.008602166 0.07983545 0.091651656 -0.06904291 -0.025762282
0.028006831 -0.007659081 0.023132294 -0.061251827 0.049931966 0.080334276 0.020407785 -0.037209515
0.07474386 -0.027563704 -0.046545133 0.06903453 -0.034628686 -0.07529464 -0.06643395 0.028394638
0.01094305 -0.07983752 0.039338592 0.006590317 0.012496431 -0.0881364 -0.071558006 0.074660726
-0.053355556 0.04415591 -0.027658273 0.0054967385 -0.052633416 -0.08598493 0.049665358 0.07185568
0.044314284 0.02337248 -0.06883702 -0.04551503 -0.016273241 -0.00686316 -0.022940729 -0.013890038
-0.08820227 -0.0519635 0.019587455 -0.004151532 0.0010494314 0.00045314388 0.0018341723 -0.0034019793
-0.03673034 -0.044667304 0.0034923803 -0.08761894 0.08777497 0.067655176 -0.009282711 0.08105355
-0.078991875 0.09442074 0.030304179 0.088208556 0.042071976 0.0066506504 0.018373648 0.012573484
-0.057735264 -0.03567728 0.09764997 0.0019382505 0.047739834 0.085307784 -0.044619307 -0.082935706
0.04244744 0.05569688 -0.01487661 0.0142600695 -0.027310764 0.046052735 -0.08362662 0.048035648
-0.06525086 0.031196903 0.014693651 -0.038913805 -0.031539768 -0.009136758 0.0072157034 0.03765442
-0.05946085 0.028688062 -0.005430806 0.022377726 -0.05595555 -0.06557036 -0.067213245 -0.0036083425
0.05808347 0.024879249 0.059653196 0.05442482 -0.00086419965 -0.067899585 -0.019797964 -0.062127188
-0.054501303 -0.07543735 0.026582386 0.05008521 -0.031123033 0.018448524 -0.007937402 0.031074943
-0.07357978 -0.0679536 -0.043408107 -0.06293272 0.0075020995 -0.066952325 0.00011975384 -0.039578415
0.072224416 0.011839249 0.00889376 0.090069376 -0.06985368 0.02604447 -0.048982993 0.0308172
0.04880591 0.08563784 0.043281242 -0.07618195 0.06317209 0.03391814 -0.060128286 0.07375333
0.03742871 -0.01171055 0.019285342 0.07962917 0.061429158 -0.068413116 0.104044594 -0.0054310784

actor.2.weight f4 [2, 512]
00000000: 2d7c 223d f738 3d3d 1bd5 22bd df2d 933d
00000010: dcac 8b3c 3146 163c a167 d03c 65f1 f03c
00000020: 16db 2f3d f2ae 973d e3af 4cbd 4aaa 88bc
00000030: 7fe7 14bd 5630 f43c dd06 ca3c 15ad 7abc
00000040: 13a3 30bd c8a7 323b d645 ce3b 3c16 6fbc
00000050: b75e 38bd 6ec9 113d 57ed 36bc b1d7 6b3d
00000060: fc6c 46bd 435e 2d3d e7a3 213c ec2c 653d
00000070: c4e2 283d 2f60 18bd 8e4a 55bc 1bc5 aabc
00000080: 05f6 94bc 3ff9 6abd cb64 00bd 5119 d0bd
00000090: 36a3 a93c 9bde 27bd ee92 eebc 16bd d7bc
000000a0: 6c0f f2bb d4eb cd3a b83f 60bd a25a 113d
000000b0: a92f 0a3d 1109 663d 03d6 47bb 3ee5 6f3d
000000c0: f5f3 43bd a41e 1cbd 3d0f bf3a fa4c 863d
000000d0: 8691 4c3d e57f 8e3d 7658 b7b8 8206 68bd
000000e0: 26ab a33d 1003 303c 2a06 72bc 64a9 35bd
000000f0: c3ca 78bd e285 0a3d a69a 6fbc ce31 37bc
00000100: a622 093d cc55 123d 830e 8c3c 8a9a aebc
00000110: b3cb 913d 7842 cd3c 261b 583c bc3d 3b3b
00000120: f80e 563d 3b7b 82bd 038a 9a3c adac 9cbc
00000130: 5e4e 97bc 32c5 82bd c222 1f3d b721 cf3c
00000140: 2d67 80bb 7606 2d3c e973 903d db20 343d
00000150: e58b d8bc 69e5 b5ba 7210 e2bc 6072 943c
00000160: fbca 4c3d 62ad f63c 1a6c 403d b4e8 87bd
00000170: 031e 6c3d 1052 4e3d bc66 54bd 8a7e 7abd
00000180: 795a 863d 05f6 babc e49a 09bd ecc7 40bd
00000190: 1177 8e3d 4814 acbc ec7c 17bd b700 34bc
000001a0: c2ec af3c ba85 653c 1de6 3f3c d9a4 85bd
000001b0: 090a 89bd 1b08 953d e9a4 3d3d 2b2d 113a
000001c0: 0470 753d efc1 3c3c 08d0 463d 9fb5 cabd
000001d0: 6084 5abb 3bd8 d7ba fb91 153d c741 1bbd
000001e0: 7edf 813c 56f4 203d ae72 4cbd 6674 283c
000001f0: 7dd5 12bd c3d5 90bd e308 fa3c 9909 ffbb
00000200: aa63 85bc ba67 663c 1953 613d 7f1c b2bd
00000210: 8cb0 a6bd 6acf 243b efaa 813d 5966 43bd
00000220: 9229 16bd 1dde 4bbd a86a b53d b532 92bd
00000230: 37e3 953d 411b f93c ace2 7cbd d817 8bbc
00000240: d417 103d ab8e f5bc a3d4 593d bf8c 2e3c
00000250: ed6d fa3c 0c61 1fbd 6fe3 1fbd dfbc c83b
00000260: 811c 8f3c 01bb 96bc 17ac 3dbd b176 543d
00000270: e2f8 6cbd 8b48 a13d ca33 933c 50fe adbc
00000280: 8ef5 9d3c 5fd3 21bd 7b0b 5d3c da3f d83c
00000290: 0c6b 6b3d 73d3 833d 419d 123d 6f0d 903d
000002a0: 22d2 45bc 48a8 d4bd 6532 79bd 29d5 8cbd
000002b0: cccd 41bd a2fb 6b3d 53dc 9c3d a6e5 e03b
000002c0: 2d34 81bd 324d 8bbd 82a7 58bd 8e68 15bd
000002d0: 0df7 a1bd 4375 9ebd d5f5 82bd 5fd0 9d3d
000002e0: 73c4 9b3d 464b e1bc e202 33bd 8559 f93c
000002f0: e171 04bc 2959 af3c 2517 613d 25a0 223d
00000300: ccac 8dbd 1dab 563d a562 123d 7c1c 663a
00000310: 1d96 943b 1730 dabc adb0 a73c 192b 4d3d
00000320: 0207 09bd 355b 563d 0b8c b33c c7b9 0b3c
00000330: 7bec 203d 04e8 c13c 3622 843c 8f53 a2bc
00000340: 8e3b b53d 4c21 0cbd 174c c43c 7e70 2bbd
00000350: 43aa febc 3181 ce3c 1875 ecbd fa41 d33c
00000360: 78e7 723c 7ad7 213d 5934 4abd e360 8d3c
00000370: b1a0 a4bb ca4e 653c ead8 42bd 1dce 1bbd
00000380: 9aa8 debc de65 8c3d 15ff 0d3d 5dc3 bd3d
00000390: 06c5 6fbc 0bc9 37bd 7dc6 2c3d c6da a93c
000003a0: fd5d 9e3d 6f1a 72bd 0643 cf3c 3757 77bd
000003b0: 22fd 223d 8ee6 c4bc 6e1c 78bd 9913 92bd
000003c0: 4b72 9f3d 4255 fe3c 9bde 9fbc fb2f debc
000003d0: 3299 aebd 0c48 e43b 977d 043d bcd2 f3bc
000003e0: 4982 42bb d8c3 663d fe58 88bd 553b 4dbd
000003f0: 721b ecbc 373a da3c 4c48 90bd fbce 2cbd
0.039669205 0.046196904 -0.039754014 0.071864836 0.0170502 0.009172008 0.02544004 0.02941198
0.042933546 0.07406415 -0.049972426 -0.016682763 -0.036353584 0.029808205 0.024661476 -0.015300055
-0.04312427 0.002726065 0.006294946 -0.014592703 -0.045012202 0.03559249 -0.011164985 0.057578746
-0.04844378 0.042326223 0.0098657375 0.055951044 0.041231886 -0.037201103 -0.0130182635 -0.02084594
-0.018183718 -0.057366606 -0.031346124 -0.10161079 0.020707708 -0.040983777 -0.029122796 -0.02633528
-0.0073870923 0.0015710541 -0.054748267 0.035486825 0.03373686 0.05616099 -0.003049255 0.05856823
-0.047840077 -0.03811516 0.0014576685 0.06557651 0.04994347 0.06957988 -8.742597e-05 -0.05664683
0.07991628 0.010742918 -0.014771977 -0.044350997 -0.060740244 0.033819087 -0.014624273 -0.011181308
0.03348031 0.035726354 0.017096763 -0.021313924 0.07118931 0.025056109 0.013190066 0.0028570732
0.05226037 -0.063711606 0.018864637 -0.019125307 -0.018469986 -0.06385268 0.038851507 0.025284631
-0.0039185495 0.010560622 0.07053358 0.043976646 -0.026433894 -0.0013877574 -0.027595732 0.018120944
0.049998265 0.030111972 0.046978094 -0.066361815 0.05764581 0.05037123 -0.051855788 -0.061155833
0.06560225 -0.02282239 -0.03359498 -0.04706566 0.06956304 -0.021005765 -0.03698437 -0.010986499
0.0214752 0.014008934 0.011712578 -0.06525583 -0.06691367 0.072769366 0.04629985 0.00055380416
0.05992128 0.011520847 0.048538238 -0.09897923 -0.0033343062 -0.001646764 0.03651617 -0.037904527
0.01585364 0.039295517 -0.049914055 0.010281658 -0.03584813 -0.07072022 0.030521816 -0.0077831266
-0.016282875 0.014062816 0.05501089 -0.086968414 -0.081391424 0.0025148042 0.06331431 -0.04770503
-0.03666074 -0.04977237 0.08858234 -0.07138578 0.073187284 0.030408503 -0.06173961 -0.016979143
0.035178974 -0.029975256 0.0531813 0.010653674 0.030569995 -0.03891091 -0.039035257 0.006126031
0.017469646 -0.018399717 -0.046306696 0.051871005 -0.05785454 0.078751646 0.01796903 -0.02123943
0.019282129 -0.03950822 0.013491507 0.026397634 0.057475135 0.06436815 0.0357945 0.07033812
-0.012074025 -0.103836596 -0.060839076 -0.068765946 -0.047315404 0.057613023 0.07659211 0.0068633137
-0.0630878 -0.06801833 -0.052894123 -0.036476664 -0.07908449 -0.0773721 -0.06394545 0.07705759
0.07605829 -0.027501713 -0.04370392 0.030438194 -0.0080837915 0.02140482 0.054953713 0.039703507
-0.06917724 0.05240928 0.035738606 0.0008778048 0.0045344965 -0.02663426 0.020469988 0.05008993
-0.03345395 0.052333076 0.021917364 0.0085281795 0.039288025 0.023670204 0.016129594 -0.019815234
0.0884925 -0.034211442 0.023962064 -0.041855328 -0.031087046 0.025208088 -0.11545771 0.025788296
0.014825694 0.039512135 -0.04936633 0.017258113 -0.0050240387 0.013995836 -0.047570147 -0.03803836
-0.027180005 0.06855367 0.034667093 0.09265778 -0.014634376 -0.044869464 0.04218148 0.020734202
0.077327706 -0.05910724 0.025300514 -0.06038591 0.039792188 -0.024035718 -0.060573988 -0.07132644
0.077854715 0.031046513 -0.019515326 -0.027122488 -0.085253134 0.0069665965 0.032346334 -0.029763572
-0.0029679707 0.056339115 -0.06657599 -0.05010541 -0.02882168 0.026639087 -0.070450395 -0.04218958

actor.2.bias f4 [2]
00000000: ef5e afbc e045 3a3d
-0.021407573 0.045476794

critic.0.weight f4 [512, 127]
00000000: 07a5 02be 1374 7dbb e333 5fbd 0cee 683b
00000010: 6530 133e 0590 0b3d 9ea8 aa38 e6b7 553d
00000020: 3143 043e b1ae 87bb 4530 bbbc 8f6d d83d
00000030: ff27 133e 5f9d e8bb 2ee6 f63c fbc1 c13d
00000040: cee3 2c3d 6849 d3bd 0dc1 163d 729e c23d
00000050: 7740 8b3c d5dd a2bc be74 41bd 2228 0a3e
00000060: e70e 343e f6ea 88bc 2e2e 083d d174 c83c
00000070: cd30 8bbe 2046 153d 7d8e 963d 6605 013a
00000080: 604f 2a3e 2f84 91bd c429 c7bc 7637 2e3e
00000090: bfc8 85be 8474 5f3d bbda a53d e5cf 7abc
000000a0: 2f62 283e ebd9 a2bc fddf 973b 4518 c13d
000000b0: 2e28 35bd 6636 4dbd 538d a23d dec3 c03d
000000c0: f5a0 463e 6a54 9dbd 1c0a 643d 182e 003e
000000d0: f8ed bc3c 2a34 86bd ec29 83bd 174e dd3c
000000e0: d4b8 3a3d c510 93bb dff7 993c 2783 75bd
000000f0: 6208 c2bd f7b5 db3d 967c bbbc 605c 853d
00000100: 1dab 9a3d b7e4 62bd 6706 49bd 744a 65be
00000110: 3452 783d 640a 4d3c 1106 cdbc 6a42 4cbd
00000120: 1eec a33d cf1f b9bd 2c1e 0abd eb1e 95be
00000130: 9135 b2bb 5522 ea3d 89ce b23d be1d 053d
00000140: 5f6e 2f3e 8487 4f3d 5dda bebc ef00 93be
00000150: 2dfa 1f3e 206b 763d b9b1 95bc 714c 9c3d
00000160: 1854 683d 1f78 66bc 3897 25bd 0ce6 49be
00000170: 1215 f23d 6363 6f3d aa67 8e3d 05b0 d73d
00000180: 68aa e53d 2982 fd3b 7d73 9fbc 52bc 44bd
00000190: 5333 473e b5d9 e0bc bd2d e9bc 8f29 8dbd
000001a0: 972a 7b3d a9e8 5c3d 7dd5 f33b 5e1e efbd
000001b0: f09b fb3d a229 93bd 8727 243d 43e4 823d
000001c0: 592b e33d 034a 1ebd 9773 bb3c 39db 23bd
000001d0: 086d ce3d 46b0 ac3d bbec 0fbc 30fc 89bd
000001e0: ed39 9f3d c823 1abd 0dce 893d 1fa5 233e
000001f0: e4f8 283e 360a 56bd 0490 1a3c dbda d23c
00000200: 5b68 de3a ab05 90bd 14ba b43d 1a90 d23d
00000210: e8fe bcbd aa83 b43c 3581 5d3d 6772 7a3d
00000220: d1ac f03c 3195 9dbb b116 3c3d 3b59 a13d
00000230: c0d5 883c 9dcf 3dbd a731 7c3b 3bde cc3d
00000240: a15e 7abc 6fd5 0e3d 9941 043e e5fb 8b3e
00000250: 5b7c bdbd 409f 78bd ab9f c73d 86c1 dc3d
00000260: a476 bebd 7576 49bd d431 6a3c 6b7d d43d
00000270: 09d6 3dbd efc1 a3bc ca41 e43d af20 5cbd
00000280: c869 7cbd 7eeb d03d ef50 303e 573a f33d
00000290: 454b abbd 069d 30bd e6fa 2e3e fae4 39bc
000002a0: 13c2 c1bd 0c91 a53d 9917 9c3d 7f5a 86bd
000002b0: 9e35 a7bd cf14 3a3c 151d d33d fcbb 8fbd
000002c0: 3f6e f1bc 989a 713d 4642 1b3e 6611 3a3d
000002d0: 8206 72bb b2e6 433b 9023 ebbc 4098 99bc
000002e0: 953b 393c d28f e43c 96ca ba3d 63cb c8bc
000002f0: 7fa5 bdbc cc10 2abd d031 a9bd 489b 9d3d
00000300: 551a 953d d94f c03d e140 23be 70cf ed3d
00000310: 098f ce3d e51a af3a 31b0 8ebe e3ae eb3d
00000320: 8b19 61bd 0876 8cbc 2648 11be 71e0 5a3d
00000330: 7a44 413c 5587 023d 9256 c4be 8bb7 763e
00000340: b031 ca3d cb63 a23c 66ec e2bc 9bf1 483e
00000350: c8a5 c13d c0ca 213d 7a13 37be be24 2a3e
00000360: 1733 f7bc 7e99 963d 902b 30be e70f 293d
00000370: be13 8dbd e917 3dbd aff7 3dbe ea25 a13d
00000380: d408 0bbd 201b 86bd cabd 7cbe 591e 163e
00000390: c6fc 4dbd 7e39 9a3d 34e3 99be b476 333e
000003a0: 424e 863c 0a94 e9bc 482b a0be da9c 173e
000003b0: 72cc d03d 3533 2e3d 58d6 ebbd 9cce 243e
000003c0: 847a 6f3d 2ecd 2bbd 4734 21be bede 203e
000003d0: 6e24 753d 931d ad3c a4a0 333c 8fed 143d
000003e0: 39c0 953d 5618 d0bc 4f29 f83c c5e8 8f3c
000003f0: 47d9 8fbc 78a7 b83d e3a4 063e 2224 363c
-0.12758265 -0.0038673922 -0.054492842 0.0035542278 0.1437393 0.034072895 8.137639e-05 0.052177332
0.12916256 -0.004140698 -0.022850165 0.10567772 0.14370726 -0.007098838 0.030139055 0.09460827
0.04220944 -0.103167355 0.0368052 0.09502877 0.016998513 -0.019881168 -0.047230475 0.13491872
0.1758381 -0.0167136 0.033247165 0.024469765 -0.2718567 0.03644383 0.07351396 0.0004921764
0.16631842 -0.0710529 -0.024311908 0.17013344 -0.2612972 0.054554477 0.0809836 -0.015308355
0.16443704 -0.019879302 0.004634856 0.09428457 -0.04422777 -0.050100707 0.07937112 0.09412359
0.19397338 -0.07682116 0.055673704 0.12517583 0.023062691 -0.06552918 -0.0640448 0.027014775
0.045586422 -0.004488083 0.018794952 -0.05993953 -0.09474255 0.107280664 -0.022886556 0.0651176
0.075521685 -0.0553939 -0.04907837 -0.22391683 0.06062527 0.012514684 -0.025027307 -0.049868025
0.0800402 -0.0903927 -0.03372018 -0.2912515 -0.0054385145 0.114323296 0.087308 0.032499067
0.17131947 0.050666347 -0.023297483 -0.2871165 0.15622778 0.060160756 -0.018273221 0.076317675
0.056720823 -0.014066725 -0.040427417 -0.19716662 0.11820425 0.058444392 0.06953366 0.1053162
0.11214143 0.0077364636 -0.019464249 -0.04803116 0.19453172 -0.02744756 -0.028464193 -0.06892692
0.061319914 0.05393282 0.0074412213 -0.11675714 0.12285602 -0.07185675 0.04007676 0.06391194
0.11092252 -0.0386448 0.022882266 -0.04000399 0.1007939 0.08432059 -0.008784468 -0.06737554
0.0777472 -0.03763178 0.06728754 0.15980957 0.16501194 -0.05225583 0.00943375 0.025739124
0.0016968356 -0.07032331 0.08824554 0.102813914 -0.09228307 0.022035439 0.0540783 0.06114426
0.02937928 -0.004809045 0.045920078 0.078783475 0.016703486 -0.046340574 0.0038481744 0.100033246
-0.01528135 0.034871515 0.12915649 0.27340618 -0.092522345 -0.060698748 0.09747251 0.10779099
-0.09299973 -0.049185235 0.0142941065 0.10375484 -0.046346698 -0.019989936 0.11145361 -0.053742107
-0.06162432 0.102011666 0.17218374 0.11876362 -0.08363966 -0.0431185 0.17087898 -0.011346096
-0.09460845 0.08084306 0.076216884 -0.065602295 -0.081645235 0.0113575 0.10308281 -0.07018277
-0.029471515 0.058985323 0.15162 0.04542675 -0.0036930148 0.0029892144 -0.028703481 -0.018749356
0.011305709 0.02790061 0.091206715 -0.024511045 -0.023150204 -0.041519925 -0.08261454 0.07695633
0.07280413 0.0939023 -0.15942718 0.11611831 0.100858755 0.0013359456 -0.27868798 0.11507966
-0.054956 -0.017146125 -0.14187679 0.0534367 0.011796111 0.031867344 -0.38347298 0.24093454
0.098727584 0.019822976 -0.027700614 0.19623415 0.094554484 0.039499998 -0.17878523 0.16615579
-0.030175729 0.07353495 -0.17204118 0.04127493 -0.06888531 -0.04616538 -0.18551515 0.0786856
-0.033943966 -0.065481424 -0.24681774 0.14660014 -0.05028989 0.07530497 -0.30056155 0.1752575
0.016394738 -0.028512973 -0.3128302 0.14805928 0.10195245 0.042529304 -0.11515492 0.1609444
0.05846645 -0.04194372 -0.15742598 0.1570997 0.059849195 0.021132266 0.010963593 0.036359366
0.07312054 -0.02540223 0.030293135 0.017567048 -0.01755966 0.09016317 0.13148837 0.011117013

critic.0.bias f4 [512]
00000000: a810 863d ceba e63d e573 653d 47ab 093b
00000010: ac39 a3bc d832 b9bc 1708 583d 0cd2 f23c
00000020: 2818 6e3b b469 06bd 0350 aabd 7262 3cbd
00000030: ae25 ae3d 3986 e43c 2083 ba3c 7bb4 3c3d
00000040: 12e8 c03d fbd8 493d e76a ee3b 0e79 87bd
00000050: fb58 77bc 2eec 473d eaa3 70bd 3390 b6bb
00000060: 2b00 273d 7334 25bd 69b7 07bd 650b 75bd
00000070: cc7c 7c3d c02c c83c de77 c43d 5e0e f13d
00000080: 1aaf 1abd eb6f aabd 1819 733d 38d0 45bd
00000090: 8315 26bd f8ff 243d fd7b ae3d d0e2 9c3c
000000a0: 8484 9abb 16c8 89bb 2d3e edbc 28e6 7cbc
000000b0: c6b4 7f3d e707 d6bb 14e3 9b3d ad9c 573d
000000c0: 7f1e 433d 4f2f 383d 0a26 5abd 73f0 463d
000000d0: 9d24 be3c d2da 09bb 348c 96bd 2a01 8c3d
000000e0: 7597 44bc 2f7f 72bd d171 d83c 1877 893d
000000f0: 3242 3abc 05b5 e23d cbf0 fd3c c69c 20bc
00000100: f40e 7fbd 6799 ebbc 06bd 3cbd 7e19 1ebc
00000110: c236 543c 4616 62bd 09e4 52bd 8753 83bd
00000120: 8302 cc3d 9996 8b3d 36f6 e23c e9dc fb3c
00000130: 1096 0a3c 944a b03d ae71 17bd 9792 d43c
00000140: e429 10bb ae2f 603d 7c61 203d 8704 96bd
00000150: 4870 60bc 82ff 593d 6875 2e3d 5d37 79bd
00000160: 4c9a 5c3d 7ca1 8e3d f8b3 9dbc f77e 7a3d
00000170: 11d9 313c b4d8 0fbc ea1f b9bd 75f2 e53d
00000180: dfbf 873d 181a 9bbd d9c2 5cbd 5b4f 72bd
00000190: 7dcc b43d 1cf7 aa3b 62ea a13d c604 cb3d
000001a0: adb9 343d 5145 9f3d 66cb 8a3d 1f69 a9bc
000001b0: 883c 803d 14a1 de3d 86f3 733d cca2 4d3d
000001c0: 764f 11bd 9fa7 29bd a728 803c 1480 f5bc
000001d0: 8d9d 92bd 1e67 8c3d 81b4 a13c 9d1b 483d
000001e0: 38ef 43bd 1917 04bd 18f0 8abc 11f0 813b
000001f0: c9bf c53c b834 c83c 1439 dbbd c62a 5abd
00000200: 3381 8d3d bade 18bb db51 a4bd 7d52 8f3c
00000210: 0206 813d 5420 6bbd 0f2a 6cbd 4506 b7bd
00000220: b0c6 2b3d fd6b 303c 7fe0 9dbb 47c3 2a3d
00000230: bc20 7dbd 9309 56bd 56fb 1abd d2ec 8b3c
00000240: 6204 c23c c13e adbc 05ef 17bd 1b30 cc3d
00000250: 761b 833b f08c 2abc 5462 43bd 6894 ba3a
00000260: 662f eebc c6c6 8fbd d98c 2fbd a9a4 8d3c
00000270: bc47 bd3c 6f29 97bd 8c3e 793c 8afd ab3d
00000280: 515c dd3b 9fe6 653b 90aa 03bd 5e49 75bc
00000290: f9d7 80bd 2ec6 f3bc 07d8 56bd fe68 b8bc
000002a0: 402d 193d b61a 563d bebb bf3c 71b3 e83d
000002b0: f916 95bc 1209 84bd b03d b5bd 9976 99bd
000002c0: d48c 523d dcd9 863d 69bb 913c 9343 c9bc
000002d0: 01ba 25bc 37a1 04bd 2cec f6bc 63d4 ccbc
000002e0: 7f69 7e3d 20f0 533d 51dc 8dbd 8b02 203c
000002f0: 493d 3bbd a719 79bc aafe 84bd 8176 ef3c
00000300: b0bd 10bd 5883 90bc 3385 043d fadd fdbc
00000310: 0b32 403c b551 1abd 3724 18bd 3a84 e5bc
00000320: e3d5 2fbd 9139 10bd 8c3a 23bc f640 84bd
00000330: ce91 0b3c 30c9 8d3d b84d 4ebd 2c94 da3b
00000340: 550e c1ba 68f1 26bd d642 9f3d b53a 82bd
00000350: b078 84bd 5d35 b9bc d8a1 0ebd 14df a53d
00000360: a4c2 c13d ee25 a23d 4f36 873d d8c4 7d3c
00000370: c416 37bd 45a6 de3d 6663 c1bd 324c 513a
00000380: 8f4f b93b 3394 113d 6f44 7bbd 353b ab3d
00000390: 976f 5c3d 6369 7d3d 5e50 2bba 1cf6 17bc
000003a0: 163b 26bc 8ad5 593d c905 df3b e285 ab3d
000003b0: 1808 f6bb 35b6 3abd 5b72 66bd bd2a edbc
000003c0: 36c9 5fbd ce29 92bb 29b5 c8bc 599f 80bc
000003d0: ed31 56bd 4d4e e43c 3e2a 31bd 64d3 b63b
000003e0: 7510 813d 2380 31bd ec18 a83d dbf4 8fbd
000003f0: 1870 c73d 2747 853c 09f9 973c 0725 93bd
0.06546146 0.11266099 0.05601873 0.002100663 -0.019924961 -0.022607252 0.05274209 0.029641174
0.0036330316 -0.03281565 -0.08316042 -0.045992322 0.085032806 0.027896034 0.022767603 0.046070557
0.09419264 0.049279194 0.0072759273 -0.06614886 -0.015096898 0.048809223 -0.05875007 -0.005571389
0.040771645 -0.040333223 -0.033133898 -0.05982532 0.061642453 0.024435401 0.09593175 0.117703184
-0.037764646 -0.08322128 0.059350103 -0.048294276 -0.04054786 0.040283173 0.08519743 0.019151121
-0.004715504 -0.0042047603 -0.028960312 -0.015435733 0.06242826 -0.0065317038 0.07611671 0.052639652
0.047636505 0.044966992 -0.053258933 0.048569154 0.023210818 -0.0021034968 -0.073509604 0.068361595
-0.011999001 -0.059203323 0.02642146 0.067121685 -0.011368321 0.11069683 0.030998608 -0.009803003
-0.06227012 -0.028759671 -0.046078704 -0.0096496325 0.012952508 -0.055197023 -0.051487003 -0.06412416
0.099614166 0.068158336 0.027705293 0.030744987 0.008458629 0.08607975 -0.036973648 0.025948806
-0.0021997625 0.05473297 0.03915547 -0.07325082 -0.013698645 0.053222187 0.042592436 -0.060843814
0.053858086 0.069643945 -0.019250855 0.06115624 0.010854975 -0.008779693 -0.0903929 0.11227886
0.066283934 -0.07573336 -0.05389676 -0.05915771 0.088280655 0.005217446 0.07906033 0.0991302
0.044122387 0.07776893 0.067770764 -0.020680008 0.062615454 0.10870567 0.059558414 0.050204083
-0.03547617 -0.04141962 0.015644385 -0.029968299 -0.07158957 0.068556055 0.019739391 0.04885446
-0.04783556 -0.03224859 -0.016960189 0.0039653857 0.024139302 0.0244392 -0.10704246 -0.05326345
0.069094084 -0.0023326115 -0.08023425 0.017495388 0.06299974 -0.057403877 -0.057657298 -0.08936743
0.04193753 0.010767934 -0.004818022 0.041690137 -0.061798796 -0.052255224 -0.03783735 0.017080698
0.02368373 -0.021148087 -0.03709318 0.09970113 0.0040010763 -0.010409579 -0.047701195 0.0014234902
-0.029075336 -0.07020335 -0.042858932 0.01729043 0.023105495 -0.0738095 0.015212666 0.08397968
0.0067553897 0.0035080088 -0.032145083 -0.014971105 -0.062911935 -0.029757585 -0.052452113 -0.022511002
0.03739667 0.052271567 0.023404952 0.11362351 -0.01819943 -0.064470425 -0.088496566 -0.07493324
0.051403835 0.06584522 0.01778956 -0.024568355 -0.010115148 -0.03238031 -0.030141912 -0.025003618
0.062112328 0.051742673 -0.06926788 0.009766231 -0.045712743 -0.01520387 -0.06493886 0.029231312
-0.03533715 -0.017640755 0.03235359 -0.030989636 0.011730681 -0.03767558 -0.037143912 -0.028017152
-0.042928588 -0.03521115 -0.009962689 -0.06457703 0.008518649 0.06923139 -0.050367087 0.0066704955
-0.0014729003 -0.040757567 0.0777642 -0.06358854 -0.06468332 -0.022608453 -0.034822315 0.080991894
0.09460953 0.07917391 0.066021554 0.015488826 -0.044699445 0.10871557 -0.09442787 0.0007984071
0.005655236 0.035541724 -0.06134456 0.08360902 0.053817358 0.061868083 -0.0006535108 -0.009274986
-0.010145923 0.053182162 0.0068061096 0.083751455 -0.007508289 -0.045583922 -0.0562614 -0.028951043
-0.05463525 -0.00446055 -0.024500446 -0.015700983 -0.052293707 0.027869368 -0.043253176 0.005579399
0.06301967 -0.04333509 0.082078785 -0.07029124 0.09738177 0.01626928 0.018551366 -0.07184797

critic.2.weight f4 [1, 512]
00000000: bdf1 083e f6bf 533e 0593 e43d 5447 dfbc
00000010: dea0 b0bd 0fb4 58bc affb a63c 8f08 7b3d
00000020: 83c2 d1bd 80a8 b0bc 2f08 6bbd 19e3 d73c
00000030: 0af6 7c3d 7b34 7dbd 28cd bebd b873 7ebe
00000040: 1f2d a53d afed d73d ca76 a8bd 2fe4 2cbe
00000050: cee4 94bd 80dd 9cbd 471f 183e 7528 103d
00000060: 174b b3bd 9a91 f23c 28b6 403d a95f ae3c
00000070: 7000 80bd 0372 f13d b0bf 3f3e 54b7 b53d
00000080: 977d 7dbd 2c6b 58be 0efb 91bd 2cb2 22be
00000090: 710b ea3d dff9 b7bd 8839 093e 0c4a 84bd
000000a0: bebb ac3c 4de4 87be 4849 453d bee7 913d
000000b0: 11a5 943d f954 fdbc 463e 00bd 02a7 60bd
000000c0: 3017 8d3d 20a9 803d 5504 9dbc 5d71 033e
000000d0: 19df 89bc 4319 2d3d d33f 2ebd 0d93 393d
000000e0: 747b 403e 12a1 9abd fa3d ad3d 8be2 0abe
000000f0: e1cf 44bd ff9f ae3d 28dc 5cbd b0fb acbd
00000100: 82dd cabd 0f40 dabc 1776 b6bd 18b7 0dbd
00000110: 65dd 9abe 26fa c1bd 2c08 17bd 5c03 28bd
00000120: b614 883d e954 953d 02e7 c4bd 3163 5b3d
00000130: 4b5b 683d 06ca 173e 533c b7bc e863 e33d
00000140: b9c6 9c3d 1bbe a0bd b188 f5bc 868e ebbd
00000150: a058 b1bc c974 11be 6c3d 323e 850a 92bd
00000160: cac5 9f3d 9956 41bd c62c eebd 86c9 e8bd
00000170: efda b5bd fe91 2cbe 9e69 c03c 861a 8b3d
00000180: 8081 aebd a51a 9bbd ff82 a9bd f3d0 36bd
00000190: 7cb2 3cbe c861 88bd 3627 0e3d e24a 5fbe
000001a0: 3aa3 4dbd e008 90bd adea b8bd 15cb 253e
000001b0: 54de ddbc 88b0 e53d e856 c6bd a061 91bd
000001c0: 8283 a3bd a089 033e 9474 1cbd a20a 133e
000001d0: 8c6b 273e 6901 203e b4e3 4bbd 8854 2abe
000001e0: 5626 213e bb1a fcbc 3154 e0bd e816 adbe
000001f0: 8e31 4fbd e66e 74bd 6c40 4cbd 09b0 aebd
00000200: c6bb 73bd 7e49 c4bd e35f 9a3d 3d67 d03d
00000210: ea79 c4bd 15ce 343e f05a 1c3e b2d8 aabd
00000220: bacc a93d 0e10 7a3d 7f0f b6bd 3b41 013d
00000230: 4ee8 a53c 10b7 4a3e 1f51 8ebd 7ee8 9cbd
00000240: e578 893c b327 5d3d 030f 0fbd 75ca 223e
00000250: 512d 5f3d 84fb d63d c651 8bbd cd94 263e
00000260: 40c6 9ebe bb40 02be 7862 f3bc 8d54 23bd
00000270: c615 a33d e13e a9bd 3a0d aabd 69fc 8b3d
00000280: 3cb3 4d3d b548 953d 937a 5ebd ce68 973d
00000290: 4464 b2bd 0108 9c3d 328e 843b d9a1 6b3d
000002a0: aee6 743d 634b 85bd f7db 963d ec55 7f3d
000002b0: 6db1 283e f396 92bd e56b 51bd 6a1c a5bd
000002c0: 9ceb 353e b5d6 333d 2846 09be ba92 dfbd
000002d0: 7635 0cbe cd41 c13d 6696 f23c 8d3b 963d
000002e0: b2e3 16bd e526 49bd e978 80bd b000 8fbd
000002f0: c884 9fbd 3870 47be 0f07 94bd 56fc 7cbe
00000300: 8eaf 743d 3003 95bd 5ae5 77be 5afd 963d
00000310: 3823 393e 978e 3d3e b1cd 0e3e e883 a4be
00000320: 7524 f13d 66ed 2dbd 02b1 e2bd c1a8 2ebd
00000330: 1831 edbd b616 aa3d 005a 93bd 14ea 91bd
00000340: e149 433d 5b7d 78bd 45f0 1c3e 0b0d 903d
00000350: e52b 11be 0a60 eebd 5b71 7dbe 4806 05bd
00000360: 8d67 2a3e 8c25 2d3d db0c 46bd 7089 ae3c
00000370: 5ff2 d23d 42f9 8a3d 5db9 27bd 774a 42bd
00000380: c624 323d f1cd f53c cee0 da3d be77 0d3e
00000390: 1766 593d 06b1 043d 59c8 a8be c853 98bd
000003a0: 82f9 42bd 3f28 9dbc d4e4 4fbd ac14 bb3d
000003b0: 8fdb 88bd 4e8c 66be ab24 9c3d 08c6 303d
000003c0: a71f 27bd 9399 5bbd 2829 8fbd 13b0 bb3d
000003d0: 51b1 593d b412 3abd 6614 1f3d b2fa 97bd
000003e0: 17eb 5cbd f293 a1bd 86aa b13d 3e0f 043e
000003f0: aa99 db3c fd3f 393d 775a 31be 2dfe 84bd
0.13373466 0.20678696 0.11160854 -0.027255692 -0.08624433 -0.013226523 0.020383684 0.06128746
-0.10242178 -0.021564722 -0.05738085 0.026353406 0.06175808 -0.061817627 -0.09316474 -0.2484883
0.08065247 0.105433814 -0.08225782 -0.1688392 -0.072702035 -0.07659435 0.14855681 0.035194833
-0.087545566 0.029610444 0.047048718 0.021285849 -0.062500834 0.11789324 0.18725467 0.08872858
-0.06188735 -0.21134633 -0.07127963 -0.1588828 0.114279635 -0.08983206 0.13400853 -0.06459436
0.021085616 -0.26541367 0.04816559 0.071242794 0.072580464 -0.030924307 -0.03130939 -0.05484677
0.06889188 0.06282258 -0.019167105 0.12836213 -0.016830014 0.04226042 -0.042541336 0.045306254
0.18797094 -0.07550253 0.08459087 -0.13562982 -0.04804981 0.085266106 -0.053920895 -0.08446443
-0.099055305 -0.026641874 -0.089092426 -0.03459844 -0.30247036 -0.0947154 -0.036873028 -0.04101883
0.06644575 0.07291586 -0.09614374 0.053561393 0.05672769 0.1482316 -0.022367632 0.1110304
0.07655091 -0.0784876 -0.029972406 -0.115017936 -0.021648705 -0.14204706 0.17406243 -0.07130913
0.07801397 -0.047201727 -0.116296336 -0.113665625 -0.08879649 -0.16852567 0.023487862 0.06792168
-0.08520794 -0.075734414 -0.08276939 -0.044632863 -0.18427461 -0.06659275 0.034705363 -0.2180591
-0.050204493 -0.07032943 -0.09029136 0.16190751 -0.027083553 0.11215311 -0.09684545 -0.070986986
-0.079840675 0.12845469 -0.038197115 0.14359525 0.1634962 0.15625538 -0.0497777 -0.16633809
0.1573728 -0.030774465 -0.10953558 -0.3380654 -0.05058437 -0.059676073 -0.049866125 -0.0852967
-0.059505247 -0.0958433 0.0753782 0.10175941 -0.09593566 0.17656739 0.15269065 -0.083421126
0.082910016 0.061050467 -0.088896744 0.03155635 0.020252373 0.19796395 -0.06949066 -0.07661532
0.01678128 0.05399294 -0.034926426 0.15897544 0.054486576 0.104971915 -0.068027064 0.162677
-0.31010628 -0.12720005 -0.02971004 -0.039875556 0.07963137 -0.08263946 -0.08303304 0.06835253
0.05021976 0.072892584 -0.054316115 0.07393037 -0.087105304 0.07618714 0.0040452713 0.057527397
0.059790306 -0.065085195 0.07366174 0.0623378 0.16473933 -0.071576975 -0.051128287 -0.0806206
0.17765659 0.043905932 -0.13405669 -0.10916658 -0.13692269 0.09436379 0.029612731 0.07335577
-0.03683824 -0.04910936 -0.06273062 -0.06982553 -0.07788998 -0.19476402 -0.07227909 -0.24705634
0.059737734 -0.072759986 -0.24208584 0.07372542 0.18079841 0.18511425 0.13945653 -0.32131886
0.11774532 -0.04246273 -0.11068918 -0.042641405 -0.115816295 0.08305113 -0.071949005 -0.07124725
0.04767788 -0.060666423 0.1532603 0.07033738 -0.141769 -0.11639412 -0.24750273 -0.032476693
0.16641064 0.042272136 -0.048352104 0.02130577 0.10300135 0.067858234 -0.04094826 -0.047434296
0.0434921 0.030005427 0.10687409 0.1381521 0.053075876 0.032395385 -0.32965353 -0.07437855
-0.04760123 -0.01918423 -0.050755337 0.09134802 -0.066825025 -0.2251446 0.07624181 0.043157607
-0.04080167 -0.053613257 -0.06990272 0.09164443 0.053147618 -0.045427993 0.038837813 -0.07420863
-0.053935137 -0.078895465 0.08675103 0.1289644 0.026806671 0.04522704 -0.17319666 -0.06493793
